checkpoints/full/torsion_energy/20250611190453354802/ARG_dim_8/fold5/best_epoch=236-val_loss_epoch=26.410.ckpt (torch, 43973 bytes, 20 tensors)

fc1.weight f4 [64, 8]
000000 1c 50 ec be e7 c5 1d 3f 4e eb 98 3c 44 21 cd be
       -0.4615487 0.616301 0.01866689 -0.40064442
000010 df 38 5b 3d 9c 11 ad be 74 7c e1 be 62 ee 97 3e
       0.053521033 -0.33802497 -0.44040263 0.2967406
000020 4a 57 05 bf 76 ea e9 3e 9b e8 20 bf 19 50 11 bf
       -0.5208632 0.45686692 -0.6285493 -0.56762844
000030 a1 cf 8f 3d c2 ac a4 3d 31 b4 42 be 95 db 10 be
       0.07022024 0.080407634 -0.1901405 -0.14146264
000040 3f 63 b8 be 73 cb 1a 3d 22 ce 18 3d 1d ba d9 be
       -0.3601322 0.03779168 0.03730596 -0.42524806
000050 e2 3d 42 3f f9 cf cd 3e d4 d0 41 bf ae de 31 3e
       0.75875676 0.40197733 -0.7570927 0.17370102
000060 b7 51 46 3f 24 10 ff be ec 2f 3e be 24 f4 c6 bd
       0.77468437 -0.49817002 -0.18572968 -0.09714535
000070 cd 4d 17 3f aa 79 be 3e 83 2f 15 be b5 d3 f9 bd
       0.5910309 0.37202197 -0.14568906 -0.12198583
000080 4a b4 20 3e 5b 57 6d 3f 47 95 1a 3f a0 6a 52 3e
       0.15693775 0.9271142 0.6038403 0.20548487
000090 0f cf 1c be 3e d9 3a b8 d6 dd 38 3f c9 c1 d0 3e
       -0.15313362 -4.454818e-05 0.72213495 0.40772846
0000a0 bc fa d2 bd 7c ab 6b 3f 37 c6 12 bc ba 1e 77 bc
       -0.1030173 0.9205854 -0.008958391 -0.015083009
0000b0 70 ec 37 3d 36 7a 79 3f c6 15 ce bc df e0 ef b9
       0.04490322 0.97452104 -0.025156867 -0.00045753174
0000c0 27 ad f9 3e 74 d2 b3 3d f4 f9 1b bf 62 ee 53 bd
       0.48764917 0.08780375 -0.60928273 -0.05174101
0000d0 40 6e d1 3e 61 9a a3 be 2b 46 53 be b5 74 8d bd
       0.40904427 -0.3195372 -0.20632236 -0.06907026
0000e0 b2 82 d8 3c 03 f9 10 be e2 74 12 3e 49 a3 48 bf
       0.026429508 -0.1415749 0.143024 -0.78374153
0000f0 a7 0d 7c bb 23 99 3a bd 3d 81 89 be 16 94 4d bf
       -0.0038460286 -0.0455562 -0.26856413 -0.80304086
000100 3a c4 cf 3e e4 19 00 3e 84 8f a0 3d 8c a4 48 3d
       0.40579396 0.12509876 0.078398734 0.04898505
000110 8b 6b b6 be f6 13 fe be 2b 5e 2d 3f 40 1e b6 3d
       -0.35628924 -0.49624604 0.67721814 0.088924885
000120 33 b0 b7 3d 1a 3d 5b bc 6b 65 18 be 65 68 9a bb
       0.08969154 -0.013381267 -0.14882438 -0.004712152
000130 cd a0 2a bf 2e 6c 26 3f a6 2b 51 bd 84 f9 27 bd
       -0.6665161 0.6500882 -0.051067017 -0.04100944
000140 0c 1c 13 bc e2 61 7c bb e2 30 b2 3b 9f 52 30 bf
       -0.008978855 -0.003851049 0.005437956 -0.6887607
000150 09 d3 9d bb c8 e7 6f bc dd ed cd 3c d1 85 e9 be
       -0.004816417 -0.014642663 0.025137836 -0.45609906
000160 5d e0 e6 3c 8b 5d 00 bf 8b 93 4e 3f b6 de 1b be
       0.028183157 -0.50142735 0.8069388 -0.15221676
000170 ed 12 29 be 08 ea c3 3e 37 b6 be 3d 57 48 df be
       -0.16511126 0.3826449 0.093120985 -0.43609878
000180 27 a4 1f bf 4a e5 16 bf a2 57 eb 3b 84 85 78 bc
       -0.6235985 -0.5894362 0.0071820775 -0.015168551
000190 ec 02 ef bb 51 24 8d 3d 5d dc ad 3c 57 0f ba 3c
       -0.0072940495 0.068916924 0.021223241 0.022712393
0001a0 f7 f9 f1 be 15 1c 1a bf cc 9f 67 3e b5 37 a0 bd
       -0.4726102 -0.601991 0.22619551 -0.07823125
0001b0 91 16 ab be 84 1d c7 bd 20 e3 18 be 5d 61 b7 bd
       -0.33415654 -0.097224265 -0.14930391 -0.089541174
0001c0 87 5a 4c 3e b5 3f 69 3f aa a4 94 be c3 04 cf be
       0.19956408 0.91112834 -0.2903188 -0.4043332
0001d0 d7 af 8a 3e b1 39 57 be 4e 21 0f 3f 04 e9 cc be
       0.2708728 -0.21018101 0.55910194 -0.40021527
0001e0 6b ad b1 be 08 0d ae 3e 8a 62 96 be 8a 1c 45 bc
       -0.3470262 0.33994317 -0.29372054 -0.01203073
0001f0 59 b6 f8 be 83 86 22 bf 6a d0 16 be d1 23 7c bc
       -0.4857662 -0.634865 -0.14727941 -0.015389399
000200 b3 1e d4 bd 70 06 d2 bc 7a 92 44 bf a4 1b 01 be
       -0.10357418 -0.025637835 -0.76786005 -0.126082
000210 ac 87 47 bd be a9 2e be 82 02 0f bf c5 21 21 3c
       -0.04871337 -0.17056939 -0.558632 0.009834711
000220 f3 45 c6 bd c2 87 98 bd 8a a2 87 be 94 f7 9b 3e
       -0.096813105 -0.07447769 -0.26491195 0.30462325
000230 86 8d 0f bf 64 57 00 bf 76 fb a3 be 3c f3 a0 be
       -0.5607532 -0.5013335 -0.32027787 -0.31435573
000240 bf 75 7e be 5e 8c 9e 3e 99 c0 ef 3e b8 55 58 be
       -0.24849604 0.30966467 0.46826628 -0.21126449
000250 61 a5 f0 3e c0 43 04 bc c4 76 2f bc 54 bf 3e be
       0.47001174 -0.0080727935 -0.010709468 -0.18627673
000260 0a fc 66 3c 8a b9 a4 3d 83 b5 90 3e 88 82 90 be
       0.014098177 0.08043201 0.28263482 -0.28224587
000270 33 3d 1e 3d d2 a2 01 be 08 dd a4 bc 93 df a9 3f
       0.038632583 -0.12659767 -0.020124927 1.3271354
000280 e2 b7 dc be 73 21 9e 3e f1 b5 d3 bd 54 ce b7 3e
       -0.4310904 0.30884895 -0.10337437 0.35899603
000290 57 f7 70 3e ce 7e c4 be 9b 3b a5 3e 9b 6f 80 be
       0.23531853 -0.38377994 0.32272038 -0.25085148
0002a0 76 ee 75 be 40 d9 5a bf 87 ff 07 be c7 c7 8c 3e
       -0.24016747 -0.8548775 -0.1328107 0.27496168
0002b0 64 66 fa 3d fa 9f e9 bd 77 7f 5f 3f 26 e6 3b be
       0.12226561 -0.11407466 0.8730387 -0.18349513
0002c0 a6 98 c6 be c8 e1 3c be 3c 83 6e bf a3 92 8b bd
       -0.38788337 -0.18445504 -0.93169 -0.06815078
0002d0 0c 59 82 3e 22 4b 3e be 6a a0 1d 3e ef 65 d0 3d
       0.25458562 -0.18583348 0.15393224 0.10175692
0002e0 c1 c2 0f 3f 52 ba 92 be e1 a8 07 3d da ad 20 3c
       0.56156546 -0.28657776 0.03312004 0.009807074
0002f0 c4 43 0f bf dd 4e 37 3f 19 0a a3 3c 67 c0 23 bc
       -0.5596278 0.7160471 0.019902276 -0.009994603
000300 ba 22 a1 3d 20 2e 00 be 3e 78 17 3f 02 ff a0 be
       0.07867952 -0.12517595 0.5916785 -0.31444556
000310 2d 82 22 be 11 76 df 3d ca de 5d 3f 2d 1b ff 3d
       -0.1586997 0.10911191 0.86668074 0.12456355
000320 88 89 95 3d 5b e9 b1 be d0 b1 23 3f 98 b5 44 be
       0.07301623 -0.3474835 0.63943195 -0.19209898
000330 72 4a 7f 3e ef 37 55 be 87 93 ee bc bc eb 4f be
       0.24930742 -0.20822118 -0.02912308 -0.2030477
000340 ec 03 64 3d 82 80 54 3e 4a f7 67 be 28 7a 97 be
       0.055667803 0.20752147 -0.22652927 -0.29585385
000350 6c e6 00 bf a8 53 88 be 35 8d d2 3e 9c 90 b5 be
       -0.50351596 -0.26626325 0.41123357 -0.3546189
000360 31 8d a9 3c 57 63 b2 3f fa a1 c7 be fd e8 6b 3c
       0.020697208 1.3936566 -0.38990766 0.01439881
000370 78 ce 98 3d 29 8c 71 3f a4 28 f9 3c 8e e5 85 3b
       0.07461256 0.9435449 0.030414887 0.004086203
000380 9b 75 ef be e6 ba 5e bd 76 e9 1b bf d7 af e5 be
       -0.46769413 -0.05437746 -0.6090311 -0.44860718
000390 0e 9d c7 be db 0f e1 3e 02 54 95 be 4d 3c fa 3c
       -0.3898701 0.4395741 -0.29165655 0.030546332
0003a0 24 57 0b 3f 23 6e 18 bf c6 53 13 3f 88 67 55 bc
       0.5442984 -0.59543055 0.57549703 -0.013025172
0003b0 98 2a ae 3e f3 14 e5 3d 83 0e b3 3d f0 b2 0a 3d
       0.3401687 0.11185636 0.08743002 0.033862054
0003c0 8c 48 d1 bb 8e 5f 00 3e 8d 4f 01 be ef c6 9a 3c
       -0.006386822 0.12536451 -0.12628002 0.018893687
0003d0 05 08 18 3d 8f 3e c2 3d 07 c9 98 3f 0c 41 ba be
       0.037117023 0.09484588 1.1936349 -0.36377752
0003e0 f9 4c 41 3d 75 22 07 bf fc 21 1c bf 0e 21 e6 3e
       0.047192547 -0.5278695 -0.60989356 0.44947094
0003f0 df ca b4 bd 91 4d 51 3d 96 fd 01 bf 92 3f 3a be
       -0.08827757 0.051099364 -0.50777566 -0.18188313

fc1.bias f4 [64]
000000 7d 4f 6d 3c 58 af 1f be bb 8d d5 3d ca 73 10 3e
       0.0144842835 -0.15594232 0.104274236 0.1410667
000010 ee 38 3d be be 16 a5 be a4 df e1 3d 89 11 b1 bd
       -0.18478748 -0.32243913 0.11028984 -0.08645923
000020 26 45 88 3e 4c 9c 1e be d7 27 f1 be 9a 32 8f 3e
       0.26615256 -0.1548931 -0.47100708 0.27968293
000030 be d4 22 39 f1 7a 0b 3e ac 41 00 be 10 09 6c 3d
       0.00015528777 0.13621117 -0.12525052 0.05762583
000040 0a 97 a3 3e ca 2e 44 3e 38 29 0d 3f 7e 31 be be
       0.3195117 0.19158474 0.5514102 -0.37147135
000050 79 ff 35 3e f9 c4 a1 be 36 04 d0 3e 96 1d 77 3e
       0.17773236 -0.3159559 0.40628213 0.2413238
000060 0f 76 d6 bc d9 8b 8e 3e 3a 16 92 3d 8b 9f 4b 3f
       -0.026179342 0.2784107 0.07133146 0.7954032
000070 56 32 39 bc 29 41 e3 bc 4c 6e 96 3e 70 e2 28 3c
       -0.011303505 -0.027741032 0.29381025 0.010307893
000080 ae b9 e2 3e 46 a8 20 3e c2 86 0b 3f 53 a4 c6 3d
       0.44282287 0.15689191 0.545025 0.09699311
000090 7b a1 a1 3d a5 74 04 3f 19 da db bc 96 bd a2 be
       0.07892128 0.51740485 -0.026837396 -0.31785268
0000a0 94 92 4b 3f d5 10 14 3d d3 9a ae 3e a5 f0 a3 3e
       0.79520535 0.036148865 0.34102497 0.32019535
0000b0 92 60 d7 bc 5b 1d d2 3e 5c c6 da be d3 06 35 3e
       -0.026291166 0.4103802 -0.4272946 0.17678384
0000c0 48 f7 49 be 7b c0 99 3e 81 9a 06 bd 77 71 87 bd
       -0.19723237 0.30029663 -0.03286219 -0.066134386
0000d0 d0 2c a9 3e 32 25 9d 3e a0 f7 f5 3e 84 15 67 3e
       0.33042002 0.3069244 0.48040485 0.22566801
0000e0 15 00 07 bf 05 aa cf 3c 67 29 9a 3e 67 07 25 bf
       -0.527345 0.025349626 0.30109712 -0.6446442
0000f0 1c d1 ca 3e 4e 38 d1 3e dd c4 81 be 5c 4f 95 be
       0.39612663 0.4086327 -0.25345507 -0.2916211

fc2.weight f4 [32, 64]
000000 7e 42 ad bc d0 44 3a 3d d1 6f dd 3d 30 62 90 be
       -0.02114987 0.04547578 0.10812343 -0.2819991
000010 b2 93 04 be 1e bc 11 bc 09 b2 41 be bf 1b 5a 3d
       -0.12946966 -0.008894948 -0.18915571 0.053249117
000020 03 da 0a 3e cc cc 1f 3e 0a f5 01 bd 54 9c 96 3d
       0.13559727 0.15605468 -0.031727828 0.07354036
000030 77 6b a4 3c 28 d5 2e 3e f7 13 a2 3e b9 ac da bd
       0.020070774 0.170735 0.31655857 -0.106774755
000040 0f 18 7d 3e e0 c7 5c 3e c0 59 9e 3c 8b 97 31 3e
       0.24716209 0.21560621 0.019329906 0.17342965
000050 be 31 f4 3c 74 93 36 3e f0 c3 15 3e 79 29 ab be
       0.029808875 0.17829686 0.14625525 -0.3343008
000060 ec 02 02 bd b7 2a f7 3c 2b 50 28 be 0f 6c cd 3e
       -0.031741068 0.030171735 -0.16436832 0.40121505
000070 29 22 59 3a a3 1f cd be f9 72 0f 3e ad 7e dc 3d
       0.00082829833 -0.400632 0.14008702 0.10766349
000080 f2 ab 0f 3e 5b a5 98 3d 2e bd 9a be e9 c9 8d bd
       0.14030436 0.07453414 -0.30222458 -0.06923277
000090 cb 33 31 3e fa d8 72 bd d8 fe 05 3e 49 e4 53 be
       0.17304914 -0.059288956 0.13085496 -0.20692553
0000a0 31 ee e3 3e e4 e6 f0 bd 01 e2 4f be 28 ab 22 3d
       0.44517663 -0.11762789 -0.20301057 0.03971401
0000b0 ce aa df 3b d3 04 4b be d4 ba 59 3d 53 94 05 3e
       0.0068257814 -0.19826059 0.05315669 0.13044862
0000c0 1b 7a 2b bd c7 ab e6 bc f5 20 3a 3e f5 fa 28 bd
       -0.041864496 -0.028158082 0.18176635 -0.041254956
0000d0 e6 00 86 bd 12 5c 26 3e 1e 68 7e 3e 2a af 35 be
       -0.0654314 0.1624606 0.24844405 -0.17742601
0000e0 22 dc e0 be 16 1b 3b bc 8c a9 b2 3e cb 67 9f be
       -0.43917948 -0.011420032 0.3489498 -0.31133875
0000f0 b7 40 6e 3e fd 75 af bd 5f b9 19 3f ec c7 25 be
       0.23266874 -0.08567426 0.6004848 -0.16189545
000100 ba 2b f1 be 35 01 4a be 92 5c ac 3e b4 37 17 3f
       -0.47103673 -0.19727023 0.33664376 0.5906937
000110 f5 b9 93 3e 5a 2c 07 bf 05 4c 63 3e b4 91 cd b7
       0.2885281 -0.5280205 0.22196968 -2.4505753e-05
000120 9c c2 1a bf d8 57 58 3f 94 6e a4 3d 9b a6 33 3d
       -0.604532 0.8450904 0.080289036 0.04386006
000130 8a 4b 29 3e bf f5 9c 3e d5 70 1c 3e a8 cf 5d 3e
       0.16532722 0.3065624 0.15277417 0.21661246
000140 85 38 66 3d 7c b9 50 3e c7 66 bd bd 33 e1 07 be
       0.056206245 0.20383257 -0.09248119 -0.132695
000150 e5 21 0f be 46 f6 0b 3f ca bd 74 bb 88 d2 77 be
       -0.13977773 0.5467266 -0.0037344568 -0.24201405
000160 74 f0 de 3e c9 4b 16 3e 85 e8 02 be e5 c9 d1 3e
       0.43542826 0.14677347 -0.12784012 0.40974346
000170 f3 97 5a 3e cf a7 28 3f 87 4a ab 3d 08 fd c3 3d
       0.21347027 0.65881056 0.08363824 0.09569746
000180 89 44 19 be fd 51 64 3e 20 19 55 3d d8 f7 a1 3d
       -0.1496755 0.22296901 0.052025914 0.079086006
000190 90 f3 13 be 51 44 1c 3e ce d6 34 3d 6a 00 a0 bd
       -0.1444838 0.15260436 0.044150166 -0.07812579
0001a0 2b 9b 77 be 1a 94 d4 3e f9 ee ae 3d 24 28 14 3d
       -0.24180286 0.41519243 0.08541674 0.036171094
0001b0 30 a1 50 bd d2 6f 3e 3d 7b cb 16 bf 61 2a e8 bd
       -0.05093497 0.04649336 -0.58904237 -0.11336208
0001c0 a8 32 d8 3d de f2 d4 be 85 c7 85 3e 22 90 2f bd
       0.10556537 -0.41591543 0.26128784 -0.042862065
0001d0 b3 c8 57 3e a2 e0 36 bf a1 25 a1 bf 71 10 01 be
       0.21072654 -0.7143651 -1.2589608 -0.12603928
0001e0 17 d3 59 3e e9 59 39 3e 82 d7 f3 3e 34 af f1 3e
       0.2127193 0.18100704 0.47625357 0.47203982
0001f0 12 ce 2b 3d fa f7 c0 be e6 a4 9e 3e 49 4a bc be
       0.04194457 -0.3768919 0.30985183 -0.36775425
000200 6b 05 d5 3d 7c a9 27 3d 73 22 8e bd 87 cd 89 3e
       0.10401424 0.040933117 -0.069401644 0.26914617
000210 7d 56 db be d5 d7 fd be 8b 94 a6 be cf 48 2b 3e
       -0.42839423 -0.4957873 -0.32535204 0.16726993
000220 23 ee a6 3e 79 ed 5a be 81 da e2 bd a8 95 df 3d
       0.3260356 -0.21379651 -0.110768326 0.109172165
000230 94 18 0b be b8 06 de bd 40 2c 92 bd d9 9f b1 3c
       -0.13583595 -0.10841125 -0.07137346 0.021682667
000240 06 96 48 be c4 15 64 3e 2d eb 69 3e 2f 15 d3 3e
       -0.1958848 0.22273928 0.22843619 0.412271
000250 86 df 86 3e a7 38 9a be 57 2d a3 3c 0b cc 60 3e
       0.2634241 -0.30121347 0.01991908 0.21952836
000260 35 7a 6d 3e 00 7a 8b 3d 8a 70 48 bd e6 82 b2 3e
       0.2319115 0.06810379 -0.04893545 0.34865493
000270 aa 0a 2b be 25 d7 1a bd fd 6f 33 bd 61 9f cd be
       -0.16703287 -0.037802834 -0.043807972 -0.4016066
000280 90 7b 39 bd 9b b9 d0 be 25 99 10 be c6 1a f5 3e
       -0.045283854 -0.40766606 -0.1412092 0.4787199
000290 56 cf a8 3e e1 6b d9 bd 49 43 e6 3d 22 74 d4 3e
       0.32970685 -0.106162794 0.112433024 0.41494852
0002a0 d1 c9 80 3d c8 94 7a be b9 1c ea be ff 83 93 3d
       0.062884934 -0.24470818 -0.4572504 0.07202911
0002b0 72 2f d3 3d 9e 2b 9b 3d 8a 40 78 3e b3 63 b1 3d
       0.10311784 0.07576679 0.2424337 0.08661594
0002c0 78 ab 06 3e 42 c0 15 3e 38 d7 fc bd 74 87 58 be
       0.13151348 0.14624122 -0.12345737 -0.21145421
0002d0 46 e1 99 3e 08 c7 80 be 1a d1 8e 3d 6b 13 b2 be
       0.30054682 -0.2515185 0.06973477 -0.3478044
0002e0 98 cf 82 3d 5e 8c d7 3d a2 bc 68 be 4d ff 04 be
       0.063872516 0.1052482 -0.22728208 -0.12988015
0002f0 f4 b8 ad 3d fb 22 e4 3e 3a de 33 bc a4 0f 2d 3e
       0.08482543 0.44557938 -0.010978276 0.16900498
000300 83 60 3c bd db 51 b2 be f2 6d 78 3e cd f9 88 be
       -0.04599048 -0.34828076 0.24260691 -0.26753083
000310 c0 f8 09 bf d7 58 2a 3d c9 4a a6 3e fe ff 76 bd
       -0.5389519 0.04158863 0.32478932 -0.060302727
000320 37 2e 2d bd c7 4b 97 be c7 46 83 3e a7 3a 01 3e
       -0.042280402 -0.2955 0.25639936 0.1262003
000330 4a 78 e4 3d 4e 24 33 3e 81 dd 76 3e 6a a8 52 bd
       0.11155756 0.17494318 0.24107935 -0.051430143
000340 3a 3b 90 be ff 6b 89 3c 70 68 d9 bd 95 c0 2d 3e
       -0.28170186 0.01677513 -0.10615623 0.16967995
000350 08 ce 6f 3d 90 c5 aa 3d a8 df 78 3e b7 97 43 3d
       0.058546096 0.08338463 0.24304068 0.04775211
000360 2d ba 07 be 16 b9 aa 3e 52 68 99 bc 7d f0 81 3d
       -0.13254614 0.33344334 -0.018726502 0.063446976
000370 e6 56 86 3d ce 97 c7 be 68 16 1b be ba fc ae 3c
       0.06559543 -0.38983005 -0.15145266 0.021360744
000380 9b f9 93 bd de 6c 12 3e de fd 3b 3c 3d 95 40 3e
       -0.07225343 0.14299342 0.011474101 0.1880693
000390 80 56 88 be 45 9a 5a bc a4 35 a8 be 34 b7 54 3f
       -0.26628494 -0.013342445 -0.32853425 0.83092046
0003a0 56 d3 51 3c ad 20 04 3e a0 0d c5 3c 20 13 38 be
       0.012806734 0.1290309 0.024054348 -0.17976046
0003b0 34 46 db 3e 38 b1 30 be 5f 60 d9 be 39 eb 06 3e
       0.42826998 -0.17255104 -0.42456338 0.13175668
0003c0 2b 85 47 3d c4 f7 e6 3d 21 64 4c be c6 72 23 be
       0.048710983 0.11277726 -0.19960071 -0.15961751
0003d0 af db fe 3e 06 9f f9 bd 1c 84 b4 3d 55 cf 78 3e
       0.4977698 -0.121885344 0.0881426 0.24297841
0003e0 6e 98 fd 3e 93 bb c6 bd bb 85 01 bd 1f b6 5c 3e
       0.49530357 -0.09703746 -0.031621676 0.21553849
0003f0 3e 6a ba 3d b9 d4 6d 3e b0 70 02 3e 43 8d 00 3e
       0.09102295 0.23225679 0.127383 0.12553887

fc2.bias f4 [32]
000000 15 ab 35 3e e7 e2 90 3d e3 0e b8 3c f7 b8 19 bd
       0.17741044 0.07074528 0.022468036 -0.03752991
000010 30 b7 7b 3d db 9e ca bd 3e ce b4 3d cc fc 0b 3e
       0.061453998 -0.098935805 0.088284 0.13670653
000020 10 7f df bb e8 ec 3d bc 35 e0 0e 3d 13 98 39 3e
       -0.006820567 -0.011592127 0.03488179 0.18124418
000030 19 7b eb 3d e4 9a ca 3d 1d a2 78 3d 8b 86 14 3d
       0.114980884 0.09892824 0.06070148 0.036261123
000040 9c 60 05 3d eb 67 c0 bd 2f 46 28 3d 3a 26 82 3d
       0.032562837 -0.09394821 0.041082557 0.063549474
000050 b8 ae 60 3d 26 50 dd 3d 86 f5 eb 3d 5f 43 09 3e
       0.054854125 0.10806303 0.11521439 0.13404606
000060 a3 4f 09 bd 10 51 5b 3d 19 eb b4 bd ff 51 0f 3d
       -0.033523213 0.053544104 -0.08833904 0.034990307
000070 f1 53 6e bd 67 6b 9b 3d 45 0f 8c 3d 6a f1 1e bd
       -0.05818552 0.07588845 0.0683885 -0.03880445

fc3.weight f4 [3, 32]
000000 ae 0b c6 be 8f 8b 88 be 2f a6 51 3f 6d 02 62 3f
       -0.38680786 -0.26668975 0.818942 0.8828495
000010 df f8 d9 3e 0f 1d 02 be f4 e4 cc bc e6 9f 96 3e
       0.42572686 -0.12706397 -0.025011517 0.29418868
000020 b8 d5 11 3f 1c 43 2a bf c6 2a ea be 9d b5 15 3f
       0.56966734 -0.6650865 -0.4573576 0.58480245
000030 19 7a cd be a4 58 e2 be da 88 3d 3e a9 ce 5a 3f
       -0.40132216 -0.44208252 0.18509236 0.8547159
000040 57 12 82 3e b8 14 f9 be 58 a1 91 bc 6d fc 9d be
       0.25404617 -0.4864862 -0.01777713 -0.30856648
000050 8a 76 ea 3e a4 11 87 be 34 d8 61 be b8 80 12 be
       0.45793563 -0.26380646 -0.22055131 -0.14306915
000060 06 01 79 3f 2f 05 b4 be 18 f3 7c 3e 46 e2 cd 3e
       0.97267187 -0.35160205 0.24702108 0.40211695
000070 f1 11 d6 3e d0 6e a8 3e bf a6 58 3e 22 7d c5 3e
       0.41810563 0.32897043 0.21157359 0.3857203
000080 9a 29 ef 3e 91 73 98 bf 3d df 4a 3f 7a ea d4 be
       0.46711427 -1.1910268 0.79246885 -0.4158514
000090 8b 13 0b 3f 5a e1 9c 3f ec 40 ff 3e d2 95 9a 3f
       0.54326695 1.2256272 0.4985422 1.2076972
0000a0 14 dc 35 bf 08 c4 05 3f 0f 94 b0 be 61 5b b1 3e
       -0.7103894 0.52252245 -0.3448796 0.3464003
0000b0 02 a4 86 3f 07 09 aa 3f 23 10 56 3e d5 0e 17 3e
       1.0518801 1.3284005 0.20904593 0.14751752
0000c0 c4 00 54 bf 08 53 dc be 4c 4f 41 40 75 99 67 be
       -0.8281367 -0.43032098 3.020465 -0.22617133
0000d0 81 0b 1a 3f 73 7d 5c bf 98 50 63 3e ac 6e 99 3e
       0.60173804 -0.8612892 0.22198713 0.29967248
0000e0 8a ca fd bd 4d 9e 03 bf 13 bc 53 bf a1 14 5e 3f
       -0.12392147 -0.5141342 -0.82708853 0.8675023
0000f0 77 da 71 bf 3a 74 a3 bd f2 7c 0a bf 76 57 a6 bf
       -0.94473976 -0.07981153 -0.540969 -1.2995441
000100 7a 02 9e bd 3b bc af be 74 dc 9c 3e a4 25 00 bf
       -0.07715316 -0.34323296 0.30636942 -0.50057435
000110 18 25 ce be b1 f7 15 be 25 f6 a1 be dd c2 49 bc
       -0.40262675 -0.14645268 -0.31633106 -0.012314525
000120 03 c3 10 3e 3d e8 f2 be 7a 88 43 3e 68 8f a3 3b
       0.14136891 -0.4744281 0.1909503 0.0049914606
000130 d1 24 e9 3e 72 6f 6a 3d c7 b9 e9 3e d4 f9 79 bd
       0.455359 0.05723519 0.4564955 -0.06102927
000140 97 3f 85 be 31 7b d2 3e 4f 3c 99 bf c2 49 9c 3e
       -0.26025078 0.41109613 -1.197153 0.30525023
000150 9f 77 bb 3e c7 c7 8f be fd 9d db be 68 9e c3 3e
       0.366147 -0.28082106 -0.42893973 0.38206792
000160 11 9c 15 3d 4a 99 ce 3c d6 2a fa be 66 6d 5e bd
       0.03652579 0.025219578 -0.48860806 -0.05430355
000170 e0 fb 14 3e d2 0e 78 3f 6e 94 d2 be 57 12 6e 3e
       0.14549208 0.96897614 -0.41128868 0.23249184

fc3.bias f4 [3]
000000 a2 6f 5d be a9 50 3f 3e 93 16 16 3c
       -0.21624616 0.18683113 0.009160656

exp_avg f4 [64, 8]
000000 92 f9 6e 3a 1f e2 ca 3b 61 2c c0 bb e7 17 1f 3c
       0.00091161684 0.0061915065 -0.0058646654 0.009710289
000010 1d 9b 6b 3b 23 85 07 bc e2 ad 28 ba e7 ce 5c bc
       0.003595061 -0.008271488 -0.0006434602 -0.013477064
000020 c2 9a a9 bc d8 98 4a bc 27 91 0f 3c 30 9d 5d bc
       -0.020703677 -0.012365542 0.008762634 -0.013526246
000030 77 d2 16 3c 19 80 e9 bb 87 dc 15 ba 10 1c 0c 3c
       0.009205452 -0.007125866 -0.000571676 0.0085516125
000040 e2 8a b5 3b 2e 01 a0 3b 0b 3b 5d ba c8 1c 58 3b
       0.0055402378 0.004882953 -0.0008439279 0.003297614
000050 a9 c6 af 3a 82 44 ad bb a2 f3 2b 3c ec 0a a4 bb
       0.0013410646 -0.005287708 0.010495098 -0.005006185
000060 fb 73 22 3b 2d 92 0c 3c e2 e5 49 3c 3c 2f f6 ba
       0.0024788368 0.008579773 0.012322875 -0.0018782387
000070 16 b7 e8 3b 7f 29 1a ba 61 dd 7c 3b 0c 49 db bb
       0.0071019037 -0.0005880817 0.00385841 -0.0066920575
000080 56 64 4d bc 22 11 d9 ba 99 e4 a5 3b 41 76 85 bc
       -0.012536129 -0.0016560892 0.0050626514 -0.01629174
000090 c1 12 a3 3b a3 cd 6a bc 30 a7 49 3c b7 df 29 bb
       0.004976601 -0.014331254 0.012307927 -0.0025920698
0000a0 11 2e 9d bb da 1d 5a 39 2c 66 af 3b 95 1e 4a bb
       -0.0047967513 0.0002080122 0.005352756 -0.0030840982
0000b0 12 b6 d5 3a f4 0d 31 3b f1 82 8f bb cb 45 b5 bb
       0.0016304872 0.0027016373 -0.004379623 -0.0055320016
0000c0 43 de 02 3c b6 ca 42 3b e3 dd bf ba 0e 5c 06 bb
       0.007987562 0.0029722876 -0.0014638271 -0.0020501646
0000d0 84 a5 8a bc 40 96 0f 3c f8 1b c4 3b b5 7b cf 3c
       -0.016924627 0.00876385 0.0059847794 0.025327543
0000e0 76 30 88 bc 4d 0f 1d 3a f7 3d 31 bb a3 2c e7 b9
       -0.01662467 0.00059913547 -0.002704499 -0.0004409301
0000f0 42 c1 2d 3c 5c 2c 8c 3b 70 fd 07 3a f4 90 0e bc
       0.010605158 0.004277749 0.00051876064 -0.008701552
000100 18 97 00 3c 79 6c 03 3a 0f 70 19 bb ae 75 56 3c
       0.007848524 0.0005013417 -0.002341274 0.01308958
000110 71 ed 03 3b 55 a4 48 3c f3 e6 db bb 07 e4 d1 bb
       0.002013054 0.012246211 -0.006710881 -0.006405357
000120 4f 99 91 bc 2f 56 5c bb 20 61 02 3c 8b dd f6 bb
       -0.017773299 -0.0033620705 0.007957727 -0.007533734
000130 c7 a6 4c 3c 01 83 82 3c ab f9 47 bc 16 40 75 bc
       0.012490935 0.015931608 -0.012205522 -0.014968893
000140 b6 d1 08 3d 18 44 4d b8 8d 58 a7 ba fd 40 80 3b
       0.03340312 -4.8939226e-05 -0.0012767479 0.003913997
000150 7a 27 7d bc ba d8 07 bd d9 4b 86 3c a6 4f 84 3c
       -0.0154513065 -0.03316567 0.016393589 0.01615126
000160 d5 e7 9a 3c e9 42 f0 39 a9 b4 ce bb 22 91 23 3c
       0.018909374 0.0004582622 -0.0063081575 0.009983333
000170 cd ed 0a bc f3 67 dd 3b 1c 0a 97 bb f4 4f 6d 3b
       -0.008479548 0.0067567765 -0.0046093594 0.0036210986
000180 cc 2e 26 3b 63 99 cb 3c 5a b7 86 3c 10 78 93 3c
       0.0025357483 0.024853414 0.01644485 0.018001586
000190 c6 03 76 3c e6 24 ab bc df 97 8c 3c 2b cd ef bc
       0.015015548 -0.020891618 0.017162262 -0.029272636
0001a0 4b 61 d6 3b 15 4e 69 3c 74 94 f3 3a 56 d8 df bb
       0.00654236 0.014239808 0.0018583671 -0.006831209
0001b0 62 a3 72 bc 35 ca 88 bc 24 34 7f 3c e3 75 1a bc
       -0.014809461 -0.016697982 0.015576396 -0.00942752
0001c0 b3 c4 04 3c 59 03 87 ba 54 fb 11 3b 53 4f 39 ba
       0.008103537 -0.001030068 0.0022275047 -0.000706901
0001d0 51 67 64 bc 69 3f 17 3c 1c 0c 9c bb 67 da 41 3c
       -0.013940648 0.009231427 -0.0047621857 0.011831856
0001e0 9d bb 47 3c c9 ab 7f 3c 57 59 2e 3c 65 1d 9a bc
       0.012190727 0.015604922 0.0106414175 -0.018812845
0001f0 d6 02 14 bb b1 fe db bc 6c 16 71 3c c4 3d 7d ba
       -0.0022584698 -0.026854845 0.014714818 -0.0009660388
000200 3c c5 55 bd bc 9b ed bc 22 9b 16 bb d0 b7 3c bc
       -0.05219005 -0.029004924 -0.002298065 -0.011518434
000210 81 ed 90 3c 46 56 a6 3c d8 ad 52 bb 92 ad 98 3b
       0.017691376 0.02030481 -0.0032147076 0.004659363
000220 ed 6f 03 3c a4 30 4e bb 52 f4 5f 3c 7e e3 d7 bb
       0.008022291 -0.0031462098 0.01366909 -0.0065883985
000230 cf 1d de bb e2 58 e9 3b 83 63 68 bc f5 ce d0 3b
       -0.006778456 0.0071211914 -0.014183882 0.0063723275
000240 39 f3 68 3c c5 c2 9c ba c7 29 c4 3b e6 88 71 3b
       0.014218145 -0.0011959901 0.0059864256 0.003685528
000250 98 2b b0 bb b1 05 ca ba 78 e4 2c bc 9f 12 42 3c
       -0.0053762905 -0.0015413073 -0.010552518 0.01184526
000260 52 24 bd ba 24 f7 76 3a dc 37 89 3b 7d 21 9f bb
       -0.001443038 0.0009420982 0.004187567 -0.004856287
000270 2d 8a 78 b9 60 e3 b2 bb 27 a7 16 bc 7e 02 03 3b
       -0.00023702598 -0.005459234 -0.009195126 0.00199905
000280 72 ae 38 3c f7 52 a3 3b 8a 5a 81 3a ea 22 12 3c
       0.01127206 0.0049842554 0.0009868902 0.008919457
000290 4e 4f 4b bb db 21 84 bb 60 02 a2 bb ee 29 47 bb
       -0.003102261 -0.004032356 -0.004944131 -0.0030389982
0002a0 01 c7 11 3c 30 9a 85 b9 cb 6f a3 ba 96 4e 5a 3b
       0.008897544 -0.00025482615 -0.001246923 0.0033311
0002b0 89 73 04 bc 9d da 4e 3b 7e 24 1e bb d7 bf 9f 3b
       -0.008084186 0.003156341 -0.0024130638 0.004875164
0002c0 cd a0 34 3c fa 69 36 3c b4 36 e2 3b f3 16 69 bb
       0.011024666 0.011133665 0.006903494 -0.0035566657
0002d0 de 95 01 bc 5b b5 35 bc 1e 6b 48 3c 6c f2 84 3c
       -0.007909266 -0.011090602 0.01223257 0.016228877
0002e0 6e 1e 8c bc 63 d5 0a bd 73 29 a9 3c a5 9d 4c bc
       -0.017104354 -0.033894908 0.020649647 -0.012488757
0002f0 c6 ee 03 bc da 7e 0d 3c b4 59 ad bc bd 63 f7 3c
       -0.0080525335 0.008636201 -0.021160938 0.030198926
000300 83 9b da ba 8c 76 8c 3a cd e2 f6 bb bc 17 9f ba
       -0.0016678426 0.0010716482 -0.007534361 -0.0012137811
000310 da 5f 04 bc 80 d7 89 3b 78 9e a9 bb 91 84 e8 3b
       -0.008079493 0.004206598 -0.0051763617 0.0070958813
000320 4f 0e 43 3c ba 2c a6 3a 88 29 30 3c 9b 3d e7 bb
       0.011905267 0.0012678124 0.010752089 -0.0070569045
000330 78 da 6b bc b9 c5 e4 3b d9 57 6f 3b 07 5b 92 3c
       -0.014395349 0.006981578 0.0036520867 0.01786567
000340 03 ab 44 bb 2d 38 89 3b 70 63 33 3b 35 e5 e8 bb
       -0.0030009157 0.004187605 0.0027372502 -0.0071074017
000350 25 37 c7 39 41 43 12 bc cf 8b 09 3c be 9f 90 ba
       0.00037997324 -0.008927167 0.008395149 -0.0011033935
000360 61 ee 76 3c f9 64 64 3b 65 f4 b1 3b 84 a2 3e 3a
       0.015071482 0.0034850223 0.0054307454 0.00072721415
000370 e0 4b e5 bb 93 6e 21 bb e3 3f 03 bc cb 6e 6b 3c
       -0.0069975704 -0.0024632558 -0.008010837 0.014369677
000380 32 91 76 38 71 1a b1 ba 8e 73 94 ba 4e c7 f8 3a
       5.8786194e-05 -0.0013511908 -0.0011325942 0.0018980296
000390 db fd 2d 3b 13 b0 b1 3b f9 de 53 b9 0d dc 85 bb
       0.0026549015 0.005422601 -0.00020205592 -0.00408507
0003a0 93 85 64 3b 2c 7f ae 3b ba 5d 48 bb df d2 2f 3c
       0.0034869656 0.0053252187 -0.0030573444 0.010731428
0003b0 33 cf 19 39 39 cb 41 ba 0c 33 c4 3b 28 04 c0 ba
       0.00014668405 -0.0007392648 0.0059875306 -0.0014649676
0003c0 72 fa a2 bc bd db ef ba 30 33 86 bc 6f ce 8f 3a
       -0.019894812 -0.001829974 -0.01638183 0.0010971556
0003d0 4e b1 5d 3c 39 ba ab ba ff 35 96 3b 21 4c 98 bb
       0.013531042 -0.0013101763 0.0045840736 -0.004647747
0003e0 d5 a5 b2 bb 5d 86 ec 3a 74 df 94 3b fd 7c bd bb
       -0.0054518976 0.0018045414 0.0045432393 -0.005782722
0003f0 3f bb b5 3b bf d5 1c 3c 15 ba 76 3b 59 69 c3 3b
       0.005546003 0.009572445 0.0037647535 0.005963486

exp_avg_sq f4 [64, 8]
000000 34 ef 89 38 c5 ac 91 38 4e e2 75 38 47 d2 a5 38
       6.577224e-05 6.9463196e-05 5.8623315e-05 7.90698e-05
000010 c9 68 9e 38 76 20 ea 38 34 7c af 38 31 ea 91 38
       7.553545e-05 0.00011164036 8.367785e-05 6.95776e-05
000020 2d fe 2b 39 e8 93 31 39 88 50 24 39 ee cd 37 39
       0.00016402519 0.00016935135 0.00015670259 0.00017528955
000030 85 46 31 39 96 54 d6 38 25 c2 02 39 d9 6d 22 39
       0.00016906306 0.000102200705 0.0001247009 0.00015490445
000040 3f b5 19 39 fd 54 f4 38 03 c7 9c 38 4b 97 c3 38
       0.00014658736 0.00011650657 7.4757285e-05 9.326505e-05
000050 87 77 40 38 61 c6 7d 38 39 82 d3 38 e1 66 72 38
       4.5887686e-05 6.0504655e-05 0.0001008552 5.779311e-05
000060 19 0b 79 39 ad 3f 52 39 55 cf 11 39 9f c3 14 39
       0.00023750625 0.00020050882 0.00013905515 0.00014187254
000070 de d3 0a 39 cc f2 2b 39 79 53 0d 39 a3 10 26 39
       0.00013239632 0.0001639828 0.00013477904 0.00015837191
000080 11 50 f0 38 4e 54 f2 38 ab 4a 51 39 83 51 8a 39
       0.00011459005 0.00011555162 0.00019959609 0.00026382142
000090 f8 5d 1f 39 b2 c3 45 39 c1 cc 17 39 19 55 ad 38
       0.00015198428 0.00018860286 0.00014476759 8.2651335e-05
0000a0 26 86 a0 39 a4 45 61 3a 2a 8e 9e 39 89 da 81 39
       0.00030617526 0.0008593446 0.0003024203 0.0002476762
0000b0 1c 1f d9 39 c3 ce b6 38 b6 4b ba 39 97 a8 dc 39
       0.00041412644 8.716949e-05 0.00035533094 0.0004208728
0000c0 59 67 c2 39 ee d8 55 39 a9 43 26 3a 12 c9 03 3a
       0.00037079563 0.00020394076 0.00063424796 0.0005027215
0000d0 bb 1f b0 39 6c 35 3c 3a 5f 83 9a 39 d1 73 a2 39
       0.00033592977 0.00071795913 0.00029471048 0.00030985338
0000e0 34 99 0f 3a 62 0a d2 39 2d 67 01 3a 87 b0 ee 39
       0.0005477846 0.00040062057 0.0004936334 0.0004552642
0000f0 dd d6 e1 39 ed 27 20 3a 5d 10 0a 3a 2c 31 81 3a
       0.0004307543 0.0006109465 0.00052667205 0.0009856573
000100 b8 13 75 39 a5 35 cb 39 5a e3 11 3a 8a ea b9 39
       0.00023372367 0.00038759146 0.0005565189 0.00035460695
000110 29 75 0b 3a 70 68 13 3a 48 67 4c 39 3a 7e b4 39
       0.00053198874 0.00056231674 0.00019493431 0.00034426322
000120 25 4a 39 3a 5d 0b 92 3a 9f 3f 31 3a 0d d5 27 3a
       0.00070682383 0.0011142303 0.00067614944 0.00064022915
000130 19 82 a4 3a b2 11 02 3a 94 1d 7c 3a 61 7a 70 3a
       0.0012550979 0.0004961743 0.00096174446 0.00091735093
000140 25 fd 27 3b 6b 57 c5 3a 05 2e ec 3a 58 0b 7b 3b
       0.0025633064 0.001505596 0.0018019086 0.0038306322
000150 db 53 d2 3a 85 f6 27 3b f3 c7 0c 3b d3 2a 22 3b
       0.0016046719 0.0025629115 0.0021481484 0.0024744764
000160 6c 1a 90 39 39 ca be 39 43 4a 03 3a e3 ba 95 39
       0.00027485506 0.00036390292 0.0005008319 0.00028558736
000170 56 84 b7 39 3b 20 b0 39 a7 9f 80 39 86 77 bb 39
       0.00035003078 0.0003359335 0.00024533013 0.0003575647
000180 75 0b b0 3b 82 b1 a7 3b 88 a0 32 3b 7c 72 2a 3b
       0.0053724595 0.005117596 0.0027256329 0.002600818
000190 c8 97 2e 3b 54 fe 53 3b 34 a5 47 3b 6c cc 59 3b
       0.0026640762 0.0032347636 0.003046346 0.0033233417
0001a0 ba 6a ea 3a 15 b0 8e 3a 89 f2 89 3a 89 b9 6a 3a
       0.001788459 0.0010886217 0.0010524552 0.00089540385
0001b0 bb d5 82 3a 4d 91 ae 3a 84 d9 48 3a 98 3d 94 3a
       0.000998191 0.001331845 0.0007661807 0.001130986
0001c0 db 7c 19 39 63 cb 0e 39 02 0b 24 39 ee eb 05 39
       0.0001463773 0.00013617943 0.0001564436 0.00012771759
0001d0 7d c1 18 39 14 7a 68 39 55 d7 ff 38 96 b9 62 39
       0.0001456793 0.00022170722 0.00012199456 0.00021622176
0001e0 e0 8e 09 3b 55 08 fa 3a 20 70 e7 3a 44 a1 ef 3a
       0.00209897 0.001907597 0.0017657317 0.0018282314
0001f0 d7 b9 f9 3a 48 8b 12 3b 4b fd 06 3b 69 03 09 3b
       0.0019052577 0.002236085 0.0020597752 0.0020906574
000200 9c 2f a2 3a 2b 07 6b 3a 0e 55 4e 3a d7 f2 9d 3a
       0.0012373808 0.00089656067 0.00078709505 0.0012050521
000210 db 3b 7b 3a 1e 9d aa 3a ce 3f a3 3a b5 19 89 3a
       0.00095838093 0.0013016795 0.0012454928 0.0010459932
000220 65 aa 22 3a ab e1 ab 39 b8 b3 07 3a 3b 5a fc 39
       0.00062052003 0.00032783797 0.00051766215 0.00048132412
000230 6e e5 e9 39 39 e0 a1 3a 28 02 ca 39 80 97 01 3a
       0.00044612162 0.0012350149 0.0003853005 0.0004943535
000240 7f 15 28 3a 63 f1 aa 39 7c 11 9f 39 a4 56 be 39
       0.00064118946 0.00032604774 0.0003033987 0.00036304176
000250 8b b2 a8 39 65 96 11 3a e4 93 aa 39 a8 cc b6 39
       0.00032176482 0.00055537216 0.00032535114 0.00034866226
000260 ee b0 94 39 dd 18 a1 39 17 44 d6 39 04 1f f4 39
       0.00028360583 0.00030726838 0.00040867992 0.00046562415
000270 99 b3 a0 39 33 a7 ce 39 79 20 a3 39 55 fe 13 39
       0.0003065139 0.00039415955 0.00031113977 0.00014113759
000280 ec 36 ad 39 8a 79 52 39 b7 e2 81 39 e1 19 49 39
       0.0003303805 0.00020072437 0.00024773713 0.00019178494
000290 71 ad 2c 39 4e 3b 6c 39 01 6f 28 39 0e 80 7b 39
       0.0001646781 0.00022528807 0.0001606308 0.0002398493
0002a0 02 31 23 39 68 2b de 38 36 6b 6a 39 21 6f 20 39
       0.00015563148 0.0001059387 0.00022355918 0.00015300188
0002b0 af 19 22 39 6c b2 6e 39 a3 d6 04 39 18 71 07 39
       0.00015459092 0.00022763916 0.0001266846 0.00012916734
0002c0 06 b6 0f 3a 32 1c 0c 3a 50 58 82 3a d3 ce 5b 3a
       0.00054821407 0.00053447776 0.0009944532 0.0008385006
0002d0 08 03 3a 3a cb 57 75 3a 35 7d 06 3a a6 7d 09 3a
       0.00070957886 0.00093590905 0.00051303516 0.00052448583
0002e0 62 e1 d9 3a d7 78 68 3b 6f 2b 21 3b 19 18 20 3b
       0.0016622955 0.0035472417 0.0024592539 0.0024428426
0002f0 b4 bf 83 3b 02 83 e2 3a 30 a2 5d 3b 1e 0e 3a 3b
       0.0040206555 0.0017281475 0.0033818595 0.0028389762
000300 b7 3c 62 39 a5 78 a7 39 57 ed 39 3a 6b 8b 91 39
       0.00021575658 0.0003194261 0.00070925563 0.0002776043
000310 66 f4 b2 39 ff 22 9a 39 af df 15 39 89 f0 b6 39
       0.00034132897 0.00029399243 0.00014293076 0.00034892958
000320 f1 02 0c 3a 60 9f 74 39 d0 42 b0 39 bc b4 bb 39
       0.00053410145 0.00023329025 0.00033619115 0.00035802077
000330 40 03 83 39 12 46 52 3a 3f f1 9b 39 b4 08 ef 39
       0.00024988689 0.00080213055 0.00029743646 0.00045592117
000340 e3 57 6b 39 0c d9 13 39 50 28 84 39 a1 02 98 39
       0.00022444087 0.00014099869 0.00025207037 0.00028993658
000350 50 b9 46 39 89 97 ac 39 4e fb 03 39 c8 57 45 39
       0.00018951786 0.000329193 0.00012586752 0.00018820085
000360 5e 58 b8 39 26 1b 7d 39 52 20 e6 39 24 e4 e2 39
       0.00035161054 0.00024138074 0.000438931 0.00043276057
000370 33 cb 9a 39 51 be f3 39 f6 cd 9e 39 ee 5f 7e 39
       0.00029524564 0.0004649037 0.0003028956 0.00024259064
000380 ee 1c 81 38 48 1d c9 38 0b ed 61 38 ab 4a 64 38
       6.156588e-05 9.589881e-05 5.3864944e-05 5.4428976e-05
000390 44 67 95 38 b7 bb 37 38 a1 dd 8c 38 de 36 2d 38
       7.1241084e-05 4.3805423e-05 6.717002e-05 4.1297513e-05
0003a0 b9 4c 61 39 6d c8 26 3a 7b 29 90 39 82 70 ca 39
       0.00021486254 0.0006362263 0.00027496726 0.00038612267
0003b0 2a 87 a8 39 19 73 4c 39 c3 79 13 3a 92 02 86 39
       0.00032144162 0.00019497833 0.0005625749 0.00025560387
0003c0 dd f0 1f 3a d8 54 f8 39 f0 80 74 3a c1 f8 e7 39
       0.000610126 0.0004736546 0.00093270745 0.0004424509
0003d0 59 09 0e 3a 4d a6 6a 3a db c4 8d 39 bf 6a 49 3a
       0.0005418263 0.00089511723 0.00027040284 0.0007683448
0003e0 7c 5b 38 39 1c a9 1d 39 66 4e 05 39 dc b9 11 39
       0.00017581688 0.00015035685 0.00012713074 0.00013897516
0003f0 0b 0a f0 38 db 1f 10 39 85 8a 57 39 72 7f e1 38
       0.000114459624 0.00013744777 0.000205556 0.000107525746

exp_avg f4 [64]
000000 c5 33 e3 3b 1c cd 8e 3c f9 4f c2 bb d9 34 af bb
       0.0069336616 0.017431788 -0.0059299436 -0.005346876
000010 d7 87 32 3c d7 0a f2 3b f4 1a 58 bc 4e 09 04 3c
       0.010896645 0.007386546 -0.01319002 0.008058859
000020 17 08 12 bc a7 26 53 3c e4 10 03 bc 77 60 21 bc
       -0.008913062 0.012887633 -0.0079996325 -0.009849659
000030 aa d7 ec bb 83 fd ce 3a 03 dc 20 bc 24 14 8d ba
       -0.0072278576 0.0015792105 -0.00981808 -0.0010763449
000040 c4 60 74 3c 93 57 ea 3a 9b eb 5e 3a 25 0e a7 3b
       0.014915649 0.0017878882 0.0008503736 0.0050981217
000050 a3 c3 84 3b d8 d2 87 bb 53 f9 bf bb 9f 29 b5 3c
       0.004051642 -0.0041450076 -0.005858579 0.022114573
000060 5e 2b 9a bb a9 8d 7d bc 9c de a9 3b e8 e4 13 bb
       -0.004704877 -0.015475669 0.005184008 -0.0022566859
000070 10 2a 23 bb 05 96 0c bc b3 c6 b4 3b 69 78 8d bb
       -0.0024896897 -0.008580689 0.005516851 -0.0043173325
000080 15 9e 0d 3c 0e 13 15 bb 25 84 81 bc 94 ae 5a 3b
       0.008643647 -0.0022746953 -0.015810082 0.0033368217
000090 15 99 bd 3c 86 ef c1 3b 9d fb ac 3b c7 26 48 3d
       0.023144284 0.005918446 0.005279018 0.048865106
0000a0 d1 14 e6 bc eb 8f 48 bc e4 f7 4a 3c 62 06 db bb
       -0.028086098 -0.012241344 0.012388203 -0.0066841105
0000b0 72 21 59 3b 3c ef 59 bc 0a 93 97 3b d8 3a 93 3c
       0.0033131507 -0.013301667 0.0046256827 0.017972395
0000c0 5c 53 40 bb 82 ef 02 bc 08 25 9e bb af b8 af bc
       -0.002934656 -0.007991673 -0.004826192 -0.021450369
0000d0 5b 4b c9 bb f2 ee eb bb ea bb 1e 3c f8 df 15 bc
       -0.0061430163 -0.0072001154 0.009688357 -0.009147637
0000e0 e5 4c cb 3b d2 c2 13 3c 1d a9 aa 3c 9b 98 7b 3b
       0.006204235 0.009018617 0.020832593 0.003839052
0000f0 af 01 33 bc 98 ea 55 bc b6 5d d0 bc 9b 54 9e bc
       -0.010925694 -0.01305642 -0.02543531 -0.019327452

exp_avg_sq f4 [64]
000000 ca 38 64 39 9c 6d b6 39 7b 68 6d 39 b5 89 ca 39
       0.0002176493 0.0003479541 0.00022641003 0.00038631042
000010 6a 40 af 39 2a f5 85 3a fe c8 b2 3a 61 65 10 3b
       0.00033426593 0.0010220159 0.0013640223 0.0022033083
000020 53 d2 8b 3a 74 63 2b 3b 2d eb 00 3c 4b 7b 95 3a
       0.001066754 0.0026151808 0.00786857 0.0011404542
000030 c3 b2 46 3c b3 7a 8e 3b f0 dd dc 39 eb a4 02 3c
       0.012127581 0.004348123 0.00042127026 0.00797389
000040 cd e9 79 3b 5c 0a 1b 3b 3d 00 d7 3a c9 58 43 3a
       0.003813374 0.0023657298 0.0016403269 0.00074518897
000050 f1 78 4b 3a cf 75 de 39 f6 6b 0c 3b 81 40 1a 3c
       0.0007761857 0.00042430914 0.0021426654 0.009414793
000060 1a e0 85 3a d7 85 d8 3a e4 69 21 3a 5c c7 77 3a
       0.0010213882 0.001651938 0.00061574415 0.0009452009
000070 f7 4f 1c 39 a3 90 5a 3a 75 1a 21 3b 9e 14 a4 39
       0.00014907109 0.00083375926 0.002458242 0.0003129588
000080 03 76 71 3b 46 46 30 3a b6 2a e3 3a 3e aa 98 39
       0.0036844022 0.0006724339 0.0017331454 0.0002911854
000090 d1 a4 79 3b 6e e1 c2 39 22 82 6b 3a 00 65 ac 3b
       0.0038092623 0.00037170522 0.000898393 0.0052610636
0000a0 ce 16 7c 3b 97 4a 87 3b 41 40 2d 3c cd 48 3d 3a
       0.003846574 0.004128765 0.010574401 0.0007220626
0000b0 c9 a1 52 3a 67 88 2f 3b 24 4c bc 39 b3 3a bd 3a
       0.0008034972 0.0026784183 0.00035914883 0.0014437049
0000c0 0c 05 00 3a 5a 78 27 3b b6 62 4f 39 47 c6 64 3b
       0.00048835645 0.0025553913 0.00019777831 0.0034908222
0000d0 9c 89 de 3a f9 32 65 3b 02 84 43 3c 2f 8d 47 3a
       0.0016978267 0.003497301 0.011933329 0.00076122856
0000e0 09 a2 06 3a 7b 26 9a 3a 0d 2d 92 3a 6a e8 95 3b
       0.00051358395 0.0011760736 0.0011152342 0.004574825
0000f0 bc 75 93 3b c6 f0 37 3b e1 19 9a 3b 42 8c 67 3b
       0.004500119 0.0028067096 0.004702792 0.0035331403

exp_avg f4 [32, 64]
000000 48 db c5 3a 6d e0 83 3b 9e 65 56 3c ea 8f 0a 37
       0.0015095258 0.0040245564 0.013085751 8.258949e-06
000010 de d4 58 3a 10 b6 68 3a 14 1d 85 3b e8 c9 ef b9
       0.0008271466 0.0008877227 0.0040623043 -0.00045736064
000020 3d 3d 41 bc 00 99 99 3a 3c e3 88 bb e1 16 bf 39
       -0.0117943855 0.0011718571 -0.004177479 0.00036447405
000030 69 17 49 3c c6 5b 0a 3c 10 b7 cc ba b3 95 82 bb
       0.012273648 0.008444732 -0.0015618522 -0.0039851307
000040 19 9d 1f 3c 35 22 f9 3a 32 55 bd 3b 1a ed d7 3b
       0.009742045 0.0019007387 0.0057779783 0.006589544
000050 c1 3e 08 3c 13 1d 72 3b 41 59 50 3c 6d af 57 3b
       0.008315743 0.00369436 0.012716592 0.0032910958
000060 8e 00 e0 bb 6e 7b c3 3a b2 f2 09 bc f7 25 66 3a
       -0.0068360036 0.0014914104 -0.0084196795 0.0008779461
000070 b6 24 02 3c 94 24 5e 3b be 8a 97 ba 64 c7 e0 3b
       0.007943323 0.0033896314 -0.0011561734 0.0068597067
000080 73 b8 fb 3b 41 30 9c ba 1e ce 14 bc f9 82 8f 3b
       0.0076819 -0.0011916236 -0.009082345 0.004379627
000090 9f 81 07 3c 73 18 c1 3b 0d a9 ed 3b 2f 0f a1 3b
       0.00827065 0.005892807 0.0072528184 0.00491514
0000a0 21 1e 00 bb 2b e1 b9 3b 21 90 7c 3b 7f 0c 64 3c
       -0.0019549208 0.005672594 0.0038538056 0.013918995
0000b0 d2 cb 8b ba 08 4f c0 3b d9 36 e7 3b d3 70 18 3b
       -0.0010665602 0.0058687963 0.007056099 0.0023260608
0000c0 8b b5 2a ba 1f 4d aa ba f3 72 51 3c 15 75 dd bb
       -0.00065120374 -0.0012992955 0.012783754 -0.006758342
0000d0 ec 9b a9 3b 9b db a1 3a dc 43 38 3a 49 f7 cf bb
       0.005176058 0.0012348773 0.0007029155 -0.0063466174
0000e0 1a ac 5d ba 36 36 24 3b 2a 26 c8 3a e6 b5 c0 38
       -0.0008456126 0.0025056726 0.0015270163 9.189155e-05
0000f0 1c 46 d7 ba 64 2f 3a 3c 29 3f b8 3b 02 00 09 bb
       -0.0016424092 0.011363838 0.0056227637 -0.0020904546
000100 7a 84 c2 bb 4c 67 d4 3a 87 72 fb bb fe b1 0a 39
       -0.0059362026 0.0016205101 -0.007673565 0.00013227013
000110 c4 b6 6b b9 dc c4 08 ba 27 97 e3 ba 5a 03 6c 3b
       -0.00022479432 -0.00052173226 -0.0017363772 0.003601274
000120 7b 8a 28 b9 d7 41 22 bb 80 cd f6 3a 9e 27 dd 39
       -0.00016073317 -0.0024758482 0.0018829554 0.00042181922
000130 d1 e2 0c bc e0 a7 22 bc a0 db c3 b9 f6 3a 33 bb
       -0.008598999 -0.00992772 -0.00037356932 -0.0027348376
000140 d6 69 1f bc 3d 09 d2 bb f9 6d 8a 3a 63 f3 e6 bb
       -0.009729823 -0.0064097927 0.0010561339 -0.007048057
000150 89 05 3c bb 3a 3e d2 ba 03 9e 1c bc cb 6d a2 bb
       -0.0028689823 -0.0016040273 -0.009559157 -0.004956936
000160 72 a9 3b 3b 02 83 55 ba 2e 5f 5d ba c5 89 df b9
       0.0028634933 -0.0008144827 -0.0008444664 -0.0004263652
000170 11 a4 1c bc 8b 13 46 ba 73 48 c1 ba 66 74 b9 bb
       -0.009560601 -0.0007556013 -0.0014746323 -0.0056596277
000180 8f 72 22 bb ac ea 8c bb ea e3 c3 bb bd 4b 37 bc
       -0.002478752 -0.004300436 -0.005978097 -0.011187491
000190 16 d5 9f bb cf dc 35 bb 3b 9e 8d bb b2 71 ad bb
       -0.0048776967 -0.002775002 -0.004321841 -0.0052930946
0001a0 75 f7 ef bb 13 14 f2 39 00 56 92 3b e6 2b 0b bb
       -0.0073232003 0.00046172793 0.0044658184 -0.0021235882
0001b0 3a aa 9f bb 46 a6 93 bb 64 62 6a bb 2e 4c 43 bc
       -0.0048725875 -0.0045059053 -0.0035764212 -0.011920018
0001c0 bb 3e 9e ba e1 1a ab ba b5 2c 52 bc ef ca 17 bb
       -0.0012073138 -0.0013054275 -0.012828042 -0.002316173
0001d0 77 df bc bb 10 b0 06 ba 19 b6 cd 37 a3 c2 3e bb
       -0.005763944 -0.00051379297 2.45227e-05 -0.0029107712
0001e0 98 20 13 3b 72 f5 90 3b 87 15 dd 3a fa 4d da b9
       0.0022449847 0.0044237906 0.0016867378 -0.00041638297
0001f0 67 12 83 39 7e 88 6b bb 2e 47 49 bc 89 70 85 b9
       0.00024999978 -0.003593951 -0.012285037 -0.00025451582
000200 86 ee cd 3b d3 94 d8 bb c9 f2 87 3b af 6c 0f 3c
       0.0062845377 -0.006609538 0.0041488153 0.0087539395
000210 ce f4 21 ba b1 7e 13 3b e4 83 d2 3b 86 b3 fe ba
       -0.00061781413 0.0022505934 0.006424414 -0.0019432164
000220 a2 24 25 3b 9f be 27 3b 49 c6 3c bb ba 55 78 bb
       0.0025198837 0.0025595797 -0.002880471 -0.0037892894
000230 9d 80 e9 bb 06 3b 17 39 6d 9e 32 bc e4 fc 26 3b
       -0.0071259276 0.0001442247 -0.010902029 0.0025480324
000240 d0 f3 22 3c 03 6f 46 3c 66 4a 43 bc 7b 4d cd 3b
       0.009945825 0.012111428 -0.011919593 0.00626534
000250 4b fb 7c bc 1a af 1a bc 39 10 47 bc e3 1a 05 3b
       -0.015440772 -0.0094411615 -0.012149864 0.0020310215
000260 62 b5 d4 bb 3f 35 36 39 e0 28 a3 bb 14 c2 89 3b
       -0.006491349 0.00017376708 -0.004979238 0.004204044
000270 2e 60 fb 3b 72 7a ba 3b 1c f7 80 bc af a4 b9 3b
       0.0076713776 0.005690866 -0.015742831 0.005665384
000280 96 93 f8 ba d1 16 a0 3b a5 84 d4 3c 94 ba 29 3c
       -0.0018964882 0.0048855324 0.025942156 0.010359425
000290 49 9d 95 bb 2a ef 18 3c f3 47 8c bb ba f8 5a 3b
       -0.004565869 0.009334365 -0.004281038 0.0033412413
0002a0 b1 55 66 bc 0f e9 6b bc 82 f2 4b 3a 8d 3f 95 bb
       -0.014058516 -0.014398827 0.0007779972 -0.004554695
0002b0 ad 67 06 bc 76 09 3a 3c af 37 14 bb 09 76 85 3c
       -0.008203429 0.011354795 -0.0022616198 0.016291635
0002c0 36 7a 37 3c eb c7 0d bb 5d 2b d3 3b 87 84 8f ba
       0.011198571 -0.0021634053 0.0064443783 -0.001094953
0002d0 8d 1d c6 3b 74 b4 ce 3b e2 3f c8 ba 33 8a 8b 3c
       0.006046003 0.006308133 -0.0015277828 0.017033672
0002e0 c2 9d ca b9 be 52 c3 bb 01 77 d6 bb 9c 66 4f 3a
       -0.0003864598 -0.0059607914 -0.006544948 0.00079117133
0002f0 46 fa 3b bb 02 8b 6b 3b c3 f5 10 3c 62 de b4 bb
       -0.002868311 0.003594101 0.008847657 -0.005519674
000300 f6 16 d3 ba 74 b5 0e bc 84 a9 d0 bc 74 cc 20 3b
       -0.0016104865 -0.008710254 -0.025471456 0.0024535926
000310 f3 2b 80 bb a0 1e 48 bb 5d 17 ae ba 11 65 d3 bb
       -0.003911489 -0.0030535832 -0.0013282109 -0.006451257
000320 9a 7f 65 3c 7b 19 6c ba 7c 09 5d 3b 82 f5 7e bc
       0.014007473 -0.00090064824 0.0033727577 -0.015561463
000330 05 f0 ba bc 76 65 88 bc 1c 33 fd bb e2 f3 da 3b
       -0.022819528 -0.016649943 -0.00772704 0.006681905
000340 59 88 c5 bb d4 96 2a 3b 74 a1 de bc 4e 62 fe bb
       -0.006028217 0.0026029842 -0.027176596 -0.0077631837
000350 e7 57 a6 bc 29 7e 25 bc 0a 33 94 bc e5 58 9e bb
       -0.020305587 -0.01010088 -0.018090744 -0.0048323744
000360 84 16 d1 3b bd 29 56 bc 13 38 12 3c d7 d4 13 bc
       0.006380858 -0.013071475 0.008924502 -0.009022913
000370 8c 95 0f bc cc 52 bb bb 8d f7 01 bc c8 a0 b7 ba
       -0.008763682 -0.0057166573 -0.007932556 -0.0014009709
000380 ef cb c4 bc 59 cd 24 bb 45 e1 97 3c 8d d0 77 bb
       -0.024023024 -0.002514681 0.018540034 -0.0037813515
000390 d0 07 af bc 13 d2 fd bc 7f 8c cb bc 09 fa c0 bb
       -0.02136603 -0.03098396 -0.024847267 -0.0058891815
0003a0 df 35 e9 bb 5e 6a 8c bc ec 44 8b bc 0a b9 c2 bc
       -0.0071170176 -0.017140564 -0.017000638 -0.023769874
0003b0 98 c5 48 bb a8 b5 0a bc fc 07 e0 bb f2 f6 8b 39
       -0.0030635353 -0.008466162 -0.0068368893 0.00026696135
0003c0 24 b6 a9 bb 84 37 51 bb bc bd b8 bc 2e 43 c7 3b
       -0.0051791836 -0.003192396 -0.02255141 0.0060810065
0003d0 b7 7a 0e bc 58 1f 05 bc 88 e6 f4 bb 2e d4 4f 3c
       -0.00869625 -0.008125149 -0.0074737705 0.012684865
0003e0 0b f1 8c 39 61 c2 18 bc 19 63 54 bc a3 d0 81 39
       0.00026882472 -0.009323687 -0.01296308 0.00024760244
0003f0 26 00 5c bb b1 14 5c bc f5 a5 a0 bb 53 5b 02 3a
       -0.0033569424 -0.013432668 -0.004902596 0.0004972715
