checkpoints/full/torsion_energy/20250611190444520597/LYS_dim_16/fold2/best_epoch=245-val_loss_epoch=8.678.ckpt (torch, 50117 bytes, 20 tensors)

fc1.weight f4 [64, 16]
0	0x3d7b48c9	0.06134871
1	0x3d8b17f0	0.06791675
2	0xbf1914bb	-0.5979726
3	0xbef13c6d	-0.47116414
4	0x3e390b11	0.18070628
5	0x3d7586af	0.059942897
6	0x3d44f8e3	0.04808892
7	0x3e7da447	0.24769698
8	0xbcccac1d	-0.024984414
9	0xbbe44c04	-0.0069670696
10	0xbe93df7b	-0.2888144
11	0x3d3e41fd	0.04644965
12	0x3c0d8b05	0.008639102
13	0xbd112c95	-0.035442907
14	0xbeaf8c4c	-0.34286726
15	0xbe57d125	-0.21075876
16	0xbe1a2efe	-0.15056989
17	0x3dbb2906	0.09138684
18	0x3f03b739	0.5145145
19	0x3d246ea4	0.040144578
20	0xbc9b343d	-0.018945808
21	0xbe6f6c91	-0.23381259
22	0x3ca9f670	0.020747393
23	0xbe043340	-0.12910175
24	0xbb8f1a9b	-0.0043671853
25	0x3e299b08	0.16563046
26	0x3e9ab4a6	0.3021595
27	0x3e31152d	0.17293234
28	0xbdf5270f	-0.119703405
29	0x3e59be32	0.2126396
30	0x3ebb39d2	0.3656755
31	0x3ddb7253	0.10715165
32	0xbe24b28b	-0.16083734
33	0x3f0bd571	0.5462256
34	0x3e2b9c61	0.16758873
35	0x3d9e8c94	0.07741657
36	0xbe97fd77	-0.29685566
37	0xbeaa6d00	-0.33286285
38	0x3e71d42f	0.23616098
39	0x3c22ab16	0.009928485
40	0x3e5bf4a2	0.21480039
41	0xbe8f4966	-0.27985686
42	0xbdbd6b98	-0.092490375
43	0xbd266c6e	-0.04063075
44	0x3eb3a2e1	0.35085204
45	0x3ee9253c	0.4553622
46	0xbcd9b309	-0.026574628
47	0xbe1529bf	-0.14566706
48	0xbf0550c4	-0.52076364
49	0xbda1e62c	-0.0790523
50	0xbf07d4f8	-0.5305934
51	0xbd3a2ba1	-0.045451764
52	0x3e886e6f	0.26646754
53	0xbe7b1503	-0.24519734
54	0xbe87f70c	-0.2655567
55	0xbb3da6be	-0.0028938497
56	0xbea97217	-0.33094856
57	0x3e047b67	0.129377
58	0x3e09d7bc	0.13461202
59	0xbcbe2ac1	-0.023213746
60	0xbd968c0a	-0.07350929
61	0x3e477566	0.19478378
62	0xbd029b40	-0.03188634
63	0xbd27e145	-0.04098632
64	0x3eaed538	0.34147048
65	0x3ee50db3	0.44737014
66	0xbd452d7f	-0.04813909
67	0xbd201628	-0.03908363
68	0xbed88bde	-0.4229421
69	0xbe1efa01	-0.15525056
70	0x3e94a8a0	0.290349
71	0xbc8aace4	-0.016928144
72	0x3eba8932	0.36432797
73	0xbedd82f2	-0.43263966
74	0x3e4b5586	0.19856843
75	0x3d8dc6e7	0.06922703
76	0xbdf7873a	-0.12086339
77	0x3e75d813	0.24008207
78	0x3c2cdb22	0.010550292
79	0x3ba6e3e5	0.005093085
80	0xbe95c271	-0.2924991
81	0x3e664bc2	0.22489837
82	0x3eaa978d	0.3331875
83	0xbd3220dd	-0.043488372
84	0xbf2984d5	-0.6621831
85	0xbe71fc13	-0.23631315
86	0xbe51c427	-0.20484982
87	0x3c6a038c	0.014283072
88	0xbdf8621d	-0.121280886
89	0xbd832ae3	-0.06404664
90	0xbd86ee07	-0.06588369
91	0x3d0a04fb	0.033696156
92	0xbdb78b07	-0.08962064
93	0x3cec41c9	0.028839963
94	0xbb69320c	-0.0035582809
95	0xba3e6d0a	-0.0007264173
96	0xbedc1a2a	-0.42988712
97	0x3cf63a4b	0.030057093
98	0xbeab8a75	-0.33504072
99	0x3f221a90	0.6332178
100	0x3ddfaa86	0.10921197
101	0xbec204d3	-0.37894306
102	0x3f0c0472	0.54694283
103	0xbd3199f7	-0.043359723
104	0xbdbd79db	-0.09251758
105	0x3d527985	0.05138542
106	0x3cb53f27	0.02212484
107	0xbb5b8b83	-0.0033499904
108	0xbd0e3204	-0.034715667
109	0x3d233122	0.03984178
110	0xbe3c1cd6	-0.18370375
111	0x3dda11a0	0.10647893
112	0xbd6cc725	-0.057807107
113	0x3dc600ed	0.09668145
114	0xbeeebb10	-0.46627092
115	0xbecb8c01	-0.39755252
116	0x3d05d259	0.032671306
117	0xbd58d191	-0.052934233
118	0x3d12d553	0.035847973
119	0xbe7dda95	-0.24790414
120	0xbc5493c6	-0.012974685
121	0xbc86713e	-0.01641142
122	0xbe5a59c9	-0.21323313
123	0x3d34f47e	0.04417848
124	0xbca7d978	-0.02048944
125	0x3cdd13be	0.026986953
126	0x3da6da36	0.08147089
127	0x3ec133ba	0.37734777
128	0xbee66691	-0.45000127
129	0x3eba202a	0.36352664
130	0xbce6830f	-0.028138665
131	0xbd9e0c7a	-0.077172235
132	0x3eee1a4e	0.46504444
133	0x3e98c660	0.29838848
134	0x3c40799d	0.011747745
135	0x3c8a4521	0.016878666
136	0x3d15eea8	0.036604553
137	0x3e70fc6e	0.23533794
138	0xbc04dd84	-0.008109454
139	0xbc7fab49	-0.015604802
140	0xbe6d5a61	-0.23179008
141	0x3e815792	0.25262123
142	0x3e457f99	0.19286956
143	0x3d22ed17	0.039776888
144	0x3e8d0290	0.27541018
145	0x3eaba35d	0.33523074
146	0xbede1713	-0.4337698
147	0xbd0e633b	-0.034762602
148	0xbe34a360	-0.17640448
149	0xbe62b8f2	-0.22140864
150	0xbee7d749	-0.45281437
151	0xbd87efdc	-0.066375464
152	0x3d012410	0.031528533
153	0xbd1b9bbc	-0.037990317
154	0x3e0abd4e	0.13548777
155	0xbcc9339d	-0.024560744
156	0xbe085b15	-0.13315995
157	0x3ec3a785	0.38213745
158	0x3def57ee	0.11686693
159	0xbc89b21d	-0.016808564
160	0x3e8c1841	0.27362254
161	0xbe8bc51a	-0.27298814
162	0x3d4dc92e	0.050240688
163	0x3e0c892b	0.137242
164	0xbe88aa69	-0.26692513
165	0xbe3838f8	-0.17990482
166	0x3ddab8d9	0.10679788
167	0xbd16ec12	-0.036846228
168	0x3de6dca5	0.11272553
169	0xbe2edd4c	-0.17076606
170	0xbe98686b	-0.29767165
171	0xbdfeb3e3	-0.124366544
172	0xbe856b12	-0.2605825
173	0x3f0fd369	0.5618196
174	0xbeaf5058	-0.34240985
175	0x3e871dc1	0.26389888
176	0x3dc8dba3	0.098075174
177	0x3eb02af4	0.3440777
178	0x3ec2c540	0.38041115
179	0x3e71637a	0.23573104
180	0x3df2eb1d	0.118612505
181	0xbd37bf91	-0.044860426
182	0xbde5422d	-0.11194263
183	0xbdae00fb	-0.08496281
184	0x3d2d64e5	0.04233255
185	0x3c378d7d	0.011203167
186	0xbd1c9327	-0.038226273
187	0x3e21c524	0.1579786
188	0xbe8d56a9	-0.2760518
189	0xbe627283	-0.22113995
190	0x3e299111	0.16559245
191	0xbd46290c	-0.04837899
192	0xbe40bf6d	-0.18823023
193	0x3e5291d3	0.2056344
194	0x3e5861c9	0.21131052
195	0x3eab797c	0.33491123
196	0x3c0399ce	0.008032275
197	0x3d9e4198	0.07727355
198	0x3e06114f	0.1309254
199	0x3e5b35a6	0.21407184
200	0xbb53f68e	-0.0032343003
201	0xbe0c4779	-0.1369914
202	0x3efb7dd8	0.4911945
203	0xbe45be6d	-0.19310923
204	0x3a40d747	0.00073562976
205	0xbcee924d	-0.029122496
206	0xbe25d24d	-0.16193505
207	0xbdabf8ed	-0.08397088
208	0x3ec32aa0	0.38118458
209	0x3f1d303d	0.6140173
210	0xbf4588bd	-0.7716177
211	0xbe20c096	-0.15698466
212	0xbcbfc9ca	-0.02341165
213	0x3eaf1562	0.34196
214	0xbee2e738	-0.4431703
215	0xbe4c5d65	-0.19957502
216	0xbd57c257	-0.05267557
217	0x3d7737e9	0.060356054
218	0xbdf40fcd	-0.11917076
219	0x3dc9449b	0.098275386
220	0x3c9531ae	0.018212166
221	0xbbbe150f	-0.00580085
222	0x3c7e5187	0.015522367
223	0x3def4411	0.116829045
224	0xbece7e73	-0.40330848
225	0x3ed2cb31	0.41170648
226	0xbf0f23c0	-0.55913925
227	0x3e9ac864	0.3023101
228	0xbad02018	-0.0015878705
229	0xbd76c749	-0.060248647
230	0xbd8e6882	-0.06953527
231	0x3e3a8e99	0.18218459
232	0x3e14963a	0.14510432
233	0xbe845bf4	-0.25851405
234	0x3e2891bf	0.16461848
235	0xbd6c9634	-0.057760432
236	0xbd89290e	-0.06697284
237	0xbd6b3211	-0.057420794
238	0xbd439c23	-0.047756325
239	0xbdb7dc7c	-0.08977601
240	0xbd6576c4	-0.056021467
241	0x3d20d3d8	0.03926453
242	0x3da3fbae	0.080069885
243	0xbe72bdd6	-0.23705229
244	0x3d257ce6	0.040402316
245	0x3d9d2f7b	0.07675072
246	0x3e81e819	0.2537239
247	0xbbb35624	-0.0054729152
248	0xbc99f408	-0.018793121
249	0x3da033d3	0.07822385
250	0xbee717de	-0.45135397
251	0x3f4950cc	0.7863891
252	0xbd2320ee	-0.039826326
253	0xbdd60624	-0.1045039
254	0xbd294c6d	-0.04133265
255	0x3cef6cfc	0.029226772

fc1.bias f4 [64]
0	0x3daa0cdc	0.08303234
1	0x3eaae000	0.33374023
2	0x3f06cfed	0.5266102
3	0xbe207f5c	-0.15673584
4	0xbe8ba597	-0.27274773
5	0xbe449107	-0.19195949
6	0x3e66e685	0.22548874
7	0x3f092a9e	0.53580654
8	0xbeb7a9b1	-0.35871652
9	0x3b802848	0.003911052
10	0x3d8934e0	0.06699538
11	0x3efa899d	0.48933116
12	0x3eb68294	0.35646498
13	0x3eb66a3a	0.3562792
14	0xbd0b1345	-0.033953924
15	0x3e3e7405	0.18598945
16	0x3e01e7b5	0.12686045
17	0x3eb47ffc	0.35253894
18	0x3db12e62	0.08651425
19	0x3da033e6	0.07822399
20	0x3e74ce06	0.23906717
21	0x3e02fe13	0.12792234
22	0xbc52ed53	-0.012873965
23	0xbebf2a02	-0.37336737
24	0x3e5932e5	0.21210821
25	0x3cc35183	0.023842579
26	0x3d9ec565	0.07752494
27	0x3eefa4ef	0.46805522
28	0x3e07bf19	0.13256492
29	0x3e5641a7	0.20923482
30	0x3ed054f2	0.40689808
31	0x3e934341	0.28762248
32	0xbe4a4523	-0.19752936
33	0xbe83206e	-0.2561068
34	0x3ebc5d73	0.36790046
35	0xbe2dd896	-0.16977152
36	0x3d9f0de8	0.07766324
37	0xbf0d5212	-0.55203354
38	0x3e6fcee2	0.23418763
39	0x3f3187a4	0.69347596
40	0x3ed078ed	0.4071726
41	0x3e98a7b6	0.29815453
42	0x3cddfcec	0.027098142
43	0x3dcb3fd1	0.099242814
44	0xbda65455	-0.08121554
45	0xbe6da787	-0.23208438
46	0x3f350a86	0.7071918
47	0x3e370888	0.17874348
48	0x3eb4e8c1	0.35333827
49	0xbec3e5a9	-0.38261154
50	0xbe9b93d3	-0.30386218
51	0xbdec42de	-0.115361914
52	0x3e749f2e	0.23888847
53	0xbe8d31ca	-0.2757705
54	0x3e25c3cd	0.16187973
55	0xbe3fb356	-0.18720755
56	0xbdd0c090	-0.101929784
57	0x3f514109	0.8173986
58	0x3ea90e49	0.3301871
59	0x3e06279c	0.13101047
60	0x3b898c95	0.004197667
61	0xbeaee07b	-0.3415564
62	0x3e1f09bd	0.15531059
63	0x3eb31bb4	0.34982073

fc2.weight f4 [32, 64]
0	0x3d9e0640	0.07716036
1	0xbeb87285	-0.3602487
2	0x3eb6a93d	0.35675994
3	0xbefddd89	-0.4958308
4	0x3e2ffd65	0.17186506
5	0x3e4413a9	0.19148125
6	0xbce69009	-0.028144853
7	0x3e567a72	0.20945147
8	0x3e68dfa7	0.22741567
9	0x3d1e2b59	0.03861556
10	0xbd6c0919	-0.057625864
11	0xbe3c739c	-0.18403476
12	0xbe5b071d	-0.21389432
13	0xbe7100eb	-0.23535506
14	0xbd92c006	-0.07165532
15	0x3e998d57	0.29990646
16	0x3e87dd19	0.26535872
17	0x3e630639	0.22170343
18	0x3e4eb8fa	0.2018775
19	0x3d02726b	0.0318474
20	0x3e50fae9	0.20408215
21	0x3d06c892	0.032906123
22	0xbe90891e	-0.28229612
23	0x3ea58e21	0.32334998
24	0xbd3ac7ce	-0.045600705
25	0xbe994aeb	-0.2993997
26	0x3e546067	0.207399
27	0xbb8ca1b7	-0.004291739
28	0x3c83a139	0.016068088
29	0x3e8b40f6	0.27198
30	0x3d8869c3	0.066607974
31	0x3d6c04dd	0.057621825
32	0x3c3fe1cd	0.01171155
33	0xbe421263	-0.18952326
34	0xbdb1333b	-0.086523496
35	0xbe0477ab	-0.12936275
36	0xbdaad611	-0.08341611
37	0x3db8857b	0.090098344
38	0x3eb4d6ad	0.35320035
39	0xbb5a11fc	-0.003327488
40	0x3e2e60a1	0.17029049
41	0xbd5db21a	-0.05412493
42	0x3ee5a11c	0.4484948
43	0x3e5a4261	0.21314384
44	0xbdbc3fb1	-0.09191836
45	0x3eaa0cdd	0.3321294
46	0xbdafcfc8	-0.08584553
47	0xbe0d22c7	-0.13782798
48	0xbcf37dd5	-0.029723087
49	0xbeed7f87	-0.46386358
50	0x3d5cb3a8	0.05388227
51	0x3e9ca865	0.30597225
52	0xbe4b1f80	-0.19836235
53	0x3e327b3c	0.17429823
54	0x3e8883ea	0.26663142
55	0xbe3b8a43	-0.18314461
56	0x3e60c188	0.21948826
57	0xbed40acf	-0.41414496
58	0xbcf62228	-0.030045584
59	0xbef42121	-0.47681525
60	0xbe89a970	-0.26887083
61	0x3e49d058	0.19708383
62	0xbda4a1f1	-0.080387
63	0xbd38cb8a	-0.045115985
64	0xbbaf4a01	-0.005349398
65	0x3e62aa81	0.22135355
66	0x3b565e74	0.0032710107
67	0xbd929d9b	-0.07158967
68	0xbef3fb0f	-0.4765248
69	0x3df66002	0.12030031
70	0x3ea51d7c	0.32249057
71	0x3e35ab11	0.17741038
72	0x3e8bf155	0.2733256
73	0x3e516ffc	0.20452875
74	0x3d23a8a0	0.039955735
75	0xbdb0b8c9	-0.08628995
76	0x3da19799	0.07890243
77	0xbe8e893b	-0.27839074
78	0xbda8ed99	-0.08248443
79	0x3defbea6	0.11706285
80	0x3d9f8e7d	0.07790849
81	0xbdc05fd8	-0.09393281
82	0x3dbb6332	0.091497794
83	0xbc8581ca	-0.01629724
84	0x3d095899	0.03353176
85	0x3e42978e	0.19003126
86	0xbea16afc	-0.31526935
87	0xbf265946	-0.6497997
88	0xbcfa3cf4	-0.030546643
89	0xbea98c75	-0.33114973
90	0x3e8825d7	0.2659137
91	0x3e6ed184	0.23322111
92	0x3e2f853a	0.17140666
93	0xbdd445be	-0.10364865
94	0x3e3779a2	0.17917493
95	0xbdccb468	-0.09995347
96	0xbdd1e106	-0.10247998
97	0xbeed06b2	-0.4629417
98	0x3ec5b053	0.38611087
99	0x3e78aae0	0.24283934
100	0x3e9daf96	0.30798024
101	0xbef6efc1	-0.48229793
102	0x3d54dde2	0.051969416
103	0x3c272152	0.010200815
104	0x3d66b3f8	0.056323975
105	0x3de48a83	0.111592315
106	0xbd0a8f16	-0.033827864
107	0x3ea15208	0.31507897
108	0x3dd71502	0.10502054
109	0x3e03a464	0.12855679
110	0x3a2fa497	0.0006700246
111	0x3e629dbe	0.22130486
112	0x3e31ef2a	0.1737639
113	0xbe2f772f	-0.17135309
114	0x3e39ef7b	0.18157761
115	0xbf09dfa6	-0.53856885
116	0x3e25196b	0.16122977
117	0xbde1d19e	-0.110263094
118	0x3e8b9dde	0.2726888
119	0x3e2f3214	0.17108947
120	0xbe59da38	-0.2127465
121	0x3d11d08f	0.035599288
122	0x3980dca7	0.0002457846
123	0x3ddd8214	0.10815826
124	0x3e96f046	0.2948019
125	0x3dcfb690	0.10142243
126	0xbdc9d4e6	-0.0985506
127	0xbee3c039	-0.44482592
128	0xbdd11ccd	-0.102105714
129	0xbdbde308	-0.092718184
130	0x3cecd94b	0.028912207
131	0x3ae5138d	0.001747714
132	0x3d9a2200	0.07526016
133	0x3d5c7390	0.053821146
134	0xbdb0b87f	-0.0862894
135	0xbda67eb0	-0.081296325
136	0x3c95b54e	0.01827493
137	0xbd4a374b	-0.049369138
138	0x3d644e99	0.05573902
139	0xbced2762	-0.028949443
140	0xbddde88a	-0.10835369
141	0xbd07727c	-0.033068165
142	0xbdcef217	-0.10104769
143	0xbc2a7658	-0.010404192
144	0xbd7088b1	-0.05872411
145	0x3cf1dadc	0.029523306
146	0xbdce73af	-0.10080659
147	0x3d238d43	0.03992964
148	0x3c8f48ea	0.017490823
149	0x3d5dc784	0.05414535
150	0x3d669fbc	0.05630468
151	0xbce2b9bd	-0.027676458
152	0xbdaf39f0	-0.085559726
153	0xbd97da1d	-0.07414649
154	0xbd8f9a73	-0.07011881
155	0x3d70271b	0.058631044
156	0x3d1474ed	0.03624432
157	0x3c9fdecb	0.019515416
158	0xbdebbaae	-0.11510216
159	0xbcbd9581	-0.023142578
160	0xbdaff531	-0.085916884
161	0xbdc2d57f	-0.095133774
162	0xbdaafe05	-0.08349232
163	0xbcae3706	-0.021266472
164	0xbda6f7e9	-0.08152754
165	0x3d1df80b	0.03856663
166	0x3c3ee432	0.011651086
167	0xbdc5f912	-0.09666647
168	0x3c95fdb4	0.018309452
169	0x3b8359ea	0.0040085213
170	0xbd9a0442	-0.07520343
171	0xbd2804bd	-0.041020144
172	0x3d4c315e	0.049851768
173	0x3ca0fb97	0.019651217
174	0xbd464e44	-0.048414484
175	0x3c9caac2	0.019124392
176	0xbd4900da	-0.049073078
177	0xbd0f43a7	-0.034976628
178	0x3d6accdd	0.05732428
179	0xbd000e69	-0.031263743
180	0xbdb9c30f	-0.090704076
181	0xbb84f6c9	-0.0040577394
182	0xbd135640	-0.035970926
183	0xbcd3f6c8	-0.02587451
184	0xbd41fc7c	-0.04735993
185	0x3b0ccbf9	0.0021483882
186	0xbb8c9fcb	-0.0042915097
187	0xbb0a25f6	-0.0021079755
188	0xbc9e7d92	-0.019346986
189	0xbdb9d0ae	-0.090730056
190	0xbd735a91	-0.059412543
191	0xbdb0547a	-0.086098626
192	0x3e629f04	0.22130972
193	0xbc90154e	-0.017588284
194	0x3e81dcb6	0.25363702
195	0xbde1ad8a	-0.11019428
196	0x3eea0fca	0.4571517
197	0xbdc4dba1	-0.096122034
198	0xbc6dfe95	-0.014526029
199	0xbecfb804	-0.4057008
200	0x3edbb5c8	0.42912126
201	0x3da948f7	0.0826587
202	0xbe75b25b	-0.23993818
203	0xbd9db166	-0.07699852
204	0xbd40f622	-0.04710973
205	0x3e816f0c	0.25280035
206	0x3bea7eda	0.007156235
207	0xbe7da347	-0.24769317
208	0x3e5149fa	0.20438376
209	0xbd1e41a7	-0.03863683
210	0xbf09784e	-0.53699195
211	0xbea974c1	-0.3309689
212	0x3e35559a	0.17708436
213	0x3c7dc96d	0.015489918
214	0x3df0c14c	0.117556185
215	0xbd53f32e	-0.051745586
216	0xbe5e2338	-0.21693122
217	0xbdeb8530	-0.11500013
218	0xbed0d585	-0.40787902
219	0xbe3dfbb4	-0.18553048
220	0xbe4d7349	-0.20063509
221	0x3e8ec5e2	0.27885348
222	0x3e1ca152	0.15295914
223	0xbd870b17	-0.06593912
224	0xbdd56ec6	-0.10421519
225	0x3e9c05a6	0.3047306
226	0xbde84b6f	-0.11342513
227	0x3e6e711e	0.23285338
228	0xbf18c8c6	-0.59681356
229	0x3ead6f98	0.33874202
230	0x3daff919	0.085924335
231	0xbe466c34	-0.19377214
232	0x3cfe13ca	0.031015296
233	0xbeb200b9	-0.34766176
234	0xbd50bcfe	-0.050961487
235	0x3e60eff5	0.21966536
236	0xbcca8b2f	-0.024724571
237	0xbdfb0b56	-0.122580215
238	0x3d6ee56d	0.058324266
239	0xbe1aee6d	-0.15130015
240	0x3e6c4c52	0.23075989
241	0x3d38b7ee	0.045097284
242	0x3e0f31d1	0.13983847
243	0x3ebfdc19	0.3747261
244	0xbdb85e61	-0.09002376
245	0x3dec62c6	0.11542277
246	0x3edd650f	0.43241164
247	0xbdeacd4b	-0.11464938
248	0x3e32a59e	0.1744599
249	0xbd41528a	-0.047197856
250	0xbe9bd429	-0.30435303
251	0xbebb31cc	-0.3656143
252	0x3d4c085a	0.049812652
253	0x3f00cfd5	0.50317127
254	0x3e909dd3	0.2824541
255	0x3e91345d	0.28360263

fc2.bias f4 [32]
0	0x3c7d90e2	0.015476437
1	0x3e2263d6	0.15858397
2	0xbdc60931	-0.09669722
3	0xbcececdb	-0.028921535
4	0x3e66c928	0.22537673
5	0xbedec74b	-0.43511423
6	0x3dbe80d9	0.093019195
7	0x3d58e68e	0.05295425
8	0xbd688aa0	-0.056772828
9	0x3e27e894	0.16397315
10	0xbd931a23	-0.071827196
11	0x3e8a117a	0.2696646
12	0x3e74fc19	0.23924293
13	0xba019193	-0.0004942652
14	0xbe066cf3	-0.13127498
15	0x3dc5a434	0.0965046
16	0xbdfec47f	-0.124398224
17	0x3e3fd645	0.18734081
18	0x3ddd5226	0.10806684
19	0x3bb403bd	0.0054936097
20	0x3c602f27	0.013683117
21	0xbc8db64f	-0.017298846
22	0x3e236722	0.15957311
23	0x3d167802	0.036735542
24	0xbd52fca7	-0.05151048
25	0xbe4cdb9f	-0.20005654
26	0xbe5c57b1	-0.21517827
27	0x3e543bc6	0.20725927
28	0x3e91901b	0.28430256
29	0xbd7c7e85	-0.061644096
30	0x3eeae195	0.4587523
31	0x3e00374a	0.12521091

fc3.weight f4 [3, 32]
0	0xbd2c26b0	-0.042029083
1	0x3e184ecf	0.14873813
2	0xbc810086	-0.01574732
3	0xbbf3793f	-0.007430225
4	0x3e920d80	0.28525925
5	0xbf0b5930	-0.54432964
6	0x3d131fd1	0.035919014
7	0x3e36ab70	0.17838836
8	0x3e7850ba	0.24249545
9	0x3e03f693	0.1288703
10	0xbd4235f9	-0.047414754
11	0x3d7c8360	0.061648726
12	0x3e0982fc	0.13428873
13	0xbe0ea2af	-0.13929246
14	0xbea96f4e	-0.3309273
15	0x3e45ecfa	0.1932868
16	0xbea19da9	-0.31565598
17	0xbc50172f	-0.01270084
18	0xbdcd7461	-0.10031963
19	0xbd5d7cd9	-0.054074142
20	0x3d1c0f30	0.03810042
21	0x3c9b5c6a	0.018964965
22	0xbcaaa763	-0.02083177
23	0x3d22e712	0.039771147
24	0xbbc40339	-0.0059818295
25	0xbc453601	-0.012036801
26	0xbe932bbf	-0.28744313
27	0x3e2f1ff6	0.17102036
28	0x3e8b2cd6	0.27182645
29	0xbea92b69	-0.33040932
30	0x3f2408ff	0.64076227
31	0x3e5727aa	0.21011224
32	0x3f826b61	1.018902
33	0xbee94d4f	-0.45566794
34	0xbdcf6169	-0.101260014
35	0x3f78ea4c	0.9723251
36	0xbe6c0106	-0.23047265
37	0xbd65a7a4	-0.056068078
38	0x3f284fd2	0.65746796
39	0x3d207454	0.03917344
40	0x402a6211	2.6622355
41	0x3fca2f8d	1.5795761
42	0x3f82954e	1.0201814
43	0xbe305ea9	-0.1722361
44	0x3f357b1e	0.70890987
45	0xbe264463	-0.16237025
46	0xbe0dbe5c	-0.13842148
47	0x3f0df753	0.5545551
48	0x3e7e4ad2	0.24833229
49	0x3e2710c5	0.16314991
50	0xbed8b9af	-0.42329165
51	0x3f3b0854	0.7305958
52	0x3f47cfef	0.78051656
53	0xbf36540c	-0.71221995
54	0xbf17d8ea	-0.5931536
55	0xbe933607	-0.28752157
56	0x3ea13c5d	0.31491366
57	0x3f893ed9	1.0722305
58	0x3acd4d23	0.0015663247
59	0x3ec3b518	0.382241
60	0xbeb9b9e7	-0.36274645
61	0xbe1a2e95	-0.15056832
62	0xbe8218dc	-0.2540959
63	0xbeb63954	-0.35590613
64	0xbca15131	-0.019692035
65	0xbf194e49	-0.5988508
66	0x3d99f360	0.07517123
67	0xbe498db2	-0.19682959
68	0xbe7d50e0	-0.24737883
69	0xbc284b61	-0.010271878
70	0x3da38640	0.079845905
71	0x3fcb50af	1.5883998
72	0xbeff279b	-0.49834904
73	0x3e5a6fae	0.21331665
74	0x3de0a526	0.109689996
75	0x3f963738	1.1735601
76	0x3e4e256c	0.20131463
77	0xbee9debf	-0.45677754
78	0x3ea59a3d	0.32344237
79	0xbdf158fe	-0.11784552
80	0xbdfeb13c	-0.124361485
81	0x3f445d04	0.7670443
82	0xbea2c80b	-0.31793246
83	0x3eae242f	0.3401198
84	0xbeeed453	-0.46646366
85	0xbcbc0075	-0.022949437
86	0x3f0f0ffa	0.55883753
87	0x3f2f3360	0.6843777
88	0x3d2b5a2c	0.04183404
89	0xbe8c91ce	-0.2745499
90	0xbed44406	-0.41458148
91	0x3b3cf369	0.0028831607
92	0xbf0b6f4c	-0.544667
93	0x3e517ab6	0.20456967
94	0x3db9db3f	0.09075021
95	0x3d75f6f6	0.060049973

fc3.bias f4 [3]
0	0x3f4f80ca	0.8105589
1	0xbc9d6e4d	-0.019217635
2	0xbd3baa79	-0.045816872

exp_avg f4 [64, 16]
0	0xbb4f1dce	-0.0031603458
1	0xbb96fa2e	-0.0046074605
2	0x3a537326	0.00080661697
3	0x3a092aab	0.0005232493
4	0x3b37453a	0.0027964846
5	0x3b79a4f1	0.0038092698
6	0xbb4f5d68	-0.0031641368
7	0x3abea5ee	0.00145453
8	0xb73b7761	-1.1173864e-05
9	0x3b82c1ac	0.0039903726
10	0xbab2f485	-0.0013653195
11	0x39b7f7ab	0.00035089007
12	0x3a20297b	0.00061096967
13	0x3a73229f	0.00092748733
14	0xba697f80	-0.00089072436
15	0x3a4f82ae	0.0007915896
16	0x3b1e5dfc	0.0024164906
17	0x3aeb5ee9	0.0017957363
18	0x3b19a218	0.0023442563
19	0xb88ce8fa	-6.7191155e-05
20	0xb9a05172	-0.0003057826
21	0xbb253f12	-0.0025214595
22	0x3b8504e6	0.004059422
23	0xbb0ab752	-0.0021166396
24	0x39db8d61	0.0004187627
25	0xbb776630	-0.0037750117
26	0xb9421305	-0.00018508367
27	0xbb65c791	-0.0035061578
28	0x3a513818	0.0007981076
29	0xbb0f9f6b	-0.002191509
30	0x3b6dac21	0.0036265927
31	0xbb00b2e4	-0.0019637877
32	0xbb8ca973	-0.004292661
33	0xbad84984	-0.0016501402
34	0xb7bdadc6	-2.2611475e-05
35	0x3b05321d	0.002032406
36	0x3b201f70	0.00244328
37	0x3b829871	0.0039854576
38	0xbba4c1e1	-0.005027995
39	0x3b10cb16	0.0022093705
40	0xbab7ec16	-0.0014032151
41	0x39fb4d8a	0.00047932222
42	0xbb0f1f62	-0.0021838774
43	0xba85b320	-0.0010200478
44	0x3b19f4a7	0.0023491771
45	0x36ac30f7	5.1316997e-06
46	0xbb8e9107	-0.0043507847
47	0x3a8ae597	0.0010596988
48	0x3b4611e8	0.0030223075
49	0x3a988642	0.0011636692
50	0x3a8fbb9d	0.0010965947
51	0xbab05fa1	-0.0013456234
52	0x3b1967e5	0.0023407873
53	0x3ad954d1	0.0016581063
54	0x3a91d193	0.001112508
55	0xba5116ea	-0.0007976132
56	0x3a81bad0	0.0009897593
57	0xb930dbf8	-0.00016866613
58	0x3abb4b05	0.0014289325
59	0xb9902ace	-0.00027497712
60	0x3aa1f10c	0.0012355163
61	0x39af0fe8	0.00033390452
62	0x3ae8657e	0.0017730442
63	0x3acf2e76	0.0015806693
64	0xbb640d0b	-0.0034797813
65	0x3a13acf5	0.00056333776
66	0x3b7f4caa	0.0038955607
67	0xba35b780	-0.00069319457
68	0x3b9f7f6c	0.004867485
69	0x3bda8871	0.006669097
70	0xbb0bb45f	-0.0021317226
71	0x3b99731c	0.0046829116
72	0xba295c1d	-0.00064605643
73	0x3bb10f21	0.005403415
74	0xba545707	-0.0008100126
75	0x3a5e7984	0.0008486735
76	0x3bac44f3	0.005257243
77	0x3bae5d32	0.0053211683
78	0xba9eb2f3	-0.0012107774
79	0x3b935d51	0.004497208
80	0xba631ff7	-0.0008664126
81	0x3b9203dc	0.0044560265
82	0xb9493ba5	-0.00019191073
83	0xba935712	-0.0011241159
84	0x3a299f74	0.0006470599
85	0x3a3bb4fa	0.00071604515
86	0x3ade661f	0.001696769
87	0xbb882228	-0.0041544624
88	0x3b36384d	0.0027804554
89	0xbb5440aa	-0.0032387176
90	0xba766e78	-0.00094006164
91	0xbb6a2860	-0.0035729632
92	0xbb0032be	-0.0019561495
93	0xbaf8842c	-0.0018960289
94	0xbab4ea60	-0.0013802759
95	0xbb7da270	-0.0038701557
96	0x3b1a65d2	0.0023559225
97	0x3a5e9f60	0.00084923767
98	0xba970da3	-0.001152445
99	0xbb636666	-0.0034698485
100	0x39e4f3b0	0.0004366911
101	0xba89a978	-0.0010502776
102	0x3b044aef	0.0020186265
103	0xbb1fdb5c	-0.0024392223
104	0x3a1600c3	0.00057221594
105	0xbae4db8b	-0.0017460448
106	0x3b277cfc	0.0025556674
107	0x3a6704f1	0.0008812687
108	0x394c9a54	0.00019512448
109	0x3a5a160e	0.00083193264
110	0x3a6faf92	0.00091432885
111	0x39d74b3e	0.00041064055
112	0x3b9cbde7	0.0047833803
113	0x3b9208fc	0.0044566374
114	0x3b6c9533	0.0036099672
115	0xbaa727fb	-0.0012753004
116	0xbb0b87fc	-0.002129077
117	0xbbbf6978	-0.0058414303
118	0x3b461706	0.0030226125
119	0xbb90f8f5	-0.0044242092
120	0xbb04246f	-0.0020163318
121	0xbbdec6f6	-0.0067986203
122	0x396c771b	0.00022551084
123	0xbb0008af	-0.0019536426
124	0xbaf86f36	-0.0018954042
125	0xbb696eff	-0.0035619137
126	0x3ba4afe2	0.0050258497
127	0xbb7f90b2	-0.0038996157
128	0x37860be0	1.5979575e-05
129	0xbb9b287e	-0.0047350517
130	0xbbca807b	-0.006179867
131	0xbb4ac7c0	-0.0030941814
132	0x3aa3e6aa	0.0012504656
133	0xbb2efdb9	-0.0026701523
134	0x3ac838cd	0.0015275717
135	0xba035ec8	-0.0005011377
136	0xba246c95	-0.00062722835
137	0x3a9634a1	0.0011459776
138	0xba43860e	-0.00074586354
139	0x3ae71950	0.0017631445
140	0xba847d6b	-0.0010108178
141	0x3adecb2c	0.0016997806
142	0xbb073694	-0.0020631896
143	0x3b206d86	0.0024479344
144	0xb90e4bfc	-0.00013570482
145	0x3b1c3213	0.0023833557
146	0xba999863	-0.0011718388
147	0x3af63732	0.001878476
148	0xbb1326d4	-0.0022453563
149	0xbb0c7771	-0.0021433497
150	0x3a2827ef	0.0006414642
151	0xba106219	-0.0005507782
152	0xba6ce2ca	-0.000903648
153	0xbb774f29	-0.0037736392
154	0xba95e968	-0.0011437358
155	0xbb5cfdc0	-0.0033720583
156	0xba72fbf9	-0.0009269114
157	0xbac7271d	-0.0015194152
158	0x3a4a4847	0.00077164586
159	0xbb86724d	-0.004102981
160	0x3aa9b798	0.0012948392
161	0x39ec6380	0.0004508756
162	0xbaa50e5c	-0.001259278
163	0x39e5bbd3	0.00043818224
164	0xba51c0aa	-0.00080014265
165	0xbaebac56	-0.0017980437
166	0x3aef59f8	0.0018261066
167	0xba02b91d	-0.00049866905
168	0xb7951489	-1.7771747e-05
169	0xba7cfc73	-0.0009650655
170	0x39f0a516	0.00045899366
171	0xb9e5cd70	-0.00043831347
172	0xb9fba27f	-0.0004799552
173	0x3a2ec890	0.00066674594
174	0x37f43307	2.9110828e-05
175	0x390ec9d1	0.00013617358
176	0x3a3894e9	0.00070412323
177	0x3a8b4ba5	0.0010627402
178	0x3a9b5690	0.0011851359
179	0xba7e5f2f	-0.00097035145
180	0xba3d1e8c	-0.00072143297
181	0xbab54f6d	-0.0013832875
182	0x3ad65def	0.0016354899
183	0xbb6c6714	-0.0036072182
184	0xba151bda	-0.0005688049
185	0xbae737d4	-0.001764054
186	0x38e9e5fa	0.00011153142
187	0xb9ca5060	-0.00038588326
188	0xb9f353a0	-0.00046410877
189	0xbb496353	-0.0030729368
190	0x3a85a936	0.0010197524
191	0xbb16e965	-0.0023027298
192	0x3a1a9f79	0.0005898397
193	0x381b6b02	3.705454e-05
194	0xba6f6543	-0.00091322156
195	0xbaca5159	-0.001543562
196	0xba1c8a9d	-0.0005971583
197	0xb9ddde52	-0.00042318046
198	0x398ada46	0.00026484038
199	0xbaa4ffa5	-0.0012588395
200	0x3a23d4d9	0.00062496733
201	0xba533e2f	-0.00080582773
202	0x3a47c067	0.0007619918
203	0xb8f5315d	-0.00011691705
204	0xb9f2b41b	-0.00046292026
205	0xba7cf521	-0.0009649564
206	0x39af05c0	0.00033382885
207	0xbad6f659	-0.0016400322
208	0x3a3a07ce	0.00070965
209	0xbb79f535	-0.003814054
210	0xbac66d29	-0.0015138733
211	0x3961d08e	0.00021535365
212	0x3a4fe7db	0.00079309725
213	0x3a886970	0.0010407399
214	0x3a432d7e	0.00074454385
215	0x3b05d98d	0.002042386
216	0x3aa571b9	0.0012622393
217	0x3b15984f	0.0022826379
218	0xb922809b	-0.00015497433
219	0x3b75f1fc	0.0037528267
220	0x3a440d0e	0.0007478752
221	0x3a95313e	0.0011382473
222	0xbacd1ca3	-0.0015648793
223	0x3b77b8e4	0.0037799412
224	0x3aae384b	0.0013291923
225	0x3b30bcdf	0.0026968045
226	0x3a420ff1	0.0007402888
227	0x3b4b7e4a	0.0031050616
228	0xbad24089	-0.0016040961
229	0xbae99899	-0.0017821967
230	0x3a98b3e5	0.0011650292
231	0xbb6d4b98	-0.0036208387
232	0x3b100388	0.002197476
233	0xbaf8391c	-0.0018937918
234	0x3b356a73	0.0027681857
235	0xbb417039	-0.0029516353
236	0xbab7ffd8	-0.0014038039
237	0xbb37ebf1	-0.0028064216
238	0x3a340ae2	0.0006868077
239	0xbb25a29b	-0.0025273922
240	0xbaf177f9	-0.0018422595
241	0xbb09d030	-0.002102863
242	0xba361189	-0.0006945362
243	0x37a4d3bc	1.964892e-05
244	0x3a2b266a	0.00065288565
245	0x3a3e51f5	0.00072601374
246	0x395bced0	0.00020962511
247	0x3a8c9deb	0.0010728216
248	0x3a5b3ae0	0.000836296
249	0x3a4c72ce	0.00077990897
250	0x3a1f5bbf	0.000607904
251	0x3a16d5d4	0.0005753909
252	0xba8457ed	-0.0010097005
253	0x394ac76a	0.00019338509
254	0xba754337	-0.0009356024
255	0xba544232	-0.0008097022

exp_avg_sq f4 [64, 16]
0	0x38ada0bc	8.279222e-05
1	0x38502b7c	4.9631562e-05
2	0x38b403ea	8.583798e-05
3	0x387ff23a	6.102233e-05
4	0x385911b9	5.1753337e-05
5	0x38ce8c1b	9.848942e-05
6	0x387ed95e	6.0760758e-05
7	0x3855dc28	5.0988194e-05
8	0x3836117b	4.340846e-05
9	0x384aae6c	4.8322996e-05
10	0x3839a246	4.4258566e-05
11	0x3836fbb6	4.3626605e-05
12	0x38d6671c	0.00010223521
13	0x38aff0a8	8.389476e-05
14	0x38dfbe03	0.00010668861
15	0x390089b9	0.00012258337
16	0x38e9dfb1	0.000111519716
17	0x38a8ee97	8.055305e-05
18	0x392d6b80	0.00016538613
19	0x38a5ad4b	7.9000914e-05
20	0x38d4bdd6	0.000101443075
21	0x3926d008	0.00015908491
22	0x388fd974	6.859275e-05
23	0x38d8f01c	0.000103444065
24	0x386eeff5	5.69671e-05
25	0x389cf32e	7.4839554e-05
26	0x38ae3793	8.307318e-05
27	0x388f62ca	6.837172e-05
28	0x396098c8	0.0002141922
29	0x391aac35	0.00014750737
30	0x3912a3b4	0.00013984629
31	0x3930be1a	0.00016855486
32	0x38696b0b	5.565122e-05
33	0x38cd788b	9.7976146e-05
34	0x38b9bc12	8.856518e-05
35	0x38b1a4e1	8.470729e-05
36	0x394e7ae4	0.00019691471
37	0x38e9eac0	0.000111540314
38	0x38b3be69	8.570852e-05
39	0x389c5cbb	7.455932e-05
40	0x38890997	6.534455e-05
41	0x38b25694	8.503828e-05
42	0x38a3431c	7.784946e-05
43	0x3888bf44	6.520611e-05
44	0x391291a9	0.00013977908
45	0x38bffc92	9.1546346e-05
46	0x38db2c5f	0.000104509985
47	0x3906bcca	0.00012849565
48	0x380c127d	3.339582e-05
49	0x388d6667	6.742478e-05
50	0x38712849	5.7496396e-05
51	0x3811e951	3.4787987e-05
52	0x38c9f00b	9.6291384e-05
53	0x383beb40	4.4803368e-05
54	0x385727d7	5.12971e-05
55	0x38378d15	4.3761993e-05
56	0x380f2746	3.4130433e-05
57	0x384816a4	4.77048e-05
58	0x3811d876	3.477229e-05
59	0x3801f23d	3.09816e-05
60	0x38818b5c	6.177157e-05
61	0x3816a16a	3.5913115e-05
62	0x3863cbbd	5.4310764e-05
63	0x38890947	6.534397e-05
64	0x3827acbf	3.9976785e-05
65	0x38d35414	0.00010076925
66	0x38dd2ece	0.00010546819
67	0x389fb888	7.6160824e-05
68	0x39542969	0.00020233322
69	0x391d9053	0.00015026452
70	0x3898d697	7.287895e-05
71	0x38d01fef	9.924161e-05
72	0x386515dc	5.4618213e-05
73	0x38e83d7d	0.00011074075
74	0x38a8b552	8.044638e-05
75	0x3892f962	7.008274e-05
76	0x3958ecca	0.00020687576
77	0x38b40d29	8.58552e-05
78	0x3907bb54	0.00012944388
79	0x391d13bf	0.00014980043
80	0x38a9b4ee	8.092249e-05
81	0x38fb332e	0.000119781456
82	0x38a5e24a	7.909963e-05
83	0x38bc20d7	8.9706555e-05
84	0x391d63fb	0.00015009932
85	0x38acfbcf	8.248502e-05
86	0x38f0af44	0.000114767376
87	0x38a5f4cc	7.91341e-05
88	0x3895df75	7.146496e-05
89	0x38afb97c	8.3791994e-05
90	0x38a75cc5	7.98046e-05
91	0x388f187f	6.823334e-05
92	0x38f83067	0.00011834577
93	0x38dfcb82	0.00010671375
94	0x38f4b110	0.00011667807
95	0x3908a3fc	0.0001303106
96	0x38a1a18d	7.7071694e-05
97	0x380e3785	3.3907145e-05
98	0x3865a962	5.4755605e-05
99	0x38429a0f	4.6396683e-05
100	0x386b6d0b	5.612992e-05
101	0x3904838a	0.00012637503
102	0x38190ba8	3.64889e-05
103	0x38558d40	5.0914707e-05
104	0x37ff99d1	3.0469995e-05
105	0x38187baf	3.6354813e-05
106	0x3808d3a4	3.2622032e-05
107	0x3802e4cd	3.1207503e-05
108	0x38d1dd1e	0.00010007083
109	0x3888fe9e	6.5324115e-05
110	0x38ac79c7	8.224282e-05
111	0x38baab77	8.901109e-05
112	0x3975912e	0.00023419104
113	0x392be192	0.00016391862
114	0x3961bc5f	0.00021527846
115	0x39251985	0.00015745133
116	0x394eee44	0.00019734452
117	0x3997c040	0.00028944202
118	0x3928e112	0.00016105574
119	0x399a1a99	0.00029392986
120	0x390a0cf3	0.0001316553
121	0x39339e27	0.00017129687
122	0x39277a78	0.00015971984
123	0x3912ee89	0.00014012506
124	0x39b55844	0.00034588773
125	0x398aed30	0.0002649813
126	0x399f18f5	0.00030345438
127	0x399d0cbd	0.00029954864
128	0x39221b2c	0.00015459646
129	0x38aeab0d	8.328827e-05
130	0x389e4abd	7.547948e-05
131	0x38641d8a	5.4386946e-05
132	0x381bdda1	3.7161288e-05
133	0x3866f596	5.5064993e-05
134	0x3889314e	6.541853e-05
135	0x38ada255	8.2795195e-05
136	0x386ef342	5.6970173e-05
137	0x3899856f	7.3204625e-05
138	0x3885debf	6.383424e-05
139	0x387cb622	6.0251106e-05
140	0x38dfc895	0.0001067083
141	0x388aac80	6.6124834e-05
142	0x3899c1da	7.331716e-05
143	0x38a56f99	7.8886e-05
144	0x388cb39f	6.709177e-05
145	0x38929017	6.988661e-05
146	0x38949f7e	7.086898e-05
147	0x384b8bfe	4.852935e-05
148	0x38756f00	5.851593e-05
149	0x38ddd09f	0.0001057696
150	0x38e071bf	0.00010702339
151	0x38830b2f	6.24865e-05
152	0x38262523	3.961207e-05
153	0x386ef97e	5.697598e-05
154	0x384a38e7	4.8213547e-05
155	0x38276e3e	3.9918574e-05
156	0x38f872ee	0.00011846969
157	0x389da795	7.517558e-05
158	0x38ac0111	8.201798e-05
159	0x38ed8171	0.00011325151
160	0x36ef736a	7.136191e-06
161	0x37588f9b	1.2908039e-05
162	0x3710ebc0	8.637959e-06
163	0x371f52f9	9.496457e-06
164	0x37502ef2	1.2408696e-05
165	0x377f1422	1.5203872e-05
166	0x37359c41	1.0824821e-05
167	0x3700ce18	7.6773795e-06
168	0x36de2f39	6.621613e-06
169	0x374452f6	1.1701826e-05
170	0x36ea4813	6.982134e-06
171	0x3702a232	7.786368e-06
172	0x378ebfd8	1.7017053e-05
173	0x36e9d451	6.968658e-06
174	0x3774b9bf	1.4586781e-05
175	0x3754e6e5	1.2689944e-05
176	0x37ed467c	2.8285423e-05
177	0x3838faad	4.410248e-05
178	0x386ca933	5.6424364e-05
179	0x3818ff7d	3.6477566e-05
180	0x3897dd62	7.241477e-05
181	0x3877b4a2	5.9057616e-05
182	0x382d37e8	4.129848e-05
183	0x3827d720	4.0016253e-05
184	0x37d7d8d9	2.5730975e-05
185	0x381617f2	3.5785088e-05
186	0x381dce3f	3.76238e-05
187	0x37f512fc	2.9215116e-05
188	0x38c1ac63	9.235067e-05
189	0x38897aea	6.5555636e-05
190	0x388d99f2	6.7520785e-05
191	0x38a58d09	7.894083e-05
192	0x36d3551e	6.298199e-06
193	0x37851934	1.5866572e-05
194	0x3724179b	9.780658e-06
195	0x3759119d	1.2938309e-05
196	0x381345b2	3.511244e-05
197	0x3773fb6f	1.454247e-05
198	0x37a144ee	1.9224794e-05
199	0x373856c7	1.0987459e-05
200	0x36ead273	6.998243e-06
201	0x37423343	1.1575236e-05
202	0x37389954	1.1002954e-05
203	0x371d018a	9.358288e-06
204	0x37cc88c6	2.4382385e-05
205	0x37730323	1.4484659e-05
206	0x37981a0c	1.8131941e-05
207	0x379731b2	1.8023744e-05
208	0x388cfe67	6.723106e-05
209	0x3915c494	0.00014282978
210	0x38cf8ac6	9.896378e-05
211	0x38982f46	7.25673e-05
212	0x3925433a	0.0001576067
213	0x3881e68f	6.194144e-05
214	0x38e3a4ed	0.00010854923
215	0x38fa3175	0.00011930141
216	0x3895e42a	7.1473725e-05
217	0x38c89923	9.565267e-05
218	0x38a85c90	8.0281054e-05
219	0x3897fdd3	7.2475195e-05
220	0x390a8902	0.00013211745
221	0x3905c97d	0.00012758929
222	0x39102822	0.00013747861
223	0x39147d0a	0.0001416096
224	0x38bc7b70	8.9875306e-05
225	0x3882be14	6.234288e-05
226	0x38829673	6.2269064e-05
227	0x38788aae	5.9256963e-05
228	0x388bc940	6.665522e-05
229	0x38a55220	7.88311e-05
230	0x38985b96	7.264984e-05
231	0x38725f3e	5.7785997e-05
232	0x385d2792	5.272736e-05
233	0x386a810f	5.5910143e-05
234	0x387beb9c	6.006249e-05
235	0x38414268	4.607663e-05
236	0x38cdc08d	9.811027e-05
237	0x3899982d	7.3239535e-05
238	0x38ae8c0a	8.323051e-05
239	0x38d3364c	0.000100713776
240	0x37879f46	1.6167422e-05
241	0x3720edc9	9.592107e-06
242	0x374ca5a5	1.2197915e-05
243	0x371cb31f	9.3400295e-06
244	0x3713f832	8.81967e-06
245	0x377cb8f5	1.5063434e-05
246	0x371b8c54	9.271393e-06
247	0x372259cf	9.676863e-06
248	0x37010e88	7.6923825e-06
249	0x37066371	8.010175e-06
250	0x3735a3ee	1.0826609e-05
251	0x374e4e94	1.2296852e-05
252	0x379cb3f2	1.8680443e-05
253	0x379031c3	1.718931e-05
254	0x3784244d	1.575253e-05
255	0x37a85dda	2.0070864e-05

exp_avg f4 [64]
0	0xbad7483f	-0.0016424729
1	0x3aeaa2e4	0.0017901328
2	0x3927da41	0.00016007667
3	0xbb7cceda	-0.0038575442
4	0xbc255381	-0.01009071
5	0x3ab952b7	0.0014139031
6	0xba8f301a	-0.001092437
7	0x3b60a884	0.003428013
8	0xba682255	-0.00088552135
9	0x3b4976b7	0.0030740926
10	0x3a1425c9	0.00056513824
11	0x3b01d489	0.0019810519
12	0x3a508c47	0.0007955473
13	0xbacea11d	-0.0015764568
14	0x3b34c0c4	0.0027580718
15	0x39bf1402	0.00036445266
16	0x3a925395	0.0011163825
17	0x3a03fadb	0.0005034634
18	0x3ac1c486	0.00147833
19	0xba9fd75a	-0.0012194917
20	0x3a469b6c	0.000757626
21	0xbb8fc1b6	-0.004387106
22	0x3a3cb231	0.00071981834
23	0x39e541e6	0.00043727382
24	0xb9b53b61	-0.0003456725
25	0xba240b6f	-0.0006257807
26	0xbaea74c7	-0.0017887586
27	0x3b3b4dc4	0.0028580287
28	0x3b19f5e6	0.0023492514
29	0xbc1096db	-0.008825029
30	0xbb84fcc5	-0.004058453
31	0x39f4a96a	0.0004666553
32	0x38418925	4.614251e-05
33	0x3af8f497	0.0018993792
34	0xbb0a4eb2	-0.0021104035
35	0xba3e89ee	-0.0007268478
36	0xbb936648	-0.004498277
37	0xba2e1318	-0.00066404184
38	0xbbdbcf34	-0.00670805
39	0xbb331fdf	-0.002733223
40	0xba774e95	-0.0009434012
41	0xbaf402a8	-0.0018616514
42	0xbb25c6a3	-0.0025295399
43	0xbafc2d3e	-0.0019239557
44	0x3c151268	0.009098627
45	0xba5e96b6	-0.00084910856
46	0xba76488a	-0.00093949644
47	0xba278d8e	-0.0006391638
48	0x3b049faf	0.002023678
49	0xbad998dd	-0.0016601343
50	0xba9b4363	-0.0011845644
51	0xbaf342c4	-0.0018559326
52	0x3be52ca6	0.006993848
53	0x39a17667	0.0003079653
54	0xbb1cb4ca	-0.002391147
55	0xba9ea6bc	-0.0012104134
56	0xba86ca88	-0.0010283748
57	0x3a982483	0.0011607561
58	0x3b1729c8	0.0023065675
59	0xbabed0d0	-0.0014558081
60	0xba54000e	-0.00080871664
61	0xba898699	-0.0010492384
62	0xb9ca2d12	-0.00038562022
63	0xb9568024	-0.00020456366

exp_avg_sq f4 [64]
0	0x3992681a	0.00027924852
1	0x39fc8c19	0.00048169566
2	0x398db512	0.00027028524
3	0x3918a98e	0.00014559014
4	0x39bb1645	0.00035684012
5	0x399ad6a7	0.00029533097
6	0x39993b8d	0.00029226803
7	0x3a6b21d0	0.0008969577
8	0x394fe3ff	0.00019825994
9	0x39944573	0.00028280503
10	0x38011cb1	3.0782718e-05
11	0x395a7a00	0.00020835549
12	0x3849d9a2	4.812482e-05
13	0x399a1fae	0.00029396772
14	0x3986b38d	0.00025692247
15	0x38625957	5.3965803e-05
16	0x39d460fa	0.00040508044
17	0x3a7c075f	0.00096141355
18	0x39da5ace	0.00041647855
19	0x39092917	0.00013080645
20	0x3a162a81	0.00057283795
21	0x3a9edb5e	0.001211982
22	0x39f0a06b	0.00045895888
23	0x37a09181	1.9141242e-05
24	0x39ec1d5c	0.00045035302
25	0x3788ef8f	1.6324017e-05
26	0x3a201d69	0.0006107898
27	0x3a324351	0.0006800192
28	0x3942fddb	0.0001859585
29	0x3b5632e1	0.0032684135
30	0x39b2a205	0.0003407152
31	0x383cbff3	4.500146e-05
32	0x38d3b4a5	0.00010094912
33	0x39415add	0.00018439764
34	0x39919a33	0.00027771443
35	0x39fd1048	0.0004826805
36	0x3921b525	0.00015421638
37	0x38f0cf16	0.000114826646
38	0x3a6ecd66	0.0009109586
39	0x395bc965	0.00020960493
40	0x39d44dcd	0.00040493757
41	0x38b148e8	8.4535975e-05
42	0x39571f60	0.00020515686
43	0x3a5d0db6	0.0008432524
44	0x3adadbe4	0.0016697613
45	0x39488afe	0.00019125265
46	0x39cbb4f2	0.00038853992
47	0x390bf5cc	0.0001334764
48	0x3a26a3e3	0.00063568185
49	0x380ebe98	3.4032942e-05
50	0x3945985a	0.0001884414
51	0x3a647520	0.0008714963
52	0x39892847	0.00026160685
53	0x39c1ac49	0.0003694019
54	0x39391ebb	0.00017654423
55	0x380b1815	3.316261e-05
56	0x38d47975	0.00010131571
57	0x39ed2d12	0.00045237743
58	0x382d2b31	4.128664e-05
59	0x39eb5f06	0.0004489349
60	0x39944fc1	0.0002828818
61	0x38db0978	0.000104444975
62	0x3920a532	0.00015320329
63	0x3a3337c7	0.00068366196

exp_avg f4 [32, 64]
0	0xb9960317	-0.00028612532
1	0xbb02f700	-0.001998365
2	0xbb8899ad	-0.00416871
3	0x3b0b992f	0.0021301021
4	0xbb528e16	-0.0032128147
5	0xbb136de0	-0.002249591
6	0x39c07b47	0.00036712943
7	0xbb53414a	-0.003223496
8	0x39f5cfb6	0.00046884798
9	0xbaefd564	-0.0018297848
10	0xba2867d9	-0.0006424166
11	0xbbb389bb	-0.0054790652
12	0xb9ddc234	-0.00042297097
13	0xbbab8860	-0.005234763
14	0xbac278fc	-0.0014837082
15	0xba989422	-0.0011640827
16	0xb9e9fc03	-0.00044628987
17	0xb980c17f	-0.00024558228
18	0xbaab6ba5	-0.0013078345
19	0xbb748164	-0.0037308568
20	0xbbc16e45	-0.0059030377
21	0x3ae8b1ce	0.0017753185
22	0xba252623	-0.00062999333
23	0x3a2a43d1	0.0006495091
24	0xbb660a35	-0.0035101299
25	0x3995233a	0.0002844574
26	0x3b3da270	0.0028935932
27	0xbb88a83c	-0.0041704457
28	0xbac247a3	-0.0014822375
29	0xbac16b9f	-0.0014756805
30	0xbbb1df01	-0.0054281955
31	0x3aa2135a	0.0012365386
32	0xbb07ee33	-0.0020741343
33	0xbb122f49	-0.0022306016
34	0xbad00342	-0.0015870112
35	0x3aaf7e67	0.0013389111
36	0x3aaba420	0.0013095178
37	0x35ee8290	1.777038e-06
38	0xbb9bdfef	-0.0047569196
39	0xbbd832b2	-0.00659784
40	0x39bcfb3c	0.00036045338
41	0x3aa38f94	0.0012478703
42	0xb8856b84	-6.3619605e-05
43	0x3a1473b0	0.0005662991
44	0xbaa3dd1b	-0.0012501808
45	0xb9dc26c4	-0.00041990553
46	0xbc0c4e32	-0.008563565
47	0xbaedade9	-0.0018133494
48	0x3a23c06f	0.00062466314
49	0x37edb346	2.8336082e-05
50	0x3ae4c937	0.0017454986
51	0xbb648d36	-0.0034874207
52	0xbba63d06	-0.0050731925
53	0xba436ee1	-0.0007455182
54	0xbb587554	-0.0033028917
55	0x39890bf2	0.00026139576
56	0xbaca66f6	-0.0015442062
57	0xbb4349b0	-0.002979856
58	0xba902642	-0.001099773
59	0xbb2ac092	-0.0026054722
60	0xbb0f0de7	-0.0021828355
61	0x3a03e27f	0.0005031004
62	0xbb14a530	-0.0022681467
63	0xbb338ccc	-0.0027397154
64	0xba387e25	-0.000703784
65	0x394099d3	0.00018367851
66	0x3b3f8b80	0.0029227436
67	0xba5a9f65	-0.00083397917
68	0x3a96374a	0.0011460569
69	0x39973a80	0.0002884455
70	0x3a947a8f	0.0011328029
71	0x3a5705e8	0.0008202479
72	0x390cffd2	0.00013446741
73	0x3a7fb553	0.00097544974
74	0x3a92b859	0.0011193856
75	0x3b220b92	0.0024726135
76	0x3ab658ad	0.0013911925
77	0x3b2901f2	0.0025788513
78	0x3ae9d82a	0.0017840911
79	0x38596950	5.183491e-05
80	0xbaab957d	-0.0013090816
81	0x3a86c03f	0.0010280682
82	0xb9269615	-0.00015886904
83	0x3a9bad15	0.0011877144
84	0x3af950a4	0.0019021225
85	0xba88b47b	-0.0010429764
86	0xba39c434	-0.00070864265
87	0x3a2ca5c7	0.0006585982
88	0x3b2cc1cc	0.002636063
89	0xb98fcea5	-0.00027429048
90	0xbadbeb43	-0.0016778487
91	0x3b2bec5e	0.0026233415
92	0x3a9a9ae1	0.0011795425
93	0xb90f9eeb	-0.00013696744
94	0x3b0b7089	0.0021276793
95	0xb9420c68	-0.00018505903
96	0x3b058d0c	0.002037826
97	0x393dd3cc	0.00018103345
98	0xb9e0001c	-0.0004272469
99	0xbade3bb4	-0.0016955049
100	0xba35877a	-0.00069247896
101	0x3a01ba4d	0.00049487205
102	0x3b4599c0	0.0030151457
103	0x3afdbaf0	0.001935808
104	0xba31a72d	-0.00067769253
105	0xbab619b7	-0.0013893162
106	0x39680920	0.00022128643
107	0xb9d7634e	-0.00041081983
108	0x3a5b4fd8	0.00083660847
109	0x39da51f4	0.0004164126
110	0x3b18f65d	0.0023340203
111	0x3a922a79	0.0011151574
112	0xbaa58a2b	-0.0012629678
113	0xb995e7d1	-0.0002859221
114	0xba8770f1	-0.0010333342
115	0x3a8b3498	0.0010620533
116	0x3b55f7f0	0.0032649003
117	0x3a286cc9	0.00064249017
118	0x3ab10652	0.0013505912
119	0xba133a58	-0.0005616299
120	0x3ad60ffc	0.0016331668
121	0x3a941c88	0.0011300007
122	0x3a96ebe5	0.0011514394
123	0x3a91f9fc	0.0011137123
124	0x3b3557fa	0.0027670846
125	0x39c8ec86	0.00038323196
126	0x3a73f8c0	0.0009306781
127	0x3a57c4c0	0.0008230917
128	0x00000004	6e-45
129	0x00000004	6e-45
130	0x00000004	6e-45
131	0x00000004	6e-45
132	0x00000004	6e-45
133	0x00000004	6e-45
134	0x00000004	6e-45
135	0x00000004	6e-45
136	0x00000004	6e-45
137	0x00000004	6e-45
138	0x00000004	6e-45
139	0x00000004	6e-45
140	0x00000004	6e-45
141	0x00000004	6e-45
142	0x00000004	6e-45
143	0x00000004	6e-45
144	0x00000004	6e-45
145	0x00000004	6e-45
146	0x00000004	6e-45
147	0x00000004	6e-45
148	0x00000004	6e-45
149	0x00000004	6e-45
150	0x00000004	6e-45
151	0x00000004	6e-45
152	0x00000004	6e-45
153	0x00000004	6e-45
154	0x00000004	6e-45
155	0x00000004	6e-45
156	0x00000004	6e-45
157	0x00000004	6e-45
158	0x00000004	6e-45
159	0x00000004	6e-45
160	0x00000004	6e-45
161	0x00000004	6e-45
162	0x00000004	6e-45
163	0x00000004	6e-45
164	0x00000004	6e-45
165	0x00000004	6e-45
166	0x00000004	6e-45
167	0x00000004	6e-45
168	0x00000004	6e-45
169	0x00000004	6e-45
170	0x80000004	-6e-45
171	0x80000004	-6e-45
172	0x00000004	6e-45
173	0x00000004	6e-45
174	0x00000004	6e-45
175	0x00000004	6e-45
176	0x80000004	-6e-45
177	0x00000004	6e-45
178	0x00000004	6e-45
179	0x00000004	6e-45
180	0x00000004	6e-45
181	0x80000004	-6e-45
182	0x00000004	6e-45
183	0x00000004	6e-45
184	0x00000004	6e-45
185	0x00000004	6e-45
186	0x00000004	6e-45
187	0x00000004	6e-45
188	0x00000004	6e-45
189	0x00000004	6e-45
190	0x00000004	6e-45
191	0x00000004	6e-45
192	0xbb08e687	-0.0020889358
193	0xbb3c3ed7	-0.002872398
194	0xbbcdc9ae	-0.0062801456
195	0x3a4b00be	0.0007743946
196	0xbb6e149d	-0.0036328204
197	0xbaf77393	-0.0018879048
198	0xbb23c31d	-0.0024988123
199	0xbb34a435	-0.0027563695
200	0xb9eeba85	-0.00045533865
201	0xba8509a9	-0.0010149974
202	0xba9c7b18	-0.001193854
203	0xbbad6e39	-0.0052926806
204	0xbb1f70be	-0.0024328674
205	0xbaf7a4db	-0.0018893735
206	0xbb2ab814	-0.002604966
207	0xbb214691	-0.0024608711
208	0x3a4d76b0	0.0007837815
209	0xbab7cbb0	-0.0014022496
210	0xba2b063d	-0.0006524062
211	0xbad9667e	-0.0016586331
212	0xbba29e92	-0.0049627507
213	0xbb57901b	-0.003289229
214	0xbb2e0553	-0.0026553466
215	0x39c4ddeb	0.00037549375
216	0xbb689f0a	-0.0035495185
217	0xba0a1c76	-0.0005268523
218	0xba7c4a92	-0.0009624149
219	0xbb203d31	-0.0024450535
220	0xbaf207fe	-0.0018465517
221	0xba7bddd2	-0.0009607944
222	0xbb2a5477	-0.0025990286
223	0x3aaa36ff	0.0012986361
224	0xbb91936c	-0.004442623
225	0xba9b2ed0	-0.0011839513
226	0xba34e0e4	-0.00068999664
227	0x3a9c4e34	0.0011925162
228	0x39b4c154	0.00034476316
229	0xb9a12635	-0.0003073678
230	0xbb11e7c6	-0.0022263392
231	0xbbd40391	-0.0064701517
232	0xba3bfc2a	-0.0007171059
233	0xba154e14	-0.00056955335
234	0xbac41b37	-0.0014961724
235	0xba77b181	-0.00094487524
236	0xbb29de9c	-0.002592004
237	0xbabd072a	-0.0014421691
238	0xbc17bace	-0.009260846
239	0xbb865b63	-0.0041002496
240	0xb9a6e20b	-0.00031830402
241	0xb7ab7bf1	-2.0442503e-05
242	0xba888d44	-0.0010418077
243	0xbb5d5bd6	-0.0033776662
244	0xbb4f7fcc	-0.0031661866
245	0xbb03a59e	-0.002008773
246	0xbb770aa9	-0.0037695563
247	0xb83621f2	-4.3423795e-05
248	0xbaf9cc70	-0.001905812
249	0xbb204f69	-0.0024461395
250	0xbaf9e5b7	-0.0019065653
251	0xbb362a52	-0.002779622
252	0xbbb941d0	-0.0056535974
253	0xba9540f0	-0.0011387151
254	0xbb140195	-0.002258395
255	0xbac50b62	-0.00150333
