checkpoints/full/torsion_energy/20250611190447407890/MET_dim_12/fold5/best_epoch=235-val_loss_epoch=9.332.ckpt (torch, 47045 bytes, 20 tensors)

fc1.weight f4 [64, 12]
0	0xbd4e0bf4	-0.05030437
1	0xbec3f0f3	-0.38269767
2	0xbe171aaf	-0.14756273
3	0x3ea061ec	0.31324708
4	0x3f09d371	0.5383826
5	0x3b4709ec	0.0030370904
6	0xbe18c7a7	-0.14919911
7	0xbe47bbe6	-0.19505271
8	0xbd138953	-0.036019634
9	0xbe11ccab	-0.14238231
10	0xbe956004	-0.29174817
11	0xbd9a8957	-0.07545727
12	0x3ce5ab2b	0.02803572
13	0xbe9428d1	-0.2893739
14	0x3eb751d6	0.35804623
15	0x3f11e85d	0.56995183
16	0xbe26b999	-0.16281737
17	0xbecf4883	-0.4048501
18	0xbdcd752c	-0.100321144
19	0x3c4b577b	0.012410994
20	0xbe0afac1	-0.13572218
21	0xbc8eb995	-0.017422477
22	0x3def6bcf	0.11690485
23	0xbb7b9cd3	-0.0038393035
24	0xbeadd60e	-0.33952373
25	0xbd3fb001	-0.04679871
26	0xbe670efc	-0.2256431
27	0x3f25811d	0.64650136
28	0xbed07038	-0.40710616
29	0xbc1f997b	-0.009741182
30	0xbd78e72f	-0.06076735
31	0xbde682dd	-0.11255429
32	0xbd4e2d46	-0.050336145
33	0x3e5da587	0.21645175
34	0xbd8edb72	-0.069754496
35	0x3d938782	0.072035804
36	0x3e7ac891	0.24490573
37	0x3e240640	0.16018009
38	0xbd8d5298	-0.06900519
39	0xbedda109	-0.43286923
40	0xbce57e74	-0.0280144
41	0xbecba4b8	-0.39774108
42	0xbefa0eb0	-0.4883933
43	0xbd9bad3a	-0.076014
44	0xbd9cb4ff	-0.0765171
45	0xbe2ea689	-0.17055716
46	0x3cfefcb0	0.03112635
47	0xbd960059	-0.07324285
48	0x3e002692	0.12514713
49	0x3c0e1ac1	0.008673371
50	0xbdf454af	-0.119302146
51	0x3f038ac2	0.513836
52	0x3ec43c29	0.3832715
53	0xbde73f2f	-0.11291348
54	0x3e941756	0.28924054
55	0xbea8ce26	-0.3296978
56	0x3d188425	0.037235398
57	0xbc01cb80	-0.007922053
58	0xbdb87565	-0.09006766
59	0x3d87128a	0.06595333
60	0xbeac6167	-0.33668062
61	0x3ebbaa83	0.36653528
62	0x3dbe3c5c	0.092888564
63	0xbe5e9a85	-0.21738632
64	0xbf166b12	-0.58757126
65	0xbc738ba9	-0.014864841
66	0xbded60c5	-0.11590723
67	0xbdf08cdf	-0.11745619
68	0xbd2725ae	-0.04080742
69	0x3f1cb892	0.6121913
70	0x3e713987	0.23557101
71	0x3d3334dc	0.043751583
72	0xbeb680dd	-0.3564519
73	0xbdd185f6	-0.10230629
74	0x3bca55cc	0.0061747786
75	0xbafe89f8	-0.001941978
76	0xbed1b25e	-0.40956396
77	0xbd0862be	-0.033297293
78	0x3da4b720	0.08042741
79	0xbbfd952d	-0.0077387304
80	0xbb53e9f3	-0.003233549
81	0xbeaaeda4	-0.3338443
82	0x3ea689d4	0.3252703
83	0xbb94fc82	-0.004546703
84	0xbe68ad48	-0.22722352
85	0x3e2e4bac	0.17021054
86	0xbe81bb78	-0.2533834
87	0xbe2879da	-0.16452733
88	0xbe51e21c	-0.2049641
89	0x3e2d4e28	0.16924345
90	0xbdd1e1de	-0.10248159
91	0xbd959e96	-0.073056385
92	0x3bd64cc7	0.0065399143
93	0x3e77b4d6	0.24190077
94	0x3f015fd7	0.50536865
95	0xbe2aa788	-0.1666547
96	0xbe30c6b3	-0.17263298
97	0x3e31f98e	0.17380354
98	0xbdb3bcdc	-0.087762564
99	0xbe3a9406	-0.18220529
100	0xbe6cfcd0	-0.23143315
101	0x3e196777	0.14980875
102	0x3df62f1c	0.12020704
103	0xbea6cb69	-0.32577065
104	0x3ec2f4de	0.38077444
105	0x3dc70cfe	0.09719275
106	0xbeaed389	-0.34145764
107	0xbe45e04e	-0.19323847
108	0x3e64bdf8	0.22338092
109	0xbee83a55	-0.45357004
110	0x3d349fc7	0.044097688
111	0x3b8a0ad5	0.004212717
112	0xbe416e1a	-0.18889657
113	0x3eae5395	0.34048143
114	0xbd562c19	-0.05228815
115	0x3e7a3296	0.2443336
116	0xbdce1b7e	-0.100638375
117	0x3e3e740e	0.18598959
118	0x3d4bfd06	0.04980185
119	0x3cd56e70	0.026053637
120	0xbe15cc72	-0.14628771
121	0xbf14de76	-0.5815195
122	0x3e1342f8	0.14381015
123	0xbee91ad9	-0.45528296
124	0xbd3be6ae	-0.04587429
125	0x3ded8959	0.115984626
126	0xbdb7bcb3	-0.089715384
127	0x3dfaecda	0.12252207
128	0x3daf4b76	0.08559315
129	0xbe694a82	-0.22782329
130	0xbe3327ac	-0.17495602
131	0x3dcd17b2	0.10014285
132	0xbe35f72b	-0.17770068
133	0x3c3aabff	0.011393546
134	0x3c8e9b73	0.017408108
135	0xbe8a7ed4	-0.27049887
136	0x3f1b2d4a	0.6061598
137	0xbc72a5e1	-0.014810056
138	0xbc7bd262	-0.015369983
139	0xbd221d1f	-0.039578553
140	0x37c79e74	2.3796434e-05
141	0x3ed23cac	0.41061914
142	0xbe03e5e3	-0.12880664
143	0x3d3ddafc	0.046351418
144	0x3cc36784	0.023853071
145	0x3e88fdcf	0.2675614
146	0x3e303a56	0.17209753
147	0xbd764cf6	-0.06013199
148	0x3dd178c2	0.10228111
149	0x3edad6f2	0.42742115
150	0xbd83e2a5	-0.064397134
151	0xbd8bb970	-0.06822479
152	0xbe72ec94	-0.2372306
153	0xbe625874	-0.22104055
154	0x3ea57723	0.32317457
155	0x3e2ff52a	0.17183366
156	0xbeec934f	-0.46206138
157	0x3eb761cd	0.35816804
158	0xbbc3bd23	-0.0059734746
159	0xbdfb78a9	-0.122788735
160	0xbe46af6c	-0.19402856
161	0xbe217db2	-0.15770605
162	0xbd4575d2	-0.048208065
163	0xbe612b09	-0.21989073
164	0x3d69cbe9	0.05707923
165	0xbe41de27	-0.189324
166	0xbd6465f7	-0.055761304
167	0xbe88527f	-0.2662544
168	0x3e9c8ff9	0.30578592
169	0x3f21f050	0.6325731
170	0xbd47a394	-0.048739985
171	0x3dc6a674	0.09699717
172	0x3efa5fb9	0.48901156
173	0x3d95dc96	0.07317464
174	0x3d5edc10	0.054409087
175	0xbf060817	-0.52356094
176	0x3da3d187	0.079989485
177	0x3e28a87c	0.16470522
178	0xbd0562f4	-0.032565072
179	0xbdcdbeb7	-0.100461416
180	0xbebd187e	-0.3693275
181	0xbe48c361	-0.19605781
182	0x3d091a0c	0.033472106
183	0x3e897917	0.26850197
184	0x3e93b479	0.28848627
185	0xbe88906e	-0.2667269
186	0xbe30ddee	-0.1727216
187	0x3ea6c138	0.3256929
188	0x3d17f8b2	0.03710241
189	0xbd394f23	-0.045241486
190	0xbe0be55f	-0.13661717
191	0xba129b86	-0.0005592633
192	0xbe60b51e	-0.2194409
193	0x3e928053	0.2861353
194	0x3de29edf	0.110654585
195	0xbc407ad8	-0.011748038
196	0xbe788f38	-0.24273384
197	0x3ec93217	0.39296028
198	0x3ce95a1f	0.028485356
199	0xbeb427c5	-0.35186592
200	0x3dcc7c32	0.09984626
201	0xbd58ff87	-0.052978065
202	0xbe1a45ba	-0.15065661
203	0x3dfa670b	0.12226685
204	0x3ea29614	0.31755126
205	0xbdcb7052	-0.09933533
206	0xbe817c4d	-0.25290146
207	0x3e650071	0.2236345
208	0x3e43bc8a	0.1911489
209	0x3e9378b3	0.28803024
210	0xbe168619	-0.14699592
211	0x3e1f3d41	0.1555071
212	0xbda2c91f	-0.07948517
213	0xbe9d7c43	-0.30758867
214	0xbcd13865	-0.025539586
215	0x3c802be6	0.015645932
216	0xbd33d4fb	-0.043904286
217	0xbebc89e2	-0.36823946
218	0x3e9f636e	0.31130546
219	0xbe012140	-0.1261034
220	0x3d1f3c85	0.038876075
221	0x3f0e54ba	0.5559803
222	0x3cca7f13	0.024718797
223	0xbd3a408f	-0.045471724
224	0x3d8c8833	0.068619154
225	0xbb89aa80	-0.0042012334
226	0x3e3ad522	0.18245366
227	0x3be87747	0.007094297
228	0xbe80c49a	-0.25149995
229	0xbf177884	-0.5916827
230	0x3e87f232	0.26551968
231	0xbe99e4ae	-0.3005728
232	0x3decd208	0.11563498
233	0xbe8a7e52	-0.270495
234	0xbc062e7f	-0.0081897965
235	0x3e830a77	0.25593922
236	0xbe372433	-0.17884903
237	0xbd819518	-0.063272655
238	0xbea14394	-0.3149687
239	0xbe6ae33d	-0.22938247
240	0xbe4cfe9c	-0.20019001
241	0x3e7b1825	0.24520929
242	0xbf239a15	-0.63906986
243	0x3e656b82	0.22404292
244	0xbde0d731	-0.109785445
245	0xbe536f15	-0.20647843
246	0xbe4a9b86	-0.1978589
247	0xbdb3b21a	-0.087742046
248	0x3d862410	0.06549847
249	0xbd14268b	-0.03616957
250	0xbe28e5c2	-0.16493896
251	0xbe0e8bbb	-0.1392049
252	0xbe1a925d	-0.15094896
253	0x3e2322e6	0.15931281
254	0x3dd6adc9	0.10482366
255	0xbe3db2c6	-0.18525228

fc1.bias f4 [64]
0	0x3e56d1e4	0.20978504
1	0xbd1199a5	-0.035546917
2	0xbd2464d1	-0.04013521
3	0x3ed2d038	0.41174483
4	0x3e787438	0.24263084
5	0x3ecd05ee	0.40043586
6	0xbdf61a29	-0.120167084
7	0x3e0d1027	0.13775693
8	0x3e999e67	0.30003664
9	0x3e9c350d	0.30509225
10	0x3daa7e29	0.083248444
11	0x3ee9915e	0.4561872
12	0xbda05331	-0.078283675
13	0xbe12db5d	-0.14341493
14	0xbe8e4dc6	-0.2779371
15	0xbd3818d2	-0.044945545
16	0xbe68c02f	-0.22729562
17	0xbe298833	-0.16555862
18	0xbe911bf7	-0.28341648
19	0x3e6a761b	0.22896616
20	0x3e07ec10	0.13273644
21	0xbe6d885b	-0.23196547
22	0xbd1d1832	-0.038353153
23	0x3e48b377	0.1959971
24	0x3dca9eaf	0.09893548
25	0x3eacc264	0.33742058
26	0x3e1828aa	0.14859262
27	0xbeb34dd5	-0.3502032
28	0xbf2477c6	-0.6424526
29	0x3e97f793	0.29681072
30	0x3e9457f8	0.28973365
31	0x3eedd340	0.46450233
32	0xbf0f1d89	-0.5590444
33	0xbe452d8d	-0.19255657
34	0x3df34019	0.1187746
35	0xbdd68b86	-0.10475831
36	0x3ea49fb2	0.32153088
37	0x3e079944	0.1324206
38	0x3edfc98e	0.43708462
39	0x3e076aaa	0.13224283
40	0xbc03d877	-0.008047215
41	0xbc08ec73	-0.008357155
42	0x3e9ce048	0.30639863
43	0x3e9cdac0	0.30635643
44	0x3eac7775	0.33684888
45	0x3f03beb1	0.51462847
46	0x3e8b49ea	0.2720483
47	0x3ebc5246	0.3678152
48	0x3ea8f944	0.33002675
49	0xbec8897a	-0.39167386
50	0x3eb68c67	0.35653993
51	0x3e8d9911	0.27655843
52	0xbe0e9943	-0.13925652
53	0xbeecacc9	-0.46225575
54	0xbef05ce3	-0.46945867
55	0x3eda05bc	0.425825
56	0x3e2b6533	0.16737823
57	0x3e4434a1	0.19160701
58	0x3d042f78	0.032271832
59	0x3de551a3	0.111972116
60	0xbe63fd97	-0.22264706
61	0xbe0fec5b	-0.14055006
62	0x3dfda541	0.12385035
63	0x3ec12871	0.37726167

fc2.weight f4 [32, 64]
0	0x3b59dadd	0.0033242025
1	0x3e0efb73	0.13963108
2	0x3eac20f0	0.3361888
3	0xbe420de4	-0.18950611
4	0xbebe9746	-0.37224787
5	0x3e88e8e6	0.26740187
6	0xbe088e4e	-0.13335535
7	0x3e4882e7	0.19581185
8	0x3e147be1	0.14500381
9	0x3e4281a7	0.18994771
10	0x3dc622d4	0.09674612
11	0x3e069cf7	0.13145815
12	0xbeeea7b4	-0.46612322
13	0x3e8b6528	0.27225614
14	0xbf1faecf	-0.6237611
15	0x3d6ca17d	0.057771195
16	0xbe4f056a	-0.20216909
17	0x3caaf040	0.020866513
18	0xbe8c524e	-0.27406543
19	0x3e77a55e	0.24184176
20	0x3e8460e7	0.2585518
21	0x3cc68809	0.024234788
22	0x3e69b179	0.22821607
23	0x3eee7fc2	0.46581846
24	0xbd436003	-0.047698986
25	0xbe8804f7	-0.26566288
26	0xbd5a4101	-0.05328465
27	0xbe44a9b9	-0.19205369
28	0x3ed1e35a	0.40993768
29	0xbef30b3b	-0.47469506
30	0x3cfb1623	0.030650204
31	0x3db7034a	0.08936174
32	0x3e4112d8	0.18854845
33	0x3e01d7c5	0.12679966
34	0x3e0d4e66	0.13799438
35	0xbd2d3afd	-0.042292584
36	0x3e1b3e25	0.15160425
37	0x3dc814de	0.09769605
38	0x3e81db10	0.25362444
39	0x3d94a73b	0.07258459
40	0x3da9a3c5	0.0828319
41	0x3cbc8ccd	0.023016358
42	0xbb711d71	-0.003679123
43	0xbe2e796a	-0.17038503
44	0xbc92dfa8	-0.017928913
45	0xbcdd3520	-0.027002871
46	0xbd347ad9	-0.04406247
47	0x3e974333	0.29543456
48	0xbc5eeee1	-0.013606758
49	0xbd65d0f0	-0.05610746
50	0xbe0d59d3	-0.13803796
51	0x3e5bb774	0.214567
52	0xbdccfa42	-0.100086704
53	0x3e954897	0.29156944
54	0xbf50fa39	-0.8163181
55	0x3da9f61a	0.08298893
56	0x3de60f72	0.11233415
57	0xbe3fde2e	-0.18737099
58	0xbd0199bf	-0.031640764
59	0xbe4bb6c9	-0.19893946
60	0xbc5a0acb	-0.013308237
61	0x3ea1daf8	0.31612372
62	0x3d034ef1	0.032057706
63	0x3e61c3ba	0.2204732
64	0x3c0c0cf2	0.008548008
65	0xbd9ad597	-0.0756027
66	0x3de15c58	0.11003941
67	0x3e502e48	0.20330155
68	0xbd93d626	-0.0721858
69	0x3e364961	0.1780143
70	0xbd0f8356	-0.03503736
71	0x3e1c302e	0.15252754
72	0xbdc12d0e	-0.094324216
73	0xbc3c7b41	-0.011503995
74	0xbe8aac91	-0.27084783
75	0x3dc0f011	0.09420789
76	0xbda15d8e	-0.07879172
77	0xbe2e54dc	-0.17024559
78	0xbea7e685	-0.3279306
79	0x3e8ee755	0.27910867
80	0xbbbf0af7	-0.0058301645
81	0x3db72a53	0.089436196
82	0xbe614699	-0.21999587
83	0xbe39b8ed	-0.1813695
84	0x3d417624	0.04723181
85	0x3de27a82	0.11058523
86	0xbe34b44b	-0.17646901
87	0xbe2a7674	-0.16646749
88	0xbe10a1dd	-0.14124246
89	0xbdc27cf5	-0.0949649
90	0xbe2d5653	-0.16927461
91	0x3e2e90fe	0.17047498
92	0x3f16dbf8	0.58929396
93	0x3e2b410f	0.16724037
94	0xbdf64f10	-0.12026799
95	0x3e25e0f8	0.161991
96	0x3eb13437	0.3461015
97	0x3dfa78df	0.122300856
98	0xbc4303df	-0.011902778
99	0x3d7676b4	0.060171798
100	0xbd691f38	-0.05691454
101	0x3ecc6a7b	0.39924988
102	0xbc0483e7	-0.008088089
103	0x3e66c9a5	0.22537859
104	0x3dc7d191	0.097567685
105	0x3d41435c	0.04718338
106	0x3d0994f9	0.033589337
107	0xbdf3f3f0	-0.11911762
108	0x3e887093	0.26648387
109	0x3dab0b9a	0.08351822
110	0x3e0a3906	0.13498315
111	0x3e689d86	0.2271634
112	0x3e0fd033	0.14044265
113	0x3e08f58b	0.13374917
114	0x3e89a64c	0.26884687
115	0xbeb82fe9	-0.35974053
116	0x3e633d4f	0.22191356
117	0x3e642f7b	0.22283737
118	0x3d832b62	0.06404759
119	0xbd213ab8	-0.03936264
120	0x3e6707ac	0.2256152
121	0x3dc0e449	0.09418542
122	0x3d400e2d	0.04688852
123	0x3dc82c3c	0.09774062
124	0x3e476502	0.19472125
125	0xbc137498	-0.008999966
126	0xbc247d5a	-0.010039652
127	0x3da760d4	0.081727654
128	0x3e326a9a	0.17423478
129	0xbe881c83	-0.26584253
130	0xbe985c06	-0.29757708
131	0x3de717ad	0.11283813
132	0x3de3dd40	0.111261845
133	0xbd590b5f	-0.05298936
134	0xbe32ca07	-0.1745988
135	0x3e3f23b2	0.1866596
136	0xbd59e6d7	-0.05319866
137	0x3d659345	0.05604865
138	0xbe29ded2	-0.16588905
139	0xbd9de1f3	-0.07709112
140	0x3d208ebc	0.039198622
141	0xbd08e35b	-0.033419948
142	0x3defa771	0.11701859
143	0x3da2ae5e	0.07943414
144	0xbd2886ad	-0.04114406
145	0x3db7b8c7	0.0897079
146	0x3e2fd6b6	0.1717175
147	0x3d2dd9af	0.042443927
148	0xbd23f879	-0.040031884
149	0x3e34cccf	0.17656253
150	0xbec0bb14	-0.3764273
151	0xbcf332d2	-0.029687319
152	0x3e7d0c0a	0.24711624
153	0x3e57757c	0.2104091
154	0x3da420c7	0.08014064
155	0x3e3cf24c	0.18451804
156	0x3f20f837	0.62878746
157	0x3d7abefc	0.061217293
158	0x3e33c97d	0.1755733
159	0xbe0c77a2	-0.13717511
160	0x3e4b4d75	0.19853766
161	0x3f151984	0.5824206
162	0x3d818459	0.063240714
163	0x3eaa2e91	0.33238652
164	0xbe03f012	-0.12884548
165	0x3df2ab75	0.11849109
166	0x3a8b50a4	0.0010628891
167	0x3eaa235e	0.33230108
168	0xbd426b62	-0.04746569
169	0xbd284492	-0.04108102
170	0x3d57c40c	0.0526772
171	0x3c027fd5	0.007965048
172	0xb9952f26	-0.00028454623
173	0xbac420e9	-0.0014963421
174	0x3e71c1c8	0.23609078
175	0xbcb909ce	-0.022587683
176	0x3d3e7315	0.04649647
177	0x3e5d5b8a	0.2161695
178	0x3e879726	0.26482505
179	0xbebc5464	-0.36783135
180	0x3e406ac7	0.18790732
181	0xbe6a97b9	-0.2290944
182	0xbebbc130	-0.36670828
183	0xbe8b46ff	-0.27202603
184	0x3ea91cce	0.3302979
185	0xbdffd3f2	-0.12491597
186	0xbe77cdfd	-0.24199672
187	0x3d24b1af	0.040208515
188	0xbe512d9a	-0.20427552
189	0x3e041d7e	0.12901875
190	0x3e119801	0.14218141
191	0x3d1e2c6e	0.03861659
192	0x3e858f32	0.26085812
193	0xbe94c5e6	-0.29057235
194	0xbee3ce20	-0.44493198
195	0xbe97be09	-0.29637173
196	0x3e4152f7	0.18879305
197	0x3e9dcde7	0.30821154
198	0x3edc1477	0.42984363
199	0xbd4a1650	-0.049337685
200	0xbd9adccd	-0.07561646
201	0xbdce8b99	-0.1008522
202	0xbe539ed2	-0.20666054
203	0x3da77b83	0.08177855
204	0xbe8d7520	-0.27628422
205	0x3e3e48a2	0.18582395
206	0x3dc05a49	0.093922205
207	0x3d988b39	0.074484296
208	0x3e126f9c	0.14300388
209	0x3ea23e32	0.31688076
210	0xbe8fa3e6	-0.28054732
211	0xbe27fb6c	-0.16404504
212	0xbe37aceb	-0.17937057
213	0x3d15c00f	0.036560114
214	0xbe7ec07f	-0.24878119
215	0x3db7220b	0.0894204
216	0x3a8ed066	0.0010895848
217	0xbe1c0cde	-0.15239283
218	0x3b84ad42	0.0040489743
219	0x3c05aff0	0.008159623
220	0x3f51fe20	0.8202839
221	0x3deee194	0.11664119
222	0x3ed2c0b9	0.4116266
223	0xbe3292d2	-0.1743882
224	0xbe5e639e	-0.21717688
225	0x3eacac87	0.33725378
226	0xbe9795dc	-0.2960652
227	0x3e65e14d	0.22449227
228	0xbde052fc	-0.10953328
229	0x3e3c5184	0.1839047
230	0x3e0d9246	0.1382533
231	0xbedd1a90	-0.43184328
232	0x3e89b03e	0.26892275
233	0xbeed8975	-0.46393934
234	0xbced922e	-0.029000368
235	0x3df8ee6e	0.12154852
236	0x3d58adff	0.05290031
237	0x3e13300d	0.14373799
238	0x3e2d450c	0.1692087
239	0x3cd291b8	0.02570425
240	0x3dbd2d31	0.09237135
241	0xbd48d5e8	-0.049032122
242	0x3dc19f94	0.09454265
243	0xbf066d8f	-0.52510923
244	0xbd89804f	-0.06713926
245	0x3dac11e9	0.084018536
246	0x3e1a8600	0.1509018
247	0x3df950f1	0.121736415
248	0x3dc0989c	0.09404108
249	0x3e3e9a43	0.18613534
250	0x3e697cfd	0.22801585
251	0x3da15f85	0.07879547
252	0xbec8359c	-0.391034
253	0xbd663fe1	-0.056213263
254	0x3e518614	0.20461303
255	0xbe9ebe5c	-0.31004608

fc2.bias f4 [32]
0	0x3e1e4a14	0.15457946
1	0x3d9c9b3c	0.07646796
2	0x3bda58dc	0.006663425
3	0xbd6fe15b	-0.058564525
4	0x3db1f6ab	0.08689626
5	0xbd1bc084	-0.038025394
6	0x3ab821c6	0.0014048151
7	0x3d94b183	0.0726042
8	0xbcd3d743	-0.02585948
9	0xbcef0570	-0.029177397
10	0x3d372f0a	0.044722594
11	0x3dbeefcd	0.09323082
12	0x3d1ccc99	0.038281057
13	0x3d9908ad	0.07472358
14	0x3df0b6d9	0.117536254
15	0x3d70ec6a	0.058819212
16	0x3e0065f9	0.125389
17	0x3df9933a	0.12186284
18	0xbd8b9600	-0.068157196
19	0x3da533c6	0.080665156
20	0x3c689e9d	0.014197973
21	0xbda137a1	-0.078719385
22	0x3d7e8247	0.06213596
23	0x3bffbda9	0.0078045917
24	0x3e0e8203	0.13916783
25	0xbd91d873	-0.071213625
26	0xbce7f11d	-0.028313214
27	0x3d23b8ff	0.039971348
28	0x3da2b4b5	0.079446234
29	0xbd20fa3d	-0.039301146
30	0x3dfb6f20	0.12277055
31	0x3e7a5817	0.24447666

fc3.weight f4 [3, 32]
0	0x3e2e8aa4	0.17045075
1	0x3e7eb2bf	0.24872874
2	0xbe573fa5	-0.21020372
3	0xbd44c1d9	-0.04803643
4	0xbd9f54df	-0.0777986
5	0xbe8296a5	-0.25505558
6	0xbe936fa9	-0.28796127
7	0xbbf9642a	-0.0076108174
8	0xbe139b68	-0.14414752
9	0xbe0be755	-0.13662465
10	0x3e8fa3a0	0.28054523
11	0x3f0d32f7	0.5515589
12	0x3cb4e1dc	0.022080354
13	0x3e0bd48f	0.13655303
14	0x3e972fed	0.29528752
15	0x3cd9ac8a	0.02657153
16	0x3d9758c7	0.0738998
17	0x3e0ef5aa	0.13960901
18	0xbe626630	-0.22109294
19	0xbd9e1d9c	-0.07720491
20	0x3e4cc409	0.19996656
21	0x3dbd417d	0.092410065
22	0xbdfa5595	-0.12223355
23	0x3d6538d0	0.055962384
24	0x3ee90206	0.45509356
25	0xbe9fa421	-0.31179908
26	0x3dfa0667	0.122082524
27	0xbe8aa40a	-0.27078277
28	0x3e6c3433	0.23066787
29	0x3e2ced1d	0.16887327
30	0x3e4857bc	0.19564718
31	0x3e5ce7cf	0.21572803
32	0xbdfbd9c6	-0.12297396
33	0x3ec34028	0.38134885
34	0x3e80b20f	0.25135848
35	0xbef2aa70	-0.47395658
36	0x3ec8cae1	0.39217284
37	0xbd699451	-0.05702621
38	0x3e40c89e	0.1882653
39	0xbe4fe24b	-0.20301168
40	0xbeaab730	-0.33342886
41	0x3e3ec607	0.18630229
42	0x3ee50c79	0.44736078
43	0xbe808bc8	-0.25106645
44	0xbf8cb07e	-1.0991361
45	0x3f0c83bc	0.5488851
46	0xbe7dc744	-0.24783045
47	0x3ecb47c7	0.397032
48	0x3ef85545	0.48502555
49	0xbe8f832b	-0.2802976
50	0xbe693405	-0.2277375
51	0xbed53d78	-0.4164846
52	0xbec17475	-0.37784162
53	0x3f8e36a7	1.1110429
54	0xbda18402	-0.078865066
55	0x3f50559e	0.8138064
56	0x3da19d30	0.07891309
57	0xbce7885e	-0.028263267
58	0x3f28472c	0.657336
59	0x3e725f21	0.23669101
60	0x3d90b192	0.07065119
61	0x3fa3658f	1.2765368
62	0xbe2bef31	-0.16790463
63	0xbe85d274	-0.26137125
64	0x3ee679c8	0.45014787
65	0xbeb7ddfc	-0.35911548
66	0xbedb3dbb	-0.42820534
67	0xbf4dd323	-0.80400294
68	0x3e096bae	0.13419983
69	0xbdb4b657	-0.08823841
70	0x3ec43dbf	0.3832836
71	0x3f1b77ae	0.6072949
72	0x3ed9a83d	0.42511168
73	0xbe50b1df	-0.20380352
74	0xbdf51bf7	-0.119682245
75	0xbee1a044	-0.44067585
76	0xbcdbe91a	-0.02684455
77	0x3b49271c	0.0030693477
78	0xbe6ccee2	-0.23125795
79	0x3e2542af	0.16138719
80	0xbd2b9757	-0.041892376
81	0xbe7a99bb	-0.24472706
82	0x3c35dfac	0.011100691
83	0x3d42ad0b	0.047528308
84	0x3e76b6e0	0.24093199
85	0x3e946d44	0.28989613
86	0xbe5e808f	-0.21728729
87	0xbd33e279	-0.043917153
88	0x3ca1cfab	0.019752344
89	0xbe29ffb7	-0.16601454
90	0xbee62095	-0.44946733
91	0xbc89f152	-0.016838703
92	0x3edf1d07	0.43576834
93	0x3c051ebe	0.008125005
94	0xbda30688	-0.0796023
95	0x3c4ce4b8	0.012505703

fc3.bias f4 [3]
0	0x3e4925dd	0.1964335
1	0xbe19c64d	-0.15017052
2	0x3d84916d	0.0647305

exp_avg f4 [64, 12]
0	0xbaffb625	-0.0019509239
1	0x39df49c1	0.00042588825
2	0xbac2d808	-0.0014865408
3	0xba78da78	-0.00094930036
4	0xb32ec844	-4.0694673e-08
5	0xba1552bd	-0.0005696228
6	0x3a7504e0	0.0009346735
7	0xba128d48	-0.00055905106
8	0x3ab04a3e	0.001344986
9	0x3acbb82f	0.0015542562
10	0xb9a6a570	-0.00031785248
11	0x3a58296b	0.0008245918
12	0x3b1b71e4	0.0023719007
13	0x3b15c9db	0.002285591
14	0x3b303041	0.002688423
15	0x3ac30d2e	0.0014881247
16	0xbb93f05f	-0.0045147385
17	0x3b3ea251	0.0029088447
18	0x3a3873e1	0.000703631
19	0x3ba684b4	0.0050817374
20	0xbb149507	-0.0022671835
21	0xba928fe9	-0.0011181805
22	0xba57380e	-0.0008209952
23	0xbb12eb6a	-0.002241815
24	0xbaba1998	-0.0014198301
25	0x387054df	5.72995e-05
26	0xbb89d5c0	-0.004206389
27	0xb995b9ef	-0.00028558026
28	0x3adfc30b	0.0017071677
29	0xbb104a46	-0.0022016927
30	0xbb244718	-0.002506679
31	0xbbc0e8eb	-0.005887141
32	0xba0b5b9b	-0.00053160795
33	0xbb1b0c07	-0.0023658292
34	0xbb075656	-0.0020650825
35	0xba82bba8	-0.0009974139
36	0xbb309f27	-0.002695033
37	0xbad5283c	-0.0016262601
38	0xbb4a8d2c	-0.00309069
39	0xba16c339	-0.00057511363
40	0x3a894dfe	0.0010475514
41	0xbb02d107	-0.0019961016
42	0x3acb67a2	0.0015518556
43	0x38fee749	0.00012154744
44	0xba961dc9	-0.0011452968
45	0x39c4a42e	0.00037506357
46	0xbb0dbeb2	-0.0021628556
47	0xb8d07666	-9.940266e-05
48	0x3b45239c	0.003008104
49	0x3a8955a0	0.0010477789
50	0x3b563db1	0.003269058
51	0xb8e25bad	-0.00010793596
52	0x3b120820	0.0022282675
53	0x3aa5a30a	0.001263709
54	0x3ae13757	0.001718263
55	0x3b41457d	0.002949088
56	0xba839296	-0.0010038193
57	0xba8b2356	-0.0010615389
58	0x3a72e304	0.00092653953
59	0x3a36b498	0.00069696596
60	0x3ac4eb62	0.0015023763
61	0xbaea77ec	-0.0017888523
62	0xbab6a6dd	-0.0013935227
63	0x38eea0a3	0.00011378645
64	0x3aa34196	0.0012455459
65	0xba080a45	-0.00051895186
66	0xba9f8f8a	-0.0012173515
67	0xba6b878f	-0.00089847384
68	0x3a24e70a	0.0006290531
69	0xb996ed72	-0.0002878714
70	0x3ab25644	0.0013606031
71	0x3980ece8	0.0002459057
72	0x3af66150	0.0018797312
73	0x3b1100c0	0.0022125691
74	0x3baffede	0.0053709587
75	0x3b3fc8df	0.0029264016
76	0x39abc6d8	0.00032763812
77	0x3a5866e1	0.0008255076
78	0xbaf4e3b4	-0.0018683583
79	0x3a21db3d	0.00061743316
80	0xb8485236	-4.776028e-05
81	0x3b307b89	0.0026929101
82	0x3b4a3085	0.0030851674
83	0x39dd7eef	0.00042246978
84	0xbb48fcec	-0.0030668331
85	0xba8d1d97	-0.0010766265
86	0xbb501520	-0.0031750873
87	0xbb128aa4	-0.0022360468
88	0x3b08592b	0.0020805101
89	0xba9f5327	-0.0012155519
90	0x3b0e1272	0.0021678475
91	0xbac3e689	-0.0014946024
92	0xbaa63822	-0.0012681524
93	0x3a1f2ff4	0.0006072514
94	0xbaaad3a9	-0.001303305
95	0x3a22bcda	0.00062079506
96	0x3b355ddc	0.0027674353
97	0x3a882013	0.0010385535
98	0x3b8ec197	0.004356574
99	0x3a2d77c2	0.00066172716
100	0xb9e7a919	-0.0004418574
101	0x3a3b66ac	0.0007148783
102	0xb9fa89b5	-0.00047786316
103	0x3a78ba21	0.00094881846
104	0x3aaab353	0.0013023413
105	0x3a9f878b	0.0012171132
106	0x3a10e6f8	0.0005527581
107	0x3ae1ac31	0.0017217455
108	0xb9fa0e44	-0.00047694345
109	0xba883cf1	-0.0010394139
110	0xbb39f2e5	-0.0028373536
111	0xbb1bb8a7	-0.0023761184
112	0x3a284a6f	0.0006419783
113	0x392a1abe	0.00016222426
114	0xb9818c21	-0.00024709202
115	0xbaa1d889	-0.0012347858
116	0x3a1ba3e8	0.00059372047
117	0xbaeede9f	-0.0018224305
118	0xb9a067d5	-0.0003059494
119	0x3a40ac97	0.00073499366
120	0x3a4c84fe	0.00078018
121	0x3aa4ea7e	0.0012582091
122	0x3b379614	0.0028013038
123	0x39153573	0.00014229659
124	0x3a64b89b	0.0008725018
125	0x3a9c0a2f	0.001190489
126	0xba6a86f4	-0.0008946501
127	0x3916358a	0.0001432506
128	0xba2c156a	-0.000656447
129	0xb9cb82d7	-0.0003881666
130	0xb937d104	-0.00017530104
131	0xba8e3d9a	-0.0010852099
132	0x3aaa29c7	0.0012982421
133	0x3a7dfa5a	0.00096884894
134	0x3addf3d6	0.0016933631
135	0xba002a4e	-0.00048891164
136	0xba9d84e2	-0.0012017752
137	0x39d6d025	0.0004097234
138	0x3945a420	0.00018848525
139	0x3a15a51b	0.00057085016
140	0x39535ead	0.00020157798
141	0x39d7f9e8	0.0004119419
142	0xb9d1ae37	-0.00039993387
143	0x39f6e66c	0.00047092454
144	0xbb0126eb	-0.0019707035
145	0xba69a932	-0.00089134567
146	0xba7b07a2	-0.00095760275
147	0x3a49d180	0.00076987594
148	0xba6a1839	-0.0008930001
149	0xbae9bd3b	-0.0017832884
150	0x3afab5c4	0.0019127657
151	0x3a53780f	0.00080669014
152	0x39f97944	0.0004758333
153	0x3b40b3c3	0.0029404021
154	0xba6de2c9	-0.0009074626
155	0x3a811e0f	0.0009850877
156	0x3b7c2ac7	0.0038477646
157	0x3a9146fb	0.0011083776
158	0x3be9e6d8	0.0071381144
159	0xba177f1a	-0.00057791325
160	0xba351e23	-0.0006909093
161	0x3afbf59a	0.0019222975
162	0xba8a2b2d	-0.0010541432
163	0x3a1f22a2	0.00060705293
164	0x3ad0cb6f	0.0015929769
165	0xb9a05659	-0.00030581912
166	0x3ad1866e	0.0015985498
167	0xb830c627	-4.2146214e-05
168	0x3b4ec544	0.0031550685
169	0x3ad97450	0.001659045
170	0x3b2cb77f	0.002635449
171	0xb9ebaff2	-0.00044953782
172	0xba874777	-0.0010320981
173	0x3af87327	0.0018955217
174	0xbb00c1a2	-0.0019646664
175	0xb9dcb936	-0.00042099663
176	0x39be5cd4	0.00036308786
177	0xbaf20240	-0.0018463805
178	0x3a965cc2	0.0011471736
179	0x3a87be47	0.001035639
180	0xbadc2b3f	-0.0016797556
181	0x3ab9b0b9	0.0014167047
182	0xbaf8a5f6	-0.0018970359
183	0xbb467f71	-0.0030288363
184	0x3b9a0939	0.0047008065
185	0xbb9cf0ad	-0.004789433
186	0xbacef6cb	-0.0015790103
187	0xbb0fc36b	-0.0021936547
188	0x38063d25	3.2005035e-05
189	0x3b89d6dc	0.0042065214
190	0xbab20cf4	-0.0013584183
191	0x388a6f4d	6.601084e-05
192	0xb9371754	-0.0001746093
193	0xbb4c3e85	-0.0031165194
194	0xbbcf4845	-0.006325754
195	0x3abc2d66	0.0014356792
196	0xba759957	-0.0009368858
197	0xba97d025	-0.0011582418
198	0x3b3219dd	0.002717606
199	0xba52270f	-0.00080166844
200	0x38fd182a	0.00012068481
201	0xb9eff5ff	-0.00045768914
202	0x3ab22842	0.001359232
203	0x3a81f85e	0.0009915938
204	0xba1d2ce5	-0.00059957645
205	0xbac20200	-0.0014801621
206	0xba708c22	-0.0009176155
207	0xbb23634e	-0.0024931016
208	0xbaafda3f	-0.0013416483
209	0xb972d6d6	-0.00023158951
210	0xba83bb97	-0.0010050413
211	0x39bcc3e0	0.00036004093
212	0x3a83cc41	0.0010055379
213	0xbabc746c	-0.0014377958
214	0xbae12562	-0.0017177279
215	0xba9562c4	-0.0011397232
216	0x3ab3d88c	0.0013721152
217	0xbae1d26a	-0.0017228846
218	0xbb761a2e	-0.0037552225
219	0x351bf5b8	5.809957e-07
220	0x3b5d9939	0.0033813252
221	0xbb8fe32b	-0.004391094
222	0xb9c798f5	-0.000380702
223	0xb992bbd5	-0.00027987236
224	0x3b00593c	0.0019584438
225	0x3a9b69f5	0.0011857139
226	0x3b4e00ae	0.003143351
227	0x3881195a	6.1559214e-05
228	0x3ab96450	0.0014144275
229	0xb9dedf88	-0.00042509683
230	0x3bf6948c	0.0075250324
231	0x3b5eac34	0.0033977153
232	0xba773b01	-0.00094310945
233	0x3af454a1	0.0018640944
234	0x39d777f4	0.00041097368
235	0x3ac2b672	0.0014855398
236	0xba705919	-0.000916855
237	0x3b2c8eaa	0.0026330152
238	0x3b2096b4	0.0024503889
239	0x3ab59084	0.0013852273
240	0x3aa45a34	0.001253909
241	0x3aa76980	0.001277253
242	0x3b31806d	0.0027084604
243	0x3ad1a20f	0.0015993732
244	0xb8f66f4b	-0.00011750924
245	0x3aa9ee60	0.0012964718
246	0x39917464	0.00027743273
247	0x3b08e3cb	0.0020887728
248	0xba1fffbb	-0.00061034755
249	0x3a7dcbf5	0.0009681576
250	0x3acbc2e6	0.0015545755
251	0x3a991f20	0.001168225
252	0x3a3b065f	0.0007134433
253	0x39b8c1ed	0.000352397
254	0x3b1265e9	0.0022338575
255	0xba12fcbc	-0.00056071184

exp_avg_sq f4 [64, 12]
0	0x38de3554	0.00010595718
1	0x38a7ace4	7.995384e-05
2	0x38ae6051	8.314907e-05
3	0x38569d57	5.116811e-05
4	0x389dc7b9	7.5235446e-05
5	0x38658617	5.4722736e-05
6	0x383db47f	4.522921e-05
7	0x385932ab	5.178402e-05
8	0x387a3c60	5.9660873e-05
9	0x39240dd0	0.00015645404
10	0x392423c3	0.00015653581
11	0x38b4cc9e	8.621182e-05
12	0x395fe1c1	0.00021351037
13	0x39026465	0.00012435166
14	0x395c13b9	0.00020988182
15	0x38aef95e	8.343415e-05
16	0x393839d7	0.00017569154
17	0x38b029ac	8.400096e-05
18	0x38c6cd2e	9.4795934e-05
19	0x38df980e	0.00010661791
20	0x390f1392	0.00013644833
21	0x397199b8	0.00023040816
22	0x3958b472	0.00020666586
23	0x3904be80	0.00012659468
24	0x3a041187	0.0005038012
25	0x39398cc7	0.00017695419
26	0x396a801c	0.00022363703
27	0x3910139b	0.00013740214
28	0x39c06faa	0.0003670429
29	0x39309e8c	0.00016843731
30	0x394a27fc	0.00019279117
31	0x391388ec	0.0001407002
32	0x39312419	0.00016893483
33	0x39dc9975	0.00042076004
34	0x3a00807e	0.00049019593
35	0x3969fc44	0.00022314588
36	0x3829bd65	4.0469127e-05
37	0x3821f880	3.8616825e-05
38	0x3862dc03	5.40875e-05
39	0x38aadc5c	8.147277e-05
40	0x38bb1ed6	8.9225985e-05
41	0x3821560a	3.846552e-05
42	0x37ad6ec9	2.0674795e-05
43	0x381617eb	3.5785062e-05
44	0x38310e19	4.2213218e-05
45	0x3917f2b7	0.000144909
46	0x3905ffb5	0.00012779127
47	0x389ea3b6	7.564521e-05
48	0x3982adf9	0.00024925152
49	0x38e2adce	0.000108088934
50	0x391d6f7b	0.00015014216
51	0x3896462c	7.165628e-05
52	0x39350a85	0.00017265424
53	0x38ac53de	8.2172206e-05
54	0x38fe42d3	0.00012124111
55	0x38b20bbb	8.4898864e-05
56	0x38e1d5c8	0.00010768656
57	0x398850e8	0.0002600022
58	0x399385d8	0.00028137746
59	0x39003152	0.00012225404
60	0x3737a0b2	1.0945065e-05
61	0x36b2e387	5.331301e-06
62	0x370f2764	8.532636e-06
63	0x371b73e0	9.265699e-06
64	0x37a88fa9	2.0094058e-05
65	0x36d45475	6.3279244e-06
66	0x36d8d889	6.4625096e-06
67	0x36d022a4	6.2029158e-06
68	0x36de6ba0	6.6286448e-06
69	0x37550e40	1.2699107e-05
70	0x3782d0e6	1.5594484e-05
71	0x371d40b7	9.372997e-06
72	0x39468ef1	0.00018936001
73	0x389f81bc	7.605876e-05
74	0x38dd8fe4	0.00010564903
75	0x38ce092a	9.8245524e-05
76	0x3992766e	0.00027935527
77	0x38a77dea	7.986634e-05
78	0x38ac988c	8.230013e-05
79	0x389bb49c	7.424617e-05
80	0x3896537d	7.168108e-05
81	0x39c76722	0.00038033078
82	0x39a03183	0.00030554467
83	0x39158475	0.00014259091
84	0x38d387e8	0.000100865785
85	0x388cbbbc	6.7106885e-05
86	0x38e4ebbd	0.00010915797
87	0x38eb5830	0.000112220994
88	0x3918ffb5	0.00014591108
89	0x38d24bd9	0.00010027708
90	0x388e5db0	6.788538e-05
91	0x38c1f0a2	9.2477785e-05
92	0x38ad0e2c	8.2519226e-05
93	0x38fe3a61	0.00012122538
94	0x38cc602d	9.745392e-05
95	0x38f7a96d	0.00011809436
96	0x39018185	0.00012350648
97	0x389ff32d	7.627006e-05
98	0x38f3a73c	0.00011618293
99	0x38d2eae0	0.00010057329
100	0x391a6d70	0.00014727353
101	0x38aba954	8.185455e-05
102	0x3893d521	7.0492046e-05
103	0x38891a2c	6.537544e-05
104	0x38b02c04	8.4005325e-05
105	0x395dd0f5	0.00021154045
106	0x3978d680	0.0002373103
107	0x390b4a67	0.0001328379
108	0x38839161	6.273646e-05
109	0x37fdf3aa	3.0273415e-05
110	0x38776ce9	5.899082e-05
111	0x384989ea	4.8050577e-05
112	0x391292fd	0.00013978402
113	0x38289efd	4.020239e-05
114	0x37fabc9c	2.989015e-05
115	0x38173bd5	3.605693e-05
116	0x38264d9c	3.9649763e-05
117	0x390d18d0	0.00013456051
118	0x3915eecb	0.00014298705
119	0x389698f4	7.181047e-05
120	0x39099e5d	0.00013124333
121	0x38adf8c2	8.2956176e-05
122	0x38c218de	9.255273e-05
123	0x38c35645	9.3143935e-05
124	0x390ac55b	0.00013234226
125	0x388d8697	6.748473e-05
126	0x38794cf3	5.943789e-05
127	0x38694730	5.5617827e-05
128	0x389f5530	7.597578e-05
129	0x397584f5	0.00023414551
130	0x397aab3a	0.00023905645
131	0x38d2571e	0.00010029807
132	0x38560242	5.102368e-05
133	0x3820e137	3.835672e-05
134	0x37a5e0cb	1.977421e-05
135	0x37691e52	1.3894942e-05
136	0x373bc4b5	1.1191868e-05
137	0x37780c74	1.4784851e-05
138	0x37937a33	1.7580669e-05
139	0x378f57f3	1.7087883e-05
140	0x37614be8	1.3428718e-05
141	0x3805adad	3.187142e-05
142	0x3829a855	4.044951e-05
143	0x3791556a	1.7325121e-05
144	0x38f80427	0.00011826335
145	0x390bb528	0.00013323559
146	0x392f7da5	0.00016736107
147	0x392988e3	0.0001616809
148	0x391eff5e	0.00015163186
149	0x391ae2af	0.0001477103
150	0x38901a47	6.8713496e-05
151	0x38ebb6da	0.00011239732
152	0x393117cc	0.000168889
153	0x397a15e8	0.00023850019
154	0x393899ee	0.0001760495
155	0x38f4683d	0.000116542426
156	0x39851182	0.0002538078
157	0x390ddc59	0.00013528894
158	0x393a7f23	0.00017785704
159	0x394b6be5	0.00019399782
160	0x3993f8f5	0.00028223512
161	0x39060d68	0.0001278423
162	0x38dc9026	0.00010517267
163	0x3905b48d	0.00012751129
164	0x39094c6e	0.0001309381
165	0x39df0382	0.00042536488
166	0x39e2d384	0.0004326367
167	0x3988b006	0.0002607109
168	0x388da7ff	6.754696e-05
169	0x393d5850	0.00018057344
170	0x3900db55	0.00012288739
171	0x38c59c66	9.4228235e-05
172	0x37fc7d59	3.009911e-05
173	0x3811ee01	3.4792352e-05
174	0x3838bd66	4.404541e-05
175	0x38c3e239	9.340462e-05
176	0x38870fbb	6.440232e-05
177	0x38eff16d	0.00011441377
178	0x38b1a067	8.469895e-05
179	0x38bb9379	8.944324e-05
180	0x3a318c77	0.0006772945
181	0x39bfc330	0.00036575785
182	0x397b387f	0.00023958272
183	0x38f0b194	0.00011477168
184	0x3935e431	0.00017346513
185	0x39323e16	0.00016998532
186	0x39693b54	0.00022242713
187	0x395eb111	0.00021237532
188	0x39343e44	0.00017189333
189	0x39e2e0fc	0.00043273706
190	0x39f64f2d	0.00046979767
191	0x396e25a4	0.00022711471
192	0x3971deff	0.00023066624
193	0x39193edc	0.00014614634
194	0x3981e581	0.0002477579
195	0x3955dfb8	0.00020396605
196	0x39d94c00	0.0004144609
197	0x39898b49	0.00026234452
198	0x3908b015	0.00013035566
199	0x39398012	0.00017690685
200	0x395b6399	0.0002092257
201	0x39c96f49	0.0003842062
202	0x39db887d	0.00041872627
203	0x39810aee	0.0002461294
204	0x380dbffd	3.3795823e-05
205	0x37f5217f	2.9221874e-05
206	0x387e1fe6	6.0588027e-05
207	0x37e54d53	2.7334934e-05
208	0x384f8ceb	4.9483886e-05
209	0x37dd7b10	2.6402558e-05
210	0x3766192e	1.3714931e-05
211	0x37fee92f	3.0387744e-05
212	0x37d9095a	2.587277e-05
213	0x38aa9a38	8.134957e-05
214	0x3862fb53	5.4116663e-05
215	0x38330b0d	4.2687218e-05
216	0x3993f2fc	0.00028219062
217	0x397f86d3	0.00024368921
218	0x39795669	0.00023778681
219	0x394e88e5	0.00019696688
220	0x3989cd25	0.0002628352
221	0x398c2ae7	0.00026734846
222	0x3929b54b	0.00016184633
223	0x394b68db	0.0001939865
224	0x395953fa	0.00020726016
225	0x39c02c15	0.00036653937
226	0x39921d1f	0.00027868987
227	0x3973fd20	0.00023268582
228	0x39f95d9e	0.0004756273
229	0x398fc4f1	0.00027421818
230	0x39c64dd8	0.000378235
231	0x39a722c0	0.00031878613
232	0x39f90e6f	0.00047503735
233	0x397cfd41	0.00024126937
234	0x397673ee	0.00023503575
235	0x395ade26	0.00020872857
236	0x39a096fd	0.00030630073
237	0x3a38a1be	0.00070431444
238	0x3a55c9c3	0.000815537
239	0x39d6e633	0.00040988773
240	0x38b85b37	8.790794e-05
241	0x382e91b8	4.1620544e-05
242	0x38be9a09	9.088597e-05
243	0x3834155e	4.2935244e-05
244	0x38dea740	0.00010616938
245	0x387fbbb7	6.097156e-05
246	0x3823f593	3.9090937e-05
247	0x38225edf	3.8712165e-05
248	0x38570351	5.1263083e-05
249	0x38eeba8b	0.00011383471
250	0x390a4a3d	0.00013188361
251	0x38980f03	7.250721e-05
252	0x3796c21a	1.7971779e-05
253	0x37566ae2	1.278028e-05
254	0x37abfbab	2.050198e-05
255	0x381058f7	3.441513e-05

exp_avg f4 [64]
0	0x3a2e37f0	0.00066459086
1	0x3b36e455	0.0027907093
2	0xba3c760f	-0.0007189223
3	0x3a11178d	0.00055348204
4	0xb9d43bd4	-0.00040480366
5	0xbb1a8191	-0.0023575763
6	0xbb0fffd7	-0.002197256
7	0xba1d213c	-0.0005994027
8	0xbaacaa1a	-0.0013173253
9	0x383949dd	4.4176228e-05
10	0x3950443e	0.00019861848
11	0xba006666	-0.0004898071
12	0xbb53a540	-0.0032294542
13	0xbaf31821	-0.001854662
14	0x3a7c3b20	0.00096218474
15	0xba36150a	-0.0006945884
16	0xbb100a6b	-0.0021978866
17	0x3ac12969	0.0014737073
18	0xbb92af0f	-0.004476435
19	0xbb45585a	-0.0030112476
20	0xbb02ea09	-0.0019975922
21	0x3a381ba7	0.00070231635
22	0x38d7b34a	0.00010285394
23	0xbb5a5120	-0.0033312514
24	0x39e73e27	0.0004410606
25	0x3b83cda5	0.0040223175
26	0xb9f53dcd	-0.00046776087
27	0xb9cc196c	-0.00038928853
28	0x3b6ef922	0.0036464413
29	0x3aa29784	0.0012404774
30	0x3aa40d00	0.0012516081
31	0xbb007b78	-0.0019604843
32	0x3ba58bca	0.0050520645
33	0xb95dcf46	-0.00021153418
34	0xba0caa65	-0.0005365967
35	0xba0325e5	-0.00050029
36	0xbb087e30	-0.0020827167
37	0x39c9e506	0.00038508343
38	0x3887f4d0	6.4829015e-05
39	0xbb1858c0	-0.0023246258
40	0xb9447fe4	-0.0001873966
41	0x3aa86140	0.0012846366
42	0xb9de9019	-0.000424505
43	0xbaee4ad0	-0.0018180255
44	0x39ccc544	0.00039056886
45	0x3a7cd8f8	0.0009645368
46	0x3b009415	0.0019619514
47	0xb8f3e770	-0.000116302515
48	0xbaf50864	-0.0018694517
49	0x3b1b097d	0.0023656779
50	0xbaaaa004	-0.0013017659
51	0xba843b5e	-0.0010088494
52	0x3b361552	0.0027783704
53	0xb99b62d5	-0.0002963754
54	0xbba75876	-0.005106981
55	0xb8395a81	-4.4191725e-05
56	0x3a2a5140	0.00064970925
57	0xbb57a36b	-0.0032903801
58	0xbaa3e2e0	-0.0012503527
59	0x398388a6	0.00025088078
60	0x3a42849c	0.0007420273
61	0x38b3993c	8.563927e-05
62	0xbb072d51	-0.0020626376
63	0xbacb11a1	-0.0015492925

exp_avg_sq f4 [64]
0	0x399a70d8	0.00029457244
1	0x39e1e98d	0.00043089353
2	0x3a72ce15	0.0009262276
3	0x39890f4d	0.00026142076
4	0x3a0709fa	0.0005151328
5	0x38027329	3.1101667e-05
6	0x3a24bb26	0.0006283991
7	0x39a5e3c5	0.00031640954
8	0x39f1568a	0.0004603158
9	0x398a92c2	0.00026430754
10	0x39ebef6a	0.0004500107
11	0x38c1ce10	9.241339e-05
12	0x39d926aa	0.00041418272
13	0x3a5e300c	0.00084757875
14	0x39663dad	0.00021957485
15	0x3a822453	0.0009929038
16	0x3a512d51	0.000797947
17	0x38f3837e	0.00011611635
18	0x3a3226a7	0.0006795921
19	0x3acc2bd9	0.0015577032
20	0x39838d79	0.00025091672
21	0x3893364c	7.01962e-05
22	0x38aa0cac	8.108592e-05
23	0x391eeea8	0.0001515696
24	0x37cb4492	2.4231416e-05
25	0x3a2ee78f	0.0006672078
26	0x38affd9e	8.39189e-05
27	0x39ad8de6	0.00033102854
28	0x38e71519	0.00011018868
29	0x39ee3383	0.00045433277
30	0x3a507746	0.00079523434
31	0x39b304bf	0.00034145077
32	0x3a663e74	0.000878311
33	0x39571775	0.00020512736
34	0x3a5cd697	0.00084243104
35	0x393d436b	0.0001804956
36	0x398fa3dc	0.0002739717
37	0x3915bfda	0.00014281218
38	0x3a31aa72	0.00067774125
39	0x396db74e	0.00022670368
40	0x396ceb8f	0.00022594466
41	0x3960563e	0.00021394432
42	0x39398624	0.00017692946
43	0x39dfba0b	0.00042672487
44	0x38411238	4.6031753e-05
45	0x38f4895e	0.00011660413
46	0x3a4ce1aa	0.0007815609
47	0x3a5993f5	0.00082999404
48	0x395591b8	0.00020367547
49	0x398364eb	0.00025061457
50	0x3b328867	0.0027241947
51	0x3abc87bb	0.0014383713
52	0x39bf3b7e	0.00036474684
53	0x39832b5f	0.0002501858
54	0x399f5457	0.0003038968
55	0x3985c4b7	0.000255143
56	0x3a279f92	0.0006394322
57	0x3a02b5cb	0.00049861957
58	0x3924d123	0.00015718168
59	0x398f0b72	0.00027283613
60	0x39b128e0	0.00033790525
61	0x38b62775	8.685786e-05
62	0x39be7667	0.0003632784
63	0x3a25c1ce	0.00063231296

exp_avg f4 [32, 64]
0	0x38745ca1	5.82604e-05
1	0x3926c7bc	0.000159054
2	0x396d373e	0.0002262266
3	0x39a9d3b4	0.00032391923
4	0xb9a8d459	-0.00032201668
5	0xb98f79f2	-0.00027365942
6	0xb9a593d3	-0.0003158139
7	0xb995900d	-0.0002852682
8	0xba297c76	-0.00064653845
9	0x38cdc507	9.811861e-05
10	0xba287d0a	-0.00064273237
11	0xba1882f9	-0.0005817856
12	0x39b592bb	0.00034632333
13	0x39519c2a	0.00019989969
14	0x38aab6a0	8.140248e-05
15	0xb99a3f13	-0.00029420163
16	0x388c7610	6.697711e-05
17	0x39bd0be1	0.0003605774
18	0x37be5743	2.26904e-05
19	0xb8d49482	-0.000101366095
20	0xba16519e	-0.0005734208
21	0x384b6ab7	4.8498358e-05
22	0xba1cebb9	-0.0005986053
23	0xb9d53abd	-0.0004067029
24	0x39bf2709	0.00036459442
25	0x385b05f1	5.2219202e-05
26	0x3a0e549d	0.00054294785
27	0x37626b44	1.3495624e-05
28	0xb8986745	-7.26716e-05
29	0x360c1a38	2.0876887e-06
30	0x38d71e62	0.00010257658
31	0xba2c951b	-0.0006583498
32	0x37ae2049	2.075745e-05
33	0xb93d1b08	-0.00018034515
34	0xb9dfe60d	-0.00042705276
35	0x3a060808	0.0005112891
36	0xba35c8cf	-0.0006934525
37	0xba39b112	-0.00070835755
38	0xb9a4725f	-0.0003136573
39	0xb8ccf8d0	-9.773823e-05
40	0xb981b361	-0.00024738445
41	0xb9071568	-0.00012882578
42	0xba0952b1	-0.0005238457
43	0x395a7ef1	0.0002083739
44	0xba83831a	-0.0010033578
45	0x3a05f229	0.0005109632
46	0xb9d2a6e7	-0.00040178673
47	0xb99a0be5	-0.0002938203
48	0xba049f18	-0.0005059107
49	0xb78c29f0	-1.670883e-05
50	0xb99eeaf9	-0.00030311177
51	0xba7c0ab9	-0.0009614635
52	0xb8ab9928	-8.182443e-05
53	0x38657c40	5.471357e-05
54	0x38304ddf	4.2034193e-05
55	0xba43f445	-0.00074750587
56	0xba069be3	-0.0005134923
57	0xb9a9a60c	-0.00032357906
58	0x3a11f7f9	0.0005568262
59	0x38695e24	5.5639204e-05
60	0xb9c65ed5	-0.00037836158
61	0xb941dfb7	-0.00018489255
62	0xba851cc4	-0.0010155668
63	0x39495580	0.00019200705
64	0x3a4aff73	0.00077437534
65	0xb9a8e51a	-0.0003221415
66	0xb68eb0d9	-4.2525176e-06
67	0x3a3cb538	0.00071986346
68	0x3a1dd132	0.0006020247
69	0xba19322f	-0.0005843965
70	0x3a09eea5	0.0005261696
71	0x397bb50c	0.0002400467
72	0x3a7a17eb	0.0009540307
73	0xba7c223c	-0.00096181384
74	0x3a010e88	0.0004923125
75	0x3a82438c	0.0009938343
76	0xba5a83c7	-0.00083356764
77	0x3a1dc294	0.0006018069
78	0xb9874bdd	-0.0002580573
79	0x3a1be173	0.00059463753
80	0xb9a47de6	-0.0003137432
81	0xba4aed60	-0.000774106
82	0x385eac3e	5.3089338e-05
83	0x3a4b7d71	0.00077625277
84	0x3af09d93	0.0018357508
85	0xb9e26449	-0.00043180797
86	0x3a101c9a	0.0005497426
87	0xb99883d3	-0.00029089916
88	0xba178e59	-0.00057814043
89	0xba42dcc3	-0.0007433409
90	0xba32963c	-0.0006812548
91	0x388d30b7	6.732478e-05
92	0x39866e4e	0.00025640655
93	0x39f23756	0.00046199065
94	0xb97c3e6d	-0.00024055848
95	0xb9e40595	-0.00043491708
96	0xb80c1b22	-3.340387e-05
97	0xb7a76d50	-1.9958854e-05
98	0xb9827ec9	-0.00024889995
99	0xba01f8b2	-0.0004958018
100	0x3a12a2cf	0.00055937184
101	0x3a718dfe	0.0009214579
102	0xb9e8a676	-0.0004437451
103	0xba04f773	-0.0005072273
104	0xba50470a	-0.0007945156
105	0xba31339e	-0.0006759706
106	0x39ef1d23	0.0004560734
107	0xba547f79	-0.0008106153
108	0x3a44b427	0.00075036514
109	0xbb011711	-0.0019697587
110	0x3a867f88	0.0010261396
111	0x39c6be45	0.00037907265
112	0x393fa8a6	0.00018278006
113	0xb949fbd5	-0.00019262669
114	0x3a80f2a1	0.0009837934
115	0x3a9eceb2	0.0012116043
116	0x3a385b8a	0.00070326834
117	0xb95f140e	-0.00021274408
118	0xb88ba7f4	-6.65932e-05
119	0x3a46f5bd	0.00075897184
120	0x39b9060d	0.00035290458
121	0x3a7c1a90	0.0009616995
122	0xba46c25e	-0.00075820636
123	0xb7b88676	-2.1997123e-05
124	0x39f0b928	0.0004591432
125	0x3883da59	6.287237e-05
126	0x3ae69022	0.0017590562
127	0xba633235	-0.0008666844
128	0x39ce57e2	0.0003935686
129	0xb937ad81	-0.00017516875
130	0xb64c4ac0	-3.044188e-06
131	0xb95f8c09	-0.00021319104
132	0x398aa85b	0.00026446846
133	0xb8dea82a	-0.00010617108
134	0x39482c49	0.00019089984
135	0x39a092fb	0.00030627087
136	0x3a32e3fb	0.0006824133
137	0xb90b5408	-0.00013287377
138	0x3a33e3a9	0.0006862232
139	0x3a1023c6	0.0005498495
140	0xba696f8c	-0.00089048664
141	0xb8974baf	-7.214338e-05
142	0xb99ab806	-0.00029510277
143	0x3a104cec	0.00055046263
144	0xb9ab2987	-0.00032646602
145	0xb99ff6a7	-0.00030510614
146	0xb956f608	-0.00020500284
147	0x399f928a	0.00030436023
148	0x3ab2ee88	0.001365141
149	0xb9574365	-0.00020529104
150	0x3a30e29a	0.00067476335
151	0x37fbccf8	3.0016978e-05
152	0xb988c11f	-0.00026083828
153	0xba02cb28	-0.0004989379
154	0xba3e0ee3	-0.0007250143
155	0x386c48c0	5.633454e-05
156	0x391eb120	0.00015134038
157	0x38b3ab11	8.567249e-05
158	0x39c63dec	0.00037811638
159	0x3980996e	0.00024528377
160	0xb618840c	-2.2726626e-06
161	0x39197f7d	0.0001463871
162	0x3a0aa743	0.0005289206
163	0xba3f745d	-0.0007303411
164	0x3a0d7a87	0.0005396981
165	0x3a2bcd3d	0.0006553715
166	0xb8153792	-3.5576122e-05
167	0xb9cefa09	-0.00039477673
168	0xb979f03d	-0.00023835986
169	0xb9f1d933	-0.00046128928
170	0x3a52359f	0.00080188544
171	0xb96e8b7b	-0.00022749409
172	0x3a98f798	0.0011670468
173	0xba5b2c28	-0.0008360767
174	0x39d18e9f	0.00039969847
175	0xb95e1f02	-0.00021183121
176	0x39326999	0.00017014741
177	0xb9471937	-0.00018987512
178	0x3a241140	0.0006258674
179	0x3aa06a92	0.0012238792
180	0x39684229	0.0002214989
181	0xb787b99d	-1.6179687e-05
182	0xb8d7a372	-0.00010282443
183	0x3a1b344b	0.0005920573
184	0x397337be	0.00023195051
185	0x3a004bca	0.0004894106
186	0xba245ecb	-0.0006270229
187	0xb9e7a3e5	-0.00044181864
188	0x3a555c1a	0.00081390294
189	0x398ff736	0.00027459272
190	0x3aa3dcaf	0.0012501682
191	0xb997de0c	-0.00028966402
192	0xba94e8ee	-0.0011360922
193	0xb9321bad	-0.00016985713
194	0xba36834d	-0.00069623144
195	0xba13fa0a	-0.00056448637
196	0xb9d1a175	-0.0003998388
197	0xba54304c	-0.0008094355
198	0xb9f83466	-0.00047341286
199	0xb89a5a6f	-7.360137e-05
200	0xba307341	-0.00067310414
201	0x39b19161	0.00033868387
202	0xb93dde7b	-0.00018107325
203	0xba8051c8	-0.0009789998
204	0xb8ee8f04	-0.00011375363
205	0xba92991d	-0.0011184547
206	0xb7fe01a8	-3.027993e-05
207	0xba62b82a	-0.00086486584
208	0xb927b3c7	-0.00015993333
209	0x38e882d3	0.0001108699
210	0x386ada03	5.5992987e-05
211	0xbab7b651	-0.0014016127
212	0xbaa2a667	-0.0012409211
213	0xb8e2de40	-0.00010817917
214	0xb9927c2c	-0.00027939805
215	0x38b7b445	8.759698e-05
216	0xb777ff25	-1.4781753e-05
217	0x39091508	0.00013073173
218	0x38504b5f	4.966126e-05
219	0xba09e573	-0.0005260326
220	0xb93ef6a0	-0.00018211687
221	0xb93a8d4f	-0.00017790984
222	0xba307074	-0.0006730624
223	0xb688644b	-4.0647915e-06
224	0xb89cb70c	-7.472755e-05
225	0x3a133936	0.000561613
226	0x39409375	0.00018365479
227	0xb9457b20	-0.00018833252
228	0xba27b42f	-0.0006397394
229	0xba4057b3	-0.0007337287
230	0x38101107	3.4348133e-05
231	0x3a21527f	0.00061539555
232	0x39af4ae8	0.0003343441
233	0xb918eaed	-0.00014583366
234	0x381e9431	3.780815e-05
235	0xba292b17	-0.0006453259
236	0xb9c1036b	-0.00036814375
237	0x3910725b	0.00013775511
238	0xbb111d7e	-0.0022142823
239	0xba9ddfbf	-0.0012044831
240	0x38d5d6ae	0.00010196619
241	0xb9d31a71	-0.00040264757
242	0xba8b6faa	-0.0010638137
243	0xba3e0954	-0.0007249315
244	0xb9d426ff	-0.00040464845
245	0xb8d32aef	-0.00010069261
246	0x383307ac	4.268407e-05
247	0x38b053c1	8.4079344e-05
248	0xba8f1638	-0.0010916656
249	0xba18bf68	-0.00058268616
250	0xb9a9c55f	-0.00032381245
251	0xba7be85e	-0.00096095155
252	0x392408b3	0.000156435
253	0xb9c76b0a	-0.00038035988
254	0xba9a10d6	-0.0011754285
255	0xba2ccb6f	-0.0006591593
