checkpoints/synth/high_energy/torsion_energy/20250611190452341470/MET_dim_6/fold3/best_epoch=248-val_loss_epoch=5.815.ckpt (torch, 42501 bytes, 20 tensors)

fc1.weight f4 [64, 6]
000000 49 76 34 3e 76 9b a4 be 14 b4 5c be 51 c0 32 be
       0.17623247 -0.32149857 -0.2155307 -0.17456175
000010 fe 8f 6b be 08 23 de be f7 ea 84 bd 6e f1 cb 3e
       -0.23004147 -0.43386102 -0.064901285 0.39832634
000020 9c 53 0a bf 0f ef 54 bc 12 97 0f 3f 4c 2b 0e bf
       -0.5403383 -0.012996449 0.5608989 -0.55534816
000030 ad 49 61 3f 60 03 05 3f d4 46 0b 3d 88 95 ea 3e
       0.88003045 0.51958275 0.034003094 0.45817208
000040 8e 7a 0c bf 1e 13 69 bd 26 cf 83 3d e4 a4 7c bd
       -0.54874504 -0.056902997 0.06435995 -0.06168069
000050 b3 fd 38 3f 2c de 30 be 31 df ee be 01 7c cb 3e
       0.72262114 -0.17272252 -0.46654657 0.39743045
000060 a6 b6 96 be 5e 06 e4 3e a6 87 31 3b e7 fe 3c 3f
       -0.29436225 0.44536108 0.002708891 0.7382645
000070 ed 07 65 3d cc b2 1a be 9b b4 d6 3e 91 5c b4 be
       0.05591576 -0.15107268 0.41934666 -0.35226873
000080 a6 6d c8 3c fd 61 4b 3f 38 65 17 3f 99 83 bd 3b
       0.024466347 0.79446393 0.5913882 0.00578351
000090 31 d3 04 bf a7 2f 75 bf 6d ca 57 be de a0 22 3e
       -0.5188475 -0.95775837 -0.21073313 0.15881678
0000a0 d3 a1 aa 3d 7b a6 04 bf 78 ae 1f bf ef 42 f2 be
       0.08331647 -0.5181653 -0.62375593 -0.4731669
0000b0 55 ab 3d bd a5 5f 64 3f 89 a8 6d bd 7a 2e e3 3e
       -0.046305973 0.8920844 -0.058022056 0.44371396
0000c0 d6 d7 f1 3e 81 c0 4d be cf 28 b2 be 66 f7 12 3c
       0.47234982 -0.20092966 -0.3479676 0.008970117
0000d0 08 1e 62 3f b9 40 5b be ad 3c 8e bd 40 dd 62 3f
       0.88327074 -0.21411408 -0.06945167 0.8861885
0000e0 27 01 a2 3c 01 85 4c bd d4 d0 0c bf 9a fb ed bd
       0.01977594 -0.04993153 -0.55006146 -0.11620255
0000f0 ce a6 cf 3e 25 4c 15 3f 97 7f e0 3d a7 63 e7 3e
       0.4055695 0.5831931 0.10961836 0.45193216
000100 44 a9 04 3f e3 98 64 3e f6 bc a3 be d6 b6 ec 3d
       0.5182078 0.22323947 -0.31980103 0.11558311
000110 fa 9f 52 be e4 01 d8 be e7 aa d9 3e fa 83 f8 be
       -0.20568839 -0.42188942 0.425132 -0.4853819
000120 fb ab d6 be 0a a7 17 3f 77 a0 14 bd 76 2f 69 3f
       -0.41928086 0.59239256 -0.036285844 0.91088045
000130 c1 1f b8 3e 00 f9 39 bd 08 99 e7 bb e1 7f 4a 3e
       0.35961726 -0.04540348 -0.0070678033 0.19775344
000140 c9 8c 36 bd 11 e1 9b 3c 5f de 77 3e 31 18 53 bf
       -0.044567857 0.019028218 0.24205922 -0.8245879
000150 4d 65 3a bd b1 0f b3 be 77 46 07 bf ad 02 8a 3c
       -0.045506764 -0.3497291 -0.52841896 0.016846979
000160 1c 6e 7e be ec a8 9c be d8 f3 4d 3e 67 4a 34 bf
       -0.24846691 -0.30597627 0.2011255 -0.7042603
000170 17 db 58 3d 1e 63 84 3c 64 e1 bc 3e 6f b1 ab bb
       0.052943315 0.016160544 0.3689071 -0.0052396576
000180 d2 c8 b2 3c aa 96 f9 be b1 e9 77 bf ed 5d f1 be
       0.021824274 -0.4874776 -0.9684096 -0.47141972
000190 10 40 9a 3e 7f e6 a5 bb 31 d2 00 3f 38 f2 fe 3e
       0.30127 -0.0050628777 0.50320727 0.49794173
0001a0 da eb 90 bd dd 32 22 bf 43 0b 09 bf 8b 06 73 3d
       -0.07076235 -0.6335886 -0.5353281 0.05933241
0001b0 14 a3 b6 be a8 2b 1a be cb d4 09 3e 30 db 8a bf
       -0.35671294 -0.15055716 0.1346008 -1.0848141
0001c0 5f 9d d1 3e 2b 60 a8 3d c4 8f 67 3f a4 e9 98 bd
       0.40940377 0.082214676 0.90453744 -0.074664384
0001d0 80 9f 99 3c ac 4b 0d bf 18 4c 92 bd 8b 38 9f bc
       0.018752813 -0.5519359 -0.0714342 -0.019436141
0001e0 c4 fa 30 bf d3 0b 57 bf 24 93 80 3e 00 a5 e5 3e
       -0.6913264 -0.8400242 0.2511226 0.44852448
0001f0 b8 7f bf 3d 00 ea 5c be d9 03 28 bf 84 f9 20 3f
       0.09350532 -0.21573639 -0.6563087 0.6288073
000200 ac 7e 6d bd 8c ec ba be 4f 30 69 3e 84 4f 53 3d
       -0.05798213 -0.36508596 0.22772335 0.051589504
000210 2a e4 bd be 3e bd ec be 18 54 39 3d c8 fa 66 bf
       -0.37088138 -0.4623813 0.045246214 -0.9022641
000220 dd 05 4d bd a8 26 8d be 4e 5f 35 3f 90 a8 85 3f
       -0.05005442 -0.27568555 0.7084855 1.0442066
000230 35 14 77 bd b7 85 f3 bb 58 93 b8 3e 4e a8 81 bc
       -0.060322005 -0.0074317115 0.36049914 -0.015827324
000240 f5 4f 53 3d 29 29 19 3f 66 55 a8 be a8 fd f7 3e
       0.051589925 0.5982843 -0.32877654 0.48435712
000250 46 a4 44 bf 88 d3 13 3e 0a 95 e1 3d 2f 55 5f 3d
       -0.7681316 0.14436162 0.11014755 0.054524597
000260 6e 20 03 3b 89 ca 78 3f da 6a 52 3d 0f 21 13 bd
       0.0020008343 0.97184044 0.051371433 -0.0359202
000270 22 a8 d7 be 52 76 1b be b8 85 0a 3f 51 98 33 3d
       -0.42120463 -0.15181854 0.5411029 0.043846432
000280 e2 8e fd 3e 32 50 15 be 52 d6 a3 bc cc 04 ac bd
       0.49523073 -0.14581373 -0.019999657 -0.083993524
000290 9c 80 5d 3f 51 3f b1 bc 77 05 2e 3e 47 c8 de 3e
       0.8652437 -0.021636637 0.16994272 0.43512174
0002a0 4c bf 62 bd 29 eb ce be 86 3e 7b be 30 eb 44 3e
       -0.055358216 -0.40413788 -0.2453557 0.19230342
0002b0 c2 d3 1c 3f 59 8e 45 3f 56 a9 a8 3e 21 ab 83 3e
       0.61260617 0.7717033 0.32941693 0.25716498
0002c0 be 22 bb 3d 52 71 27 3f 67 fb f7 3e 21 ce 4e be
       0.09137486 0.6540729 0.48433992 -0.2019582
0002d0 a7 2d 8d be 09 78 f5 be f0 53 02 bf 16 af 19 3e
       -0.27573892 -0.47943142 -0.5090933 0.15008196
0002e0 3b b0 67 be 4a 64 06 3f 73 c5 00 bf 92 72 c2 bd
       -0.2262582 0.5249678 -0.50301284 -0.09494509
0002f0 66 3f 11 3e e0 9e 81 be 92 03 8a bd 7c a4 3d 3f
       0.14184341 -0.25316525 -0.06738962 0.7407911
000300 f1 91 2c 3b 32 66 c8 be 8a 7f db be 6e fc d3 3d
       0.0026332105 -0.3914047 -0.42870742 0.103508815
000310 46 86 4d 3f f8 b3 f0 be ce 36 03 3d 37 f5 f4 3e
       0.8028301 -0.47012305 0.032034688 0.47843334
000320 34 c8 01 bf 5c 10 63 bc 07 c6 15 3d 14 a9 1a 3f
       -0.5069611 -0.013858881 0.036565807 0.6041424
000330 57 97 15 bd d1 52 87 3d 56 bb 0a be a6 b2 4f bc
       -0.036521282 0.06607593 -0.13548025 -0.01267687
000340 6a 5f 4f 3f d4 79 ae 3d 78 ea 30 3f 74 09 43 bf
       0.81004965 0.085193306 0.6910777 -0.761863
000350 a1 1d 1e 3e c0 22 57 3e a0 8e d9 3e a7 4d b0 bd
       0.1544099 0.2100935 0.42491627 -0.08608561
000360 3e 5f af 3e a9 a2 4d bf 28 aa b8 be 71 26 89 be
       0.34252352 -0.80326325 -0.3606732 -0.2678714
000370 40 90 a1 3e 6f 98 a3 bb 91 3f 05 3f 68 47 51 3e
       0.31555367 -0.0049925367 0.5205012 0.20437396
000380 74 c5 25 3e 09 69 d0 3e 8e d6 14 3f 18 5e 1d bf
       0.16188604 0.40705135 0.58139884 -0.614717
000390 d2 44 29 bf ab 79 b0 bd 77 1f 3f bd 11 92 d8 be
       -0.66120636 -0.08616956 -0.046660867 -0.4229894
0003a0 2f 4b 6c be d0 bd 86 be 85 99 78 be 3e 85 80 be
       -0.23075555 -0.2631669 -0.24277313 -0.25101656
0003b0 fd 03 9f 3d 66 6f 5d 3f 8e 24 eb bd 1b 7b e0 bd
       0.077644326 0.86498106 -0.11481582 -0.109609805
0003c0 2f 46 71 3f 5b c7 0c bf da e5 f7 bc 62 89 e8 bd
       0.94247717 -0.5499169 -0.030260969 -0.11354329
0003d0 ac 9d 95 3e 08 16 93 bc d2 56 26 3f 84 04 b3 3e
       0.29221857 -0.017954841 0.6497623 0.34964383
0003e0 91 83 5e 3c ef 68 03 bf 56 a0 a8 bd f5 93 3b be
       0.013581173 -0.5133199 -0.08233707 -0.1831816
0003f0 14 21 0d bf 15 43 6f 3e 8a eb a8 3e aa 74 9d be
       -0.551286 0.23365434 0.32992202 -0.3075307

fc1.bias f4 [64]
000000 60 4e 0b 3f 58 96 cd 3e 62 86 f4 be 73 30 28 3f
       0.54416466 0.40153766 -0.47758776 0.6569893
000010 64 5b 1a bf cf cd 0f bf 7c 0d c8 be 78 71 91 3d
       -0.602957 -0.56173414 -0.39072788 0.071017206
000020 51 19 a9 be dd ee e7 3e 4d 8a 2a 3e 9b 32 0b 3f
       -0.33027127 0.45299426 0.1665432 0.5437409
000030 ba 47 b0 3e 3e 11 ae be 48 6c 69 3e ac 21 cd 3e
       0.34429723 -0.3399753 0.22795212 0.40064752
000040 18 91 a8 bd 12 25 55 3e 80 05 a2 3e 0e 27 ca 3e
       -0.082307994 0.20814922 0.3164482 0.3948292
000050 75 4f 50 3e 01 87 a2 3d e9 57 d9 3d 8a ad fa 3d
       0.2034281 0.07935906 0.10612471 0.12240131
000060 0b 48 5f 3b 1c 79 de 3e 64 1d 04 3f 69 eb 06 bf
       0.003407004 0.43451774 0.51607347 -0.5270296
000070 b6 8b a2 be 08 44 a3 be ca 83 e8 bd 06 2f 1b bf
       -0.31747216 -0.3188784 -0.11353262 -0.6061863
000080 34 63 b0 3e 29 47 07 bf b4 a7 bd bc ba 7e f3 3d
       0.34450686 -0.52842957 -0.023151256 0.118894055
000090 7b 6c 58 be 77 3f 1c 3e df 1a 49 3e 80 27 31 3f
       -0.21135132 0.15258585 0.19639157 0.692009
0000a0 93 47 c8 3d 33 1b f0 3e 86 f4 05 3b 75 8b ee 3e
       0.09779277 0.4689575 0.0020439937 0.46590772
0000b0 75 1e 8e be c8 b0 34 3e 9b 6c a0 3e 33 5a a4 bd
       -0.27757612 0.17645562 0.3133286 -0.08025017
0000c0 56 55 d2 3e ce 06 c2 3e c3 f4 04 3f 8e 51 02 3f
       0.4108073 0.37895817 0.51935977 0.5090569
0000d0 be bb d2 be b1 72 ef 3e d1 0f 9c be 14 11 15 3f
       -0.4115886 0.4676719 -0.30480817 0.58229184
0000e0 a5 af 2a bf 2b c2 5a 3e c0 2a 72 3e 43 f8 da be
       -0.6667426 0.21363132 0.2364912 -0.42767534
0000f0 b7 e9 bd 3e d2 c3 de 3e 1a f1 09 3f 0b 99 23 3f
       0.37092373 0.43508774 0.53883517 0.639054

fc2.weight f4 [32, 64]
000000 9a 25 24 3e f1 ce fa 3c a0 b4 fb be 75 50 21 be
       0.16029969 0.030616255 -0.49161243 -0.15753348
000010 35 e8 83 3e 74 15 76 bd 1c cb f8 3e 75 04 4a 3d
       0.25763097 -0.060079053 0.4859246 0.049320657
000020 73 0b 44 bf f9 4f 43 3e db 89 1f bf e3 a8 31 3e
       -0.7657997 0.19073476 -0.62319726 0.17349581
000030 b1 5e 25 be 58 d8 be bb 6e c0 8f 3d d5 36 07 be
       -0.16149403 -0.00582413 0.07019125 -0.1320451
000040 80 cb 38 3e 83 2f ac 3e 7b 84 a0 3c 7f 45 cb 3e
       0.18046379 0.3363 0.019594422 0.3970146
000050 d9 60 ad 3d 1a 6e 44 3e d3 1a 87 be d2 e3 75 bd
       0.08465738 0.19182625 -0.26387653 -0.06003172
000060 f9 98 a5 be cd 60 a3 3e 51 ba c3 3d b4 28 43 3e
       -0.3234327 0.3190979 0.095570214 0.19058496
000070 c0 4d bb bd 8f 6d 98 be 43 da 3d 3e 51 45 3d be
       -0.09145689 -0.29771087 0.18540291 -0.18483473
000080 33 1b f0 be f9 95 86 3e 3a b5 0f bf 01 16 f7 bd
       -0.4689575 0.26286295 -0.56135905 -0.12064744
000090 af ed 46 be fb 20 9b be d8 84 0d 3d 4d e3 c3 3d
       -0.19426607 -0.302986 0.034550518 0.095648386
0000a0 5f c5 42 be b5 2c 53 3e 37 d1 c8 3e 1e 1a 25 be
       -0.19020604 0.20622523 0.39222118 -0.16123244
0000b0 e2 8f 5b bc cc 5a 5c 3d 96 81 0b bb bb 90 85 3d
       -0.013401004 0.05379753 -0.0021286956 0.06521746
0000c0 a7 07 2e 3e 3c 30 cf 3d 46 d3 90 bd 30 a1 19 3e
       0.16995107 0.10116622 -0.07071547 0.15002894
0000d0 24 3c bf be a6 0e ff 3d eb 78 b3 3d 05 fb af 3e
       -0.3735057 0.12453966 0.08763298 0.343712
0000e0 b1 41 36 3d 3a 19 2d 3e a0 1b 7e 3c 0a f6 b6 be
       0.044496242 0.16904154 0.015509516 -0.35734588
0000f0 eb e9 31 bc eb a9 26 3e 12 06 c3 3d 65 6d 50 3e
       -0.010858993 0.16275756 0.09522642 0.2035423
000100 58 01 35 be 41 18 e7 3e c1 1a bd 3e 4d 59 2d 3e
       -0.17676294 0.45135692 0.36934474 0.16928597
000110 bb c8 a1 3e 0e 68 f1 bd 90 91 b6 be d3 bc b8 3e
       0.31598458 -0.11787425 -0.3565793 0.3608156
000120 8b 22 76 be b5 2c 94 bc 87 cb ba 3e bf ab ae 3d
       -0.24036615 -0.018087724 0.36483404 0.08528852
000130 d5 a1 c3 3d b7 33 fc 3e f8 58 5b be 27 49 0a bc
       0.095523514 0.49258205 -0.21420658 -0.008440292
000140 f8 2d bc 3e 87 83 2c be e3 bc 55 bd d9 62 ba bd
       0.3675382 -0.16847049 -0.05218209 -0.09100885
000150 19 37 fc 3e a2 a1 cb 3c 41 a6 6e 3e 93 98 af bc
       0.49260786 0.024857346 0.23305608 -0.021435058
000160 98 da c4 be 52 85 d1 be d4 bc f4 3d d1 76 42 be
       -0.38448024 -0.40922028 0.119500786 -0.18990637
000170 fd d2 bc 3e db d5 c0 3e 8a fd 37 bf 45 2c 96 3e
       0.3687972 0.3766316 -0.71871245 0.2933065
000180 a2 91 5f be 4b 48 82 3e 75 61 3a 3e be a7 71 3e
       -0.21832898 0.2544578 0.1820124 0.23599145
000190 01 ec 7c 3c 7c 64 37 bb 4d c3 e0 bc 5b 98 90 be
       0.015437127 -0.0027983477 -0.027436877 -0.28241238
0001a0 8a 19 fa 3e 73 9d ba be 37 3c 93 be be 54 b1 be
       0.4884761 -0.3644825 -0.28756878 -0.34634966
0001b0 ae c9 9d be 6b d9 eb bd e0 12 97 3d bd 8b 98 3e
       -0.30817932 -0.115160786 0.07376647 0.29794112
0001c0 0f ac 87 bb df c3 7e be e8 af 3c be a8 28 0d be
       -0.004140384 -0.24879406 -0.18426478 -0.1378504
0001d0 cb 68 6e 3d 5f c8 21 be 76 f7 98 3d a9 ad c7 be
       0.058205407 -0.15799092 0.074690744 -0.3899968
0001e0 82 95 00 be a8 59 f4 3d ce 81 c8 3e e5 36 b0 3e
       -0.12557033 0.11931163 0.39161533 0.3441688
0001f0 e3 b6 a3 be 1e c8 30 be dd f9 a2 3d 70 ba 6f 3d
       -0.3197547 -0.17263839 0.07957814 0.05852741
000200 f0 58 d5 be f9 b1 40 3e d4 b5 cb be 77 94 e1 be
       -0.41669416 0.18817891 -0.3978716 -0.44058582
000210 ae fb 96 3f 38 f2 69 3e 9e 10 81 3e 50 59 98 bd
       1.1795557 0.22846305 0.2520799 -0.0743891
000220 2c 49 c2 3e da 0b 44 3e fc c3 00 3d 9c 10 35 3e
       0.3794645 0.19145146 0.031436905 0.17682117
000230 64 d8 ce bd d0 b4 b7 bd 09 62 f9 3c 8b 0b dc bd
       -0.10099867 -0.08970034 0.030442255 -0.10744389
000240 91 d8 27 bf a4 8c 6a 3e cf 4b 1d 3e de 88 8d 3e
       -0.6556483 0.22905213 0.1536095 0.27643484
000250 f6 68 2c 3e dd 95 8a 3e 62 e7 b2 bf e5 32 9a be
       0.16836914 0.27067462 -1.3976862 -0.30116954
000260 7e af ad be c6 b7 3a 3d fe 0a b5 bc 49 86 1c 3f
       -0.33922952 0.045585416 -0.022099968 0.611424
000270 0f 28 c9 3e b4 26 e0 3e 79 18 bb 3d 75 d9 ae 3e
       0.39288375 0.43779528 0.09135527 0.34150282
000280 bd 76 b7 be 9a 3c 6a 3f c7 47 79 bd 23 e4 86 be
       -0.35832778 0.9149872 -0.060859468 -0.2634593
000290 82 34 b8 3e 2d 3e ec 3e 3b 1b ca be 18 34 0d 3e
       0.3597756 0.46141186 -0.394739 0.13789403
0002a0 ad 29 f5 3c a8 53 f8 be 17 09 c5 3c 14 87 25 3e
       0.0299271 -0.48501325 0.024052186 0.1616481
0002b0 f7 52 f0 be 7a 60 da bd 3d 10 9e 3e 4f 95 9b be
       -0.46938297 -0.10662933 0.30871764 -0.3038735
0002c0 7c 6d 82 3d 77 e1 77 bd af 3b 66 be e9 63 47 bf
       0.06368539 -0.060517754 -0.22483705 -0.77886826
0002d0 c6 36 d2 3e 0b 19 ff 3c bd 4a 95 3d 26 1f d3 3d
       0.41057414 0.031139871 0.07289646 0.103086755
0002e0 52 df 05 3f 01 35 ab 3c b3 c0 33 3e 62 ec 02 bf
       0.52293885 0.020899298 0.17553978 -0.5114194
0002f0 2b af 3c bf 0c fe f5 bd 36 10 f2 bc e7 ad 9e 3e
       -0.73704785 -0.12011346 -0.029548746 0.30992052
000300 8f 23 6c 3e 95 d2 84 3e a8 24 64 bf f6 22 a3 3e
       0.2306044 0.2594191 -0.89118433 0.3186261
000310 47 63 2b 3e 14 2b 9f 3e 6b da 65 3e 73 53 b7 bd
       0.1673709 0.31087554 0.22446601 -0.089514636
000320 20 fc 2c 3e c5 3d 26 bf 24 ff 70 bd c4 09 2c 3d
       0.16893053 -0.64938 -0.05883707 0.0420015
000330 01 02 84 3d a0 b7 72 bf f0 0d 7c 3e da fe 20 3e
       0.06445695 -0.9481144 0.24614692 0.15722218
000340 f3 02 2e 3a 2b fd 9c 3e 08 4d 6b 3e af 22 df be
       0.0006638013 0.30661902 0.22978604 -0.4358115
000350 cb 93 8e 3e a3 58 d9 3e fe 40 b8 3e f2 75 9c 3e
       0.27847132 0.42450437 0.35987085 0.30558735
000360 1f 0f 78 be 5a e6 09 be 6a b2 01 3d 3d 8f de 3e
       -0.24224518 -0.13466778 0.03166429 0.43468657
000370 7c d9 27 bf f7 54 06 3f 86 c5 f1 3e 1d 1f b8 bc
       -0.6556623 0.52473396 0.4722101 -0.022475773
000380 0c ee b6 bc c7 95 f5 3d 16 b8 d5 3e 17 26 c7 3d
       -0.022330306 0.119914584 0.4174201 0.09724062
000390 58 aa a1 3c bd 34 ab 3d 70 7a a0 be 02 8a 13 3e
       0.019734547 0.083596684 -0.31343412 0.14408115
0003a0 1e 04 6a be 7e 00 d0 3c 60 17 89 be c5 2a 95 3e
       -0.22853133 0.02539086 -0.26775646 0.29134193
0003b0 0f 2e 41 3e 0b 56 7b be 46 6c 2c be a8 99 c5 3d
       0.18865226 -0.24544542 -0.16838178 0.09648448
0003c0 1d 2e c5 be 50 11 cd be 6d 00 54 be 84 a8 fd 3d
       -0.38511744 -0.4005227 -0.20703287 0.123856574
0003d0 20 d1 03 be 5a 4a 94 be 98 95 76 be 1a b3 b1 3e
       -0.12872744 -0.28962976 -0.24080503 0.34706956
0003e0 f2 c5 8a 3f 46 00 aa 3d ad c5 64 bd 66 2e 25 3e
       1.0841658 0.083008334 -0.05585258 0.16130981
0003f0 45 e0 d7 3c 7f c5 c6 be 27 09 1f bf 5f 60 aa 3d
       0.026352057 -0.38822553 -0.6212334 0.083191626

fc2.bias f4 [32]
000000 07 2b 11 bd 6e b6 c4 3d 7c 59 44 3c 8f 4d 9c 3d
       -0.035441425 0.09605108 0.011984225 0.07631981
000010 3b cd 72 be 51 ad 1d 3d a9 91 84 3b bc 90 9e 3d
       -0.23711102 0.038495366 0.0040456844 0.0774245
000020 c6 0f 96 bd 80 17 ec bd a9 90 6d 3d 7e 42 29 bd
       -0.07327227 -0.1152792 0.057999287 -0.041323178
000030 86 54 f0 3d 02 c7 f5 3d ab de 1f be a7 b7 25 bd
       0.117348716 0.12000848 -0.15612285 -0.040458348
000040 a7 d1 2e be d9 5c 4d 3e 17 4d 8c 3e 84 9f 81 3e
       -0.17072164 0.2005495 0.27402565 0.25317013
000050 01 dd 1e 3e 6c f3 49 3e db 02 55 be 22 32 35 be
       0.15513994 0.19721764 -0.2080187 -0.17694905
000060 d9 40 10 be 53 20 e5 3d 79 b6 98 3d 25 be 04 be
       -0.14087237 0.11187806 0.07456679 -0.1296316
000070 5d 2a 8d bd 50 d9 9d bc 6a 8d bf bc d9 fa e9 3d
       -0.06892846 -0.019268662 -0.023382861 0.114247985

fc3.weight f4 [3, 32]
000000 2f ba b3 be 59 0c 7b 3f 2b fb 8a 3e ec 22 37 3f
       -0.35102984 0.98065716 0.2714475 0.7153766
000010 0c 56 64 bf c0 8b 3f 3f c5 a8 48 be e5 80 68 3e
       -0.891938 0.74822617 -0.1959563 0.2270542
000020 51 3a 44 bf 86 0c d1 be 95 82 45 bf db bb 08 bd
       -0.76651484 -0.40829867 -0.7715238 -0.033382278
000030 ca 00 6f 3f 40 17 28 3f 80 ac 2f bf 0d d1 1f 3b
       0.9336058 0.65660477 -0.6862259 0.0024386079
000040 ea 00 cb be 74 7b 15 3f e2 e5 9a 3e a6 11 39 3f
       -0.39649135 0.583915 0.30253512 0.72292554
000050 83 44 3a 3f c9 97 07 3f 3c 77 93 be 85 d6 08 bf
       0.7276079 0.5296598 -0.28801906 -0.5345233
000060 11 07 8d bd a3 82 83 3f 50 2a 12 3f b0 00 28 bf
       -0.068861134 1.0274242 0.57095814 -0.6562605
000070 a2 12 76 bf 15 64 9e bc d5 e8 6f 3e 6c 50 5e 3d
       -0.9612218 -0.019334832 0.23428662 0.054275915
000080 0a 41 ad be c9 61 51 3f 83 f3 01 40 fc ab a4 3e
       -0.33838683 0.81789833 2.0304878 0.32162464
000090 9f e0 3e 3d e2 3f b7 be e1 ae db 3f bb a6 4d 3e
       0.046600934 -0.35790926 1.7162744 0.20083134
0000a0 94 b1 12 be c4 ef 84 bf d1 7e 97 bd 06 17 fd 3b
       -0.14325553 -1.0385671 -0.07397235 0.007723692
0000b0 39 af 2f 3f 6f 55 8c be 3a 8a 3d bd 96 25 e7 bf
       0.68626744 -0.2740893 -0.0462744 -1.8058345
0000c0 a4 43 0f 3f b6 30 75 3e 73 67 19 3e 1b 72 75 3e
       0.55962586 0.23944363 0.14980869 0.23969309
0000d0 47 47 7c 3e b7 cf 77 3c d1 41 ec 3f 6b a1 a6 be
       0.24636565 0.015125207 1.8457586 -0.32545027
0000e0 28 ca 19 40 2a 8d ab be 7e 15 82 be 86 05 15 bf
       2.4029636 -0.33506137 -0.25407022 -0.58211553
0000f0 45 d5 02 3e da e1 ce bd 71 79 1f bf df aa ed 3e
       0.12776668 -0.101016715 -0.6229468 0.46419427
000100 62 6a 04 3f 2a 8e 74 3e a8 58 91 bd 39 92 41 be
       0.5172483 0.23882356 -0.07096988 -0.18903436
000110 d4 35 ba be c1 44 f2 bd b1 10 11 be 78 f4 56 bf
       -0.36369193 -0.1182952 -0.14166524 -0.8396678
000120 73 02 a7 be d7 e0 41 3e 48 38 1c be c2 19 68 3d
       -0.32619056 0.18933426 -0.15255845 0.05666519
000130 ca 68 61 3e b2 a1 a7 3e 44 15 73 3e b1 eb 8f bd
       0.2201263 0.3274055 0.23738581 -0.070273764
000140 c7 fe 97 be 73 5a d4 be b6 d0 20 3f 6a 2d 1a be
       -0.29686567 -0.41475257 0.6281847 -0.15056387
000150 e6 dd 4e bf 92 b1 be be a9 7e 4a be f8 bf be be
       -0.8080734 -0.3724485 -0.1977488 -0.37255836
000160 e4 c5 91 bd 6d 2e 7b 3e d7 14 18 3f 02 ee 4e be
       -0.07117823 0.24529429 0.594068 -0.2020798
000170 37 9a 39 3f 30 01 e3 3d ab f6 59 be 4b 9e b4 3e
       0.7250094 0.11084211 -0.21285503 0.35277018

fc3.bias f4 [3]
000000 19 ea 00 3e 67 09 9d 3c 5b 1f 81 3e
       0.12589301 0.019169522 0.25219235

exp_avg f4 [64, 6]
000000 11 03 fc ba 95 b5 20 3b 11 d4 b4 3b ac a0 84 3b
       -0.0019226988 0.0024522294 0.0055184443 0.004047474
000010 fb 65 8b ba b4 59 0a 3b 9c 3c a5 3a b4 96 e2 bb
       -0.0010635251 0.0021110596 0.0012606564 -0.006914938
000020 68 d9 66 bc 58 90 ad bb 67 77 c3 38 f2 9a d6 ba
       -0.01408992 -0.005296748 9.320565e-05 -0.0016373082
000030 b0 b5 03 3a 06 91 cb b9 73 82 92 39 3a ec 14 3b
       0.0005024327 -0.00038827228 0.00027944482 0.002272381
000040 8c 2b 01 3b cd cf ab ba e0 a1 81 ba 6d d3 e7 3a
       0.0019709794 -0.0013108194 -0.0009890161 0.0017686911
000050 0b 80 27 3b dc 08 1b bb 7a 9e c1 39 88 f5 67 3a
       0.0025558497 -0.0023656404 0.00036929903 0.00088485377
000060 0f a2 9c 3b 60 eb 2d bc 2c 1f 19 bc 10 cb 8d bb
       0.004780061 -0.0106152 -0.009345811 -0.0043271855
000070 64 46 c1 bb 9b b5 0e b7 c1 74 27 bb 57 68 28 b8
       -0.005898284 -8.506143e-06 -0.0025551768 -4.0151495e-05
000080 b3 9c 2f 3a 51 91 06 3a 20 13 bd b8 4d 3e d5 3a
       0.000669907 0.0005133348 -9.0157846e-05 0.0016269177
000090 08 b7 52 ba 2c a4 b8 ba 76 d6 ad 3b e9 d6 9e 3a
       -0.0008038138 -0.0014087013 0.0053051068 0.0012118492
0000a0 53 e6 40 39 b8 3a 08 bb 67 9f 34 3b 0b 44 4e b9
       0.0001839635 -0.0020786952 0.0027560832 -0.00019671039
0000b0 73 6b 25 bb 7c a9 5a bb 0b 0c 3a ba ca d0 86 b8
       -0.0025241047 -0.003336518 -0.00070971315 -6.428508e-05
0000c0 01 f7 9c ba 6b ce e7 ba 0a ac cd bb 2c 24 87 bb
       -0.0011975468 -0.0017685419 -0.006276612 -0.004124185
0000d0 ec 50 92 3b 3d 57 38 ba fc f9 fc 3a d1 d6 33 bb
       0.004465213 -0.00070320425 0.0019300575 -0.0027441273
0000e0 08 aa 1a bb d5 e8 6a ba 66 ab af ba 14 d0 39 bb
       -0.0023599882 -0.0008961086 -0.0013402521 -0.0028352784
0000f0 49 e8 cb 3a 33 14 7b ba d6 73 04 bc e1 3a e0 ba
       0.0015556897 -0.00095779 -0.008084258 -0.0017107391
000100 ba 0b b9 ba c8 d2 3c bb b4 1e 00 3a 2a 89 87 bb
       -0.0014117875 -0.002881216 0.00048873876 -0.0041362243
000110 e8 79 8b bb 45 c1 66 bb 07 c9 c8 ba 0d bb d1 ba
       -0.0042564757 -0.0035210412 -0.00153187 -0.001600118
000120 f2 88 1c 3a 37 85 59 ba 93 5b 98 bb c1 2b 8a ba
       0.0005971334 -0.00082977436 -0.0046495884 -0.0010541604
000130 37 55 a8 b9 e6 86 92 b9 a8 b2 59 3a 7b e4 44 3a
       -0.00032106947 -0.00027947797 0.0008304515 0.0007510853
000140 85 29 9b bb a0 bd 84 b9 20 84 36 bb 2f a0 69 bb
       -0.004735174 -0.00025318284 -0.0027849749 -0.0035648455
000150 b8 cf c3 ba dc 84 b6 3a 5d 8e 9c 3b d4 30 f4 3b
       -0.0014939224 0.0013925093 0.004777713 0.00745211
000160 74 1e b0 bb 74 7e 2e 3b 3b 4c f9 b8 f9 03 95 b9
       -0.005374724 0.0026625665 -0.00011887444 -0.00028422454
000170 5e ce 7d 3a b8 9a dc ba 2a e1 a6 b9 37 99 16 3a
       0.0009681935 -0.0016830778 -0.00031829748 0.00057448767
000180 8d e5 67 3a af 72 14 bb 3e 25 10 bb 89 fd 00 bb
       0.00088461564 -0.0022651365 -0.0021994854 -0.0019682369
000190 aa 82 e1 3a 5f 12 56 ba 2a cc 2b bb 85 99 68 3b
       0.0017205079 -0.00081661897 -0.002621422 0.0035491895
0001a0 cf 02 c3 3b 93 f6 3c 3b 92 b8 ba 3a ca 6d b6 3a
       0.0059512625 0.0028833493 0.001424568 0.0013918218
0001b0 fb 42 35 bb 06 7e 95 ba db 7d d1 bb df 6a 0f b8
       -0.0027658332 -0.0011405356 -0.006393177 -3.419339e-05
0001c0 ad 0b e8 39 cc e6 91 39 63 0f 29 3b 35 68 8e 39
       0.00044259187 0.00027828512 0.0025796525 0.0002716199
0001d0 29 6a 52 3a 5a 2e 1d 3b cc 08 70 ba 68 ce 94 bb
       0.00080266834 0.0023983927 -0.0009156584 -0.004541207
0001e0 0d d2 78 3b 34 b7 55 bb 16 6f 8c bb 0b 8f fb ba
       0.0037966997 -0.0032610418 -0.0042857034 -0.001919241
0001f0 ce 74 01 bb a8 e9 03 bb 67 c5 09 bb 3a 81 10 ba
       -0.001975346 -0.0020128284 -0.0021022202 -0.00055124203
000200 65 06 6a 3c 00 a2 05 ba 26 71 ad 3a 1d 7d 20 3b
       0.014283751 -0.0005097687 0.0013232573 0.0024488636
000210 ef 65 56 3b 64 15 e0 3a c9 bd d8 bb 52 71 1c bb
       0.0032714566 0.0017096219 -0.006614421 -0.0023871255
000220 17 3f c7 b9 11 ce ac ba 75 26 05 bb 1b 30 87 3a
       -0.00038003243 -0.0013183971 -0.0020317112 0.0010314019
000230 de a9 71 3b 23 75 5d 3a 6f b9 34 3b a0 d7 3b b9
       0.003687493 0.00084479357 0.0027576347 -0.00017914036
000240 63 0c 68 39 7f 33 b6 3a 87 7c 5c 3a d2 a3 21 3b
       0.00022129859 0.0013900845 0.000841089 0.0024664295
000250 3e 47 84 3a 4f db 27 b9 0c 28 44 39 ee c6 27 39
       0.0010092033 -0.0001600806 0.00018706935 0.00016000468
000260 c0 9e f1 b9 6b c7 10 3b 90 f9 6e 39 fa 86 60 bb
       -0.0004608538 0.0022091519 0.00022790418 -0.003426014
000270 64 e1 91 3a a5 1b 57 3a 89 2a 0d bb 3d 4f 9f b9
       0.0011129794 0.00082057185 -0.0021540246 -0.0003038588
000280 a4 fc ea b9 19 2f 72 ba 58 49 6d 3b 33 cc ef ba
       -0.0004482019 -0.00092385855 0.0036207046 -0.0018295109
000290 f9 fe 8d bb f2 39 b9 b9 fc 88 82 ba d0 72 b0 ba
       -0.0043333736 -0.00035329122 -0.0009959037 -0.0013461951
0002a0 75 9d 44 3b cd b3 0c 3b cd 32 e1 bb a0 92 1c b8
       0.0030001078 0.0021469474 -0.006872511 -3.7329854e-05
0002b0 d8 9c 11 ba 20 df 34 bb ea ae 72 3b 58 64 b1 bb
       -0.00055546826 -0.0027598813 0.0037030526 -0.0054135732
0002c0 02 3e 09 bb bd 67 67 bb 07 69 4f bb b7 0f 84 ba
       -0.00209415 -0.0035309636 -0.0031648295 -0.0010075484
0002d0 d3 b6 d7 ba 75 75 79 39 d5 a9 b0 3b e2 7d 88 3b
       -0.0016457684 0.00023790247 0.0053913393 0.004165397
0002e0 47 93 ae ba 7a 7b cd b9 88 00 14 3b b1 9b 9a bb
       -0.0013319039 -0.00039192644 0.0022583324 -0.004718267
0002f0 0a 08 1d bc 09 b8 97 3b a7 49 dc bb fa e1 b4 ba
       -0.009584436 0.004630093 -0.006722647 -0.0013800256
000300 64 35 2d bb ea ef c4 3b 02 63 79 3c f8 9e c0 3b
       -0.0026429528 0.0060100453 0.015221359 0.0058783256
000310 51 37 8f b9 fb f6 9a 3b 0c 00 ba b9 43 14 85 3b
       -0.000273163 0.0047291494 -0.0003547672 0.0040612533
000320 ed 18 7d bb 64 fc 39 3a ba c2 3b 3b 7c 6e 48 3b
       -0.0038619593 0.0007094799 0.0028650002 0.0030583432
000330 9b f2 30 3b 65 63 fc ba ea 17 17 bc 4b 0f 02 bb
       0.0027000073 -0.0019255696 -0.00922201 -0.001984554
000340 66 5f 6d ba d3 90 cd ba 27 60 45 3b c6 a1 f9 ba
       -0.0009055048 -0.001568342 0.0030117126 -0.0019045405
000350 92 a9 c4 bb 3f 82 40 ba 14 55 27 bb 93 a6 2c 3a
       -0.0060016597 -0.0007343627 -0.0025532888 0.0006586101
000360 8b 4b 95 b8 a3 e4 8d ba 3a 0e 57 bb bf e0 1d bb
       -7.1189446e-05 -0.0010825585 -0.0032814876 -0.0024090258
000370 44 3c 89 3b f1 1b 86 ba b3 52 8a 3b 8c c2 92 bb
       0.0041880924 -0.0010231716 0.0042212843 -0.004478758
000380 bd 42 ce bb 81 bc 8e bb d7 02 e6 b9 65 b7 f5 ba
       -0.006294577 -0.0043559675 -0.00043871134 -0.0018746672
000390 d6 76 1f ba f4 8f 9e 3a a1 a3 90 3b 19 15 77 3a
       -0.00060830766 0.0012097345 0.0044140373 0.0009425446
0003a0 71 99 48 b9 f9 50 82 38 8a 3f ae ba 58 ff 07 3b
       -0.00019130648 6.2139654e-05 -0.0013294083 0.0020751562
0003b0 e9 88 68 3b 10 f0 7c 3a bd 45 f6 3a 8d a2 83 ba
       0.0035481995 0.0009648809 0.0018789094 -0.0010042951
0003c0 b6 1a fa 38 83 f6 1d 39 3d cc 9c bb 52 30 07 bb
       0.00011925904 0.0001506452 -0.0047850893 -0.0020628166
0003d0 62 c1 c8 38 48 30 f3 b6 59 1a 2f bb 00 3a d3 3b
       9.5727635e-05 -7.247585e-06 -0.0026718585 0.006446123
0003e0 52 41 b2 3b b5 23 11 3b 22 9c cd 3a 7b c5 7e 3a
       0.0054399157 0.0022146527 0.001568679 0.0009718758
0003f0 6c 67 20 3a 04 43 2e 3b 0a df 31 3c d4 38 77 3a
       0.00061189267 0.0026590237 0.010856399 0.00094307703

exp_avg_sq f4 [64, 6]
000000 12 92 28 39 cc 91 84 39 42 a6 3b 39 3f a7 56 39
       0.00016076144 0.0002528563 0.00017895646 0.00020470934
000010 47 4e 39 39 f7 59 36 39 f9 42 05 3a 31 60 2d 3a
       0.00017672135 0.00017390387 0.0005083527 0.000661376
000020 b1 de 16 3a cf fd 2a 3a ed 82 31 3a ec 3a 0e 3a
       0.00057552295 0.0006522806 0.00067715236 0.000542565
000030 4b a2 f4 37 52 be 88 38 18 ce 03 38 11 48 85 38
       2.916264e-05 6.520435e-05 3.1424774e-05 6.3553576e-05
000040 30 80 b2 37 7c 78 05 38 e3 f1 c8 38 d2 64 18 39
       2.1278945e-05 3.182188e-05 9.581798e-05 0.00014533408
000050 e1 54 bb 38 36 59 c8 38 0f 41 62 38 f7 13 e1 38
       8.932665e-05 9.55336e-05 5.394319e-05 0.00010732555
000060 1c df ca 39 c8 0d d8 39 12 86 a1 39 c1 0b d7 39
       0.00038694672 0.00041208998 0.00030808203 0.00041016753
000070 f0 2a ab 39 4f 41 9c 39 3b d3 67 38 5e 74 c2 38
       0.00032647653 0.00029803297 5.5271415e-05 9.272316e-05
000080 18 2c 59 38 4f dc b2 38 0c 50 fc 37 17 b1 4b 38
       5.1777897e-05 8.528737e-05 3.0078016e-05 4.85639e-05
000090 da e8 83 38 ee 15 a5 38 4d 87 52 38 01 69 78 38
       6.289939e-05 7.871898e-05 5.019391e-05 5.92256e-05
0000a0 d4 83 41 38 5d 5f 5e 38 d4 11 fa 39 ae 12 28 3a
       4.613756e-05 5.301774e-05 0.00047697 0.0006411475
0000b0 78 8f f4 39 61 fe 11 3a d3 0c ad 39 76 00 df 39
       0.000466462 0.00055692164 0.00033006686 0.00042534218
0000c0 f2 83 c1 38 42 ed 06 39 64 68 0d 39 af 67 16 39
       9.227534e-05 0.00012867621 0.00013485696 0.0001434374
0000d0 63 c6 1f 39 4d b9 e4 38 43 9e ca 38 b0 a2 b9 38
       0.00015237326 0.00010906402 9.661589e-05 8.85179e-05
0000e0 c2 9d 5b 38 1b bb 9b 38 48 9f d9 38 de 3e a4 38
       5.2360592e-05 7.425827e-05 0.00010377035 7.831839e-05
0000f0 57 44 ae 39 34 d2 e2 39 7d a7 b6 39 bf 2f b0 39
       0.00033238783 0.00043262693 0.00034838534 0.0003360491
000100 4a 3d 9b 39 e5 a2 9b 39 c2 98 f0 38 8e 34 3b 39
       0.00029609568 0.0002968527 0.00011472545 0.00017853288
000110 f4 58 e4 38 28 2b 01 39 91 ea bd 38 10 b8 d7 38
       0.00010888456 0.00012318476 9.055914e-05 0.00010286283
000120 cf 60 20 39 af f8 31 39 09 e1 11 39 3f a1 12 39
       0.00015294853 0.00016972677 0.0001391211 0.00013983714
000130 c7 a4 18 39 b9 f9 08 39 7d 0f d5 38 ff 57 d5 38
       0.00014557234 0.00013063 0.000101595164 0.00010173022
000140 2a e1 55 38 7d d8 c3 38 28 20 9d 38 1e 61 d3 39
       5.0992858e-05 9.338649e-05 7.492333e-05 0.00040317414
000150 38 03 2e 39 ce 63 88 39 52 6e 50 39 4c 92 5a 39
       0.00016595132 0.00026014302 0.00019877523 0.000208446
000160 b6 aa 25 39 4b f6 38 39 6d ef 9b 38 bd 73 d9 38
       0.00015799221 0.00017639359 7.4355725e-05 0.00010368924
000170 0f a5 2b 38 6f d8 30 38 aa 02 68 38 53 ae 82 38
       4.09233e-05 4.216324e-05 5.531559e-05 6.2313535e-05
000180 30 f3 42 38 dc 68 8d 38 91 da 5c 38 cf 32 6c 38
       4.647969e-05 6.7429355e-05 5.2655643e-05 5.6314104e-05
000190 77 1e 16 38 36 cf 3f 38 61 cd f6 38 23 5b 61 39
       3.579116e-05 4.573093e-05 0.00011768449 0.00021491623
0001a0 88 53 15 39 4f 15 5f 39 53 f8 9f 38 ac 5f e5 38
       0.00014240865 0.00021274875 7.627965e-05 0.00010937391
0001b0 70 91 10 39 b1 7f e8 38 02 de c2 38 7d 10 9a 38
       0.0001378709 0.000110864064 9.291993e-05 7.3463634e-05
0001c0 bd 89 af 38 b3 94 b2 38 66 5c af 38 b8 b0 fd 38
       8.370306e-05 8.515399e-05 8.361861e-05 0.000120968965
0001d0 8b 44 9f 38 42 6a 2d 39 fb 92 c2 38 e0 02 fe 38
       7.594478e-05 0.0001653815 9.278018e-05 0.00012112199
0001e0 25 d6 e9 38 58 59 29 39 bd 60 d9 38 9a f4 f9 38
       0.00011150193 0.00016150379 0.00010365385 0.00011918806
0001f0 8f 4d c7 38 3f 65 c7 38 08 86 b7 39 53 d6 bb 39
       9.503506e-05 9.507918e-05 0.0003500434 0.00035827103
000200 b6 49 98 39 12 19 c7 39 95 af 95 39 1d d4 8b 39
       0.00029046618 0.00037974917 0.00028550313 0.00026670183
000210 27 73 03 39 c2 df 19 39 01 5a 22 39 a6 85 78 39
       0.00012536031 0.00014674573 0.00015483053 0.00023700911
000220 4d 7d 0d 39 a0 90 d2 38 61 d5 17 38 93 09 7c 38
       0.00013493486 0.00010040519 3.619993e-05 6.00904e-05
000230 c1 59 ce 37 e7 3c c7 37 96 37 e8 37 5f 6c e7 37
       2.4598909e-05 2.3751008e-05 2.768244e-05 2.758781e-05
000240 5c e9 5d 38 84 61 03 39 c5 b5 47 38 e3 77 8e 38
       5.290784e-05 0.00012529461 4.7614583e-05 6.793418e-05
000250 ea ee f5 37 a9 d0 45 38 f7 f6 48 39 dc cb 19 39
       2.9317529e-05 4.716279e-05 0.00019165488 0.0001466716
000260 22 a2 cb 38 b6 12 20 39 29 05 f8 38 33 54 07 39
       9.709994e-05 0.0001526576 0.00011826523 0.0001290597
000270 57 1c f9 37 20 fb 0e 38 ce b1 d3 37 67 e7 fc 37
       2.969631e-05 3.4089317e-05 2.5235957e-05 3.0148496e-05
000280 7d dd 8d 37 88 55 f7 37 f2 88 73 38 e1 e5 a3 38
       1.6911648e-05 2.9484523e-05 5.8063255e-05 7.815264e-05
000290 a3 fc 18 39 f4 1c 6e 38 1d 7a 20 38 ce 8f 46 38
       0.00014589964 5.6770587e-05 3.82607e-05 4.7340807e-05
0002a0 33 1e aa 39 90 08 b6 39 ad 27 9c 39 a1 26 94 39
       0.00032447427 0.00034720125 0.000297842 0.0002825754
0002b0 94 f5 a6 39 05 a4 be 39 e5 b0 4d 39 9f bb 84 39
       0.00031844957 0.00036361828 0.00019616222 0.0002531679
0002c0 80 d8 6b 39 f7 90 ad 39 c9 0b 67 39 7c 8f 40 39
       0.00022491999 0.0003310514 0.00022034267 0.00018363999
0002d0 92 08 99 39 c2 be b6 39 21 f5 a1 39 86 f5 73 39
       0.0002918882 0.0003485587 0.00030890948 0.0002326575
0002e0 72 1e 62 39 7e f0 88 39 65 ee f7 39 f4 32 dd 39
       0.00021564381 0.00026119122 0.0004728913 0.00042190368
0002f0 6b 09 9a 39 c0 34 b5 39 e6 84 bc 39 dd 3e 12 3a
       0.00029380186 0.00034562312 0.0003595717 0.00055788254
000300 3d ed 12 3a 3d 24 43 3a 89 04 2e 3a cd 45 2e 3a
       0.0005604809 0.00074440596 0.0006638249 0.00066479744
000310 b5 d5 18 3a 22 ce 05 3a f9 e6 2e 3a c0 0d 9f 3a
       0.00058301847 0.00051042635 0.0006671991 0.0012134835
000320 e7 5c 4e 3a 31 93 1a 3a 70 41 c1 39 b1 5f 3a 3a
       0.000787212 0.0005896567 0.00036860583 0.0007109596
000330 d4 6d 20 39 df 7d 31 39 7b 10 1a 39 56 16 2e 39
       0.00015299703 0.00016926926 0.00014692724 0.00016602254
000340 77 9a 54 39 27 5b 0d 39 4e 04 1a 39 8d 71 97 39
       0.00020275438 0.00013480765 0.00014688188 0.00028885566
000350 3e 4e 25 39 13 bc 3f 39 d8 49 e5 38 03 ce 16 39
       0.00015764774 0.00018285243 0.000109333254 0.0001438186
000360 cb 84 bd 38 28 30 00 39 fd 4a a7 38 ea 67 c0 38
       9.036957e-05 0.00012224971 7.977148e-05 9.174629e-05
000370 f9 2a 9b 38 1b 71 a0 38 cb 5b 62 39 31 3f 95 39
       7.39898e-05 7.650462e-05 0.00021587235 0.00028466576
000380 e1 09 75 39 30 27 8d 39 ce ce 5f 39 0b 3f 57 39
       0.00023368701 0.00026922813 0.00021343978 0.00020527483
000390 51 54 b1 38 12 ab 84 38 c7 42 54 38 14 74 91 38
       8.455723e-05 6.326115e-05 5.060693e-05 6.93576e-05
0003a0 15 ca 99 38 f5 0a 8c 38 0d 03 5e 39 85 16 99 39
       7.333249e-05 6.677761e-05 0.00021172706 0.00029199212
0003b0 1c 10 40 39 67 1f 43 39 64 e7 e0 38 f7 e6 32 39
       0.00018316548 0.00018608347 0.00010724252 0.00017061444
0003c0 b2 ea 39 38 66 ce 87 38 2d a9 42 38 22 44 99 38
       4.4326014e-05 6.475746e-05 4.641076e-05 7.308299e-05
0003d0 e6 92 71 38 32 34 48 38 ef c3 32 39 3f 37 85 39
       5.7595687e-05 4.7732326e-05 0.00017048394 0.00025408898
0003e0 6f ed 1d 39 b4 99 5e 39 d5 f6 13 39 36 8d 3b 39
       0.00015061138 0.00021228829 0.00014110965 0.00017886315
0003f0 2b 56 34 39 6f 72 49 39 98 d0 44 39 21 18 5f 39
       0.00017198238 0.00019211484 0.00018769724 0.00021275926

exp_avg f4 [64]
000000 69 8a 3c ba 2d 5b 57 36 f5 62 c9 3a 78 f1 3d 3b
       -0.00071922556 3.2090568e-06 0.0015364575 0.0028983038
000010 a1 6c 12 bc 04 01 2c ba f5 28 ea 3a ed 93 0e bb
       -0.008937032 -0.00065614306 0.0017864989 -0.002175565
000020 7c 5b dd 3b 2f c7 53 bb 9a a6 84 38 9e 3a ad ba
       0.0067552906 -0.0032314768 6.3252824e-05 -0.0013216322
000030 f6 14 93 bb ac a3 89 3b 41 8a fa bb 4e cc 69 36
       -0.0044885827 0.0042004194 -0.0076458757 3.4838627e-06
000040 e2 8e a9 3a c5 11 8b bb f9 30 2e 3a 6f f0 83 36
       0.0012936259 -0.0042440617 0.0006644871 3.9320944e-06
000050 e8 c7 ca ba 64 56 2f 3b 4d fc 9d b9 d4 07 8b 3a
       -0.0015470954 0.0026754374 -0.00030133352 0.0010607191
000060 07 7e 35 3b ce 80 84 3b 29 d2 0a bb ba 0e 9a bb
       0.0027693526 0.004043675 -0.0021182394 -0.0047014626
000070 41 23 e7 b6 a0 2f a6 bb 4c b9 ea ba 9b c5 79 bb
       -6.8884406e-06 -0.0050715953 -0.0017908006 -0.0038112167
000080 2a 45 16 3a b4 47 f9 3b 47 6f 40 ba b3 61 57 ba
       0.0005732352 0.0076074246 -0.00073408004 -0.00082161574
000090 74 e0 ad 3b 9c 51 b6 b9 c6 19 62 ba de 5a 94 3a
       0.005306298 -0.0003477455 -0.00086250564 0.0011318584
0000a0 ba 52 2d 3a cd 81 82 ba 22 c9 b5 3b b8 a6 08 3b
       0.00066117535 -0.0009956897 0.0055476585 0.0020851325
0000b0 82 59 9b 3b 9b fb 0b b9 d1 7a fb ba a0 42 cc 3a
       0.004740895 -0.00013349803 -0.0019186382 0.0015583821
0000c0 b2 b1 79 ba 27 7b 74 ba f6 b4 4e 3a 93 93 01 3b
       -0.0009525075 -0.00093262125 0.00078852416 0.00197718
0000d0 d8 99 0d 3b 6f 22 71 3b 97 51 01 bb 59 47 0a ba
       0.002160659 0.0036794206 -0.001973247 -0.0005274914
0000e0 21 11 57 3a 6c 97 11 3a 54 72 bc 3a dc 95 9a 3a
       0.00082041515 0.00055538747 0.0014377334 0.0011793929
0000f0 c6 54 6f 3a 51 48 9e ba 75 43 6c bb e0 b6 04 3b
       0.00091297587 -0.0012075995 -0.003605095 0.0020250604

exp_avg_sq f4 [64]
000000 73 7b 1b 3a 4d 6b e2 3a 3c a2 da 38 f5 23 b3 39
       0.0005931176 0.001727441 0.000104252686 0.0003416833
000010 ae ec 6d 3a 9a 29 32 39 29 0d 0e 39 83 6f ad 3a
       0.00090761005 0.000169909 0.00013547078 0.0013232086
000020 40 21 b5 39 8c aa d0 39 e6 52 8b 3a aa 9e d2 39
       0.00034547783 0.0003979992 0.0010629564 0.00040172535
000030 96 77 d3 39 46 a8 24 3a 28 af 1a 3a b3 fc a7 39
       0.00040334155 0.0006281178 0.0005900734 0.00032040998
000040 80 b2 e1 38 27 aa f9 39 8b 2d 6f 39 4d a9 18 3a
       0.00010762084 0.00047619754 0.00022809782 0.00058235676
000050 94 4c b7 39 c7 f3 8c 3a da 29 da 39 91 95 e0 38
       0.00034961535 0.0010753804 0.00041611382 0.00010709011
000060 43 df 2d 39 4a 84 3d 3a bc 89 eb 38 a9 b1 6e 39
       0.00016581737 0.00072294904 0.00011231328 0.00022763632
000070 3b ba 6f 3a fc 91 32 3a 16 ef 3a 3a d9 d6 80 3a
       0.0009144877 0.00068119145 0.00071309635 0.0009829655
000080 ff c1 eb 3a 29 52 ea 3a 3b d4 09 3a da 24 0f 3a
       0.0017986892 0.0017877269 0.000525776 0.00054605084
000090 6f 3e 5a 39 92 47 36 3a 78 d6 7f 39 a4 f3 0c 3a
       0.00020813358 0.0006953414 0.00024398591 0.00053768815
0000a0 8f 98 29 39 06 d8 0e 3a a4 3b 08 3a 9a 76 cd 3a
       0.00016173928 0.000544906 0.00051968754 0.0015675605
0000b0 1d 7a b4 39 dc f5 ea 38 ba 27 48 3a 95 a5 bb 38
       0.00034423257 0.000112037844 0.0007635314 8.947697e-05
0000c0 c9 97 08 3a 74 66 b3 3a 4d 94 c6 3a 29 a5 81 3a
       0.0005210606 0.001368715 0.0015150398 0.000989114
0000d0 75 22 35 39 8a 41 e8 3a b6 85 41 3a ec 3d a1 39
       0.00017274341 0.0017719727 0.000738229 0.00030754448
0000e0 a4 52 16 39 ce 17 ca 39 5e e5 20 3a 5e 59 3f 39
       0.00014335901 0.00038546178 0.0006137694 0.00018248471
0000f0 22 11 4c 3a f4 ae 36 3a 9e 67 4a 3a 9a 66 f2 38
       0.00077845354 0.0006968819 0.00077211286 0.0001155857

exp_avg f4 [32, 64]
000000 c5 3d b2 ba 96 ec e3 ba ba e2 62 ba 97 d3 ea b9
       -0.0013598731 -0.0017389234 -0.0008655001 -0.00044789605
000010 4c c9 c9 b7 f3 bb 68 39 1b 63 17 3a c2 b1 e3 39
       -2.4054803e-05 0.0002219526 0.0005774961 0.00043429254
000020 1b 06 4e ba b0 01 00 bb 28 62 89 b8 51 62 9a b9
       -0.0007859186 -0.0019532256 -6.550952e-05 -0.0002944642
000030 bf 6e 88 39 36 f3 b2 b9 5f 54 65 ba c4 09 ce 39
       0.00026022454 -0.00034132012 -0.0008748229 0.00039298658
000040 8e 14 05 bb 5e 7b 21 bb 8d 88 36 b9 c6 e4 22 bb
       -0.002030644 -0.0024640183 -0.00017407742 -0.0024855598
000050 4f 71 ee 3a 2e 57 52 b9 84 9b e1 38 02 df c5 ba
       0.0018191728 -0.00020059638 0.00010757803 -0.0015096369
000060 78 47 eb ba 1d 74 8b b8 6d c5 02 3b 85 10 06 3a
       -0.0017950376 -6.649664e-05 0.00199541 0.0005114156
000070 6b c8 40 39 33 19 93 38 48 09 4a ba 61 fa d0 b9
       0.00018385208 7.0142e-05 -0.00077070715 -0.00039859398
000080 54 f2 3e ba c4 59 de b9 2c db 64 b9 0f a0 6d 39
       -0.00072840345 -0.0004241002 -0.00021825422 0.00022661708
000090 03 55 05 ba b8 80 a7 b9 84 95 57 39 ed c2 0f 3a
       -0.0005086215 -0.00031948625 0.00020559697 0.00054840633
0000a0 cc 44 80 ba 78 0e 22 bb 82 95 90 3a dd 3e 07 bb
       -0.0009786128 -0.0024727862 0.0011030885 -0.0020636835
0000b0 49 24 2d ba 77 eb c8 ba b9 8b 1f 3b 42 20 7d 38
       -0.0006604833 -0.0015328963 0.0024344756 6.0349943e-05
0000c0 d6 87 e2 39 df ee 55 b7 fe 49 d5 b9 42 65 ce 37
       0.00043207285 -1.2751406e-05 -0.00040681654 2.4604265e-05
0000d0 44 38 07 3a 1b 64 50 3a 38 fb 2d b8 04 d3 e5 b9
       0.00051582255 0.0007949487 -4.148038e-05 -0.00043835503
0000e0 7a 1a 36 39 93 56 8f ba 61 00 06 bb cb e0 28 ba
       0.00017366736 -0.0010935835 -0.0020447003 -0.0006442188
0000f0 cc 38 ad b9 44 66 ca ba 9b 5f f9 39 bb e0 7a ba
       -0.00033039448 -0.0015441854 0.00047564213 -0.00095702306
000100 ea fc 21 3b 45 4b 1d 3a 59 e8 12 ba 8b ca 6e bb
       0.00247174 0.0006000291 -0.00056040805 -0.0036436643
000110 e1 b0 0b ba 8f 36 fd b8 7c a3 59 b9 fe af 1f bb
       -0.0005328786 -0.000120741424 -0.00020755635 -0.0024366374
000120 13 e0 d4 3a d2 61 d8 ba 22 70 2b bb 1b 96 1f ba
       0.0016241096 -0.0016508645 -0.0026159366 -0.0006087736
000130 5e 8c 7b bb 94 e8 94 b9 ed 3b da 3a 6a 70 d2 39
       -0.0038383226 -0.00028402044 0.0016649939 0.00040138076
000140 84 9a 6d 3b 7c fe 6f 3a 67 93 c5 ba 00 9d 27 3b
       0.0036255429 0.00091550476 -0.0015073837 0.0025575757
000150 0f c8 45 bb 3a 60 fb ba 2b 9e a5 39 e8 37 e1 ba
       -0.0030179059 -0.0019178458 0.00031589097 -0.0017182799
000160 05 42 98 37 8a 45 08 bb a3 73 b4 bb 85 2f ca ba
       1.8150555e-05 -0.0020793402 -0.005506949 -0.0015425539
000170 c0 5e 8c ba 9c ed 85 ba f7 d6 4d b9 d4 09 3c ba
       -0.001070939 -0.0010217908 -0.00019630404 -0.00071730954
000180 18 22 ca 3a 42 f6 00 39 c7 48 49 ba 74 13 82 3a
       0.0015421538 0.0001229877 -0.0007678386 0.000992401
000190 46 8e 1d 3b d4 4a ba ba 8e a5 66 ba c3 54 49 bb
       0.00240411 -0.0014212974 -0.0008798473 -0.0030720688
0001a0 56 87 1f 3b b0 94 8d 3a a1 aa 2d bb 52 1d 40 3a
       0.002434214 0.0010801759 -0.0026499408 0.0007328588
0001b0 16 5a c1 b9 43 29 cc 3a 33 c4 b1 bb 0e 3f 51 b9
       -0.00036878948 0.0015576262 -0.005425 -0.00019955283
0001c0 34 fe 23 bb 19 b8 1a bb 4e b8 24 bb 26 5f 07 bb
       -0.0025023343 -0.0023608266 -0.0025134268 -0.0020656078
0001d0 06 88 60 b8 56 b2 97 bb 09 df b7 ba 8f 9f 8e 3a
       -5.3532443e-05 -0.0046294136 -0.0014028262 0.0010881292
0001e0 ac 00 5c ba 4a ff ca 39 de 4c 1e 3a 87 15 20 ba
       -0.0008392434 0.00038718648 0.0006038676 -0.00061067234
0001f0 fb 69 01 bb 76 a0 c0 ba 8e a2 1e bb dd 28 3c ba
       -0.0019747007 -0.0014696259 -0.0024205777 -0.000717772
000200 4f 7b 17 3b 3b 38 f3 ba 4e 69 bf b9 b2 c6 fb ba
       0.002311427 -0.0018556187 -0.00036508817 -0.0019208996
000210 4b ef f3 ba ab 75 cc 39 cd 0f 12 3b 67 a5 12 ba
       -0.0018610744 0.00038997582 0.002228725 -0.0005594105
000220 0d 98 53 3a 8b 01 4c bb d2 cc 8c bb 19 90 c4 ba
       0.00080716686 -0.003112885 -0.0042968774 -0.0014996558
000230 6c b9 ec bb 40 49 30 b9 23 db 31 3a 10 05 55 3b
       -0.0072242524 -0.00016811956 0.0006784668 0.0032504238
000240 0b 49 a0 39 fb ba 96 3a 80 81 e6 b9 d4 16 1c 3b
       0.00030572 0.0011499816 -0.00043965504 0.0023817318
000250 56 2a 95 3a ba 34 3e bb e1 20 93 39 5f ae 33 bb
       0.0011380415 -0.0029023127 0.00028062522 -0.0027417166
000260 8c 73 65 39 a0 d6 4d bb 70 da 67 bb 6f a3 a6 ba
       0.00021882186 -0.0031408444 -0.0035378002 -0.0012713502
000270 25 f5 b3 b9 ce 1b a7 ba 71 cd 56 38 8e 38 1f 3a
       -0.00034324187 -0.0012749375 5.1212908e-05 0.0006073796
000280 33 e6 0e 3b 67 b5 55 3a a6 d4 b4 ba c0 9f 45 3b
       0.002180469 0.0008152336 -0.0013796284 0.0030155033
000290 d5 a0 9c 3a 32 b2 3b ba 33 74 1b ba 82 07 1d bb
       0.0011949787 -0.0007160037 -0.0005930096 -0.0023960774
0002a0 31 43 2c 3b 6d aa a5 3a bd 4d 78 bb 3a bd 30 3a
       0.0026285166 0.0012639292 -0.0037888133 0.0006742064
0002b0 22 be 00 ba 9a 4e 77 3a 97 df 06 bb 6d 23 9d 39
       -0.00049111445 0.0009434015 -0.0020580047 0.00029971768
0002c0 d2 76 1c bb 38 ff d7 ba 6f c4 89 bb a0 62 2d ba
       -0.0023874533 -0.0016479259 -0.004204325 -0.00066141225
0002d0 52 6b ba 3a 3b a8 8a bb bf ef cb ba e2 9c 3e 3b
       0.0014222658 -0.0042314804 -0.0015559121 0.0029085209
0002e0 a7 ea 44 bb b2 08 bf ba a9 81 60 3a 4e a7 82 ba
       -0.003004709 -0.0014574735 0.0008564243 -0.0009968074
0002f0 f4 50 40 bb 28 78 90 b9 6c 47 d9 ba d6 9a a9 3a
       -0.0029345127 -0.00027555344 -0.0016577072 0.0012939821
000300 f7 bd f3 39 00 51 d1 b9 6e d8 3b b9 b9 02 42 3a
       0.00046490107 -0.00039923936 -0.00017914336 0.00074009184
000310 0a 3f 92 b9 77 e9 85 b8 36 58 77 38 6f 80 38 ba
       -0.00027894258 -6.3854204e-05 5.8971542e-05 -0.0007038181
000320 81 8e d9 39 22 84 58 ba 33 98 3d ba f1 df 46 b8
       0.0004149564 -0.00082594354 -0.0007232457 -4.741544e-05
000330 25 4d b4 ba 0d 50 0e b9 b1 67 f7 b7 4e 2b 72 3a
       -0.0013755901 -0.00013571997 -2.949298e-05 0.000923802
000340 4e 67 7b 3a e4 38 ca 39 a7 16 69 3a 2a 1b b6 3a
       0.0009590284 0.0003857083 0.000889162 0.0013893594
000350 98 bc 84 b9 f8 7f 36 b9 1e 79 24 3a c3 99 50 ba
       -0.00025317515 -0.00017404545 0.00062741514 -0.00079574826
000360 7b 24 00 ba 15 fd 91 ba 6e 6d ec b8 ec 3a 8a 38
       -0.00048882485 -0.0011138046 -0.0001127374 6.591328e-05
000370 a2 c6 7e b9 73 8a bb b9 b1 a3 b7 38 81 1f 20 39
       -0.00024297324 -0.00035770572 8.75661e-05 0.00015270525
000380 7e 2c c2 39 08 c8 f2 b7 87 48 7e b8 6b 76 56 3a
       0.00037035713 -2.8941795e-05 -6.0625865e-05 0.0008181098
000390 09 72 74 3a c8 de ad b9 ea 0f 14 39 8a 2e 96 ba
       0.0009324854 -0.00033163116 0.00014120308 -0.0011457962
0003a0 f5 5e b1 3a a6 37 fd 39 68 7d 9b b9 03 ee 3b 39
       0.0013532328 0.00048297382 -0.0002965734 0.00017922376
0003b0 9e 2a d3 b9 64 60 2e 3a bf 45 77 39 e6 55 0f b6
       -0.00040276808 0.00066519366 0.00023581738 -2.135866e-06
0003c0 bc 53 36 39 89 7b 9e 39 12 0a 3b ba 30 f3 11 b9
       0.00017388066 0.0003022815 -0.00071349845 -0.00013918872
0003d0 8f cb 2a 3a 41 b8 36 ba 41 ec 1e 38 fc 93 42 3a
       0.0006515318 -0.0006970205 3.7890164e-05 0.0007422564
0003e0 64 01 99 b9 e9 38 a5 b7 64 af 84 3a 67 24 fb b9
       -0.0002918347 -1.9696034e-05 0.0010123071 -0.00047901573
0003f0 ec cc 3b ba c4 bc ba 39 27 5e c5 38 92 dd 78 3a
       -0.00071640196 0.00035617326 9.411229e-05 0.0009493466
