checkpoints/full/torsion_energy/20250611190441570299/ARG_dim_16/fold3/best_epoch=247-val_loss_epoch=25.306.ckpt (torch, 50117 bytes, 20 tensors)

fc1.weight f4 [64, 16]
000000 a9 63 96 be b6 a5 98 be bc 96 b8 3e 0b 22 9a 3e
       -0.2937291 -0.29813927 0.360525 0.30104098
000010 55 3c e9 3e 96 ca e6 be 98 e3 52 3e e3 89 9f bd
       0.45553842 -0.45076436 0.20594633 -0.07789972
000020 91 6a 98 bd b1 90 cc bc 2b ed ad 3d 53 cc 60 bd
       -0.07442201 -0.024971338 0.08492502 -0.05488236
000030 93 73 49 3d a2 bb f2 bd 6f fc b4 3a da 3c c3 3d
       0.049182486 -0.11852194 0.0013808141 0.09533091
000040 aa 43 cb 3c d3 84 77 bd 04 81 85 3d e8 82 2f 3c
       0.024812538 -0.060429405 0.065187484 0.010712363
000050 7b 76 87 bd e3 c2 20 3f 53 e8 c2 bd 47 ce 93 3d
       -0.06614395 0.62797374 -0.095169686 0.07217079
000060 d3 4e 2c be 33 60 ea 3e c7 a3 8d be f2 cb 88 3c
       -0.16826944 0.4577652 -0.27664015 0.016698811
000070 69 11 5b be 4e 99 c8 be 63 4c 17 be af 89 a1 bc
       -0.2139336 -0.39179462 -0.14775233 -0.019718973
000080 cf 38 b9 bd d0 a3 37 3d 51 51 d3 be 6e c0 f7 3d
       -0.090440385 0.04483396 -0.41272977 0.1209725
000090 7e fc a3 bd ca de 97 3e 41 a0 12 3d d2 4b 82 3b
       -0.080071434 0.29662162 0.03579736 0.0039763236
0000a0 35 75 94 3e ca 3f 5d 3c 5e 77 b0 be 31 30 98 3d
       0.28995672 0.013503978 -0.3446607 0.07431067
0000b0 78 a9 75 be e1 89 e6 be ef 06 5f be c6 74 14 3d
       -0.23990428 -0.45027068 -0.21779989 0.036244176
0000c0 5c c5 f9 3e 43 b9 b3 be a1 e1 c4 bd 81 ad 1f bd
       0.48783386 -0.3510228 -0.09613348 -0.038983826
0000d0 c1 3e 03 3f 9e 5f 8f bd bc 42 20 bd f4 94 87 bd
       0.5126763 -0.070006594 -0.039126143 -0.066202074
0000e0 8a 38 5f 3e cc 8a 72 3e cf cb a3 bd ee cb 59 bd
       0.21798912 0.2368576 -0.07997858 -0.053172998
0000f0 63 1d 8b be 16 74 2f be ce e8 9a bc ba 5b 91 b9
       -0.27170858 -0.17134127 -0.018909838 -0.00027724897
000100 fc a8 da bd 02 1e 48 bf e8 92 a9 3e f7 d6 be bc
       -0.106767625 -0.7817079 0.33119893 -0.023295863
000110 5e 0f 09 be 0f d2 e7 3a d0 78 60 3e 0f 55 94 3e
       -0.13384768 0.0017686504 0.21921086 0.28971145
000120 7f a9 b7 bd cd cc df be e0 ec 30 3e d3 c8 69 3d
       -0.08967876 -0.43710938 0.1727786 0.057076287
000130 fe 35 3e bd e2 54 b7 be 15 3c 84 3b 5e 85 2b 3d
       -0.04643821 -0.35806948 0.0040354826 0.041875236
000140 10 da a9 3e 92 c0 93 bd 40 11 cf be 20 e8 c7 bc
       0.3317418 -0.07214464 -0.40442848 -0.024402678
000150 70 7d 5d 3e 48 e5 16 bf 0c 3f be 3e 9a f5 51 3e
       0.21629882 -0.58943605 0.37157476 0.20503846
000160 2c c8 04 be 50 27 88 3d 7b 52 8c 3d 8d e5 b9 bc
       -0.12966985 0.06648123 0.068516694 -0.022692466
000170 97 b0 3d 3e 38 e7 f9 bd 84 d4 3a 3e e7 49 b1 3d
       0.18524395 -0.122023046 0.18245131 0.08656674
000180 33 95 02 3f 60 db 87 3e e2 72 96 3e f9 70 da 3e
       0.5100891 0.26534557 0.29384524 0.42664316
000190 37 3a 8c be ae c6 03 3e d4 47 bd 3e d9 e8 d8 bd
       -0.27388164 0.12868759 0.36968863 -0.10591287
0001a0 d7 d5 98 bc a3 f7 21 3e b9 96 c5 3d d8 71 ff bd
       -0.018656654 0.15817122 0.09647889 -0.12472886
0001b0 93 90 43 bd 06 14 c2 3d f2 d5 4f bd f8 88 43 bd
       -0.0477453 0.094764754 -0.050741144 -0.047738045
0001c0 1a cf 55 bc d8 ae 5c 3e 16 e5 dc be 60 af 70 3e
       -0.013049865 0.21551073 -0.4314353 0.235044
0001d0 c2 7d 56 bd b6 32 58 3e 6a 43 d8 3e d7 79 5f 3f
       -0.052366026 0.21113095 0.42238933 0.8729529
0001e0 04 f0 38 3d d5 41 3d 3c 6d f1 b2 3d 1c f5 b0 3d
       0.04515077 0.01155134 0.087374546 0.08640501
0001f0 6b 6f 05 3d 52 7e 24 bd e7 7c 71 be 5e dd b2 be
       0.03257696 -0.04015953 -0.23582803 -0.34934515
000200 6f b2 4e 3d 21 7f 96 bd 85 21 e3 be fa fc 2e 3f
       0.050463136 -0.07348467 -0.4436151 0.6835476
000210 02 a2 02 bd 84 af 30 3d 0a 23 d9 3d 4b 15 10 3f
       -0.031892784 0.043136135 0.10602386 0.5628249
000220 96 66 2c 3d e3 d2 5b bd 38 6a a1 be ac 60 81 3f
       0.04209002 -0.053667914 -0.3152635 1.0107627
000230 5f 44 42 bc 87 99 2d bd 33 64 39 bd a0 70 92 3e
       -0.011857121 -0.042382743 -0.045261573 0.2860155
000240 bd f8 2f 3d ae 4d e1 3c 92 b2 01 bf 21 2d 6a 3e
       0.042961825 0.02750286 -0.506631 0.22868778
000250 3f 0c 9e 3d 8f dc 8c be 77 1e c9 be 47 1c 05 3e
       0.077171795 -0.27512023 -0.39281055 0.12999068
000260 c6 44 0b 3d 69 8e 4f 3c fd 88 84 be 3e fd 24 be
       0.034001134 0.012668231 -0.25885764 -0.16112229
000270 b0 a6 6e 3c c9 29 ae bd 84 c9 55 3e 27 82 1e 3d
       0.014566109 -0.08504064 0.20877653 0.03869834
000280 f6 76 63 be f0 cf b2 3e 98 ce 1a bd 80 a5 11 3d
       -0.22213349 0.3492427 -0.03779468 0.035558224
000290 4e 56 0a bc 73 8c 10 bf bb d2 ef bc 64 12 66 3d
       -0.008443428 -0.5646431 -0.029275289 0.056169882
0002a0 7e a8 05 3e 63 6a 81 be 85 8a 81 3d 54 40 b5 3b
       0.13052556 -0.2527648 0.06325249 0.00553135
0002b0 44 b8 76 be 22 b3 77 be 9b f6 be bd 94 fe f2 3b
       -0.2409373 -0.24189427 -0.0932438 0.007415602
0002c0 83 48 3b bd b4 07 8a be ff 92 d7 be e1 d6 45 be
       -0.04572345 -0.26959002 -0.42104337 -0.19320251
0002d0 6b d8 1c 3c 5c 29 53 be 91 c3 34 3f 8f ff cc 3d
       0.009573082 -0.20621246 0.7061091 0.100096814
0002e0 c6 f5 e1 3d 87 fe 0d 3e 5b 34 8a bd 78 27 cb bc
       0.11033206 0.13866626 -0.06748267 -0.024799094
0002f0 22 74 64 bd 7f 05 88 be 55 f4 f7 3d b3 fb a2 3d
       -0.055774815 -0.26566693 0.121071495 0.07958164
000300 f1 84 c7 3d 4a c6 38 be 4e b9 03 3f 68 21 38 bf
       0.097421534 -0.18044391 0.5145463 -0.71925974
000310 45 f5 02 3d f9 44 0e bd 4e 59 20 bd e0 08 2d bd
       0.03197219 -0.034733746 -0.039147668 -0.042244792
000320 39 45 09 bd d8 28 16 3c 86 03 5f be d8 95 c5 3e
       -0.03351328 0.009165011 -0.21778688 0.38590884
000330 ca 40 98 bd 45 d5 ff bc bd 5f e4 bc 81 92 c5 bc
       -0.074342325 -0.031229625 -0.027877683 -0.02411771
000340 cd 9c 64 bd 39 ea 35 be f3 8c 05 3f e1 06 cf 3e
       -0.0558136 -0.1776513 0.52168196 0.40434936
000350 d8 17 d1 bc c7 a9 2b 3f b6 09 ec 3e b3 12 81 3e
       -0.025524065 0.67055935 0.4610116 0.2520958
000360 25 77 5f bc 0a ef 89 3c ad 25 fd bd 68 0b 21 be
       -0.013639246 0.016837616 -0.12360702 -0.15727007
000370 b8 18 5a 3d b2 06 75 bd 83 6f 8e be 67 86 23 bd
       0.05324623 -0.05982084 -0.27819452 -0.039923098
000380 7a 61 73 3e ed 3c ae 3b 40 da 7a be 5f 25 86 3e
       0.23767653 0.0053173215 -0.24497318 0.26200387
000390 82 fc 96 be 6c 4d aa bd dd dc 3d bf ab 5d c7 be
       -0.29489523 -0.08315548 -0.74165136 -0.3893865
0003a0 65 bd b1 3d d1 29 18 3d 23 7d d6 3d 02 c6 35 3d
       0.08678702 0.037149254 0.10473087 0.044378288
0003b0 c5 82 d4 3d 8d bf 46 bd 08 c0 18 be f1 4e eb bc
       0.10376505 -0.04852252 -0.14917004 -0.028724166
0003c0 8d c2 29 3e 35 b3 84 3d e2 e8 cf be 8f bc a5 be
       0.16578121 0.064794935 -0.40607363 -0.3237042
0003d0 e8 60 1c 3e 46 1b 0b 3e b9 9b b4 be 4d 9e 03 3f
       0.15271342 0.13584623 -0.35275057 0.5141342
0003e0 7e 58 96 bd 38 a4 ea bd 89 eb 18 3e ee 21 2a bd
       -0.07341097 -0.114571035 0.149336 -0.041536264
0003f0 ec fd 25 3d a8 40 8e 3d 4c 9b 5b be a0 6b 1f 3e
       0.040525362 0.06945926 -0.2144596 0.155684

fc1.bias f4 [64]
000000 31 93 40 3d 37 e9 a8 3e 87 b4 0b bd e7 69 ff 3d
       0.047015373 0.3299043 -0.03410771 0.12471371
000010 2d ea 9e be 89 5d 4b 3e 73 75 2d 3e 09 14 7b be
       -0.31038037 0.198599 0.16939335 -0.24519362
000020 b2 08 e2 bc a3 52 c6 3e e0 c8 69 3e 65 cd 02 3e
       -0.027592037 0.38734922 0.22830534 0.12773664
000030 73 e8 13 3e 50 25 fa 3d 82 71 a7 3e 90 48 c1 3e
       0.14444141 0.12214148 0.32703787 0.37750673
000040 8c 30 66 bd 2a 09 3c be 3f a4 93 3e 3a f6 53 be
       -0.05619864 -0.18362871 0.28836247 -0.20699397
000050 7c 6a bb 3e 78 d8 19 bf e1 f7 42 3b 2f f4 1f bd
       0.3660468 -0.6009593 0.0029749798 -0.03905123
000060 7a 00 82 3e de 6c eb 3e 72 15 1e bd 5c 94 21 3e
       0.2539099 0.45981497 -0.03859467 0.15779251
000070 3d 18 4e bf f3 c6 96 3e b9 01 59 bc 58 d2 38 bd
       -0.80505735 0.2944866 -0.01324504 -0.045122474
000080 6c 4e 4a be 99 97 29 be e2 fb bc 3e 8d 10 f3 bd
       -0.19756478 -0.16561736 0.3691092 -0.11868391
000090 48 06 88 3e 2f 29 52 3e 16 8d a9 3e 5b 94 34 3f
       0.26567292 0.20523523 0.33115453 0.7053887
0000a0 e9 41 f9 be cd c7 7f 3c 02 75 2f bf 94 4a 4c 3d
       -0.48683098 0.015611601 -0.68537915 0.04987581
0000b0 38 59 18 bf 21 49 97 bc ae e7 da 3d 7e 00 e3 3e
       -0.59511137 -0.018467488 0.10688721 0.44336313
0000c0 fd 65 eb bd db 85 8b 3e 82 b1 18 3e eb 1a 96 bd
       -0.11494062 0.2725056 0.14911464 -0.07329353
0000d0 81 94 47 3d 24 b1 fc 3e d7 ff 0f 3f b4 14 3c 3d
       0.04872561 0.49353898 0.56249756 0.04591818
0000e0 26 a3 64 bc fd 7d db 3e c7 8f 17 3e 9f 50 3e 3e
       -0.013954913 0.4286956 0.1480094 0.18585442
0000f0 df 5d c5 3e 14 01 bb 3e 55 37 d6 3e 56 05 a1 3e
       0.3854818 0.3652426 0.4183909 0.31449383

fc2.weight f4 [32, 64]
000000 7d 1c 0c be d9 9d 45 3e 0e 70 aa bd 83 e5 2d be
       -0.13682742 0.19298495 -0.08322154 -0.16982083
000010 62 37 34 bd 30 6d 5d be 82 71 11 be 8a 14 0d 3e
       -0.04399813 -0.21623683 -0.14203456 0.13777366
000020 97 ec 10 3e f3 67 94 be 58 80 fa 3d 45 42 a4 be
       0.14152752 -0.28985557 0.12231511 -0.3208181
000030 d5 b5 ea be 32 30 48 be ef 40 c5 bc 24 62 cc 3e
       -0.45841852 -0.19549635 -0.024078814 0.39918625
000040 91 0f 84 bc e0 ce 4c 3e 86 84 c9 3c f9 8a 8b 3d
       -0.016120704 0.20000792 0.024599325 0.06813616
000050 de fa 4b 3c b5 f3 c8 bd 1b 65 7c 3d 6e de 3d 3e
       0.012449948 -0.098121084 0.06161986 0.18541881
000060 b7 2b 33 3e c4 5b a0 3d 26 b1 03 be c4 df 99 be
       0.17497145 0.07830003 -0.12860546 -0.30053532
000070 b2 a9 9f be 77 28 fa 3d 4f 92 0c bf a0 ec cc be
       -0.31184155 0.12214749 -0.5491075 -0.4002428
000080 dc d0 39 3e aa 66 98 3e 1e a1 2e bc 9c 78 be 3d
       0.1814608 0.29765826 -0.0106585305 0.09300348
000090 53 25 99 bc 51 c2 bd be b2 da 5e bd 60 01 b9 3e
       -0.018694555 -0.37062314 -0.054407783 0.36133862
0000a0 ff 59 b2 3e f4 0a b4 3e 69 9c 03 3e 25 88 b4 3d
       0.34834287 0.35164607 0.12852634 0.0881503
0000b0 ba 85 06 bd c6 4e 90 be 56 f6 ec 3d 48 25 3b be
       -0.032842375 -0.281851 0.11570422 -0.1827594
0000c0 d1 04 41 3e 9d 1f 10 be 63 91 0c 3d 36 52 00 bf
       0.18849494 -0.1407456 0.03431834 -0.50125444
0000d0 b0 a5 87 3e 6a cf 86 3e 0b 51 be bd 4f 77 8f 3e
       0.26493597 0.2633012 -0.092928015 0.28020713
0000e0 62 3d 22 3d 76 5c 9a 3e 3d c4 07 3e 86 35 b1 3d
       0.03960932 0.30148667 0.13258453 0.08652787
0000f0 0b ee bc bd 04 c3 ea 3d d1 37 01 be 36 a9 d9 3d
       -0.092250906 0.114629775 -0.12618949 0.106279776
000100 87 b9 51 3e d9 16 99 3c 9b 13 0c 3e fe 2e e6 bd
       0.2048093 0.018687652 0.13679354 -0.11239432
000110 73 97 02 3e 79 49 95 3d aa e3 36 be bb 22 1f 3e
       0.12753086 0.072894044 -0.17860284 0.15540592
000120 ae bd b4 3d b2 97 e2 3e 38 ab a9 3d e4 58 a8 bd
       0.08825241 0.4425636 0.082846105 -0.082200795
000130 6c 2f 43 bc 56 c8 f5 3d 06 08 b2 bd 1a ac 81 3e
       -0.011913162 0.12001102 -0.086929366 0.25326616
000140 39 be b8 bd 4b 24 75 3e 10 76 61 be 52 77 aa 3e
       -0.09020657 0.23939626 -0.22017694 0.3329416
000150 2b 7b b2 bd 4c 0e a0 bf d0 ae 7e 3e c9 cd 12 3d
       -0.08714899 -1.2504363 0.24871373 0.035840783
000160 1d 30 81 be cd f1 20 bf 7d 56 75 3e ad 95 ec bb
       -0.2523202 -0.6286896 0.23958774 -0.007219991
000170 9c 23 08 bf 15 ca 55 be 55 6d 86 bd f8 dc 5f bd
       -0.53179336 -0.2087787 -0.06563822 -0.05465409
000180 dd d7 e3 3c 70 5c ca 3d 2f 5b 77 3c 2e 00 25 3e
       0.027812893 0.09880912 0.015097423 0.1611335
000190 bc dc 5a 3e 9c 3f c8 3d d7 44 7e be 15 f2 7b 3e
       0.21373266 0.097777575 -0.24830948 0.24604066
0001a0 c2 39 44 bd 08 b8 c5 3c 4a 44 5a be 49 58 89 be
       -0.047906645 0.024135605 -0.21315113 -0.2682517
0001b0 71 0a 6c 3d e1 63 2c 3f 80 a8 a5 3d 60 2e 9e be
       0.057627145 0.67339903 0.080887794 -0.30894756
0001c0 cd a3 85 be 6b 25 4d 3e 19 25 47 3e 69 1a d8 bd
       -0.26101533 0.20033805 0.19447745 -0.10551912
0001d0 05 55 b9 3c 9f e3 0e 3e cf 0e 09 3e dc 6c 45 be
       0.022623548 0.13954018 0.13384555 -0.19279808
0001e0 cc 3b 23 be 42 dc 23 3d 53 03 3c be a8 61 22 be
       -0.1594078 0.040004976 -0.18360643 -0.15857565
0001f0 ce 47 06 3e 8b 18 99 bb e3 3b 93 3e 4d 73 a6 3a
       0.13113329 -0.004672115 0.28756627 0.0012699157
000200 ba 07 c0 3d 8c f0 a7 be 67 f6 84 bd 48 da 3d 3e
       0.09376474 -0.3280071 -0.0649231 0.18540299
000210 3e 4c 51 bd 7e 86 c4 3d a1 07 35 bd ff 62 0c be
       -0.0510981 0.09595965 -0.04419673 -0.13709639
000220 74 ad 84 bd fb 6b 48 be ac 8b 8a 3e 47 ff 2e bd
       -0.06478396 -0.19572441 0.27059686 -0.04272392
000230 47 90 97 3e a0 1f 5b 3e 0c ea 93 3e 37 c6 8c bc
       0.29602262 0.21398783 0.288895 -0.01718436
000240 cb e6 b7 3e 59 2c 0e 3d 09 9d 87 bd 13 5c 87 3d
       0.3591827 0.034710262 -0.06621749 0.06609359
000250 3c 0d 31 3e fa 22 26 bf a3 04 25 3d cb 3e 54 3e
       0.17290205 -0.6489712 0.040287625 0.20727079
000260 1f 3c f7 bd bd 49 8a be de ca 03 bc 4a 03 ac 3c
       -0.12072014 -0.27009383 -0.008043973 0.020997662
000270 16 ff 41 be 7c 0f 80 bd 2e b9 d1 3b f3 c7 41 be
       -0.18944964 -0.062529534 0.006400249 -0.18923931
000280 93 05 14 3f cd dc 52 3e 9d 9f 94 3e ef 5c a4 3e
       0.57821006 0.20592041 0.29028025 0.32102153
000290 d4 67 a5 bd 29 92 df 3c 53 21 86 bb f4 4e 83 be
       -0.08076444 0.027291374 -0.004093328 -0.25646174
0002a0 d3 56 f1 bd 94 5d 1c be 2e 74 5c be 48 00 38 3e
       -0.117841385 -0.15270072 -0.21528694 0.17968857
0002b0 75 4b a7 3e 9d ad 10 3a fa 4e a4 3d 2d a3 c1 bd
       0.32674757 0.00055190345 0.08022876 -0.094549514
0002c0 40 aa d2 bd 12 f9 12 3e c8 70 d2 3d 2a f9 2a be
       -0.10286379 0.14352825 0.102754176 -0.16696611
0002d0 99 60 ec 3c 9f 93 b9 3d 14 0a ad be 5e 42 15 3e
       0.028854655 0.090613596 -0.33796751 0.14576098
0002e0 1e d1 96 bd 8a e0 1c be a7 4d 41 3d 48 c5 13 3e
       -0.07364105 -0.1532003 0.047193196 0.14430726
0002f0 27 7c 58 3e 5d 97 8d 3c 11 3f 9b 3e 47 80 cb 3e
       0.2114111 0.01728409 0.30321553 0.39746305
000300 14 5d b8 3e 9c 3f 18 3e 7b 71 6f 3e 81 4e 21 be
       0.36008513 0.14868015 0.23383133 -0.15752603
000310 8f 06 30 bd 01 23 3f 3d 49 5f 3c be fc 19 81 bb
       -0.042975005 0.04666424 -0.18395723 -0.003939865
000320 3f ba 22 3d ba a9 f3 3d 5a b1 74 be 4f f1 4e 3d
       0.0397284 0.11897607 -0.23895779 0.0505231
000330 71 c7 0e 3d 20 1c b8 bd fa 88 0a be 06 4c 69 3c
       0.03485817 -0.089897394 -0.13528815 0.014239317
000340 8d 84 de bd 29 ca a9 3c f9 8f 3e 3e 68 98 11 3e
       -0.10865126 0.02072628 0.18609609 0.14218295
000350 ba d6 24 3e 14 f9 47 bf 66 de 36 be d2 eb 1c be
       0.16097537 -0.7811444 -0.17858276 -0.15324333
000360 ba 47 0e 3d 58 3f a6 3e 0a d5 08 3e 85 db b0 3d
       0.034736373 0.32470202 0.13362518 0.0863562
000370 76 03 9a 3d 37 dd 87 3e 4b f9 21 bf 6f 5d 05 3d
       0.07520191 0.2653596 -0.63271016 0.03255981
000380 de 87 f7 be e5 cd a0 bc 29 b4 0b 3e b2 66 44 bd
       -0.48345846 -0.019629428 0.13642944 -0.0479495
000390 2f d6 8e 3e 4d a3 61 3e 20 19 f9 3d 61 b6 07 be
       0.27897784 0.2203495 0.12162995 -0.13253166
0003a0 da a4 4d 3e de a1 ac bb b6 f0 48 3f 70 2d 7e bd
       0.20082417 -0.0052683195 0.78492296 -0.06205505
0003b0 ec b8 0e be e3 10 a0 3d da 4d 58 be 33 97 86 be
       -0.1393773 0.07815721 -0.21123448 -0.2628723
0003c0 88 0e ef bd bf 0f f6 3d 6b 8a 02 bf de 53 64 3e
       -0.116726935 0.12014722 -0.5099246 0.22297618
0003d0 4f d6 a9 be 24 33 90 3e ff 81 bf 3e 56 55 96 3d
       -0.33171317 0.28164017 0.37403867 0.07340495
0003e0 5c cf 44 3e c6 2a 6e be c0 02 a3 3e d6 18 3a 3e
       0.19219726 -0.23258504 0.31838036 0.18173537
0003f0 c6 b5 97 bd 25 cb 62 be ec 1d 52 be d9 c7 8b bd
       -0.074077174 -0.22147806 -0.20519227 -0.06825227

fc2.bias f4 [32]
000000 06 a2 0e 3d b0 2c cf 3d f1 f4 b0 3d 11 7d 24 3e
       0.034822486 0.10115945 0.08640469 0.16063334
000010 42 af 97 bc b2 90 9e bd 7d 7d 0f 3d 91 47 cf bd
       -0.018516187 -0.07742442 0.035031784 -0.10121072
000020 41 89 78 bd d8 7e 27 3e 57 5e bc bd af be bc bc
       -0.06067777 0.16356981 -0.091976814 -0.023040144
000030 b9 5e 8f 3d 9f 4e 09 3d 5b e3 04 be 3b 4f 89 bc
       0.07000489 0.033522245 -0.12977354 -0.016761413
000040 b5 43 01 3d ba ba 1a 3d a4 38 a3 3d b8 95 45 bd
       0.03155871 0.037775733 0.07969788 -0.048238486
000050 54 42 9b bd 4e 13 2a 3b 11 37 1d bd 2d 52 bc 3d
       -0.075810105 0.0025951448 -0.038382594 0.09195361
000060 35 b9 4f bb 45 08 7f 3d cf 5f a0 bc 1c 73 af 3b
       -0.0031696085 0.062263746 -0.019576935 0.0053542983
000070 ee 27 d0 3d f0 d7 b5 bb b7 3b 4c bc 85 33 71 3d
       0.10163866 -0.0055494234 -0.012465409 0.058887023

fc3.weight f4 [3, 32]
000000 ec c4 b7 be a8 c6 5f 3e 74 43 b7 be 5e e8 39 3d
       -0.35892427 0.21853125 -0.3579365 0.04538762
000010 7c 27 42 be a5 0f 13 be 0b 7c 12 3d 72 43 3b 3e
       -0.18960375 -0.14361437 0.035762828 0.18287447
000020 00 51 c9 be b0 72 d9 3e 81 8b 49 be 2c 27 d9 3e
       -0.3931961 0.42470312 -0.19682123 0.42412698
000030 ab 6f 23 3f 84 11 1c bf b6 74 ac 3e b6 4d 0b be
       0.63842267 -0.60964227 0.33682793 -0.13603863
000040 3f 25 85 3e 5c 19 e0 3e 46 12 87 be 83 1a 8e be
       0.2600498 0.43769348 -0.2638113 -0.27754602
000050 44 82 f5 be c8 8a ff 3e f1 ff 5d bd 50 f1 86 be
       -0.47950947 0.4991057 -0.054199163 -0.26355982
000060 57 91 d7 bd db 8e 48 3f 78 da 9d bd cb 76 95 be
       -0.10525768 0.7834298 -0.07707685 -0.29192194
000070 68 88 2b 3f 5b d7 e2 be df 23 ad bd bf 66 9f 3e
       0.67005014 -0.44304928 -0.084541075 0.31133077
000080 6b 88 19 3f 22 e7 25 3f 61 65 97 be f1 69 10 3f
       0.5997378 0.64805806 -0.29569533 0.56411654
000090 b9 bc 00 3f ed c1 15 bf 68 c8 c7 bd ff 4b ae bf
       0.5028797 -0.5849903 -0.09755021 -1.3616942
0000a0 79 2b 65 be 86 9e 32 3f 0e 3b 87 bf 25 41 1b 3f
       -0.22379865 0.6977314 -1.0564897 0.6064628
0000b0 75 f9 72 bf 90 a2 50 bf 61 4b 79 bf 0f 77 19 3f
       -0.9491189 -0.8149805 -0.97380644 0.59947294
0000c0 e2 bc 33 3f 10 bd 90 be 94 1f a7 be 11 c7 d5 3e
       0.7021009 -0.28269243 -0.3264128 0.41753438
0000d0 72 1c 95 3e 99 82 d2 be 71 3d 40 3d 88 10 30 3f
       0.29123265 -0.41115263 0.046933595 0.68775225
0000e0 0d 78 90 3f e3 e1 d3 bc f5 93 c8 3f fb 77 0f 3f
       1.1286637 -0.025864547 1.5670153 0.5604245
0000f0 9f 74 93 be b6 15 cc 3e e9 8a 2c 3f 37 e5 b2 bd
       -0.28799912 0.39860314 0.6739946 -0.087351255
000100 65 b4 cd be 86 c6 5b be 90 d4 af be 71 86 ef 3e
       -0.40176693 -0.2146245 -0.3434186 0.46782258
000110 e7 49 46 3f 75 24 0e bf c3 2d 3f 3f f9 21 a9 bd
       0.77456516 -0.5552438 0.746792 -0.08258433
000120 52 d9 38 3e 7f b6 20 be 2f 0c 9d bd 94 1d 8f 3d
       0.18051651 -0.15694617 -0.076683395 0.069880635
000130 65 23 6e bd ff 1f 9d 3c 03 c0 e8 be 88 12 37 be
       -0.058139224 0.019180296 -0.45458993 -0.17878163
000140 4e 02 ae 3b 6f dd 94 be a7 2a cb bd a6 ff 4a 3f
       0.0053103333 -0.2907519 -0.09920245 0.7929634
000150 e2 20 96 3e bd 52 53 3f a6 8d 56 3d 7a e3 bf be
       0.29321963 0.82548124 0.05238118 -0.37478238
000160 68 3e 00 3d c1 b8 99 3e 95 c3 52 be 5a 36 76 3c
       0.031309515 0.3002377 -0.20582421 0.015027607
000170 de 68 ac be 93 71 4c 3e f9 13 f2 be 2b 8e 53 3e
       -0.33673757 0.199652 -0.47280863 0.20659702

fc3.bias f4 [3]
000000 8b d7 b2 3d 63 49 4a bd 93 1b 09 3e
       0.08732518 -0.049386393 0.13389425

exp_avg f4 [64, 16]
000000 ee 25 10 bc c6 c1 2a bb 5f 10 c4 bb b7 b0 1a bc
       -0.008798106 -0.002605544 -0.005983397 -0.009441546
000010 1b 01 02 3c 71 f9 2c 39 80 be ec 3b 80 54 1b 3c
       0.007934834 0.00016496122 0.007224858 0.009480596
000020 4e d5 9e 3a bc bb de bb 0d 5c 61 3c 85 f6 84 bb
       0.0012118013 -0.006797282 0.013754857 -0.0040577077
000030 a4 90 cd ba db ac b5 3b af 28 df bb 92 5b 9b bb
       -0.0015683365 0.0055442876 -0.00681027 -0.0047411406
000040 11 e4 bf bb f4 5a b4 ba d5 45 07 bc 78 a7 c9 bb
       -0.005856045 -0.0013760016 -0.008256395 -0.006153997
000050 09 53 9e ba bc 88 f5 bb 4e f0 8b bb eb e1 23 3b
       -0.001207919 -0.0074931066 -0.00427059 0.0025006484
000060 7a 0d c0 b7 0f ed 68 3b 59 b2 bd 3a a6 e7 dc bb
       -2.289446e-05 0.0035541689 0.0014472707 -0.006741482
000070 ea 23 a2 39 3e f9 a8 bb 15 40 43 3b 65 50 d2 3b
       0.00030925806 -0.005156665 0.0029792835 0.006418275
000080 7f 66 80 ba 46 11 c5 bb e5 c0 7c bb 9a c5 48 38
       -0.0009796171 -0.006014022 -0.0038567123 4.7867747e-05
000090 da c4 ea bb 70 97 2c 3c f1 ba 0c 3c b7 e5 cb 3b
       -0.00716458 0.010534152 0.008589492 0.0062224525
0000a0 58 31 29 bb 89 e1 ef 3a ab 07 2a 3c 3d 27 1f bc
       -0.0025816765 0.0018301468 0.010377805 -0.009713945
0000b0 a1 ae 2a 3c 9a 87 14 3c 22 11 09 3a 3f e1 1a 3c
       0.010417611 0.009065533 0.0005228688 0.009453117
0000c0 a6 62 28 3c ab 05 ad ba c9 50 94 ba 79 e8 be 3b
       0.010277426 -0.0013200542 -0.001131558 0.0058260527
0000d0 29 83 ee ba aa 54 f2 3b d7 3f a9 3a 22 31 ad 3b
       -0.0018197048 0.0073953466 0.0012912703 0.005285398
0000e0 52 26 31 3b 41 48 8c bb 94 e0 bb 3b 7f 10 21 bb
       0.0027030897 -0.0042810743 0.005733559 -0.0024576483
0000f0 67 89 0c 3c 58 7e 80 3a cb 35 d6 3a 43 e5 59 bb
       0.008577681 0.0009803278 0.0016342936 -0.0033248223
000100 a5 1b e1 3b bd c6 4e 3c 2e c1 6b 3c 1b 81 f1 3b
       0.0068697506 0.012620625 0.014389319 0.007370127
000110 25 57 72 bb 93 66 47 3c 8a a7 3e bb f8 ae 09 bb
       -0.0036978212 0.012170452 -0.002909156 -0.002100883
000120 77 9f 6f 3c 98 a6 2d 3c 87 43 da bb c5 46 bf 3b
       0.014625422 0.010598801 -0.006660882 0.005837294
000130 da a3 31 3c da b4 4c bc 2c 95 23 3c 3b c7 0b 3c
       0.010842288 -0.01249429 0.009984296 0.008531387
000140 47 8f 7f bc 6b 30 31 bc cc b7 42 bc 1e c8 5a bc
       -0.015598125 -0.010814766 -0.011884641 -0.013353376
000150 01 ee c7 3a a7 b4 94 b9 4d 9f 2e 3c 80 28 53 3c
       0.0015253426 -0.00028363356 0.010658097 0.012888074
000160 e5 c2 d5 bb 02 f7 08 bc fb 40 c2 3c 25 05 86 bb
       -0.0065234774 -0.0083596725 0.023712626 -0.0040899687
000170 a0 23 fb bb 0e b7 66 3c 2e c3 a3 bc 7d 57 8e 3a
       -0.007664159 0.01408173 -0.01999053 0.0010859814
000180 cd 19 d0 bb 11 e6 67 3b ff 2f a0 3a 31 85 cb 3a
       -0.006350732 0.0035384933 0.0012221335 0.0015527365
000190 33 44 94 ba f8 e3 7a b9 cc 18 39 3b a5 eb 91 3b
       -0.0011311829 -0.00023926783 0.002824354 0.00445314
0001a0 84 6c 0d 3b 25 30 67 ba 72 c4 fc 3a f0 82 f3 ba
       0.0021579573 -0.0008819125 0.001928462 -0.0018578451
0001b0 f2 bb 64 3b 94 6e 96 ba a8 b2 bf 3a 44 00 99 ba
       0.0034902063 -0.0011477047 0.0014625387 -0.0011673053
0001c0 ac c0 8d 3b e0 0e b7 3a 76 b0 68 3b f8 5a e9 3a
       0.004325947 0.0013966225 0.003550557 0.00178036
0001d0 4f bb f4 ba 24 68 73 3b a3 4b 13 ba 17 d3 2d bb
       -0.0018671545 0.003714093 -0.0005618876 -0.0026523524
0001e0 45 f1 20 b9 17 9b a2 3b f7 25 b6 bb 62 8d b2 3a
       -0.00015348669 0.004962336 -0.005558725 0.0013622458
0001f0 f1 d4 c6 3b ff 2f 13 3b 5a f5 6e 3b fd d9 cf 3b
       0.006067865 0.0022459028 0.003646216 0.006343125
000200 ce 79 a2 ba ed f0 61 bb 54 18 8a b9 71 49 ef b9
       -0.001239592 -0.0034475878 -0.00026339537 -0.0004564035
000210 4a b5 ad bb 1f 84 91 bb 34 b0 13 ba f8 db ae ba
       -0.0053011524 -0.004440799 -0.00056338613 -0.0013340702
000220 93 5a 67 bb 5e a8 97 3b 00 53 f4 ba 26 ce 4b 3b
       -0.003530179 0.004628225 -0.0018640459 0.0031098216
000230 52 86 85 bb bd ce f2 ba 8c 22 86 bb fc 4d ef 3a
       -0.00407485 -0.0018524748 -0.004093474 0.0018257494
000240 e2 ab 29 bb ff 1a 93 3b 07 3a 79 bb 29 30 cf 3b
       -0.0025889804 0.004489302 -0.0038028972 0.00632288
000250 37 cd 81 3b 30 da d8 ba df 17 c5 bb db 82 32 bc
       0.003961231 -0.0016544517 -0.0060148085 -0.010895456
000260 14 98 98 39 83 34 68 3c 5a ab 89 bc da 06 2c 3b
       0.00029105006 0.014172676 -0.01680534 0.00262492
000270 fe bf fc 3a 45 21 31 bc 09 42 51 3b ee 1e 70 bb
       0.0019283292 -0.010811155 0.003193023 -0.003663953
000280 44 d2 fa 3b 63 db 1e bb cc bc f2 3a 94 1b fd 3a
       0.00765446 -0.0024239651 0.0018519401 0.0019310587
000290 bf a3 4c bb 70 c9 d2 3b a7 8a 2a 3b a3 7a 2c 3c
       -0.003122553 0.0064327046 0.0026022585 0.010527286
0002a0 8d 06 a2 bb 9b 11 26 bc 49 e6 45 3c 65 90 52 3b
       -0.0049446286 -0.010136033 0.01207883 0.0032129523
0002b0 9f 5d 65 3b f1 63 89 3b b6 a2 16 bb f7 4b b7 3b
       0.003499843 0.004192822 -0.0022985167 0.0055937725
0002c0 79 a8 bf bc e5 f7 a8 bb 88 f7 80 bc fa a2 26 bc
       -0.023395764 -0.0051565045 -0.015743032 -0.010170693
0002d0 e9 a6 d2 ba a8 aa d3 b9 43 38 42 3c 2c 5a 54 3c
       -0.0016071472 -0.00040372205 0.011854234 0.012960952
0002e0 af 5b 08 ba 94 c2 42 bc 57 89 f5 3c d3 60 34 bc
       -0.000520165 -0.011887211 0.029972715 -0.011009413
0002f0 0f 74 a2 bb 73 2a 27 3c 36 17 93 bc 33 22 a3 bb
       -0.004957683 0.010202992 -0.017955404 -0.004978442
000300 3f be c0 3b 7c b7 6a ba a8 da 44 bc 92 ef 94 ba
       0.005882054 -0.0008953733 -0.012015022 -0.0011362901
000310 17 11 1e 3c ff cc 6f 3b ad 6d 22 bb 33 ec 09 3c
       0.009647629 0.0036590693 -0.002478461 0.008418131
000320 24 1e 20 ba 29 9c 99 bc 64 d2 5e 3c 6a 6f 97 b9
       -0.0006108007 -0.01875122 0.013599966 -0.00028883974
000330 98 68 a7 3a 6e 1d 57 39 a2 c0 aa 3b bd b5 ce bc
       0.001277226 0.00020514961 0.005210952 -0.025233144
000340 a6 61 92 3a 06 de e5 3a fa b2 3b 3b c5 06 b8 3a
       0.0011168018 0.0017537482 0.0028640614 0.0014040103
000350 21 6c a2 b9 22 c2 58 bb be 2c ee b8 52 e8 72 ba
       -0.0003097961 -0.0033074697 -0.00011357058 -0.0009266186
000360 58 5a a5 39 1d 2e 4d 3a 1d 94 b7 b8 3c 8d eb 3a
       0.00031538564 0.0007827001 -8.753708e-05 0.0017971168
000370 62 b3 81 ba c0 15 82 3a 1b 78 4e ba 12 1c d8 3a
       -0.0009895379 0.0009924695 -0.00078761735 0.0016487858
000380 cb 07 b3 b9 17 1c 04 ba f2 60 5c 3b 0a f3 fc ba
       -0.00034147347 -0.0005039586 0.003362712 -0.0019298506
000390 24 eb e4 bb 8b 3e dc 3b 07 51 09 3c 19 af c0 3b
       -0.0069860388 0.006721323 0.008381135 0.0058802483
0003a0 fd 08 00 3b 94 17 b7 39 97 e2 06 3c 74 87 35 3b
       0.0019536607 0.00034922047 0.008232734 0.0027699145
0003b0 04 bb 1e 3a 91 70 91 3b 38 a8 08 bc 95 31 75 3c
       0.0006055089 0.004438468 -0.008340888 0.014965435
0003c0 e7 30 86 3b c9 4f d5 b8 4e ff e4 3b 15 c0 9a 3b
       0.004095185 -0.000101714926 0.0069884425 0.004722605
0003d0 cf 21 82 bb 8a 1e 2e bb 9b 74 16 bc b0 e6 3c bc
       -0.0039713155 -0.0026568496 -0.009183074 -0.01152961
0003e0 52 e8 7e 3b ec 5f 78 3c 1a ed 53 bc e0 e5 0e 3b
       0.0038895798 0.015159588 -0.012934947 0.0021804497
0003f0 40 cf 39 bb 36 36 20 bc b5 3d 9d 3a 6b 42 8d 3c
       -0.002835229 -0.00977855 0.001199654 0.017243585

exp_avg_sq f4 [64, 16]
000000 56 8b db 38 bc e1 62 38 d5 57 a7 38 0c 7e bf 38
       0.00010468687 5.409283e-05 7.9795405e-05 9.131068e-05
000010 b4 af 63 38 8c 8a fd 38 25 56 76 38 1b 95 8b 38
       5.4284654e-05 0.000120897865 5.87312e-05 6.6558096e-05
000020 ad 10 42 38 18 83 81 38 4a 72 be 38 21 e6 1a 38
       4.6268735e-05 6.1756175e-05 9.081194e-05 3.6930785e-05
000030 c7 9e d1 38 8b 2f c3 38 9a e7 97 38 43 af b8 38
       9.995471e-05 9.30718e-05 7.24338e-05 8.806449e-05
000040 0f fd 0c 39 ee 92 4d 39 a5 3b 65 39 a5 91 0f 39
       0.00013445712 0.00019605059 0.00021861361 0.000136918
000050 5e 09 20 39 a4 75 e7 38 dc 8b fe 38 06 c9 08 39
       0.00015262279 0.000110368506 0.00012137715 0.00013044858
000060 99 0f a9 38 50 fc e1 38 2c ce b2 38 4c 97 ad 38
       8.061453e-05 0.00010775833 8.526104e-05 8.277464e-05
000070 7f 25 95 39 b5 88 7a 39 ce 42 81 39 ca 3e 09 39
       0.0002844743 0.00023892785 0.0002465457 0.00013088729
000080 02 02 0b 39 61 52 27 39 0c b7 00 39 a9 b6 63 39
       0.00013256821 0.0001595705 0.00012275222 0.00021716453
000090 6d a5 26 39 28 87 0e 39 8f 5c 00 39 e4 01 09 39
       0.0001589262 0.00013592525 0.00012241512 0.00013066042
0000a0 e9 0e d2 38 18 f5 e2 38 99 84 18 39 02 87 b0 38
       0.000100163576 0.00010822172 0.00014545246 8.417481e-05
0000b0 7d 6d 99 39 97 1e 72 39 57 c5 72 39 87 ef 1e 39
       0.0002926401 0.00023090314 0.00023152433 0.00015157285
0000c0 cb e0 65 39 7e 98 ad 39 de 92 65 39 3c 0a 55 39
       0.00021922884 0.00033110747 0.00021893854 0.00020317076
0000d0 f6 75 4d 39 38 b4 5c 39 d8 41 5c 39 b9 05 33 39
       0.00019594267 0.00021047972 0.00021005364 0.00017072902
0000e0 bd 77 1f 39 ae c2 68 39 a0 f5 1c 39 f4 09 03 39
       0.00015208028 0.00022197768 0.00014968822 0.00012496841
0000f0 53 68 c1 39 6e bc 7a 39 ed de 74 39 88 d2 74 39
       0.00036889556 0.00023912053 0.000233527 0.00023348082
000100 71 bc 58 39 fa 4c 67 39 48 a6 24 39 9b 37 57 39
       0.00020669565 0.00022058553 0.00015702203 0.00020524712
000110 26 be 0b 39 dc ef 23 39 28 0b 0d 39 7f ff aa 38
       0.00013326909 0.00015634246 0.00013450964 8.1538215e-05
000120 ac 1e f3 38 fc b9 e5 38 92 f8 0b 39 22 e9 d3 38
       0.00011592856 0.00010954213 0.00013348673 0.000101046884
000130 64 11 80 39 93 85 60 39 9c 96 34 39 ca 15 3c 39
       0.0002442702 0.00021412065 0.00017222244 0.00017937194
000140 c2 cb 79 39 36 38 bf 38 33 35 be 39 a7 1e bf 39
       0.00023822396 9.11806e-05 0.0003627926 0.00036453197
000150 e4 5e 3b 39 44 43 16 3a 4b 8b 52 39 1e 9b 5c 39
       0.00017869059 0.0005732069 0.00020079051 0.0002103862
000160 ea df 26 39 6f 61 2e 39 22 82 99 39 3b 7a 25 39
       0.00015914408 0.0001663023 0.0002927939 0.0001578116
000170 68 55 ac 39 52 d5 d1 39 17 dd 98 39 4d 92 ca 39
       0.0003287003 0.00040022522 0.00029156424 0.00038637445
000180 d4 2d 0c 38 33 cc 3e 38 7e ae 17 38 c9 ea 1a 38
       3.3421282e-05 4.5489705e-05 3.6163714e-05 3.6935122e-05
000190 a1 84 53 38 17 b4 24 38 4a 27 00 38 fa 38 19 38
       5.042984e-05 3.926837e-05 3.055417e-05 3.6531106e-05
0001a0 a3 e4 00 38 4b 02 f0 37 af fc ed 37 1a da c2 37
       3.0730513e-05 2.8611297e-05 2.8370267e-05 2.3228164e-05
0001b0 f1 94 79 38 61 68 36 38 68 37 31 38 70 6b 0e 38
       5.950494e-05 4.3489392e-05 4.225169e-05 3.3955497e-05
0001c0 f8 e3 d1 38 a6 d6 14 39 6f 6a 26 39 cc 89 6b 39
       0.00010008359 0.00014194343 0.00015870643 0.0002246268
0001d0 6a 20 31 39 55 57 ca 38 18 a1 d4 38 71 02 82 38
       0.0001689211 9.6483775e-05 0.00010138954 6.199338e-05
0001e0 a9 fa b1 38 02 72 da 38 9e 13 f7 38 39 d1 90 38
       8.486707e-05 0.00010416286 0.00011781532 6.905426e-05
0001f0 ac 09 22 39 4a 9b 1a 39 39 07 1b 39 e6 5f 2c 39
       0.00015453127 0.00014744434 0.00014784643 0.00016438923
000200 5b 7a 53 38 49 ad 15 38 aa 70 55 38 23 53 59 38
       5.0420273e-05 3.5685753e-05 5.0888084e-05 5.181426e-05
000210 5a 34 48 38 81 09 83 38 81 0c 4f 38 a7 34 44 38
       4.7732472e-05 6.248337e-05 4.936429e-05 4.6779078e-05
000220 81 3f 22 38 16 49 10 38 44 d2 37 38 6a 02 17 38
       3.8682952e-05 3.4400342e-05 4.3826425e-05 3.6003454e-05
000230 02 75 74 38 d9 36 8d 38 11 a8 5a 38 f0 e2 60 38
       5.8283105e-05 6.73362e-05 5.2131774e-05 5.3617114e-05
000240 28 92 b4 39 14 61 9b 39 48 3a 53 39 c6 e5 bb 39
       0.0003444117 0.00029636233 0.0002014424 0.00035838614
000250 e2 c8 83 39 5a 01 c8 39 85 40 b1 39 07 13 53 39
       0.00025135936 0.0003814798 0.00033808142 0.00020129616
000260 52 cf 33 39 54 75 73 39 9f 75 7c 39 ca c3 28 39
       0.00017148003 0.00023217994 0.0002407641 0.00016094666
000270 d0 2d fd 39 c9 40 b2 39 c3 cb 90 39 97 2d b4 39
       0.00048290053 0.00033999074 0.00027617635 0.00034366242
000280 47 cc bd 39 6b 7d 54 39 da 4e 39 39 e6 92 63 39
       0.00036201088 0.00020264617 0.0001767235 0.00021703131
000290 90 f4 2b 39 5a 3d 5c 39 68 de 65 39 3e 05 25 39
       0.00016398937 0.0002100369 0.00021921995 0.00015737579
0002a0 f0 c4 0a 39 51 9f 34 39 a9 0d 38 39 46 b8 f7 38
       0.0001323407 0.00017225488 0.00017552696 0.000118122014
0002b0 5a ae d6 39 8b 1f 8e 39 02 e4 83 39 2b 69 8a 39
       0.00040947163 0.00027107852 0.00025156146 0.00026399767
0002c0 66 f5 be 39 40 4e 9e 39 83 58 16 3a 37 1b 18 3a
       0.0003642246 0.0003019441 0.0005735235 0.0005802395
0002d0 f7 5b a0 39 8f de da 39 5b 6b 58 39 62 f2 82 39
       0.00030586097 0.0004174602 0.00020639358 0.00024976121
0002e0 17 03 6c 39 67 77 8e 39 a9 92 d9 39 04 4f 4b 39
       0.00022507865 0.00027173312 0.00041498736 0.00019389024
0002f0 ce 20 ff 39 b3 ad ee 39 e0 0e bf 39 0e de da 39
       0.00048661832 0.00045524313 0.00036441442 0.00041745644
000300 96 3b 97 39 15 d9 7d 39 ce a3 8a 39 c1 6a c8 39
       0.0002884536 0.0002420883 0.00026443455 0.0003822651
000310 ae 1b 6a 39 44 03 ac 39 b3 8f 91 39 89 08 68 39
       0.0002232629 0.0003280883 0.0002776362 0.00022128424
000320 8a e1 0c 39 a8 4d 54 39 2a 50 57 39 68 ed 10 39
       0.0001343546 0.00020246825 0.00020533861 0.00013821351
000330 56 e3 af 39 60 02 91 39 6f 80 99 39 c3 d9 ae 39
       0.0003354798 0.00027658325 0.00029278125 0.0003335011
000340 67 ae ac 38 3c c2 c4 38 5e 8b e4 38 fc 20 e0 38
       8.234084e-05 9.382187e-05 0.000108978464 0.00010687296
000350 29 e9 9b 38 4c 73 37 38 17 37 75 38 29 7e 8c 38
       7.4344054e-05 4.373798e-05 5.846386e-05 6.6992194e-05
000360 a5 75 5c 38 dd 68 61 38 d0 34 84 38 95 cd 61 38
       5.2561652e-05 5.3741842e-05 6.3040876e-05 5.3835643e-05
000370 73 96 fa 38 95 6d d2 38 05 83 df 38 72 68 ba 38
       0.00011948952 0.000100339916 0.00010657873 8.8886256e-05
000380 81 c7 0d 39 52 ea dc 38 1f db 41 39 28 cd 13 39
       0.00013521129 0.00010534063 0.00018487543 0.00014095439
000390 28 d5 26 39 7d f9 5d 39 3c b2 ff 38 79 cb 16 39
       0.000159104 0.00021169144 0.00012192546 0.00014380914
0003a0 60 e5 dd 38 f1 68 bb 38 cb 66 e5 38 ff cc b5 38
       0.000105808256 8.936402e-05 0.000109387176 8.668936e-05
0003b0 ef db 5f 39 23 6c 44 39 1c cc 3e 39 a1 48 56 39
       0.00021348869 0.000187323 0.00018195849 0.00020435687
0003c0 55 18 55 39 2c 4f 22 39 c0 5d 75 39 35 8b 4f 39
       0.00020322327 0.00015479018 0.00023399945 0.00019792917
0003d0 4f 31 3f 39 6e b5 51 39 37 67 98 39 1a a3 ec 38
       0.00018233548 0.00019999381 0.000290686 0.00011283737
0003e0 29 6d ce 38 94 02 07 39 35 57 03 39 58 d8 d7 38
       9.843178e-05 0.00012875564 0.0001252562 0.00010292296
0003f0 93 ad c1 39 66 17 89 39 cc e8 68 39 10 ae 59 39
       0.00036941151 0.0002614811 0.00022211968 0.00020759576

exp_avg f4 [64]
000000 3d 0f be 3b 4d 5b fd 3a 4a a2 33 bc b2 83 8f bb
       0.0058001564 0.0019329578 -0.010963986 -0.004379713
000010 46 0b 32 bc 7b b1 f0 3b 02 e2 cb ba b6 a1 f0 bb
       -0.010866946 0.007345376 -0.0015555026 -0.007343496
000020 1c 7a c8 3b 2b 12 23 bb 4b 80 2f bc a4 2e 3c 3c
       0.006118072 -0.0024882655 -0.01071174 0.011485729
000030 43 3d 22 3b 09 18 52 3a 3f fb 02 bc 35 13 03 bb
       0.0024755753 0.0008014446 -0.007994472 -0.0020000462
000040 25 c7 07 bc 56 97 38 39 41 1d 4d 3c 67 07 3c bb
       -0.008287226 0.00017603984 0.012519182 -0.0028690936
000050 76 cb 78 ba 57 e0 88 bb 65 63 a4 bb f0 d1 68 3b
       -0.0009490767 -0.004177134 -0.0050167316 0.0035525523
000060 ff f1 a9 3b 38 d5 06 ba c0 ad ed 3b 1b a0 98 bb
       0.005186319 -0.00051434664 0.0072533786 -0.004657758
000070 41 b5 71 bd ff 06 2c 3a dd 54 65 bc 3b 56 86 bb
       -0.059010748 0.0006562322 -0.013997284 -0.004099635
000080 3a a1 ff 3b 8a 03 86 bb 75 ab 98 bb bc 1f 9d bb
       0.007801202 -0.0040897774 -0.004659111 -0.004795043
000090 ec 33 2b 3c 3a 76 b8 ba 74 97 b5 3b f4 66 0b bc
       0.010449391 -0.001407332 0.0055417363 -0.008508433
0000a0 f4 a9 51 bb 17 7d 34 bb f6 cc 03 bb 3a b5 b1 3a
       -0.003199217 -0.002754038 -0.002011118 0.0013558038
0000b0 88 9d b6 3c a7 29 63 3b 6f 57 90 3a e1 30 29 bc
       0.022291914 0.0034662278 0.0011012385 -0.010326595
0000c0 a0 8f eb bb 08 78 02 3c ec 2b be bb 15 b5 45 3c
       -0.0071887523 0.007963188 -0.0058035757 0.012067099
0000d0 22 51 bc bb d2 8f 59 3c ef 65 08 3c 69 0d d0 ba
       -0.0057469765 0.013278918 0.008325084 -0.0015873137
0000e0 0b a3 02 bc de c4 89 bb 97 6f 70 3c de 9b 11 bc
       -0.007973443 -0.0042043766 0.014675043 -0.008887259
0000f0 c1 53 a3 3b 5a c0 93 bb a2 0f 6a bc 69 69 7d 3a
       0.0049843495 -0.004509014 -0.014285954 0.00096668914

exp_avg_sq f4 [64]
000000 4b f4 4c 39 69 2a 1b 3a c0 22 02 3a 48 4f 38 3a
       0.00019545962 0.00059191004 0.00049642846 0.0007030857
000010 11 6a fa 39 99 80 41 3a 4a 07 db 38 35 e6 a2 39
       0.0004776274 0.0007381528 0.000104440915 0.00031070565
000020 61 5a f0 38 21 a5 8f 3a 0e 42 5e 3a e6 ea 86 3a
       0.00011460926 0.0010959246 0.0008478471 0.0010293394
000030 8f a3 5c 3a 60 6f 6f 39 de cd f7 39 10 8f 38 3a
       0.0008416706 0.00022834307 0.00047264894 0.0007040361
000040 6e ac ac 3a ee da 2d 3a e9 6a 7e 39 b1 41 1e 39
       0.0013173947 0.00066320493 0.00024263155 0.00015092526
000050 a1 58 af 39 9e 9a df 39 9b 33 5e 39 4a b1 69 39
       0.00033444635 0.00042649073 0.00021190794 0.00022286657
000060 61 46 60 39 6f ea 85 39 1f 91 39 3a e1 18 e8 39
       0.00021388523 0.00025542403 0.00070788147 0.00044269025
000070 2d ce c3 3a 19 1f 55 3a ad 24 63 39 e0 f7 a0 39
       0.0014938765 0.0008129939 0.0002166207 0.0003070226
000080 26 e6 eb 39 1e ef a3 39 8d 72 5b 3a 9b 2b 5f 39
       0.00044994167 0.0003126794 0.00083712564 0.00021283182
000090 c6 5b c4 39 89 54 06 3a f6 01 e2 39 98 ad 54 3b
       0.0003745241 0.0005124291 0.0004310754 0.0032452103
0000a0 ec 2c 88 3a 7d fa 20 39 f1 3a 03 3b 0d 4b 84 3a
       0.0010389364 0.00015352103 0.0020024145 0.0010093168
0000b0 b5 44 d8 39 57 91 ee 39 1a ff 6f 39 12 32 02 3a
       0.0004124992 0.00045503184 0.00022887849 0.00049665675
0000c0 05 46 03 39 de 53 4a 39 39 50 9c 3a ac ef a0 39
       0.00012519218 0.00019295464 0.0011925764 0.00030696148
0000d0 bd 91 8f 39 2c 8a 2f 3a 38 76 be 3a 0b e5 9a 39
       0.0002738367 0.00066963094 0.0014531082 0.0002954382
0000e0 67 23 50 3a d5 84 9d 3a 89 95 04 3a 2d a3 d2 39
       0.00079398457 0.0012017736 0.0005057683 0.00040175897
0000f0 c6 7d 3c 39 4c ee 54 3a ea d3 89 3a ea 2e 5c 39
       0.00017975931 0.0008122667 0.0010515426 0.00020998312

exp_avg f4 [32, 64]
000000 b9 70 1e 3b f3 ab e8 39 48 ba 06 3b c4 4f 0e 3a
       0.0024176075 0.000443786 0.002055781 0.0005428756
000010 a2 44 3f 3a a5 c1 d3 3a 1e 74 a6 ba 28 e5 81 b9
       0.0007296299 0.0016155733 -0.00126994 -0.00024775532
000020 3e a0 33 3b 0d 7e 1e 3b a7 39 09 3c 42 c5 44 3b
       0.0027408744 0.002418402 0.008375562 0.0030024801
000030 b4 8c 25 3b dd 65 9d ba 67 91 c6 3b 9d a0 1c 3b
       0.0025260868 -0.0012008507 0.006059814 0.0023899444
000040 0d 8e 7f 3b 21 36 2f ba 90 50 a3 39 14 3a e8 b6
       0.003899458 -0.0006683786 0.00031149806 -6.9209e-06
000050 47 e4 97 3b a4 53 3a ba 76 89 0b 3b ce 28 df 39
       0.004635367 -0.00071078003 0.002129165 0.00042564276
000060 30 40 c7 b9 0c f7 b4 bb 60 b9 f6 3b af 51 6f b9
       -0.0003800406 -0.0055226143 0.0075294226 -0.00022823246
000070 61 91 2a 39 fa 5c eb ba 7a 32 15 3a 5a f1 e3 38
       0.00016266621 -0.0017956786 0.00056914205 0.00010869159
000080 19 ad 8e bb 02 e4 41 ba 49 75 13 bb 12 98 8c 3b
       -0.004354131 -0.00073963415 -0.0022500327 0.004290589
000090 05 cf 2f 3b 5a aa d3 38 ce 6c 2f 3b 5c 06 a3 bb
       0.0026826274 0.000100929945 0.0026767734 -0.0049751233
0000a0 29 09 82 ba 9d 2e f7 39 3c 22 48 b9 18 45 77 3b
       -0.0009920943 0.0004714624 -0.0001908624 0.0037730392
0000b0 cd da 60 ba 30 8f 09 bb 80 d5 35 3b 12 e1 27 bb
       -0.0008577526 -0.0020989887 0.0027745664 -0.002561633
0000c0 85 9b ac bb f8 e2 de b9 a8 94 3c 3b 48 8e 33 bb
       -0.005267563 -0.00042512245 0.002877513 -0.0027398039
0000d0 a8 4d 78 3a 37 43 aa b9 7d 84 14 ba 1c fa 91 bb
       0.0009472021 -0.00032475006 -0.0005665494 -0.004454864
0000e0 d8 b0 5f ba cd 68 00 3c 0a 92 12 3a 15 aa 72 ba
       -0.00085331267 0.007837486 0.00055912195 -0.00092569116
0000f0 8a 51 d2 3b 90 ea 9c 39 78 61 e9 3a 7d da 1c ba
       0.0064184116 0.000299294 0.0017805537 -0.0005983485
000100 6a b1 34 3b 3c f2 11 3c 19 12 1d 3c 4d 06 c8 3b
       0.0027571567 0.008907851 0.009586834 0.0061042667
000110 6c 49 b1 3a 22 3a 6e 3b c4 e5 f8 b9 bd a9 68 3b
       0.001352591 0.0036350568 -0.00047473435 0.0035501563
000120 a7 ed dc 3a e7 01 3f 3c 11 6b 77 3c 03 93 1d 3c
       0.0016855494 0.011658168 0.01510121 0.00961757
000130 02 de 0a 3c 12 14 10 3b 4b 07 38 3c a1 57 d8 3a
       0.008475782 0.002198462 0.0112322075 0.0016505608
000140 93 bf 56 3c 87 e3 34 ba e9 18 ac 39 c6 38 d2 3a
       0.013107198 -0.00069003593 0.00032824956 0.0016038648
000150 8f 37 4f 3c fd 12 da b8 a2 97 cd 3a 0f 6c 83 3b
       0.012647524 -0.00010398587 0.0015685449 0.0040106843
000160 40 16 c0 3b f5 07 8c 3b 53 f9 e1 3b ba b1 b8 3b
       0.0058620274 0.0042734095 0.006896177 0.005636421
000170 5d 74 a4 39 65 46 13 3b ed 9b f3 3b 84 ce b3 3b
       0.00031367215 0.0022472378 0.0074343593 0.005487265
000180 ff e7 04 bb f4 38 98 3b 6d f1 4e 3b cd 8c df 3b
       -0.0020279882 0.004645461 0.0031577006 0.0068222047
000190 7f 7c e3 3b cc 4f bf 3b b4 09 23 ba d4 02 93 b9
       0.0069423313 0.00583837 -0.00062194024 -0.00028040132
0001a0 d7 db b0 3a 21 d7 c9 3b ed b2 65 b8 9c 64 11 bb
       0.0013493252 0.0061596786 -5.4764492e-05 -0.0022185212
0001b0 7e 04 e6 3a 94 54 88 3b e1 a0 6d 3a 85 28 3d 3c
       0.0017548946 0.004160473 0.00090648053 0.011545305
0001c0 09 06 b1 3a 8e 7d 52 ba 75 05 cb 3b 95 9a 6d 3b
       0.0013505827 -0.00080295734 0.006195719 0.0036255468
0001d0 10 2b 6e 39 d4 44 85 3b aa e4 f3 3b e4 9e 3b 3b
       0.00022713491 0.004067043 0.0074430304 0.0028628642
0001e0 86 c3 4d 3b 5a 11 a0 3c 60 f8 a3 3b 2c 73 5c 3a
       0.0031397059 0.019539524 0.005003974 0.0008409496
0001f0 bc 94 46 3c 55 f8 ab b9 0a b9 b9 3b 12 b1 8e 3b
       0.012120422 -0.00032800683 0.0056678103 0.0043546045
000200 51 17 06 bb da c6 20 bb 41 2b cd ba 9e 00 70 ba
       -0.0020460675 -0.0024532587 -0.001565315 -0.00091553654
000210 9b a6 fa 39 e0 94 2e 3a d5 17 9b 38 30 5c 19 3b
       0.00047807847 0.00066597573 7.395415e-05 0.0023400895
000220 88 cc 7f 3a 0b ad 09 bc c8 18 a4 bb 31 bb 1b 3a
       0.00097579556 -0.008403073 -0.005007837 0.00059406745
000230 b8 f3 b9 bb 51 64 1b ba 08 ef cb bb a8 24 aa 3b
       -0.0056748055 -0.0005927729 -0.006223563 0.005192358
000240 6a 9b 27 bb 65 66 d2 38 22 e2 7a 3b 91 42 c2 3a
       -0.0025574812 0.00010032653 0.0038281758 0.0014820864
000250 c4 04 20 3b 5f fe 1a b9 0e dd c9 ba d7 a6 6b bb
       0.0024416903 -0.00014781345 -0.0015400962 -0.0035957599
000260 e3 67 84 bb 97 6d 1d 3b 7c c1 3e bb 99 05 d6 ba
       -0.0040407046 0.002402162 -0.0029107025 -0.0016328573
000270 0a 94 f4 39 2e 16 99 3a 6f 0c 0b 3a 18 7a 35 bb
       0.00046649604 0.0011679584 0.0005304282 -0.0027691182
000280 02 a3 28 3a c0 82 39 39 53 8d c0 3a 68 02 b5 bb
       0.00064329815 0.00017691683 0.0014690555 -0.0055239685
000290 1b d6 b8 bb e4 ce 13 bc 7e 24 a4 3a 0f 2b a4 3a
       -0.0056407577 -0.009021495 0.0012523083 0.001252504
0002a0 85 ad bb b9 af 5b ea b9 fc 6b d7 37 f3 02 a7 b9
       -0.00035796702 -0.00044700268 2.5680281e-05 -0.0003185492
0002b0 19 92 40 bb 28 2d e4 b8 1f 97 5b bb d3 38 73 bb
       -0.0029383956 -0.00010880298 -0.0033506823 -0.0037112727
0002c0 27 f8 d0 b9 1e 2c 60 3b 52 40 9b bb eb b5 87 ba
       -0.0003985774 0.0034205983 -0.004737892 -0.0010353898
0002d0 f0 c8 88 ba d4 fe 3c bb 2e 89 94 bb d3 4b b9 3a
       -0.0010435861 -0.0028838413 -0.0045329547 0.0014136977
0002e0 3f b3 89 3b 08 71 13 bc c1 3a d3 3a 9e 34 c2 ba
       0.004202276 -0.008999117 0.0016115532 -0.0014816707
0002f0 3c 55 9d 3a b1 95 94 39 f6 88 32 bb f7 52 08 bb
       0.0012003551 0.0002834029 -0.002724228 -0.0020801404
000300 60 b0 14 ba 47 70 03 39 8c db 92 3a e8 90 f7 ba
       -0.0005672034 0.0001253496 0.0011204346 -0.001888779
000310 b5 70 db 3a 52 73 2d 3b 56 d5 3c bb 24 5f 00 3b
       0.0016741963 0.0026466441 -0.0028813682 0.0019587958
000320 01 8a de ba 7d e7 9c 3b d3 a2 e7 3a 6f 10 70 3b
       -0.0016978384 0.0047883377 0.0017672427 0.003663089
000330 6e 56 9c 39 ce 7f 79 ba fb 60 21 3b 73 33 d9 3b
       0.00029819034 -0.00095176406 0.0024624455 0.0066284477
000340 ae fb a5 3b 2c 23 d6 b9 f1 a6 1d 3a 00 ca 6c 3b
       0.005065403 -0.00040843466 0.0006013951 0.0036131144
000350 4d 45 fa 3b 0d 66 3f b8 06 78 07 38 51 50 9a ba
       0.007637656 -4.563299e-05 3.229829e-05 -0.0011773204
000360 ee e3 35 bb dd ee a4 39 0e a0 dd ba 36 37 73 3b
       -0.0027754265 0.00031458485 -0.0016908662 0.0037111766
000370 23 a8 0b 3a ee 0e a0 3a a0 b0 c6 3a fa bc 5b 3b
       0.00053274835 0.0012211481 0.001515884 0.0033529387
000380 d9 02 3d ba 4d 9b 22 3b 1d 8c 0c 3b 92 0d 52 b9
       -0.0007210202 0.0024811805 0.0021445819 -0.00020032216
000390 72 8d a1 3b 0f 13 40 3b 27 f6 cc ba a6 f1 91 37
       0.0049301917 0.0029308235 -0.0015637324 1.7397873e-05
0003a0 74 28 b0 ba 63 d5 d0 3b 29 36 9c 37 24 ca 3f bb
       -0.001343979 0.006373094 1.862187e-05 -0.0029264772
0003b0 69 60 d8 b9 bb 0a 9b b9 1b 82 7e 3a 4b e3 be 3b
       -0.00041270562 -0.000295719 0.0009708718 0.0058254353
0003c0 9c 15 79 37 4e 81 e5 3a 3a 52 97 3a a1 2e 26 3a
       1.4846588e-05 0.0017509849 0.0011544891 0.0006339346
0003d0 49 61 99 39 f3 20 87 3a aa 40 8f 3a 23 72 bd 39
       0.00029254917 0.0010309502 0.0010929306 0.00036133928
0003e0 89 3d 3c 3b 4e 5a f7 3a cc f1 27 3b 09 5c c9 ba
       0.0028723201 0.0018871517 0.00256263 -0.0015362512
0003f0 b9 02 0f bb 4e 0d cd b9 3c 99 10 3c 88 a3 a8 b9
       -0.0021821691 -0.0003911056 0.008825596 -0.00032165297
