checkpoints/full/torsion_energy/20250611190441570299/ARG_dim_16/fold1/best_epoch=249-val_loss_epoch=25.034.ckpt (torch, 50117 bytes, 20 tensors)

fc1.weight f4 [64, 16]
00000000: bfbe 573f 0606 c8bc af35 0e3e 332e 8a3c
00000010: 525b c0be c21d b73e 765a 503d c0b2 d13d
00000020: 0b1a db3d e1a9 ed3d dc4c eabd 85ae 28bc
00000030: 450c 993e e6f2 d33e e3da 34be c867 22bd
00000040: 3675 893e bc6c d03e 1e1d f53e 002a dd3d
00000050: 1b88 be3e 20a3 4fbf 8ccd 2b3e df70 37be
00000060: 6888 d43d 7f34 1e3e e5c4 9fbd cf53 89bd
00000070: 909d 05be 37f4 c13e d355 b83c d488 1c3e
00000080: 40af 703e 839b e5be 0d89 acbe 3131 10bc
00000090: 71cd d23d a5bf 7cbe 60a5 943d 82b3 f73d
000000a0: cea7 f73c c75c 693e 28a3 c0be 7e1b 803d
000000b0: 2f58 e53d 0f63 c0be 72a3 69be c544 bf3c
000000c0: 1f66 ebbd add0 393b cebe 9c3e 6659 bebe
000000d0: 405f 473c a50e 8c3c 386f 36be 8b1e d3be
000000e0: 673e 4fbe c8ba fdbd 10e9 fb3d f0d4 0ebf
000000f0: 96df dcbd 3f32 8a3e aa68 33be 2cbe b93d
00000100: d04b 1ebf bfe2 24bf 89c8 bfbd 841b 063e
00000110: bdff f4be 75c3 02be 06b9 b6be c2d5 973e
00000120: d948 483c b6c5 a7be 9add e53b 89bd 92bd
00000130: b71d 08bc 8d3c 8e3d 18ce 87bd bb13 6e3a
00000140: 3ce4 c1be 9359 993e dfdb 043f 01d6 253e
00000150: 1176 4e3c b338 3a3f 163d e1be 5607 2e3d
00000160: b531 d23d 65c7 19bd 01de 183d 0edb 19ba
00000170: 90f8 9fbd edf2 003d 818e 5dbc 97e6 b9bd
00000180: 00fb 573f 1dc0 38be 14cc 32be f851 02bb
00000190: 263c f4bd 0e17 db3e 67c9 aa3d e243 ddbc
000001a0: 50c3 17be 3f3d 583e 087d 8dbb 3fbd 2abb
000001b0: 364c 9ebc 180e 60be 5bb6 7cbd 7983 ef3a
000001c0: 0db1 5b3c 769a 89be 00b4 1bbd 46cf 993c
000001d0: 20ae 983d 2340 623d 1b99 c83d 297a 2dbe
000001e0: 40ee 703e 735f 85be d60e cfbc c3ac 8b3d
000001f0: 8490 bb3e 098a a33d 6091 f53d 6739 4dbc
00000200: 4b1c ae3d 8596 35be 2075 09be 8421 8fbc
00000210: 4f6b 69bd f5b9 a9be aced aa3e d3a3 84bc
00000220: e3db 8cbd 6328 923e e087 d5bd 265c 8a3c
00000230: 90fc 4a3e 6b94 193f 5f2a 763e 59a5 263d
00000240: 6710 093e 0ec5 c7bd d667 2b3d eb42 18be
00000250: 1e44 8e3d a4df 3cbe b03a 05bf db64 0e3d
00000260: 0b63 0f3c 0d16 b73d 384b 403a dcfb 443d
00000270: b52b 373e 614a d0bd 22fa 0a3f d667 b1bd
00000280: 011d 233d 88f9 963d e969 90bd 9dab 1c3e
00000290: daef 8f3d 64bd d83e c49a 80bd 7683 efbd
000002a0: 028b dbbe 3fd0 e6be 3797 41be ea7b a4bd
000002b0: df47 43be abcd 5abe 271b 1fbe 8bcf 76bc
000002c0: f2a4 14bf 8e7c 27bf 247c b23d 2be1 903c
000002d0: b4b1 f9be 9caa 60be e564 a1bd bee0 6c3d
000002e0: d44b abbc e1a4 4f3e 4677 abbd 9e53 05bd
000002f0: 1846 28bd 2f36 50be 88da 8fbd 4a5b 1f3c
00000300: 05fb ce3c debd 8bbe 719f 00bf ede5 9a3e
00000310: 4ba2 02be 4af4 8d3e ec64 90be ef7e 123f
00000320: 1f93 4fbd 4ade 333c 0bfa 753d 95f7 903e
00000330: 10f3 733c 75a3 1d3e 7cdb a6bd 746c dcbe
00000340: 0ad0 2fbe f934 353f ed65 45be db1b 54bc
00000350: 2006 3a3e 235b f73e d1cf 103f 8d86 b7ba
00000360: 1f3b b43c 07f1 ab3e 3d7d a9be 7317 07bd
00000370: efbd 323d 5c9f e1be e11f 9e3d 9c7d e1bd
00000380: 9d1e 9f3e 049a f13e 0d61 07bd f8e8 51bc
00000390: 9e7a 343e be30 683e 988b 23be 43ac 92be
000003a0: 37f2 463d c0c2 66be d03b 483d d6dd aebd
000003b0: b9b8 1c3c 1916 083f 16f9 e7be e683 f8bd
000003c0: 26ef 9d3d 41fc 34bf 44c9 013f 4cf7 3c3e
000003d0: f053 3c3c 209f a1bd 42ff 743f 49d1 2bbe
000003e0: 848a 2abd 692d 893e fc4c f6bc 2fa8 1b3d
000003f0: 70e5 7d3e d15a 8f3e c702 bfbd 4b75 b53c
0.8427543 -0.024416935 0.13887666 0.016867733 -0.37569672 0.3576489 0.05086752 0.10239172
0.10698327 0.116046675 -0.11440441 -0.010295515 0.29892173 0.41396254 -0.17661624 -0.039649755
0.26847237 0.40707958 0.47873777 0.107990265 0.37213215 -0.81108284 0.16777629 -0.1791415
0.1037758 0.15449713 -0.078012265 -0.06705438 -0.13048387 0.37881634 0.022501862 0.15286571
0.23504353 -0.4484521 -0.3369831 -0.008800791 0.10293091 -0.24682482 0.07258105 0.12094785
0.030231383 0.22789298 -0.37624478 0.06255244 0.1119846 -0.37575576 -0.22816256 0.023348222
-0.114940874 0.002835314 0.30614322 -0.3717758 0.012168705 0.017096827 -0.17815864 -0.4123424
-0.20238648 -0.12389141 0.123003125 -0.55793667 -0.10784833 0.2699146 -0.17520395 0.090694755
-0.6183443 -0.6440849 -0.09364421 0.13096434 -0.47851363 -0.12769873 -0.35688037 0.29655272
0.0122243995 -0.3276803 0.0070149424 -0.07165057 -0.008307866 0.06945143 -0.06631106 0.00090819196
-0.37869442 0.29951152 0.51897997 0.16194917 0.012601391 0.72742766 -0.43991917 0.042487465
0.10263387 -0.037543673 0.037321094 -0.00058691285 -0.078110814 0.031481672 -0.013522745 -0.09077185
0.8436737 -0.18042035 -0.17460662 -0.0019885283 -0.11925535 0.42791027 0.08339196 -0.027009908
-0.148206 0.21117114 -0.0043178834 -0.002605274 -0.01932345 -0.21880376 -0.061697345 0.0018273435
0.013408911 -0.26875657 -0.03801346 0.018775593 0.07455087 0.055236947 0.097948276 -0.16941132
0.23528385 -0.26049384 -0.025275629 0.06820061 0.36633694 0.079853125 0.11990619 -0.012525893
0.0850149 -0.177332 -0.13423586 -0.017472036 -0.056987103 -0.33149686 0.33384454 -0.016191399
-0.068778776 0.28546438 -0.10426307 0.016889643 0.19822907 0.5999209 0.24039601 0.04068503
0.13385163 -0.09754382 0.041847073 -0.14869277 0.06946586 -0.18444687 -0.52042675 0.034764152
0.008751641 0.08939753 0.0007335427 0.048091754 0.17887767 -0.10170437 0.5428792 -0.08662383
0.039822582 0.07371813 -0.07051451 0.1529984 0.0702817 0.42331994 -0.06279519 -0.11694996
-0.42879492 -0.45080754 -0.1890534 -0.08031447 -0.19070385 -0.21367519 -0.15537702 -0.015064131
-0.58064187 -0.6542443 0.08715084 0.017685493 -0.4876839 -0.21940082 -0.07880572 0.05783152
-0.020910181 0.2027774 -0.08372359 -0.032550447 -0.04108247 -0.2033317 -0.070241034 0.009726355
0.02526618 -0.27293295 -0.5024329 0.30253544 -0.12757222 0.2772544 -0.28201997 0.57224935
-0.050677415 0.010978291 0.060052913 0.2831389 0.014889494 0.15394385 -0.08147332 -0.43051493
-0.17169204 0.70783955 -0.19277163 -0.012946094 0.18166399 0.4831172 0.565671 -0.0014001891
0.022000847 0.33582327 -0.33103362 -0.032981347 0.043638166 -0.44066894 0.07720924 -0.11010286
0.31078044 0.47187817 -0.03305154 -0.012811892 0.176249 0.22674844 -0.1597122 -0.2864705
0.048570838 -0.22535229 0.048885167 -0.085384056 0.009565526 0.5315872 -0.45307225 -0.12134533
0.077116296 -0.7069741 0.5069773 0.18453711 0.011494622 -0.07891679 0.9570199 -0.16779055
-0.041636005 0.26792458 -0.030066006 0.03800219 0.24794555 0.27998975 -0.093267016 0.022150656

fc1.bias f4 [64]
00000000: b593 b1bd b18c b83e 7a67 183d a0b1 9e3e
00000010: 8dc9 1a3e 3ea2 e7bd 2a0b adbe 473c 063f
00000020: 22eb d0be a8c2 d73e 1ef0 543b 4628 e03d
00000030: 6ba2 8cbe 166f 1abe b524 4b3e a9b7 233e
00000040: c7e0 f63d f6be 30be f08c 643e df55 793e
00000050: d0af 293e 9576 a43e 8409 ef3d 2074 153e
00000060: d4c9 bb3b 16e6 823e 7572 183e 35a2 eebd
00000070: df8c 153e 017b 9d3e 391b fabd 9f6c f7bc
00000080: 7ce2 7a3e 3db9 8c3e f7ba 113e 36ec 643e
00000090: 0981 cb3e 2f48 07bf 4769 23bd e8ef a3be
000000a0: c2a0 223e b088 8d3e 6880 eb3e f470 123e
000000b0: 964e 2e3e fb5b 8dbc d9e4 3e3e 40c3 9f3e
000000c0: fc13 a83e 3d79 1c3e e7ab a13e bf5e 40bf
000000d0: 6edf 0d3f 9d97 18bd a7ff eebd 2104 79bc
000000e0: 01c5 3cbf 6a1b f4bc a848 d93e 56ed 33bd
000000f0: 3edf 0c3f 5229 b03e 1e0e a6bd 645e 20be
-0.08670751 0.3604484 0.037208058 0.30994892 0.15115948 -0.11310242 -0.3379758 0.52435726
-0.40804392 0.42140698 0.0032491754 0.109451815 -0.27467665 -0.15081438 0.19838221 0.1598803
0.120545916 -0.17260346 0.22319388 0.24349163 0.16570973 0.3212172 0.11671737 0.1459508
0.005730847 0.25566167 0.14887412 -0.11652032 0.1460452 0.30757907 -0.122122236 -0.030203162
0.2450046 0.27485076 0.14231478 0.22355732 0.39746884 -0.5284452 -0.039895322 -0.3201897
0.15881637 0.27643347 0.45996404 0.143009 0.17022166 -0.017255774 0.18641986 0.3120365
0.32827747 0.15280624 0.31576464 -0.7514457 0.5541905 -0.037253965 -0.116698556 -0.015198738
-0.73738104 -0.029798228 0.42438245 -0.043927513 0.5502814 0.34406525 -0.081081614 -0.15661007

fc2.weight f4 [32, 64]
00000000: 8f1b f8be a32e b6bd 7f5a 0a3d 8dcf a0bd
00000010: 502a 853e e8ca 33bd c62e 99bd 9c6f 373e
00000020: b713 043f b624 92be ea0c 63bc 22af a4bd
00000030: c8a2 0f3d 1514 e63d 8d9c 6fbe dafe a83d
00000040: 4297 b3bd 6e6b 97bd 556f 9b3e 4cc1 cc3c
00000050: c9d7 4c3e f936 943e 8faf 023f 5e0b cebd
00000060: 2e96 9c3d 4410 3fbe ae93 893e 9cfe 16be
00000070: 3a67 18be 2b67 3dbe 19af c2be e1b5 c93e
00000080: 9dde 8c3e 4c6c c23e 87c7 913e 8c89 58be
00000090: 3abb 09be e7ad 1f3e 6a93 0c3e 8ba5 e83e
000000a0: 78a2 65bd 752e 4f3e e29f 213d 8e3e 5fbe
000000b0: 4102 8bbd 2cbd f9bd 2559 8fbd 05b1 1abd
000000c0: 7a07 cc3e bc3e 91bd 883d 89bc 74c5 c9be
000000d0: c38b ddbd 5658 63bd 6d9a 0fbd 3e2c d33e
000000e0: e672 dd3e a594 b33a 7d36 973d c9f8 983e
000000f0: af07 5cbb d7b8 a6be 8f8d 8cbe e946 7bbd
00000100: c174 583e a89a 543e 874f a3bd 845e 08be
00000110: 69ca b93e 0dff 3d3e 1f01 4e3f bb3f c1be
00000120: 7bf2 bdbd a673 9d3e 4df1 dbbb 7792 abbe
00000130: b533 ab3e f64f cf3d fc29 7bbd d992 35be
00000140: bda7 c5bd b32a 893e 4d4b 243f e8aa fcbd
00000150: 7d76 d13c 595f a5be 4e3b 113e df8e 1f3e
00000160: 1553 943e 0543 3abe 1b0c e5bc 2aaa 70be
00000170: 9b6e 003d 7c74 7c3d c540 553d 5668 c7bc
00000180: ea08 07bd 4ff4 243e 94ff aa3c 66d8 42bd
00000190: 24df c0bd c074 c63d 5ccb 9bbd aeb3 233e
000001a0: 18dc 813e 28ae 333e 8dd7 41be bc6f 9b3d
000001b0: 7646 08bd 3578 8c3d b26b fa3d 2a6e 253e
000001c0: bdfc 7cbe 526e 083e a66a b03e 962e 15be
000001d0: a547 583e 878b 9bbb f3c7 233c bf3f 27be
000001e0: f99f 323f 3164 023e 5c1d 073d e0e4 ef3a
000001f0: bd57 f2be f7a8 f33d 08d1 ffbe 81b5 4ebf
00000200: 9402 7c3d 7bda 403d 31d5 513e 17e5 723d
00000210: 87a5 7a3e 14d6 b6bd ff7e 69be 7ee0 953e
00000220: 4f61 3bbe a305 83bd dbf7 753d f4d9 c23e
00000230: 7ad7 f2bd 05c7 70bd 0b36 b03d 98c7 5d3e
00000240: 4cdf 1f3e 6e54 bebc 7f60 21bd b471 e8bd
00000250: 1fa0 ff3d c5bb a63d f338 11be 11cb 173e
00000260: 5e8b 0b3d d137 b43e c38c 07be 5b83 b43e
00000270: af57 4a3d 3da3 603b 5628 b83e bc54 bfbd
00000280: 5ede e6bd 8c9e 463e cfe3 5e3d f184 893e
00000290: 1874 42bc a4e0 48bd 55a3 1c3d eed3 343c
000002a0: 2f62 a03b ccfa 0dbe 534c 7c3e d664 543d
000002b0: df11 0cbd f443 32bb ab81 c3bc 471f d7bd
000002c0: 08b7 303d 16cf 713d 89dc 74be e9af 8e3e
000002d0: 0ed7 8bbd 9217 7e3d a1cf 173e 7f63 b5be
000002e0: 8364 1cbf a04c ad3d b211 8bbe ee3b 0d3e
000002f0: bbe6 293e 5076 7b3e 81de 3fbe 1b54 a83e
00000300: 0b18 ffbd d4c9 de3d 6cc6 983e 1a63 4fbe
00000310: 3cec b5bd 95f9 913e 6a19 b1be ea5a 95bd
00000320: 268e dcbc fe29 443e a97b 533e bcc2 643e
00000330: 13dc 06bf 5b27 9cbe 5eac ac3d b2c7 723e
00000340: ee71 2a3d 9d0e b5be 7fa3 9abd 4104 36be
00000350: 8087 ad3d e8b0 7a3e 4efd 2bbe dc4f 263e
00000360: 2a4b 2c3e 10da 60bd 5fcf 32be da48 f73d
00000370: 9eb1 9a3d 25d7 043e eb52 9d3e aa44 213e
00000380: 5483 bcbb f4cc 41be 7cf1 0bbe 6a8b b63e
00000390: 6169 be3d 5e3d 593f ef7a 93bd 36d1 923e
000003a0: 3b7b 0cbe e508 41bd 485c febd 1722 7cbe
000003b0: d963 333e 040c 203e 4cf0 903e 22c5 cb3d
000003c0: 1535 b7be 1d87 a2bd db23 873d 40f4 05c0
000003d0: 6f59 07bc 89e6 0e3f 9b42 fe3d ade2 67be
000003e0: 2cae 7ebf 6d04 b7be a0ec d2bc 35a5 8ebe
000003f0: d913 c0bd dd6f 88be 78ae a03e 6797 e23e
-0.48458526 -0.08895614 0.03377771 -0.07852087 0.26008844 -0.04389468 -0.074796245 0.1791367
0.5159258 -0.28543633 -0.013858059 -0.080412164 0.03506735 0.11234299 -0.23399563 0.08251734
-0.087690845 -0.073935375 0.30358377 0.024994515 0.2000419 0.2894819 0.5104913 -0.10060762
0.07645832 -0.18658549 0.26870483 -0.14745563 -0.14883128 -0.18496387 -0.38024214 0.39396575
0.2751359 0.3797325 0.2847254 -0.2114622 -0.13450328 0.15593682 0.13728109 0.454388
-0.056063145 0.20232566 0.039459117 -0.21801206 -0.06787539 -0.12194285 -0.06999425 -0.037766475
0.39849454 -0.07092044 -0.016752973 -0.39408457 -0.10817673 -0.055504166 -0.03505938 0.41244692
0.43251723 0.0013700916 0.0738344 0.29877308 -0.0033573916 -0.32562897 -0.2745175 -0.061346922
0.21138288 0.20762122 -0.07974153 -0.13317305 0.3628724 0.18554325 0.8047046 -0.37743935
-0.09274765 0.30752295 -0.006712115 -0.3351018 0.33437887 0.10122673 -0.061319336 -0.17731799
-0.09651134 0.2679039 0.641774 -0.12337285 0.025569195 -0.32299307 0.14182779 0.15581845
0.28969637 -0.18189628 -0.027959874 -0.23502412 0.03135548 0.061634526 0.052063722 -0.024341743
-0.032967485 0.16108821 0.020873822 -0.047569655 -0.09417561 0.09690237 -0.07607147 0.15986511
0.2536323 0.17546904 -0.18929882 0.07589671 -0.03327032 0.06858865 0.122275725 0.16155306
-0.24705787 0.13323334 0.34456366 -0.14568552 0.2112108 -0.0047468576 0.009996402 -0.16332911
0.6977535 0.12733532 0.032986984 0.0018302463 -0.47332564 0.11897462 -0.49964166 -0.80745703
0.061525896 0.04708336 0.20491482 0.05930051 0.24477206 -0.08927551 -0.22802351 0.29272836
-0.18298839 -0.063975595 0.060050827 0.3805691 -0.11857505 -0.05878355 0.08604058 0.2165817
0.15612525 -0.023233619 -0.039398666 -0.11349812 0.124817125 0.08141283 -0.1418188 0.14823557
0.034068458 0.35198835 -0.1323729 0.35256466 0.049400028 0.0034276985 0.35968274 -0.09342334
-0.11272882 0.19396418 0.054416474 0.2685924 -0.011868499 -0.04904236 0.038241703 0.011036856
0.004894517 -0.13865203 0.2463849 0.051853977 -0.03419673 -0.0027201148 -0.023865541 -0.105040126
0.043143302 0.059035383 -0.23912252 0.27868584 -0.06828128 0.062034197 0.14825298 -0.35427472
-0.6109087 0.08461881 -0.27161938 0.13792393 0.16591923 0.24556851 -0.18737222 0.32876667
-0.12455758 0.108783394 0.29838884 -0.20252648 -0.08882949 0.28510728 -0.34589702 -0.07292731
-0.02692325 0.19156644 0.20652641 0.2233991 -0.52679557 -0.30498776 0.08431314 0.2370899
0.041612558 -0.35362712 -0.07550716 -0.1777506 0.0847311 0.24481547 -0.16795847 0.16241401
0.16825548 -0.05489546 -0.17461918 0.12074442 0.07553409 0.12972696 0.30727324 0.1574885
-0.00575296 -0.1892584 -0.13666338 0.3565324 0.09297443 0.84859264 -0.07201182 0.2867524
-0.13718884 -0.047127623 -0.12419945 -0.24622379 0.17518558 0.15629584 0.28308332 0.099497095
-0.35782686 -0.07935927 0.06598636 -2.0930328 -0.008261069 0.5582052 0.12415048 -0.22645064
-0.99484515 -0.35745564 -0.025747597 -0.27860418 -0.09378786 -0.26647845 0.3138311 0.44256136

fc2.bias f4 [32]
00000000: 4c69 4c3c 4922 c5bd cc49 753d dbae 123e
00000010: 8699 bc3d 98e2 4bbd 50cd 893e a2ce d0bc
00000020: b7ad 173e 9a48 9cbd 6f98 0d3e 0884 163d
00000030: dbf1 c03d ac75 b23d 37e3 9f3e 99d0 8c3d
00000040: 1c25 e2bc dc86 0f3d 052e f73d ee2a 603d
00000050: 136e 88bd b579 103d 1eb4 76bd 9c79 553e
00000060: 1920 10be bf95 f23d 5d9b 5d3b 873c df3d
00000070: 74a3 1dbe b42d b63e bffa c6bc a578 23be
0.012476277 -0.0962568 0.05988483 0.14324515 0.0920897 -0.049776644 0.26914454 -0.025489155
0.1481236 -0.07631035 0.1382768 0.03674701 0.0942113 0.087138504 0.3122804 0.06875724
-0.027605586 0.03504072 0.120693244 0.05472844 -0.0666162 0.03527232 -0.060230367 0.20847172
-0.14074744 0.11844968 0.0033814528 0.109002165 -0.15394384 0.35581744 -0.024289487 -0.15963991

fc3.weight f4 [3, 32]
00000000: 653a 99bc 799c 7ebe 95d1 afbd f02c 1c3e
00000010: 74ac 9ebe 5203 773e e94b 093d de0a 8f3e
00000020: 8a78 993e f0b6 aebe 86bc 943e 34bd c93d
00000030: 5e31 b93d 337e ba3e 641d 963c 07d1 96bd
00000040: ad2b 31bf 5868 55be 68e6 29bf 0a3c 78be
00000050: 9562 43bf 109c 4f3e 509f 7f3e d58d 69be
00000060: 3537 f43e 3045 853e d378 aabe ee3e e63e
00000070: 4745 1fbe ed55 0a3e 7fe8 ff3f 85e2 a53e
00000080: aa45 473f 6412 3a3f c7de d2be 0d7f 6dbf
00000090: 1e74 64be af0d 0f3f 47d7 91bd b6f0 e3be
000000a0: c12e 15bf e9cb 91be eeff e33e a44b d5be
000000b0: 10f9 433f 19d3 8ebe 204f bebe 5c1f 2dbf
000000c0: c82d 1d3f 0c2d 833f 5be8 9ebe dd52 283f
000000d0: 180b 8f3e 8faa e23d 5f51 293f 6a2e 24bf
000000e0: 4795 88bf e07f 513f 22a8 c53e eace 5e3f
000000f0: e2d9 973e 7f3f 093e bf62 31bf 1edc 5a3f
00000100: 192d 613d ee00 f2bd 0323 5cbe 9024 27bc
00000110: d588 7cbd 6fb3 fabd 711c 4c3f 7307 96be
00000120: 4c89 cf3e c158 c8be 94b9 9e3d 63a5 afbe
00000130: 7c3d 103d d398 a0be cf38 bf3e a2d6 2ebf
00000140: 8688 7c3e 7362 0fbe 780b 573e 4888 5a3e
00000150: a68c 963d 6b93 82bf a80f 8c3d 5441 913e
00000160: 5b4c 163e 94a2 e03c e766 5b3d e26e 9cbc
00000170: b405 31bf e3d6 073f af61 62be 0825 3bbe
-0.018704602 -0.24864377 -0.085848965 0.15251517 -0.30990946 0.2412236 0.03351966 0.27937979
0.29974777 -0.34123945 0.29050082 0.09850541 0.09042619 0.36424407 0.018324561 -0.073640876
-0.6920727 -0.20840585 -0.663672 -0.24241653 -0.763223 0.20274377 0.24963117 -0.22808011
0.4769837 0.26029348 -0.33295307 0.44969887 -0.15553771 0.1350934 1.9992827 0.32399383
0.77840674 0.7268431 -0.4118559 -0.9277199 -0.2230992 0.55880255 -0.07121139 -0.44519585
-0.58274466 -0.28475884 0.44531196 -0.41659272 0.76551914 -0.2789543 -0.37169743 -0.67625976
0.6139798 1.0248122 -0.31036648 0.6575144 0.2793815 0.11067688 0.6613979 -0.6413332
-1.0670556 0.81835747 0.38604838 0.87034476 0.2965842 0.13403128 -0.692913 0.8549212
0.05497465 -0.118165836 -0.21497731 -0.010201588 -0.06165393 -0.122412555 0.797309 -0.29302558
0.40534437 -0.39130214 0.0775024 -0.34305868 0.035214886 -0.31366596 0.3734803 -0.68296254
0.24661455 -0.14002399 0.21000469 0.2134105 0.07351045 -1.0201238 0.06838924 0.28370154
0.14677565 0.027421273 0.053564932 -0.019095842 -0.6914933 0.53062266 -0.22107576 -0.18275845

fc3.bias f4 [3]
00000000: ae1d b83d fcd6 fdbd 244a 763e
0.08990036 -0.12394521 0.2405172

exp_avg f4 [64, 16]
00000000: a767 d8bb a43c 2dbb 8be6 e5bb ee4e 58bb
00000010: 048b a7ba 1567 e13b dfff 52bb 86b5 bb3b
00000020: 62a5 803b 7a8f c9bb ca31 783b 217b 73bb
00000030: 895e 8a3b d34b 213b 6841 bb3b 0a2d 98bb
00000040: 9bbe e7ba 851c 71ba 8dc4 9b3b 97d0 453b
00000050: 642d 863b a61a 033c 3705 b4bb 59e9 f23a
00000060: b84a 67ba aa43 73ba 79c5 7bb9 fa22 3b3b
00000070: bf0c 043c 889c 233b 1db9 b43b bdf5 38bb
00000080: a1c8 293c 0a79 003c ed32 e8b9 6c05 22bc
00000090: 0b16 1abb 5103 fbb9 a59b 5cbc 0d97 013c
000000a0: fb1e 463b ad64 42bc 9365 f83b 2df5 fe3b
000000b0: f277 e03b 1848 563c 90bb a0bb b507 6a3c
000000c0: 79cc a5ba e215 ba3b a41d db3b 5fe9 083c
000000d0: 5f98 9c3b f2ff f9ba d5ea c8ba 5066 a63a
000000e0: f286 34bb bb03 593a c604 80ba d15a 05bc
000000f0: b219 8abb ccc7 e5bb 38b1 f3ba 008a 81bb
00000100: 0f54 49bb 2d05 abbb 5557 d33b 7723 1f3c
00000110: f776 123c bdb5 c83b 9e61 373b 7456 e7ba
00000120: d241 923b 7ae3 693b ef41 0abc f92e bd3a
00000130: 4ad4 edba b408 afba 4422 e03b 2dcc 27bc
00000140: 77d1 e2b9 92e9 8dbb 9d08 3db9 8cdd beba
00000150: d2f9 de3a 65a2 27bb 63c5 64ba ee09 223b
00000160: d2ba 86bb dd0d 103b df5e f8b9 7678 16bb
00000170: ed36 a9ba 823b 0ebb 0bde 0bb9 7461 08bb
00000180: b13b 2cbc f3d4 00bc e1aa 87bc ea69 f9bb
00000190: 69c6 e5ba 4e78 563b 7e49 a83a c99e 443c
000001a0: 7856 0a3c c39c 43bc f091 7c3a dd9a e3bb
000001b0: d2e8 4e3c f1e8 1b3c 82df 3f3c 3f09 58bc
000001c0: 08e1 35bb b046 163b 179a a83b 642f 1c3b
000001d0: a4a0 573a 41c3 bc3b 82a6 d03b da85 dcbb
000001e0: 81cc 383a f866 8b3b 5a76 b1bb 2caf bb3b
000001f0: f1eb 833a 3022 9abb 253a e83a 26db 06bb
00000200: 2a0d 033c a481 743b 8a70 2abc 3413 56bc
00000210: b03b 3b3c efd5 3abc 3d4e 1c3c 0d15 85bb
00000220: 9d24 393c afec 323c 5efd 4bbc 6df4 7e3b
00000230: 463c 0bbb aac6 52bb 1111 c9bb 1fb1 2d3c
00000240: 2594 5d3b 30cc 153a 979b 79bb ba54 c33b
00000250: 17aa aa3a 1d3d ebba 8e5c babb 6006 3239
00000260: 70d2 e5bb a428 9dbb 743f ba3a e6e7 8dbb
00000270: 30af 02bc 55c6 c3bb fe17 d0bb 7274 75bc
00000280: 5231 bdba 3d8c fe3a d8a0 863b 93a6 c3ba
00000290: 8908 913a 2ece 63ba 92fe b4bb 1bb1 8bbb
000002a0: 0b5a 8eba 6158 183b bf17 413a d0b1 07bb
000002b0: debe 04bb 53de 02bb fa53 87bb 05e4 8c3b
000002c0: 0b0d 4a3b d6c2 753c 1cf8 45bb 4783 a3bc
000002d0: 801f bebb e4fe c2bb b71b 4ebc ff22 66ba
000002e0: 5c86 bdbb 3b4a a3bb 285d 7b3c 1f3c 8739
000002f0: 874b f43b cdfd eb3b 838a 1cbc dc95 c63c
00000300: a17a 02bb 0293 2e3a 8b51 2a39 c3c1 53b9
00000310: 478f 143a 5153 d0ba fbeb 06ba 2dbf d43a
00000320: b131 863a d35d 263a b74e 963a 7d54 64ba
00000330: 2643 7b39 8edb e739 55c3 a939 3525 c5ba
00000340: ba11 0ebb ca64 1d39 ab9c 99ba 9fdd feba
00000350: 0ecf 7a3a 49af b3bb b7e6 c93b a676 7ebb
00000360: 8f3b be3a eb57 713b 1e93 8139 1f83 0fbb
00000370: 0c49 95bb 3331 54bb c2cf 5bbb 9904 e03a
00000380: 12b7 2cbb e58f 08bc 0f30 98bb 6934 8a3b
00000390: 4604 c2b9 fbd0 c3ba abd6 893b f249 543b
000003a0: e0e6 61bb 9819 6abb cde4 05b9 e2b5 adb9
000003b0: 9f00 353b 6ead 683b eadb a73a bb1c cdbb
000003c0: 58ef 72bb 58f2 e8bb ca45 cebb d17a ac3b
000003d0: 08c5 c539 e1d0 01bb 274e 0b3c 5240 b9bb
000003e0: dbe1 843b 8af4 053b d4d9 f3bb 63e1 303b
000003f0: eb15 ecbb 6343 dcbb 3879 0d3b a832 00bc
-0.006604153 -0.002643385 -0.0070160083 -0.003300603 -0.0012782519 0.0068787434 -0.0032195968 0.0057284264
0.003925965 -0.006151137 0.0037871473 -0.0037152248 0.0042226953 0.0024611845 0.005714584 -0.004644041
-0.0017680706 -0.000919767 0.0047536553 0.0030184144 0.0040947665 0.008001959 -0.0054937857 0.0018532678
-0.00088230846 -0.0009279797 -0.0002401079 0.0028554783 0.0080596795 0.0024965126 0.0055152313 -0.0028222643
0.010362775 0.007841358 -0.0004428843 -0.009888988 -0.0023511674 -0.00047876922 -0.013464843 0.0079095485
0.0030230868 -0.011864823 0.007580468 0.007780692 0.006850236 0.013078712 -0.0049051717 0.014284064
-0.0012649439 0.005678878 0.006686883 0.008356421 0.0047789062 -0.001907347 -0.0015328774 0.0012695286
-0.0027546254 0.0008278449 -0.0009767048 -0.008139328 -0.004214489 -0.007012343 -0.0018592244 -0.0039532185
-0.003072027 -0.005219123 0.00644962 0.009713045 0.008939496 0.0061251805 0.0027981768 -0.0017649666
0.004463413 0.0035688565 -0.008438571 0.0014433555 -0.0018144932 -0.0013354034 0.0068400223 -0.01024155
-0.00043262143 -0.0043308223 -0.00018027653 -0.0014561876 0.0017011708 -0.0025578972 -0.00087269227 0.0024725157
-0.004111626 0.002198092 -0.0004737293 -0.0022959984 -0.0012910046 -0.002170295 -0.0001333879 -0.002081004
-0.010512278 -0.007863271 -0.016560974 -0.007611503 -0.0017530444 0.0032725516 0.0012839285 0.012000748
0.008443467 -0.01193923 0.00096347835 -0.0069459514 0.012628751 0.009515987 0.011711003 -0.013185798
-0.0027752537 0.0022930317 0.005145322 0.0023831958 0.00082255364 0.0057605808 0.0063675055 -0.0067298235
0.00070495164 0.004254218 -0.00541572 0.005727669 0.0010064823 -0.0047037825 0.0017717524 -0.00205774
0.007998744 0.0037308717 -0.010402808 -0.013066102 0.011427805 -0.011403545 0.009540138 -0.0040613473
0.011300233 0.010920688 -0.012450544 0.0038903013 -0.0021245643 -0.003216187 -0.0061360677 0.010601311
0.0033810225 0.0005714325 -0.0038087124 0.005961028 0.0013020661 -0.001794729 -0.005687303 0.00016977778
-0.0070136115 -0.0047961045 0.0014209584 -0.004330623 -0.007976338 -0.0059745708 -0.0063505163 -0.014981376
-0.0014434254 0.0019420456 0.0041085295 -0.0014926962 0.0011065166 -0.0008690086 -0.005523511 -0.004263056
-0.0010860575 0.0023246037 0.0007365904 -0.002070535 -0.0020255367 -0.0019968941 -0.004129884 0.004299643
0.0030830528 0.015000066 -0.00302077 -0.019960059 -0.005802095 -0.0059507955 -0.01257985 -0.00087790185
-0.005783839 -0.004983214 0.015342034 0.00025794 0.0074552926 0.0072018863 -0.009554508 0.02424138
-0.0019909518 0.0006659479 0.0001624284 -0.0002019471 0.0005667102 -0.0015893971 -0.0005146858 0.0016231291
0.0010238198 0.00063463784 0.0011467551 -0.00087100995 0.0002396224 0.00044223334 0.00032379726 -0.0015040996
-0.0021678046 0.00015010234 -0.0011719664 -0.001944471 0.0009567597 -0.005483542 0.0061615366 -0.0038828044
0.00145136 0.0036826085 0.00024714408 -0.0021898223 -0.004555827 -0.0032377958 -0.0033540581 0.0017091214
-0.0026354236 -0.008335088 -0.004644401 0.0042176736 -0.00037005747 -0.00149396 0.0042064986 0.0032392708
-0.0034469888 -0.0035720821 -0.00012769103 -0.00033132645 0.0027618778 0.0035503763 0.0012806628 -0.0062595285
-0.003706893 -0.0071089678 -0.0062949406 0.0052636643 0.00037721568 -0.001980834 0.00850252 -0.0056534195
0.0040552444 0.0020439946 -0.0074417386 0.002698981 -0.0072047613 -0.0067219003 0.0021587145 -0.007824577

exp_avg_sq f4 [64, 16]
00000000: ea40 1d38 9884 7b38 f6ea 5c38 1518 9738
00000010: 8632 8d38 e7af 3a38 b165 2b38 4128 3d38
00000020: 931f 1838 82d4 5a38 fe48 2338 b201 fc37
00000030: 97be 7e38 57c8 2a38 1d7f 9238 38f0 5f38
00000040: 5472 9338 6f5e 4538 67ad 8b38 e716 8a38
00000050: 1cac c238 78b5 1239 87fd b138 03f7 8438
00000060: 9779 2c38 e00a 8e38 f66d 8b38 259e 4038
00000070: 5b50 e638 0a73 8538 919e a138 3674 8038
00000080: d8f0 aa39 2df1 2139 eacf 8c39 120a 8d39
00000090: 96f0 3239 ec10 253a 260e a239 3543 a039
000000a0: a6f8 1939 a091 7839 0813 9439 a886 8b39
000000b0: 53b7 183a 153b fc39 7bd5 cc39 d1d1 b239
000000c0: 9b06 a439 ad39 0f39 ebf1 8d39 3ad6 8c39
000000d0: 697b 4a39 8155 133a c22c c439 d3c1 ce39
000000e0: 86d3 1839 3b91 5c39 5c76 9739 68dc 8c39
000000f0: 9c72 253a 9135 db39 84fc bc39 e488 a739
00000100: 5eb4 1939 3b79 4639 c46b 1039 a759 6b39
00000110: f1d9 d839 4241 b739 1e5b c939 efb4 3939
00000120: 8b25 ce38 4054 3f39 976d 2439 d2b8 e838
00000130: 3af5 ef39 f768 5b39 8e0e 7a39 0985 8a39
00000140: 7692 8138 04a9 ba38 0a62 3138 e3d1 5a38
00000150: f160 5138 ac5c e137 cba1 a638 4106 2338
00000160: eae2 7938 3a77 4238 0742 3538 7877 1938
00000170: 8f1b 6f38 64eb 7238 1237 5538 5bed 5338
00000180: 3501 063a fa8c ba39 f510 ca39 a124 003a
00000190: 031f 133a 496d 0c3a ae6b ee39 1706 e439
000001a0: c388 b639 0717 ec39 d61a a439 3536 a439
000001b0: 5878 333a 655c 103a 18ee 0e3a 6617 f339
000001c0: 8bd6 9639 5c4f 4e39 96c2 4839 2012 4f39
000001d0: 1303 1039 2eb8 5139 318c 5839 12d1 7439
000001e0: 22ee 3a39 38a2 6039 6732 4839 363f 0139
000001f0: 39be 9c39 cf8d 8839 a623 8039 50eb 8939
00000200: 2e35 7038 9714 0339 54eb fd38 9a52 e438
00000210: 7ee8 0139 8ab0 b838 bfc8 b138 3ad3 ac38
00000220: 0004 b638 599d 2839 6d00 d738 27f3 cb38
00000230: b724 dd38 abe4 aa38 f610 c638 3ec1 e438
00000240: e2d3 9c39 214a 1f39 824f 2539 7036 a239
00000250: 5fb5 6c39 92ff d039 6243 063a e68d 7839
00000260: e0df 2139 333c 5939 4cd5 6a39 7e56 6239
00000270: 1458 f639 0bec bb39 b3c6 a439 c4b2 8239
00000280: 3db9 db38 66cd 9638 d0b0 df38 517a ff38
00000290: 1931 c438 e94c 0e39 9b1b d538 49c4 f638
000002a0: fd20 8a38 ee83 c038 0307 f438 47ff c138
000002b0: 98ed 3939 1f51 3439 96d0 ed38 3695 d538
000002c0: 3f34 a03a 2251 393a 33dd 573a 1694 743a
000002d0: c8e5 803a bc20 b43a fc9f 963a 069b 3b3a
000002e0: 125e da39 dc4e 123a 5fe3 453a c9c5 163a
000002f0: 5116 cd3a ecf6 a63a 9772 783a b7b7 733a
00000300: 7d7a 5038 ff81 b238 bb1c 9638 ab1e cf38
00000310: 281e a338 9f53 b638 e737 f538 4f8b 2238
00000320: 32de 1938 3a4c 9838 ba59 a738 6a3e 6a38
00000330: b9cc 0339 deb1 9138 b9a2 aa38 8c6b d638
00000340: fe1a bf38 1871 8e38 4d31 5638 e359 5838
00000350: 2bcf 2a38 1f7b a638 03c9 6638 aed3 9638
00000360: 4084 8338 675d 4038 b563 7938 3a5a 3338
00000370: ed49 c238 d852 bb38 14ed 8338 dea0 9338
00000380: 0ff3 0339 90a8 1339 2f46 c838 cfa0 d038
00000390: 3904 fc38 5c9d 2f39 020a 3639 ffc4 1839
000003a0: 8bd4 aa38 c9a8 fc38 4da7 cf38 e97e fd38
000003b0: 1e81 7439 6e3a fa38 7e98 4f39 9cd5 0839
000003c0: b0c2 2739 5625 df38 4b67 5039 97c8 3539
000003d0: 6403 c938 ae96 9039 02a6 0639 b3e8 2039
000003e0: 5ea4 cf38 4546 2239 c6e7 2d39 f9dd 1f39
000003f0: e000 3739 d05d 2139 541a 4039 62b8 f738
3.7492173e-05 5.996655e-05 5.2670912e-05 7.204727e-05 6.732815e-05 4.4509678e-05 4.0864285e-05 4.50986e-05
3.626903e-05 5.2173164e-05 3.8930208e-05 3.004153e-05 6.073582e-05 4.071774e-05 6.985499e-05 5.3391064e-05
7.0308015e-05 4.705641e-05 6.660335e-05 6.584619e-05 9.282699e-05 0.00013991247 8.487241e-05 6.34026e-05
4.1121235e-05 6.773113e-05 6.648518e-05 4.592365e-05 0.00010982222 6.363362e-05 7.7066135e-05 6.1251616e-05
0.0003260437 0.00015444001 0.0002685779 0.0002690112 0.00017065028 0.0006296772 0.0003090959 0.0003056765
0.00014683846 0.00023705373 0.0002824294 0.00026612473 0.0005825657 0.00048109205 0.00039068967 0.0003410713
0.0003128544 0.00013659029 0.0002707386 0.00026862492 0.00019310195 0.0005620346 0.0003741738 0.00039435792
0.00014574648 0.00021034938 0.0002888915 0.00026867096 0.00063113286 0.00041810845 0.00036046293 0.00031954714
0.00014658409 0.00018927913 0.00013773056 0.00022444745 0.0004136111 0.000349531 0.00038405595 0.00017710378
9.8298384e-05 0.00018246565 0.00015681084 0.000110970475 0.0004576834 0.0002092457 0.0002384728 0.0002642053
6.17848e-05 8.900653e-05 4.2291394e-05 5.2170722e-05 4.9919767e-05 2.6865244e-05 7.945633e-05 3.8868053e-05
5.9577556e-05 4.6364243e-05 4.3215256e-05 3.6589307e-05 5.7007706e-05 5.791652e-05 5.0834446e-05 5.0527375e-05
0.0005111874 0.0003558172 0.00038541076 0.00048882706 0.0005612226 0.0005356861 0.00045475125 0.00043492086
0.0003481564 0.00045030584 0.00031300512 0.00031320905 0.0006846241 0.0005506932 0.0005452349 0.00046366005
0.00028770076 0.00019675255 0.00019145975 0.0001974781 0.00013734055 0.00020000405 0.0002065159 0.00023347538
0.00017827054 0.00021422736 0.00019092263 0.00012325947 0.00029896366 0.00026045597 0.00024440623 0.00026305998
5.7269986e-05 0.00012500804 0.000121078134 0.00010887273 0.00012389009 8.806687e-05 8.4774096e-05 8.240943e-05
8.679181e-05 0.00016080345 0.00010252078 9.725085e-05 0.0001054494 8.1488244e-05 9.444535e-05 0.000109078814
0.00029912504 0.00015191037 0.00015765245 0.00030939607 0.0002257428 0.00039863266 0.0005121735 0.00023703984
0.00015437556 0.00020717159 0.00022395438 0.0002158526 0.000469864 0.00035843285 0.0003142856 0.00024928723
0.00010477237 7.190816e-05 0.000106664025 0.00012182131 9.3551535e-05 0.00013570827 0.000101617734 0.00011766755
6.586497e-05 9.179847e-05 0.00011636133 9.250506e-05 0.00017731485 0.00017196358 0.00011339893 0.00010184424
0.0012222602 0.00070692797 0.00082345604 0.0009329928 0.0009834105 0.0013742666 0.0011491771 0.0007156584
0.00041650288 0.0005581209 0.00075488345 0.0005751518 0.001564691 0.0012738383 0.00094775244 0.000929709
4.970514e-05 8.511915e-05 7.157909e-05 9.8762415e-05 7.778063e-05 8.694012e-05 0.00011692923 3.875355e-05
3.6684978e-05 7.262123e-05 7.9798934e-05 5.5848075e-05 0.00012569399 6.947269e-05 8.136541e-05 0.00010224347
9.1126174e-05 6.792153e-05 5.106749e-05 5.1582127e-05 4.07241e-05 7.93843e-05 5.502348e-05 7.191986e-05
6.2712e-05 4.5863355e-05 5.9459086e-05 4.2760956e-05 9.2644106e-05 8.932286e-05 6.290726e-05 7.03947e-05
0.0001258368 0.00014081807 9.549816e-05 9.948166e-05 0.00012017083 0.00016747921 0.00017360601 0.00014569236
8.145821e-05 0.00012047735 9.9016914e-05 0.00012087619 0.00023317753 0.00011931812 0.00019797866 0.00013049546
0.00015998888 0.00010640423 0.00019874905 0.0001733623 9.5850584e-05 0.00027578085 0.00012841079 0.00015345476
9.901145e-05 0.00015475701 0.00016584908 0.00015246113 0.00017452566 0.00015389104 0.00018320355 0.00011812222

exp_avg f4 [64]
00000000: 7148 e0bb d387 0dbc 3ac5 4abc 10cf 483b
00000010: e512 02ba 1cdf a43a fa52 59bc 7261 d23b
00000020: 72d8 4f3c c7b0 f03b 1cb1 6e3b 54e6 1cbb
00000030: 5ed3 b23a 9caf d73b 5145 b6bb ff26 233c
00000040: e148 81bc 577a 96bb 7f2f 3fbc 9dc5 56bc
00000050: a0c0 fbbb dbbc cdb8 24bb 453b d9d3 12bb
00000060: dfc7 cc3b e2f8 c63b 3a06 bb3a e863 463b
00000070: 7b33 963a ae7e 2c3c f908 bf3a 22f6 163c
00000080: 8ed4 ec3b 72cd caba a89c 72bc bdca 6c3b
00000090: 52c5 b23b 94bd 7ebb d21c 543b ec03 93bb
000000a0: 595d 83bb de06 b03b 65f9 9dbb fcf8 47bb
000000b0: 0bff b5ba 22e6 0ebc 25e2 9e3b 848d 24bb
000000c0: df73 163b 5e60 aeba f987 a2bb d8e5 0abc
000000d0: da8c 9aba 6e71 ffba 4042 6e38 0dd5 db3b
000000e0: 7813 81bb dabd 8ebc 3b8b 923c 09c2 263b
000000f0: c04f 513a d58b a5bb 2775 1b3a 6c40 223b
-0.006844573 -0.00863834 -0.012376124 0.0030640997 -0.0004961922 0.0012578699 -0.013264412 0.006420308
0.012685882 0.0073452923 0.0036421483 -0.0023940997 0.0013643315 0.0065822136 -0.0055624624 0.009958028
-0.015781822 -0.0045922208 -0.011669039 -0.013108638 -0.007682875 -9.810339e-05 0.003017136 -0.0022404103
0.0062494124 0.0060721496 0.0014268823 0.003027195 0.0011459434 0.01052825 0.0014574818 0.009213956
0.007227487 -0.0015472604 -0.014807858 0.0036131584 0.0054556513 -0.0038870322 0.003236581 -0.0044865515
-0.0040089306 0.0053719124 -0.00482099 -0.0030513396 -0.0013885213 -0.00872186 0.004848736 -0.0025108764
0.0022957248 -0.0013303866 -0.004960057 -0.008477651 -0.0011791245 -0.0019488761 5.6805322e-05 0.0067087472
-0.0039390884 -0.017424513 0.017888656 0.0025445244 0.0007984601 -0.0050520697 0.0005930238 0.0024757637

exp_avg_sq f4 [64]
00000000: 94a6 0439 6d9c 6239 bf73 6c3a f62c 773a
00000010: d040 663a 0f63 0139 fa6c ab3a 7f6e 3d3a
00000020: 7dbe 7539 5687 593a eab0 ab39 8859 8b3b
00000030: 1e0d 5539 8463 3439 6c21 bb39 6d0b d039
00000040: 85b0 bd3a 09d2 9539 af98 323b 0761 513a
00000050: 698f e839 e0b0 1a3a 104e 023b 89eb 663a
00000060: 1bbb fa38 0779 cf39 8e38 c439 f8c2 8639
00000070: 0069 203a 7ff7 153b 400f 0f3b 9234 2739
00000080: 4371 263b a7c2 b93a 0ac2 283b 90e5 223a
00000090: 1c2c 9a3a 87c9 313a 9be4 6e39 51dd 0e3a
000000a0: 9291 693b 3951 0a3b d03b 9e3a af51 993a
000000b0: efa6 8339 0ea0 003a a049 a339 5e7d 8a3a
000000c0: 2a60 df3a 82dc 243a f513 9439 64b4 f73a
000000d0: e024 093a ece0 a139 eb03 e638 3d2f 343b
000000e0: bda7 453b f54a 103a 18b3 d93b 24b1 ae39
000000f0: 7cea e439 7f89 c139 c6f9 cf3a 19d9 473a
0.00012650556 0.00021611313 0.0009019933 0.0009429002 0.00087834615 0.00012339301 0.0013078742 0.0007226243
0.00023435983 0.00082980597 0.00032747473 0.0042526163 0.0002031815 0.0001720321 0.0003569232 0.00039681364
0.0014472163 0.00028575983 0.002725165 0.00079871755 0.00044357337 0.000590099 0.0019882955 0.0008808901
0.0001195578 0.0003957229 0.0003742617 0.00025703735 0.0006119162 0.0022883115 0.0021829158 0.00015945945
0.00253971 0.0014172391 0.0025750422 0.0006214017 0.0011762413 0.0006782044 0.00022782611 0.0005449849
0.0035639745 0.0021105541 0.0012072269 0.0011697317 0.00025110642 0.00049066625 0.00031144638 0.0010565927
0.0017042209 0.0006288962 0.0002824363 0.0018898365 0.000523163 0.00030875893 0.000109679844 0.0027493977
0.0030159794 0.00055043335 0.006643664 0.00033319846 0.00043662253 0.0003691427 0.0015867285 0.00076235976

exp_avg f4 [32, 64]
00000000: 0b58 b839 b152 4d3c 5bd2 1c3c ccbb 00bb
00000010: cd39 e43a d9c0 8eb9 da27 4839 b9b0 be3b
00000020: 1d39 923a 20e4 123b 2eb2 ff3a bb5f 683b
00000030: f314 c73a 7fd1 153c d777 e53a f539 483c
00000040: 31c9 a53b f343 cdb9 2085 633b a990 8bba
00000050: 065f 7c3b bcf3 d53a 91d2 d5ba 1619 4b3a
00000060: 3bc1 183b dc4a 863c 9f61 8b3b 359c ff3b
00000070: fa06 ae39 73dc eb3b 6249 2a39 f57b c13b
00000080: 3a3a 373b 8d4d b13b b9aa 073a 504b 323b
00000090: 22ee afbb f5ad 053b f437 e93b f27a 21ba
000000a0: 465d 51bb 54cd 073b 7eb3 393b 4975 6c39
000000b0: 786a 75ba 0b32 3abb 1ca8 5ebb 5515 9a3b
000000c0: 691b 9c3b 5d12 643b 646a 9b3a d7d0 423a
000000d0: 311f 6fba 8c2a 333b 942c 5839 8213 8fba
000000e0: f900 59b9 7a86 e53a 3655 0d3b e6d7 ae3b
000000f0: 9432 473c 5e0a 853b bc17 9e3a f41e be3a
00000100: f0d3 88ba 9fab 6cbc 9b74 a5bb 96fd 17bc
00000110: 3b4b 5fba 574a a9bb dfd4 d5ba 20d3 daba
00000120: 2252 94b8 441d 3fba 2fb9 43bb 6072 7ebb
00000130: 85a1 5e3a 093f b0ba 8f16 dcbb 9bbf 96bb
00000140: e7a2 0cbb f5c4 5ebb 1000 afba 8c00 9bbb
00000150: 0548 c9ba 88fa 07bc f513 84bb ab4f e5bb
00000160: 6612 67bb 45b7 2abb ee82 313b 94c0 f239
00000170: 7da9 36bc 72c5 a3bb 4d11 5fbb 96a9 abba
00000180: 097f 2abc 1079 3eba 3bc1 03bb 5120 af3a
00000190: 78c1 a9bc 83e6 a73a 16f9 88bb 8d21 c6ba
000001a0: 6676 17bc 4ddc 0abc 2cb7 a0bc af76 b4bb
000001b0: 45e9 c5bb b352 13bc bf88 debb 4847 16bc
000001c0: 1503 173b 117d ccbb ccff cabb 78a8 b539
000001d0: 20da 04bb 5f30 1ebb 239a c038 a5d2 f9bb
000001e0: 8cc0 17b9 6ccb 0dbc f9f3 26bc 4a6a ff3a
000001f0: a94a 8a3a 3df0 04bc 4655 caba 89f0 4cb9
00000200: 79e3 ee39 7ac9 363b a4b7 bcbb 791d d33b
00000210: 1288 91ba 44d3 263b 5e33 213a bc2f 15bb
00000220: 82ac 10ba e10d 23bb 6ca4 11b9 0a02 98bb
00000230: 82c0 2bba f1ec 9bbb f91e 813b 1c54 83bb
00000240: 3245 b9ba 92ea e43a 4e55 9eba 6e38 45b8
00000250: 06aa 14bb ce71 823b d97c 653a 572e 023b
00000260: a9b8 21bb cf1a cabb e2f9 05bb 11b4 6dbb
00000270: 760a 5f3b 34dc 8abb cf4c 733a cbc7 d4ba
00000280: 2afd 16bb 4ec3 35bb 2f9a 9138 ab42 9db8
00000290: 3da0 383b eba4 acba 0cb1 7bbb 27d7 6e3a
000002a0: 1511 4b3b b210 90b9 15f6 bc3b d966 053b
000002b0: ce70 133b 3566 9bba 1d9c 513b 91b8 3b3a
000002c0: 6e6d 5dbb eba7 f13a 089e ecb8 a57c 97b9
000002d0: 76fb 213a 24d2 25ba bfd2 3aba 54a2 29ba
000002e0: 0d9c 8d38 eabc 163b 0c8c 9339 50a6 6ebb
000002f0: a217 ccbb 635b e93a ea1c cd39 6c2d 4cba
00000300: a39c 7b3a 8646 0b3c 3fdf a9bb 3611 733c
00000310: 67e2 213b ef4a d03b 7d43 103b 20ca 90bb
00000320: 307f a4ba 4282 843a 4a3f 0a3b 5e21 e2ba
00000330: 52b3 ec39 c4e3 0cbc 33bc 083c 873d cbbb
00000340: e1cf 0a3b eb8a 8b3b 045c 3e3a 03bd c43b
00000350: 9726 2dbb 4671 323c 4803 543b 880f 0e3c
00000360: 914f 673a 8a36 47bc 6ce9 0ebb 8058 debb
00000370: efcd 2e3c 4b34 80ba 87bf 9a3b e981 0cbb
00000380: f644 bd3b 96a3 98ba 96e1 4e3b 7f12 0e3b
00000390: 17b5 4b3c 1b60 d7ba c879 e1bb fddc ff3a
000003a0: 934b 013c db3e 3a3b 95e9 833c 9555 ce3b
000003b0: ac73 fb3b d528 b13b 4057 f33b 8953 b93b
000003c0: 8ca1 d138 039e e43b a410 4a3b 1b87 34b8
000003d0: 7ba0 a93b e9c7 683a afc0 e939 5b80 cf3b
000003e0: c4ac 5a39 ae88 023c 84a9 df3b f18d f9ba
000003f0: 6522 f6bb cf2f f23b 449f c43a 22bd 1dba
0.00035160812 0.012531922 0.009571637 -0.0019643186 0.0017412246 -0.00027228033 0.00019088332 0.005819407
0.0011155937 0.0022413805 0.0019508058 0.003545745 0.0015188738 0.009144186 0.0017507029 0.012220849
0.0050593843 -0.00039151273 0.00347168 -0.001064797 0.0038508787 0.0016323249 -0.0016313364 0.00077475735
0.0023308534 0.016393118 0.0042535807 0.0078006038 0.00033193064 0.0071979105 0.000162398 0.0059046694
0.002795829 0.005410856 0.0005175281 0.0027205534 -0.005368964 0.0020397876 0.007117266 -0.0006159983
-0.0031946464 0.002072175 0.0028335745 0.00022550406 -0.00093618734 -0.0028411176 -0.0033974713 0.00470225
0.0047640097 0.0034800984 0.0011857268 0.0007431632 -0.00091217743 0.0027338592 0.00020615972 -0.0010915848
-0.00020695095 0.0017511391 0.0021565682 0.0053357957 0.012158055 0.0040600738 0.0012061517 0.0014505074
-0.0010439139 -0.0144452145 -0.005049301 -0.009276768 -0.0008517985 -0.0051663327 -0.0016314051 -0.0016695
-7.0724884e-05 -0.00072904327 -0.0029865017 -0.0038825497 0.0008492696 -0.001344652 -0.0067165564 -0.004600478
-0.0021459402 -0.0033991907 -0.0013351459 -0.00473029 -0.0015356547 -0.008299477 -0.0040306994 -0.0069980226
-0.003525877 -0.0026049179 0.0027086097 0.0004630132 -0.011148808 -0.0049979025 -0.0034037412 -0.0013096805
-0.010406264 -0.00072659645 -0.0020104188 0.0013361071 -0.020722136 0.0012809787 -0.004180084 -0.00151162
-0.009244537 -0.008475375 -0.019618593 -0.0055073122 -0.006039771 -0.008991885 -0.0067912037 -0.009172268
0.0023042609 -0.006240495 -0.006195044 0.0003464853 -0.0020271614 -0.0024137718 9.183984e-05 -0.0076239877
-0.00014472211 -0.008654457 -0.010190004 0.0019486633 0.0010550815 -0.008113918 -0.001543679 -0.00019544562
0.00045564378 0.0027891085 -0.0057591964 0.0064427224 -0.0011103174 0.0025455514 0.0006149317 -0.0022764048
-0.000551887 -0.0024880099 -0.0001388953 -0.004638915 -0.0006551818 -0.00475847 0.00394046 -0.0040078294
-0.0014135002 0.0017464927 -0.0012079866 -4.7021014e-05 -0.002268435 0.0039808517 0.00087542605 0.0019864046
-0.0024676716 -0.0061677466 -0.0020443131 -0.0036270658 0.0034033335 -0.004237676 0.000928116 -0.0016233859
-0.002303908 -0.002773482 6.942858e-05 -7.498761e-05 0.0028171681 -0.0013171708 -0.0038405089 0.00091110397
0.0030985523 -0.0002747826 0.00576664 0.0020355491 0.0022497657 -0.0011856022 0.003198392 0.00071609864
-0.003378715 0.0018436884 -0.000112827925 -0.00028893832 0.0006179133 -0.0006325564 -0.00071267405 -0.0006471027
6.752471e-05 0.0023000785 0.00028142368 -0.0036415048 -0.006228403 0.0017803725 0.0003912219 -0.0007788751
0.0009598231 0.008500701 -0.0051840837 0.014835646 0.0024701597 0.006356589 0.0022012882 -0.0044186264
-0.0012550112 0.0010109621 0.0021094852 -0.0017252376 0.00045147032 -0.008599225 0.008345651 -0.006202403
0.0021181034 0.0042585037 0.0007261636 0.0060039773 -0.0026420706 0.010891264 0.0032350589 0.008670695
0.0008823807 -0.012158999 -0.002180661 -0.0067854524 0.010669216 -0.000978121 0.004722539 -0.0021439737
0.005776043 -0.0011645432 0.0031567565 0.0021678505 0.012433312 -0.001643184 -0.0068809725 0.0019520816
0.007891553 0.0028418812 0.016102592 0.0062968233 0.0076737013 0.005406479 0.0074261725 0.00565571
9.995987e-05 0.0069768443 0.0030832672 -4.304117e-05 0.0051766015 0.00088798866 0.00044584784 0.00633244
0.0002085446 0.007967157 0.0068256278 -0.0019039494 -0.0075114244 0.007390953 0.0015001078 -0.00060172577

exp_avg_sq f4 [32, 64]
00000000: b8d3 1a37 2526 d639 cd3a ed39 f621 a939
00000010: 5618 953a 65c8 0a39 e475 0038 cc88 5539
00000020: ed97 0d37 e6c0 bf39 020e 2b39 81fc 8d3a
00000030: 2c6a 1039 a16e aa38 1f81 cc38 f0a8 7a39
00000040: 7ecb e039 f06e 8e38 f5ac 4e39 cf52 4d39
00000050: a3c7 193a 3a34 2a39 5ccc 3b39 d5f1 7b39
00000060: 6ae4 6939 62c1 113a 0bf1 af39 f03b 0739
00000070: edbe 9739 177f 8c3a 03f3 7e39 d27a 6d38
00000080: 5caf 5c3a 2fa0 8039 2ff0 143a 1286 9d39
00000090: 60f5 3b3a a533 2138 4c18 7439 1d83 a138
000000a0: 334c 8a39 8fcf c339 a758 3f3a f8b7 8d39
000000b0: 62d4 e938 9b41 113a 34bb 6439 a71c 9c3a
000000c0: d726 8a39 fb48 cf39 f83c 8b39 3257 5b37
000000d0: a5b5 4d39 9bfc c938 1421 6238 4ef2 8539
000000e0: c81d 9b35 96bd 8039 402b 683a 9494 0139
000000f0: bd7a 4c3a 3e3d 6139 852c b338 e866 8738
00000100: 5522 a337 3b36 0a3a 1e91 8a39 5606 f339
00000110: a54e 763a 714d 8639 063a 0e38 cd48 c938
00000120: 94ed 2336 d4c4 e939 ca07 8139 a79e 523a
00000130: 859f ed38 f986 8538 948d 8a39 00ae 8838
00000140: 39f1 b239 70a4 0139 74a8 1039 aebb e538
00000150: 7949 ae39 4190 7e39 a929 4539 c4ed e039
00000160: a1d9 0139 7813 9139 67d7 6e39 a0f4 b437
00000170: 0767 ce39 46bc 623a 7d84 9d39 1107 7738
00000180: 0e8b f139 1547 8139 0feb 313a 4960 8139
00000190: cae8 093a 1f0b ea37 1eb0 ae38 0814 2f39
000001a0: 50e2 fe39 4a16 3b39 3b70 923a 3280 c139
000001b0: c418 4c39 d748 9d39 d245 f839 618d c53a
000001c0: df06 4439 5861 ef39 068b a639 e3e8 6137
000001d0: 3611 4439 bb99 bb38 5f51 6638 2f1d 9039
000001e0: 3f19 8735 35a4 9e39 df6b 5f3a bd39 9e38
000001f0: 9b46 d539 000f a139 71a0 fa38 a803 1b38
00000200: 893c e536 0dcb 043a 2c62 2f39 20e0 b939
00000210: d008 f539 cbdc e138 e828 3237 f235 d238
00000220: a13e 3136 fb58 3839 0790 e438 43fb 013a
00000230: 8d00 2a38 c995 2138 3770 1c39 1e6c 1039
00000240: 23c8 6639 24a6 5338 4ef4 a938 c3dc 6d38
00000250: 6a81 3439 b90e 3b39 3101 9838 4020 2039
00000260: dc7d a638 849e cf39 5b32 bd38 f22b 7538
00000270: dac2 8839 d330 013a a382 5439 ab43 c337
00000280: 1c76 ca39 5bf4 f738 fbf5 aa39 391c 1939
00000290: 9642 be39 0892 3137 f6af a938 35f4 6538
000002a0: 2e75 4f39 77ed 1939 9891 533a baa4 1f39
000002b0: 1627 ce38 bfdf 4c39 9f28 0539 797e 3f3a
000002c0: 2079 c438 408a 8839 e6a2 cc38 fee3 7236
000002d0: f630 9e38 7317 2338 bea6 d437 0ec9 3939
000002e0: eff6 c434 3b3a 6839 ba0b ec39 22e1 2e38
000002f0: e316 9639 0fd3 3139 d6bb 4938 e4e6 bf37
00000300: aefc c037 9b62 b63a c192 333a df03 a53a
00000310: 9db6 d83a 5b8d c139 98bf 6238 57ce de39
00000320: c097 7837 e67c 563a 8ca7 d239 f00c e73a
00000330: 4066 1839 0de7 c438 6f8d 0f3a ad6a db39
00000340: e96a 1c3a 5cb7 3539 20ec d839 1df6 8339
00000350: 2d7e 603a c2dc 253a f568 7f39 4297 f639
00000360: 4dc9 b139 0403 be3a c0d3 d939 9b32 4e39
00000370: acc6 823a f0b8 f73a f743 343a dab7 c638
00000380: 4c02 a93a a7ee b939 b747 b53a a46a 1f3a
00000390: a0a7 d53a d989 6538 ca11 a139 0816 7939
000003a0: 7ca4 103a 9aae 263a e230 0e3b 8bb0 f139
000003b0: e860 c339 5d06 863a 5230 253a 9076 393b
000003c0: 1ed0 2f39 2198 4e3a df58 fd39 db7c 8135
000003d0: 0aac be39 beba 3139 469c b338 e79a 1e3a
000003e0: 96ca ef35 5481 f539 630f 053b 2dc1 6c38
000003f0: 5d77 a33a bb6f b339 a90f 5d39 bc69 0639
9.22841e-06 0.0004084568 0.00045247973 0.00032259495 0.001137505 0.00013235358 3.0627372e-05 0.00020364224
8.439628e-06 0.0003657408 0.00016313049 0.0010832698 0.00013772462 8.126838e-05 9.751529e-05 0.00023904792
0.00042876223 6.7917514e-05 0.00019710122 0.00019581172 0.0005866235 0.0001623192 0.0001790984 0.00024027315
0.00022305702 0.00055601273 0.00033558192 0.00012896932 0.00028943215 0.0010719028 0.00024313857 5.661959e-05
0.00084184646 0.0002453341 0.0005681542 0.00030045264 0.00071700476 3.843349e-05 0.00023278705 7.7015e-05
0.00026378184 0.00037347942 0.0007299282 0.00027030683 0.00011149865 0.0005541087 0.00021813513 0.0011910395
0.0002635035 0.0003953649 0.0002655757 1.3073719e-05 0.00019617991 9.631478e-05 5.3913405e-05 0.00025548268
1.1557067e-06 0.00024555315 0.00088565424 0.00012357748 0.0007800272 0.00021480487 8.5436775e-05 6.4564694e-05
1.9447101e-05 0.0005272363 0.00026429532 0.00046353292 0.0009395874 0.0002561617 3.3909477e-05 9.597987e-05
2.4427181e-06 0.00044587872 0.000246106 0.00080345053 0.000113307535 6.367075e-05 0.00026426895 6.5173954e-05
0.0003413053 0.00012363656 0.00013795664 0.00010954529 0.00033242608 0.00024277066 0.00018802904 0.0004290176
0.00012383472 0.0002767106 0.00022777692 2.1571585e-05 0.00039368143 0.0008649271 0.00030044085 5.889597e-05
0.00046070706 0.00024657758 0.00067870406 0.00024676535 0.00052608235 2.7900152e-05 8.329771e-05 0.00016696763
0.0004861527 0.00017842013 0.0011172363 0.00036907342 0.00019464182 0.00029999643 0.00047354266 0.0015072041
0.00018694576 0.0004565816 0.00031765568 1.3465268e-05 0.00018698428 8.9454894e-05 5.4912056e-05 0.00027487564
1.0065631e-06 0.00030258452 0.0008522849 7.544782e-05 0.0004067913 0.0003071949 0.000119508135 3.6958285e-05
6.831779e-06 0.00050656573 0.00016725872 0.00035452936 0.00046736607 0.00010769962 1.0619151e-05 0.000100236284
2.641151e-06 0.00017580755 0.000108987144 0.00049584004 4.053167e-05 3.852489e-05 0.00014919123 0.00013773187
0.00022009066 5.046105e-05 8.104053e-05 5.6710804e-05 0.00017214348 0.00017839194 7.248147e-05 0.00015270803
7.93894e-05 0.0003960022 9.021602e-05 5.845348e-05 0.00026085117 0.0004928235 0.00020266561 2.3277322e-05
0.0003861644 0.000118233926 0.00032608196 0.00014601731 0.00036289234 1.0584023e-05 8.091323e-05 5.482529e-05
0.00019784711 0.0001467968 0.00080707064 0.00015224787 9.830126e-05 0.00019538308 0.00012699001 0.00073049177
9.3685696e-05 0.00026042946 9.75782e-05 3.619352e-06 7.543147e-05 3.8884067e-05 2.5350015e-05 0.00017717874
3.6687513e-07 0.00022146937 0.00045022165 4.1694504e-05 0.0002862728 0.00016958661 4.809707e-05 2.2876491e-05
2.3005847e-05 0.0013914885 0.0006850176 0.0012589655 0.0016533915 0.00036917147 5.4061034e-05 0.00042496875
1.4817284e-05 0.00081820635 0.00040179153 0.0017627757 0.0001453394 9.389045e-05 0.00054760923 0.00041850415
0.00059668586 0.00017329812 0.00041374657 0.00025169636 0.00085637235 0.0006327146 0.00024357795 0.00047033472
0.00033910052 0.0014496748 0.0004154723 0.00019664543 0.0009977422 0.001889972 0.00068765826 9.475621e-05
0.0012894361 0.0003546376 0.0013830577 0.00060812593 0.0016300566 5.4726235e-05 0.00030721567 0.00023754698
0.0005517674 0.0006358415 0.0021696617 0.00046098637 0.000372655 0.0010225285 0.0006301451 0.0028299429
0.0001676683 0.00078809453 0.00048322135 9.647587e-07 0.00036367803 0.00016949602 8.564493e-05 0.0006050304
1.7865848e-06 0.00046826398 0.002030336 5.6446694e-05 0.0012471486 0.00034224786 0.00021082036 0.00012818625

exp_avg f4 [32]
00000000: 84ee 003c 0a23 5cbc 6712 d6ba b392 e03b
00000010: 3f57 e2bb 6cea 103b 20b6 1dbb 1283 333c
00000020: e5ef 1b3c d57c d5bb 1dae b83b 322c b43b
00000030: ece6 e939 059c 1d3c f5cc ad3a 5b45 733b
00000040: fe6c 0dbb 579a 91bc 917c d3bb 32bc adbb
00000050: 7070 0ebc 4241 bd3b 63f2 88ba 7d94 3cbc
00000060: 614c fab9 c6a4 113c 6eec 12bc da5e e73b
00000070: 829e d0bb 22da 033a 12ee 56bb b361 66ba
0.007869367 -0.013436088 -0.0016332389 0.0068534254 -0.006907373 0.0022112383 -0.0024064854 0.010956543
0.0095176445 -0.0065151253 0.0056359903 0.0054984326 0.00044613273 0.0096197175 0.0013259934 0.0037120197
-0.0021579857 -0.01777379 -0.0064540585 -0.0053019756 -0.008693799 0.0057756016 -0.0010448213 -0.011510012
-0.00047740623 0.008889383 -0.008967502 0.0070608677 -0.006366552 0.0005029758 -0.003279571 -0.0008788362

exp_avg_sq f4 [32]
00000000: 4a0f d23a eaab c83a 0f11 7c3a 65b6 5d3b
00000010: a59d 103a 2150 c23a c3b7 9738 ae0c 293a
00000020: 3eff a33a 6fe4 573a 940b 9a3a 7d7a 863a
00000030: 2ab4 143b 4aa3 733a 47e0 e639 ef17 d239
00000040: 6455 443a 521d 703a 1334 833a 245f 9d3a
00000050: ea1b 5b3a 9a04 9038 be4c 073b 3a7e 643a
00000060: 3d02 8a3a d767 613a 5b08 853a 208d 893a
00000070: 8d43 5939 cd61 8239 821a 0c3b 8b38 493a
0.0016026285 0.0015310023 0.0009615579 0.003383064 0.0005516655 0.0014824906 7.2344694e-05 0.0006448728
0.0012511981 0.00082356384 0.0011752718 0.0010259893 0.0022690394 0.00092940463 0.00044036118 0.00040072153
0.0007489531 0.00091596425 0.0010010026 0.0012006504 0.00083583465 6.867312e-05 0.0020645107 0.0008716319
0.0010529232 0.0008598542 0.0010149585 0.0010494329 0.00020719897 0.000248684 0.0021378105 0.0007675967
