checkpoints/synth/high_energy/torsion_energy/20250611190457081708/ARG_dim_8/fold5/best_epoch=241-val_loss_epoch=13.386.ckpt (torch, 44037 bytes, 20 tensors)

fc1.weight f4 [64, 8]
-0.48774555 0.49302682 0.28763738 0.016754722 -0.3065335 -0.49784186 -0.22660248 -0.037429124
-0.5684536 0.03182988 0.086513855 -0.16185291 0.41777453 -0.1351288 -0.63974905 -0.27016616
0.6518058 -0.6434769 0.109677546 -0.019859651 -0.11731227 -0.19908103 0.09438673 -0.28382146
1.1078967 0.052508555 -0.029201247 0.010258134 0.19462684 -0.105463885 -0.092094295 -0.021628974
0.18446508 0.5010327 -0.39570874 -0.060226344 0.165848 0.4818097 0.17788166 -0.6204151
0.0026118509 -0.74700236 -0.42771196 0.35089904 -0.12409731 0.03104653 -0.77161133 0.28416112
-0.50245774 -0.5981231 -0.5041789 0.00048241662 0.2550707 0.25660074 0.1117306 -0.082375295
-1.0162667 -0.27018413 0.05721872 -0.06636676 0.53196394 0.35969493 -0.0039060283 -0.06771215
0.017558068 0.56484956 -0.50536084 0.26607296 -0.036868744 -0.14398631 0.39868012 0.579237
0.6930881 -0.001682697 -0.0027198554 -0.026163287 0.44757575 -0.11640634 -0.0043074586 0.07495268
-0.36866036 0.2667045 -0.048990425 -0.37362075 -0.180886 0.367304 -0.48233578 0.055942636
-0.010339696 -0.39829075 -0.66798556 -0.49906683 0.14125443 -0.25825068 -0.12709868 -0.18680115
0.05765 -0.23817728 -0.5474552 0.17904599 -0.049757786 0.6025652 -0.051862173 0.13217416
0.058644675 -0.033365607 -0.1151641 -0.03005696 -0.008343285 0.8653805 0.015272925 -0.67970324
0.038442653 -0.6858823 0.79776645 -0.4611939 0.23206891 -0.091816016 0.4558038 -0.13605566
0.026093516 -0.40830275 0.47754204 0.6141957 -0.45234624 -0.35494033 0.6185812 0.07387355
0.051248718 -0.15216796 0.4491026 -0.20933893 -0.1859506 0.7802151 0.111614704 -0.06513719
0.46619827 0.66701865 -0.008243448 0.039243 -0.14387794 0.31601775 -0.059715167 0.9554917
0.467027 -0.51619023 -0.13069367 0.32012382 0.6603332 0.12788092 -0.2421949 0.2700902
-0.17170486 0.074848026 0.12554495 -0.15867804 0.47433412 0.3412156 0.05645266 0.36467505
0.027075492 -0.43881157 0.1110944 -0.46835095 0.25337163 -0.028216239 -0.58773404 0.31426278
0.30154535 0.44789416 -0.39992777 -0.44819242 -0.02755847 -0.3542058 -0.27569723 -0.40145373
-0.016211722 -0.0491522 -0.8939911 3.3407818e-05 -0.10523628 0.0054482277 0.45835552 -0.103211164
-0.5146285 0.4363423 0.34944353 0.09552911 -0.13660243 0.47142193 0.32260293 -0.18932317
0.47456756 0.05671001 -0.4370096 -0.2025678 -0.16640945 -0.6048328 0.39173952 -0.13449836
-0.06862211 0.5328206 0.4779564 0.5212512 -0.064790145 0.11976475 -0.3310478 0.11034641
-0.66609377 0.087875575 -0.52887326 0.2557736 0.3084726 0.42423758 -0.3791988 0.21399951
0.3605659 -0.022806928 0.8227265 -0.31695342 -0.294864 -0.35287642 0.22880931 0.19727798
0.17670617 0.8554442 -0.6399895 0.092572466 0.5116766 0.35371804 0.20278984 0.0067745587
0.46640795 -0.18688297 0.14689904 -0.1634851 0.2794032 0.5571064 -0.26681614 0.4220131
0.00038476795 -0.079997756 0.90723795 -0.0703713 -0.015663704 0.0135790715 -0.47576225 0.05253894
0.6220172 -0.83349824 -0.7151777 0.013940594 0.1242026 0.21113956 0.0906314 0.10530362
00000000: c9b9 f9be 036e fc3e 3545 933e 3341 893c
00000010: f5f1 9cbe 21e5 febe 7b0a 68be 484f 19bd
00000020: 2d86 11bf 0c60 023d 2d2e b13d c5bc 25be
00000030: 8be6 d53e 345f 0abe 98c6 23bf 3853 8abe
00000040: bfdc 263f e7ba 24bf 9f9e e03d b5b0 a2bc
00000050: 6a41 f0bd e6db 4bbe d44d c13d 0c51 91be
00000060: 8fcf 8d3f 3613 573d 7437 efbc bc11 283c
00000070: 424c 473e 73fd d7bd ef9b bcbd 3f2f b1bc
00000080: 6ae4 3c3e ae43 003f 569a cabe e6af 76bd
00000090: 0fd4 293e c3af f63e 9c26 363e 86d3 1ebf
000000a0: 962b 2b3b 8c3b 3fbf 10fd dabe 0aa9 b33e
000000b0: bb26 febd 4b55 fe3c 5288 45bf 917d 913e
000000c0: 12a1 00bf 981e 19bf de11 01bf ddec fc39
000000d0: a098 823e 2c61 833e 03d3 e43d 61b4 a8bd
000000e0: 0715 82bf 9355 8abe 2d5e 6a3d 4ceb 87bd
000000f0: ca2e 083f ef29 b83e 48fc 7fbb abac 8abd
00000100: f0d5 8f3c fb99 103f 545f 01bf b73a 883e
00000110: ae03 17bd 2671 13be cd1f cc3e e048 143f
00000120: 396e 313f f18d dcba 9a3f 32bb 6454 d6bc
00000130: a628 e53e 7266 eebd 9525 8dbb ca80 993d
00000140: 0dc1 bcbe 7e8d 883e 2faa 48bd 384b bfbe
00000150: 2e3a 39be 450f bc3e b7f4 f6be 1b24 653d
00000160: d467 29bc c4ec cbbe 1a01 2bbf b085 ffbe
00000170: 00a5 103e 6f39 84be 2826 02be cd48 3fbe
00000180: 6822 6c3d bfe4 73be 0626 0cbf d557 373e
00000190: d2ce 4bbd b741 1a3f 6e6d 54bd aa58 073e
000001a0: 6635 703d 60aa 08bd 28db ebbd 043a f6bc
000001b0: 46b2 08bc 9489 5d3f 4a3b 7a3c 0801 2ebf
000001c0: 0b76 1d3d fb95 2fbf 6c3a 4c3f 9b21 ecbe
000001d0: 79a3 6d3e 090a bcbd 1e5f e93e 2d52 0bbe
000001e0: 12c2 d53c 0f0d d1be 6480 f43e ee3b 1d3f
000001f0: ed99 e7be bdba b5be 565b 1e3f 044b 973d
00000200: 2dea 513d ebd1 1bbe c7f0 e53e f25c 56be
00000210: d669 3ebe 2dbc 473f 4096 e43d a666 85bd
00000220: 8ab1 ee3e bcc1 2a3f 870f 07bc 45bd 203d
00000230: bd54 13be 14cd a13e e497 74bd 1b9b 743f
00000240: 2a1e ef3e 0b25 04bf 90d4 05be 45e7 a33e
00000250: 990b 293f 37f3 023e f101 78be 4349 8a3e
00000260: 66d3 2fbe ec49 993d db8e 003e 7f7c 22be
00000270: ecdb f23e d0b3 ae3e e83a 673d b0b6 ba3e
00000280: 6ccd dd3c e9ab e0be 7685 e33d b2cb efbe
00000290: edb9 813e be25 e7bc bd75 16bf 0de7 a03e
000002a0: 2764 9a3e 6252 e53e 55c3 ccbe 7a79 e5be
000002b0: 4dc2 e1bc 765a b5be 3028 8dbe 588b cdbe
000002c0: 72ce 84bc d153 49bd 9adc 64bf 5f1f 0c38
000002d0: 1e86 d7bd 0c87 b23b 93ad ea3e 6060 d3bd
000002e0: b2be 03bf 4268 df3e 43ea b23e c4a4 c33d
000002f0: 82e1 0bbe 375e f13e 362c a53e efdd 41be
00000300: 85fa f23e c148 683d b9bf dfbe ef6d 4fbe
00000310: 3d67 2abe 53d6 1abf 1592 c83e f0b9 09be
00000320: c089 8cbd ee66 083f b4b6 f43e b870 053f
00000330: b2b0 84bd 3947 f53d 197f a9be 4cfd e13d
00000340: 1f85 2abf 1cf8 b33d 3d64 07bf c2f4 823e
00000350: 1ff0 9d3e ab35 d93e 5826 c2be b022 5b3e
00000360: 189c b83e 98d5 babc 349e 523f b847 a2be
00000370: 6af8 96be 38ac b4be fd4c 6a3e 3d03 4a3e
00000380: 76f2 343e 64fe 5a3f 5ad6 23bf a296 bd3d
00000390: 3dfd 023f 881a b53e 24a8 4f3e 1efd dd3b
000003a0: 06cd ee3e 405e 3fbe b46c 163e a368 27be
000003b0: f00d 8f3e 869e 0e3f 209c 88be 1a12 d83e
000003c0: aeba c939 ddd5 a3bd bf40 683f d41e 90bd
000003d0: 2b51 80bc c17a 5e3c 1c97 f3be 1233 573d
000003e0: 853c 1f3f 2460 55bf e315 37bf 1767 643c
000003f0: ef5d fe3d f834 583e f59c b93d 6da9 d73d

fc1.bias f4 [64]
0.45971477 0.37826014 -0.30585358 -0.2079081 -0.04996013 0.38491616 -0.42098162 -0.032768663
0.3809097 0.4051842 -0.25731218 0.32506466 -0.49978966 0.13030078 0.46675998 0.31710774
-0.3065259 0.09027762 0.28092697 0.29395458 0.566644 -0.1274594 0.19144835 -0.5314639
0.23539448 0.4316663 0.5542303 -0.3506317 0.3408918 0.026945012 -0.64678365 -0.122366585
0.2934279 0.4244514 -0.08885685 -0.4088253 0.42075163 0.32588127 -0.23602 -0.57091916
0.071916595 -0.17401285 0.048547514 0.4599103 0.26966694 0.54474837 0.35107642 0.017632773
-0.48459584 -0.7613283 -0.2356015 0.12127317 0.21660234 0.38141093 -0.25285438 0.1848633
0.3988509 -0.3174335 -0.06597948 -0.3526636 0.5555709 0.32847568 -0.9873238 -0.18958814
00000000: bc5f eb3e 50ab c13e d798 9cbe dce5 54be
00000010: fea2 4cbd bb13 c53e e78a d7be 6f38 06bd
00000020: 9906 c33e 4e74 cf3e 6cbe 83be e06e a63e
00000030: 6ee4 ffbe 916d 053e 2afb ee3e f25b a23e
00000040: f6f0 9cbe 79e3 b83d a9d5 8f3e 3781 963e
00000050: 950f 113f b884 02be 090b 443e 050e 08bf
00000060: 400b 713e 5e03 dd3e 09e2 0d3f 0086 b3be
00000070: 5f89 ae3e c9bb dc3c 9d93 25bf 559b fabd
00000080: 2f3c 963e b251 d93e 95fa b5bd 8d51 d1be
00000090: c26c d73e e9d9 a63e 3aaf 71be c227 12bf
000000a0: 0249 933d 6d30 32be c2d9 463d 5d79 eb3e
000000b0: c911 8a3e a174 0b3f 4ac0 b33e 9b72 903c
000000c0: f21c f8be 69e6 42bf 8541 71be 115e f83d
000000d0: 01cd 5d3e 4b48 c33e 2176 81be ce4c 3d3e
000000e0: 2f36 cc3e a586 a2be 4020 87bd 5390 b4be
000000f0: e539 0e3f f72d a83e 41c1 7cbf 6523 42be

fc2.weight f4 [32, 64]
-0.24098274 0.059944723 -0.38677922 0.028651332 0.30932075 -0.2699146 -0.44275856 -0.09495248
0.08907526 0.23531508 0.24922992 0.30745074 -0.2818882 0.0525037 -0.08287249 0.16905162
-0.25208673 -0.13677144 -0.25610372 0.102859154 -0.020693885 0.039622884 0.12467392 -0.13723937
-0.35165417 0.086979955 0.06139307 0.003302823 0.18334688 -0.06268275 -0.023127202 -0.023368152
-0.16801114 -0.2848175 -0.056804344 -0.41905612 -0.37860322 0.056293257 -0.11517362 0.36784303
0.1809737 0.24205934 -0.13653588 0.15293343 0.17080478 -0.03944023 0.14414226 -0.23408826
0.55531836 -0.37930194 0.21319927 -0.27956283 -0.13833709 -0.044464216 0.24050447 0.20306401
0.2365672 0.23014234 0.39682144 -0.26240543 0.03766062 0.12651747 0.4818292 0.5145258
-0.37718242 -0.43951958 0.19308971 0.17244586 0.122308806 -0.018293915 0.34779304 0.2593679
0.46077898 -0.0023003637 0.47085074 -0.1504176 -0.30344015 0.34811702 0.26068687 -0.7271733
0.3160444 0.19776782 -0.16752493 -0.34575918 -0.8730319 0.06561938 -0.12547131 -0.39114615
-0.56810063 -0.34095287 -0.6662132 0.4600679 0.3881989 -0.6678481 -0.09835531 -0.26834574
0.035951912 0.12157236 0.067103356 0.31719106 -0.35588697 0.24783368 -0.5661459 0.24384795
-0.13517846 0.17694223 -0.28389543 0.08697525 0.31156605 0.14562652 0.1390306 -0.11624499
0.10575159 0.1367194 0.07715938 0.5973524 -0.17787969 0.42356783 0.02778476 0.60720325
-0.11659013 0.07930386 -0.0770503 0.105481595 -0.37727457 0.10313012 -0.08571531 0.24043837
0.40722322 0.24406481 -0.4078235 0.26184982 -0.22655307 0.4047296 0.10074597 0.13949388
0.027642585 -0.38743043 0.24495077 -0.058618017 -0.14124177 0.22426663 -0.17908603 -0.07771488
0.04937427 0.04888029 -0.14518414 0.1457588 0.20277254 0.1310211 -0.6358821 0.29884806
0.6402469 -0.03974505 0.0053674662 -0.07400201 0.08247683 -0.09730126 -1.5976979 0.20527525
0.03812924 -0.38135916 -0.23829365 0.21996449 0.14724015 -0.08475534 0.12325498 -0.31197086
-0.179634 -0.027242227 -0.42357028 0.12642975 0.04229967 -0.10936335 0.018028796 0.111185916
-0.11570755 0.07083969 0.018203372 0.15134208 0.2017092 -0.035212845 0.08700626 0.0072377766
-0.1145267 0.3343572 0.07311418 0.2342109 -0.07859481 -0.1783651 0.8536173 0.09532718
-0.039862964 0.019198403 0.049263205 0.19297746 0.2520343 0.58700246 -0.21274062 0.08480025
0.34947205 -0.2875452 -0.2815036 -0.5513256 -0.40055743 0.37402207 0.30203423 -0.29477295
0.17001097 0.016633062 -0.33188102 -0.13637465 -0.3397665 0.16068111 0.019754538 -0.9655152
-0.6406133 -0.42146215 -0.24188142 0.20160167 0.37833908 -0.23565279 0.5919602 -0.27939013
-0.33052382 -0.03647212 0.100661315 -0.18204637 -0.17948262 0.4517096 -0.057501823 0.14156203
-0.061447598 0.5656485 -0.00055881194 -0.0042420384 0.45675933 0.17851123 0.08793156 -0.31204602
0.21500055 -0.20559691 -0.40449944 0.12020611 0.039719734 -0.37887236 -0.087558515 0.46796334
0.028611684 0.095025375 -0.14862782 -0.0076952134 -0.5408877 -0.15350287 0.13726054 -0.2951461
00000000: 2ec4 76be 9988 753d ed07 c6be 33b6 ea3c
00000010: 4a5f 9e3e 3f32 8abe 40b1 e2be 7276 c2bd
00000020: 176d b63d 70f6 703e 2136 7f3e 2f6a 9d3e
00000030: a653 90be 1f0e 573d 0db9 a9bd de1b 2d3e
00000040: 8311 81be d00d 0cbe 0720 83be d2a7 d23d
00000050: 3986 a9bc 9b4b 223d 0a55 ff3d 7a88 0cbe
00000060: 040c b4be 8c22 b23d 4d77 7b3d 2d74 583b
00000070: 49bf 3b3e d05f 80bd 4275 bdbc 916e bfbc
00000080: 1d0b 2cbe 99d3 91be acab 68bd 868e d6be
00000090: 48d8 c1be c293 663d 26e0 ebbd ec55 bc3e
000000a0: 2b51 393e 67de 773e 10d0 0bbe 959a 1c3e
000000b0: 73e7 2e3e 148c 21bd 079a 133e d5b4 6fbe
000000c0: 5829 0e3f dd33 c2be e950 5a3e dc22 8fbe
000000d0: 3da8 0dbe 1c20 36bd ce46 763e 03f0 4f3e
000000e0: ac3e 723e 6faa 6b3e 2e2c cb3e 015a 86be
000000f0: 0642 1a3d cc8d 013e 51b2 f63e f6b7 033f
00000100: 0e1e c1be b608 e1be 4fb9 453e a695 303e
00000110: 0a7d fa3d 1fdd 95bc ee11 b23e dfcb 843e
00000120: 39eb eb3e b3c1 16bb 5913 f13e 1207 1abe
00000130: 825c 9bbe 653c b23e c078 853e 0828 3abf
00000140: 92d0 a13e a683 4a3e a88b 2bbe 5907 b1be
00000150: 057f 5fbf 7463 863d 8d7b 00be 4f44 c8be
00000160: 0b6f 11bf 6091 aebe f38c 2abf 058e eb3e
00000170: 02c2 c63e 18f8 2abf 826e c9bd 9d64 89be
00000180: 5042 133d eefa f83d 7c6d 893d de66 a23e
00000190: d136 b6be 1dc8 7d3e f0ee 10bf 47b3 793e
000001a0: 396c 0abe 5830 353e be5a 91be 1420 b23d
000001b0: 9685 9f3e 1e1f 153e 0a5e 0e3e da11 eebd
000001c0: 4a94 d83d 2c00 0c3e bd05 9e3d 16ec 183f
000001d0: 1826 36be e2dd d83e dd9c e33c ac71 1b3f
000001e0: cec6 eebd 106a a23d 8ccc 9dbd bc06 d83d
000001f0: 222a c1be e235 d33d 828b afbd 7a35 763e
00000200: 907f d03e 20ec 793e 3ece d0be 2e11 863e
00000210: 87fd 67be b838 cf3e e753 ce3d 7cd7 0e3e
00000220: b472 e23c 485d c6be 60d4 7a3e 7219 70bd
00000230: afa1 10be 27a6 653e 5462 37be fb28 9fbd
00000240: ad3c 4a3d b336 483d 27ab 14be cb41 153e
00000250: 9ba3 4f3e 652a 063e 2bc9 22bf 9d02 993e
00000260: 39e7 233f b5cb 22bd 92e1 af3b 5e8e 97bd
00000270: 9de9 a83d e245 c7bd 5d81 ccbf ad33 523e
00000280: 682d 1c3d 8241 c3be 4003 74be 5f3e 613e
00000290: 1fc6 163e 3594 adbd 1b6d fc3d a5ba 9fbe
000002a0: faf1 37be 172b dfbc 34de d8be cd76 013e
000002b0: 6b42 2d3d e4f9 dfbd 20b1 933c 71b5 e33d
000002c0: 14f8 ecbd 6614 913d 3d1f 953c 6bf9 1a3e
000002d0: db8c 4e3e 583b 10bd 5730 b23d df2a ed3b
000002e0: f98c eabd de30 ab3e e3bc 953d fbd4 6f3e
000002f0: 51f6 a0bd 57a5 36be aa86 5a3f e63a c33d
00000300: 5947 23bd f845 9d3c 37c8 493d e29b 453e
00000310: a40a 813e cb45 163f add8 59be c1ab ad3d
00000320: 00ee b23e 2039 93be 3d21 90be ad23 0dbf
00000330: dd15 cdbe d27f bf3e 3ba4 9a3e 7bec 96be
00000340: 5b17 2e3e 0f42 883c 4fec a9be cca5 0bbe
00000350: e0f5 adbe 9789 243e 45d4 a13c 012c 77bf
00000360: 3cff 23bf e3c9 d7be c3af 77be ab70 4e3e
00000370: a9b5 c13e f74e 71be b48a 173f 390c 8fbe
00000380: 6b3a a9be ca63 15bd 8527 ce3d 5d6a 3abe
00000390: 4bca 37be 7b46 e73e 0887 6bbd a3f5 103e
000003a0: 7ab0 7bbd 57ce 103f 3c7d 12ba cc00 8bbb
000003b0: 5cdc e93e a6cb 363e 7615 b43d 7fc4 9fbe
000003c0: 1b29 5c3e ff87 52be 8d1a cfbe 9f2e f63d
000003d0: 29b1 223d 8ffb c1be e151 b3bd e498 ef3e
000003e0: 0d63 ea3c aa9c c23d e431 18be 2128 fcbb
000003f0: 9e77 0abf db2f 1dbe 078e 0c3e 641d 97be

fc2.bias f4 [32]
0.18396728 0.06795699 0.038197946 0.13755815 -0.052880187 0.005230105 -0.04959343 0.20968217
-0.021987034 0.1360911 -0.08845543 -0.2261593 -0.028850894 -0.07686594 0.12871282 0.26551682
-0.0584089 0.054880653 -0.107808284 0.03137984 -0.10878224 -0.18530026 0.25188696 0.009968554
0.11592687 0.12699902 0.21967573 -0.053541712 -0.039207976 -0.12450916 0.16406284 -0.08884735
00000000: eb61 3c3e 092d 8b3d 7375 1c3d 0bdc 0c3e
00000010: e598 58bd 4d61 ab3b 7b22 4bbd ecb6 563e
00000020: 271e b4bc 775b 0b3e 1f28 b5bd 4e96 67be
00000030: b658 ecbc e46b 9dbd 4bcd 033e d2f1 873e
00000040: 2c3e 6fbd 89ca 603d 97ca dcbd 2688 003d
00000050: 39c9 debd 5abf 3dbe 54f7 803e 2553 233c
00000060: 116b ed3d 080c 023e adf2 603e 8e4e 5bbd
00000070: 8b98 20bd a9fe febd 1700 283e 99f5 b5bd

fc3.weight f4 [3, 32]
-0.48395684 1.1765473 -0.95588803 0.90726477 -0.08183499 0.7898952 0.93849325 0.5290401
-0.059817754 1.1541904 -0.111533314 -0.039725136 0.9943901 0.9029035 -0.989478 -0.45378727
0.9340894 0.24370043 -0.11126331 0.99365664 0.5701674 -0.5247837 -1.0062633 3.3387866
-0.8488571 0.93576217 -0.4426489 -0.47215915 -0.7083582 -0.20151378 0.8792709 -0.047534112
0.012206176 2.4392362 0.07593892 1.8368351 -0.09473858 0.11315402 0.006156603 -0.11369662
-0.21363066 0.030357849 0.040958364 1.3623208 0.08638249 0.9863067 -0.031613223 -0.050553933
0.28900802 2.3538191 -0.050201766 0.04466225 2.346337 -0.040896967 -0.038535547 0.68182224
0.1034987 0.12501617 -0.20903607 2.183498 0.015887925 2.4228017 0.019179856 0.08737104
-0.5424092 -3.1838908 0.03769132 0.35695666 -0.079268284 0.49267864 0.14639269 -0.32542282
0.6273182 -1.40875 -0.08153017 -0.004488877 0.14731555 0.31514704 0.078598365 -0.5609119
-1.0089085 -0.12842621 -0.103173316 -0.0048570116 0.08403993 0.89345556 -0.46053702 -0.9897416
-0.2517212 0.050264083 0.5608995 -0.35902125 0.3306478 -0.21238232 0.23267628 0.0035247218
00000000: 31c9 f7be 1a99 963f 14b5 74bf 8142 683f
00000010: 1a99 a7bd 9236 4a3f 1841 703f 2c6f 073f
00000020: 7603 75bd 83bc 933f 946b e4bd d3b6 22bd
00000030: 5990 7e3f af24 673f 6e4e 7dbf ce56 e8be
00000040: 7c20 6f3f 9b8c 793e 05de e3bd 4860 7e3f
00000050: 7ef6 113f 3958 06bf 3ccd 80bf aeae 5540
00000060: b34e 59bf 1c8e 6f3f e0a2 e2be d8be f1be
00000070: f756 35bf a159 4ebe e617 613f 21b3 42bd
00000080: 6afc 473c 721c 1c40 dd85 9b3d 6a1d eb3f
00000090: 4d06 c2bd 4bbd e73d 54bd c93b c6d9 e8bd
000000a0: ffc1 5abe 06b1 f83c f5c3 273d 8760 ae3f
000000b0: 4ee9 b03d 997e 7c3f de7c 01bd a411 4fbd
000000c0: dcf8 933e f9a4 1640 5ea0 4dbd c3ef 363d
000000d0: 632a 1640 9483 27bd 73d7 1dbd e78b 2e3f
000000e0: 20f7 d33d 3d04 003e 8d0d 56be 6ebe 0b40
000000f0: 6527 823c 2f0f 1b40 131f 9d3c 96ef b23d
00000100: 54db 0abf dec4 4bc0 3762 1a3d 06c3 b63e
00000110: 6957 a2bd 6040 fc3e f7e7 153e d29d a6be
00000120: ed97 203f ec51 b4bf 4af9 a6bd 6e17 93bb
00000130: e3d9 163e f45a a13e 2ef8 a03d ec97 0fbf
00000140: ea23 81bf 2982 03be 884c d3bd 9127 9fbb
00000150: 201d ac3d 81b9 643f 82cb ebbe b55f 7dbf
00000160: 9ae1 80be b6e1 4d3d 1c97 0f3f a2d1 b7be
00000170: ab4a a93e c07a 59be b142 6e3e 05ff 663b

fc3.bias f4 [3]
0.009648711 -0.1069061 -0.27323484
00000000: a115 1e3c 96f1 dabd 70e5 8bbe

exp_avg f4 [64, 8]
-0.0043376586 -0.0011133845 0.00488465 -0.0059585194 0.011169723 -0.0034152013 0.004139458 0.0037507159
-0.0038116032 -0.0017736068 0.0032241128 -0.0023190305 0.0048678787 -0.006396167 0.0022705123 0.003098499
0.00025256022 -0.0015892712 -0.00071830617 0.00042216468 0.0013873964 -0.0021226078 0.0015040137 -0.00064726116
-0.008743356 0.010591174 0.0072662514 0.00360584 -0.0060413936 0.015591594 0.005786022 -0.004510043
-0.0019193515 -0.0013875182 0.000505109 0.0012783479 -0.0053068604 0.003086004 -0.0031524817 -0.0039767623
0.004025003 -0.009889581 -0.0065614553 -0.002824328 0.001724257 -0.002894071 -0.0032070724 0.0014949691
0.00340694 0.0005225142 0.003075993 -0.00061856257 0.0043788566 -0.00317559 0.0021159924 0.0022332144
0.0011855848 0.00044135534 -0.00176521 0.00017638551 0.001599118 0.00011028819 0.0011819997 -0.001038607
0.0026541 0.0013205146 -0.0073363152 0.0037589325 -0.007734619 0.0018087899 -0.0032542548 -0.0030938997
0.0033171438 -0.0052122 9.167785e-05 -0.0018162029 0.0055906656 -0.005200313 -0.001114521 0.003987465
0.0023642296 0.005913768 -0.0001850126 -0.0029626854 0.0015354245 0.00023699674 0.0002910678 -0.0015111697
0.00017735682 0.00454239 0.0060377256 -0.0049428497 0.003484504 -0.0010215935 0.0044058696 0.0018353419
0.0027342348 -0.0031757748 -0.0005997798 -0.0022276135 -0.0008484545 0.0019591316 0.00024462785 -0.0037679754
-0.0021139719 0.00010499206 -0.0026297718 0.0020062304 -0.009697424 0.0033226926 -0.00087078556 -0.004786826
0.000423577 0.00092744187 0.00082827895 0.00031719572 0.0013901079 0.0013792695 -0.0008278641 -0.00277482
-0.00096612144 -0.004612882 0.001205894 -0.000596094 0.0017996725 -0.0049168435 -0.0018772795 0.0054332074
-0.002408353 0.0018547229 -0.0039940523 0.0010951379 -0.006238039 0.0033987223 -0.002901649 -0.002785499
0.00038783863 0.0055936 -0.003225571 -0.0015425453 -0.00036811145 -0.0010799153 0.0007710676 -0.00079282327
-0.0025589683 -0.0016816248 0.0001114365 -0.0026706771 0.0033273897 -0.0029183375 0.0010357588 0.0021181207
-0.0014818782 -0.0006532154 -0.00011942268 0.000875608 0.0043189186 -0.00033047373 -0.0016533753 0.00051018794
-0.004553472 -0.013195489 0.0080887955 -0.00068563095 0.0034498703 -0.0023634739 0.0030391389 0.0019349554
-0.0023972532 0.0072790976 0.0011595825 -0.0007532041 -0.0021489686 -0.000453704 0.00028017032 0.00043677542
0.0030334736 -0.010220871 -0.0030158737 -0.0011573441 -0.0026978252 -0.001710875 0.0023422912 -0.0016272716
-0.0005627024 0.00015399455 0.0016829172 0.0018078998 0.0014209646 -0.00082102924 -0.0010785678 0.001847988
-0.0002754494 -0.010270121 0.006338441 -0.0028413585 0.005727225 -0.0019685407 0.003771403 0.00042177917
0.0014198597 0.00038823995 0.0013584225 -0.003351425 0.0057550813 -5.5730805e-05 0.0047459365 0.0004601209
-0.00727096 -0.0073049725 0.0076776687 -0.0015272156 0.0074526155 -0.0037794975 0.0041244505 0.0011447973
-0.002255292 0.003906339 -0.0009890221 -0.0029494911 -0.002381414 0.0037990431 -0.0028713935 -0.0036891198
4.4107775e-05 0.0037188733 -0.005448776 0.0005660421 -0.003824766 -0.0011892924 -0.004467085 -0.0032055143
-0.005729455 -0.0033200781 0.003173802 -0.00013509442 -0.002858287 -0.0001402026 0.0028183295 0.0007109071
0.0022666836 -0.0025192937 0.007990493 0.002853497 0.0028744657 -0.010539791 -0.008922953 -8.434728e-05
-0.0022515343 0.0041788216 0.004078524 -0.0023055763 0.005424079 -0.002391203 0.0025871282 0.002236883
00000000: eb22 8ebb fcee 91ba 6a0f a03b af3f c3bb
00000010: 3701 373c 92d1 5fbb 4aa4 873b 92ce 753b
00000020: 17cc 79bb 5e78 e8ba a34b 533b e0fa 17bb
00000030: ba82 9f3b f096 d1bb e0cc 143b 3010 4b3b
00000040: 0f6a 8439 184f d0ba b64c 3cba fc55 dd39
00000050: 4cd9 b53a 731b 0bbb 5322 c53a f6ac 29ba
00000060: 4b40 0fbc 9a86 2d3c bc19 ee3b f54f 6c3b
00000070: e2f6 c5bb e373 7f3c ac98 bd3b fcc8 93bb
00000080: c092 fbba 63dd b5ba 4b69 043a 3d8e a73a
00000090: 2ce5 adbb 8e3e 4a3b de99 4ebb 804f 82bb
000000a0: 2ce4 833b e907 22bc 7a01 d7bb 5c18 39bb
000000b0: 7700 e23a 74aa 3dbb bf2d 52bb d7f2 c33a
000000c0: f846 5f3b 56f9 083a 9996 493b 0827 22ba
000000d0: 837c 8f3b 8f1d 50bb 76ac 0a3b 1f5b 123b
000000e0: a065 9b3a b665 e739 9e5e e7ba 20f4 3839
000000f0: 7f99 d13a 854a e738 54ed 9a3a de21 88ba
00000100: 69f0 2d3b 1e15 ad3a 7965 f0bb 6c58 763b
00000110: b072 fdbb eb14 ed3a 5645 55bb 06c3 4abb
00000120: 7064 593b 1acb aabb 2c43 c038 a80d eeba
00000130: e731 b73b 6367 aabb 1e15 92ba 48a9 823b
00000140: 31f1 1a3b 48c8 c13b f1ff 41b9 9d29 42bb
00000150: 4c40 c93a 5482 7839 759a 9839 7112 c6ba
00000160: dcf8 3939 54d8 943b 1dd8 c53b a1f7 a1bb
00000170: 475c 643b fde6 85ba 1d5f 903b db8f f03a
00000180: d930 333b a920 50bb 8b3a 1dba 27fd 11bb
00000190: d16a 5eba c664 003b 6541 8039 23f0 76bb
000001a0: 908a 0abb 2f2f dc38 4058 2cbb f67a 033b
000001b0: f2e1 1ebc 88c1 593b 6e45 64ba cfda 9cbb
000001c0: 8b13 de39 921f 733a dc20 593a 4a4d a639
000001d0: 4834 b63a 9bc8 b43a 0505 59ba c1d9 35bb
000001e0: 5043 7dba a927 97bb 170f 9e3a 3143 1cba
000001f0: fde2 eb3a 791d a1bb 0c0f f6ba 0c09 b23b
00000200: 75d5 1dbb 2c1a f33a 8ae0 82bb bb8a 8f3a
00000210: 7768 ccbb 19bd 5e3b 9829 3ebb eb8c 36bb
00000220: d256 cb39 854a b73b 1a64 53bb 3b2f caba
00000230: 15ff c0b9 f28b 8dba 7921 4a3a 78d5 4fba
00000240: 5db4 27bb f769 dcba 04b3 e938 8706 2fbb
00000250: 5610 5a3b 9441 3fbb 4cc2 873a 2bd0 0a3b
00000260: 953b c2ba 8b3c 2bba 9072 fab8 0f89 653a
00000270: b785 8d3b 6f43 adb9 12b6 d8ba 22be 053a
00000280: 4b35 95bb e431 58bc de86 043c eabb 33ba
00000290: 3817 623b 83e4 1abb 4a2c 473b 549e fd3a
000002a0: 3c1b 1dbb 7f85 ee3b 22fd 973a ac72 45ba
000002b0: b6d5 0cbb 1fdf edb9 d3e3 9239 01ff e439
000002c0: 3ecd 463b 7175 27bc f7a5 45bb 06b2 97ba
000002d0: ffcd 30bb 703f e0ba 2081 193b 2d4a d5ba
000002e0: 5282 13ba 9979 2139 5595 dc3a 0df7 ec3a
000002f0: a93f ba3a 573a 57ba bb5e 8dba 3038 f23a
00000300: 316a 90b9 0244 28bc b2b2 cf3b 1636 3abb
00000310: 72ab bb3b a202 01bb a529 773b 3e22 dd39
00000320: 961a ba3a af8c cb39 180d b23a 95a3 5bbb
00000330: 1f95 bc3b 7fc0 69b8 cd83 9b3b 623c f139
00000340: 3c41 eebb 8d5e efbb f494 fb3b da2c c8ba
00000350: 1235 f43b 72b1 77bb 6626 873b 060d 963a
00000360: 85cd 13bb bf00 803b 13a2 81ba 404c 41bb
00000370: 7f11 1cbb 5ef9 783b fd2d 3cbb 29c5 71bb
00000380: 5d00 3938 57b8 733b a58b b2bb 7162 143a
00000390: eda8 7abb 08e2 9bba a060 92bb 9b13 52bb
000003a0: 27be bbbb ab95 59bb 90ff 4f3b 22a8 0db9
000003b0: 1952 3bbb 5903 13b9 b9b3 383b 2b5c 3a3a
000003c0: a48c 143b bc1a 25bb 8fea 023c bc01 3b3b
000003d0: 8861 3c3b 16af 2cbc 9431 12bc 9ae3 b0b8
000003e0: 7a8e 13bb 7fee 883b 24a5 853b 2719 17bb
000003f0: 79bc b13b bbb5 1cbb cf8c 293b ab98 123b

exp_avg_sq f4 [64, 8]
0.0004670048 0.00055954227 0.0004756361 0.0004372081 0.00055177155 0.0004685659 0.00041050487 0.00044469378
0.0002413701 0.00023212553 0.00023329708 0.00021739377 0.00026528919 0.00027557163 0.00022560927 0.00022137297
8.321198e-05 8.923871e-05 6.979433e-05 6.7133005e-05 6.671908e-05 6.8641195e-05 6.21994e-05 6.7508176e-05
0.00061391783 0.0004285554 0.00026795358 0.0002645497 0.00044924032 0.0002967923 0.00034103513 0.00026388117
0.00014123347 0.00011888789 0.0001567332 0.00014037416 0.00014392842 0.00019168231 0.00011334432 0.0001314089
0.00038611033 0.00059290446 0.000537657 0.00042193124 0.00040343133 0.0003496966 0.0003623851 0.00029724318
0.00021349122 0.00020487542 0.00027035925 0.00022094707 0.0002555801 0.00030214753 0.00016516104 0.00019221863
0.00014541464 9.3838345e-05 7.5862554e-05 8.292165e-05 0.00013486529 7.9141035e-05 8.934442e-05 7.1089e-05
0.00036836808 0.00048268415 0.00044362096 0.00038545026 0.00033955523 0.00030170032 0.0002809652 0.000352197
0.00014835614 0.00018538827 0.00014292587 0.00012784655 0.00020797447 0.00014587848 0.00015787012 0.00015056286
0.00012978955 0.00012527092 0.00012728671 0.00012906239 0.0001314524 0.00014846658 0.00012957193 9.7744734e-05
0.0004182928 0.00046049975 0.00059991656 0.000466171 0.00044330434 0.00046489155 0.00033473645 0.00042908848
0.00018036073 0.00013777455 0.0002697851 0.00019016874 0.00016923036 0.0002867916 0.00017906936 0.00013445823
0.0003292268 0.00032061178 0.0003687882 0.00035239768 0.00034624693 0.00043436032 0.00026106965 0.00028215192
9.408473e-05 9.6535616e-05 9.802952e-05 0.00010466556 8.304732e-05 8.5393105e-05 8.1330465e-05 7.031843e-05
0.00024570563 0.0003510674 0.00028345248 0.00027343142 0.00028706284 0.00019970955 0.00021047067 0.00022838883
0.00017886002 0.00015807526 0.00018579098 0.00020084609 0.00019125584 0.00025432743 0.00016363506 0.00016333892
0.0001073329 0.00013429146 0.000118700416 0.00013606003 0.00011082006 9.3371695e-05 0.00011485581 9.192985e-05
0.00017337738 0.00015611181 0.00014692919 0.00015576594 0.00013856169 0.00013433304 0.0001157885 0.00011611344
0.00015269736 0.0001574541 0.00013588023 0.00013384568 0.00011977675 0.00011488931 0.00011266284 0.00012533557
0.00038256604 0.00049904943 0.00044904352 0.00040370505 0.0004325804 0.00029887134 0.00026782654 0.0003649394
0.00010939549 0.000146668 0.0001286236 0.00015922583 0.00013981992 0.0001284924 0.00014702634 0.000102659025
0.0002786494 0.00035955687 0.0005137085 0.00028873442 0.00029480687 0.00026857818 0.00027964584 0.00026006234
0.00021321366 0.00016326913 0.00015786923 0.0001651131 0.0001423297 0.00018492555 0.00016521549 0.00015805782
0.00039523965 0.00057170563 0.00048103055 0.0003971316 0.00038258993 0.00025365668 0.00032024668 0.0003233887
0.00040165242 0.00051885354 0.00050947367 0.00039295873 0.00041119687 0.00036778278 0.0003220623 0.00041836832
0.00042134325 0.00045585338 0.00048028206 0.00039363414 0.00040732155 0.00041497662 0.0003236013 0.00034083342
0.00018113255 0.0002616616 0.00027672554 0.00021752084 0.00020077756 0.0001406932 0.00013490074 0.00017758278
0.00015872711 0.00019036245 0.00020703764 0.00015615374 0.0001724111 0.00018502166 0.00013469212 0.00013047787
0.00016636454 0.00018813465 0.00018856594 0.00017648916 0.00022327961 0.00022174774 0.00015712148 0.00017066639
0.0005434792 0.00062465033 0.0012434606 0.0005401977 0.00056019996 0.0005525614 0.00064351916 0.0004894586
0.00026687182 0.00030225096 0.00031159376 0.00024106773 0.00021645968 0.00021881003 0.0001751004 0.00020113787
00000000: 53d8 f439 3fae 123a cc5e f939 1439 e539
00000010: c3a4 103a daa9 f539 0839 d739 ca25 e939
00000020: 4b18 7d39 b966 7339 35a1 7439 32f4 6339
00000030: 8316 8b39 997a 9039 8791 6c39 5b20 6839
00000040: 1782 ae38 ab25 bb38 8c5e 9238 c2c9 8c38
00000050: 89eb 8b38 76f3 8f38 0c71 8238 2d93 8d38
00000060: 54ef 203a bbaf e039 1f7c 8c39 42b3 8a39
00000070: 0488 eb39 ca9a 9b39 f6cc b239 8859 8a39
00000080: 1218 1439 7353 f938 bf58 2439 6731 1339
00000090: 7eeb 1639 54fe 4839 45b3 ed38 cfca 0939
000000a0: da6e ca39 256d 1b3a 8df1 0c3a a736 dd39
000000b0: a383 d339 7c57 b739 81fe bd39 4ed7 9b39
000000c0: 9ddc 5f39 d4d3 5639 01bf 8d39 07ae 6739
000000d0: 61ff 8539 8e69 9e39 142f 2d39 4c8e 4939
000000e0: 727a 1839 14cb c438 6618 9f38 39e6 ad38
000000f0: a06a 0d39 85f8 a538 6c5e bb38 9e15 9538
00000100: 8721 c139 c510 fd39 cc95 e839 4216 ca39
00000110: 5506 b239 882d 9e39 834e 9339 15a7 b839
00000120: 0c90 1b39 c964 4239 5fde 1539 8c0e 0639
00000130: b913 5a39 f5f6 1839 f089 2539 69e0 1d39
00000140: 1e18 0839 285b 0339 4478 0539 ec54 0739
00000150: 7cd6 0939 b2ad 1b39 b3dd 0739 4efc cc38
00000160: 4f4e db39 3b6f f139 b843 1d3a 6a68 f439
00000170: 4d6b e839 b0bc f339 917f af39 48f7 e039
00000180: 371f 3d39 9377 1039 f171 8d39 0868 4739
00000190: 6e73 3139 845c 9639 91c4 3b39 5bfd 0c39
000001a0: 139c ac39 c917 a839 ea59 c139 04c2 b839
000001b0: 7a88 b539 dbba e339 2de0 8839 caed 9339
000001c0: 5b4f c538 2a73 ca38 3395 cd38 e57f db38
000001d0: b129 ae38 1315 b338 f68f aa38 eb77 9338
000001e0: 0dd2 8039 780f b839 599c 9439 585b 8f39
000001f0: ec80 9639 2069 5139 cab1 5c39 a97b 6f39
00000200: 5f8c 3b39 01c1 2539 e3d0 4239 369a 5239
00000210: d98b 4839 4057 8539 7495 2b39 f545 2b39
00000220: e917 e138 97d0 0c39 cdee f838 56ab 0e39
00000230: 1168 e838 8cd0 c338 bede f038 76ca c038
00000240: a3cc 3539 f2b1 2339 0111 1a39 1a55 2339
00000250: df4a 1139 c0db 0c39 7ad3 f238 ee81 f338
00000260: 631d 2039 431a 2539 127b 0e39 ed58 0c39
00000270: a730 fb38 bbf0 f038 6745 ec38 836c 0339
00000280: 2593 c839 a4d2 023a 9a6d eb39 60a8 d339
00000290: f5cb e239 d5b1 9c39 126b 8c39 5655 bf39
000002a0: 426b e538 e4ca 1939 22df 0639 dcf5 2639
000002b0: a09c 1239 eabb 0639 152b 1a39 a54a d738
000002c0: b017 9239 e882 bc39 65aa 063a 4761 9739
000002d0: 4f90 9a39 f4cf 8c39 6e9d 9239 fa58 8839
000002e0: 1b92 5f39 3933 2b39 b389 2539 3622 2d39
000002f0: 573e 1539 93e8 4139 b23d 2d39 53bc 2539
00000300: 2b38 cf39 84de 153a d432 fc39 1a36 d039
00000310: 5a96 c839 39fd 8439 c8e6 a739 7f8c a939
00000320: e094 d239 ac03 083a 338e 053a 0706 ce39
00000330: e995 d739 f8d2 c039 78da a839 7258 db39
00000340: bce7 dc39 9bff ee39 5ece fb39 ae60 ce39
00000350: c68d d539 3891 d939 08a9 a939 e3b1 b239
00000360: 66ee 3d39 a02f 8939 7915 9139 4e16 6439
00000370: d187 5239 0b87 1339 2474 0d39 8435 3a39
00000380: fc6f 2639 089c 4739 3e18 5939 33bd 2339
00000390: 41c9 3439 6002 4239 243c 0d39 e3d0 0839
000003a0: 2472 2e39 0346 4539 c9b9 4539 f30f 3939
000003b0: 2a20 6a39 f584 6839 fac0 2439 e9f4 3239
000003c0: 4678 0e3a 93bf 233a 9dfb a23a 0e9c 0d3a
000003d0: 62da 123a c5d9 103a d7b1 283a 034f 003a
000003e0: eeea 8b39 7077 9e39 685d a339 20c7 7c39
000003f0: 74f9 6239 5f70 6539 289b 3739 89e8 5239

exp_avg f4 [64]
-0.014170827 -0.0033219405 0.0019417655 -0.011588586 0.00031302788 0.006951913 -0.006124711 -0.001216836
0.0052122804 0.0021063108 0.0028986952 -0.0019737422 0.0022329101 0.005385159 0.0002613169 0.0032052258
0.0010460449 -4.43553e-05 -0.0035200946 -0.0018051008 -0.002066594 0.00095325767 0.003800438 0.001563089
-0.0038038772 -0.0023534978 -0.0071802037 -0.0020134556 0.0061254883 -0.0022442327 0.013727455 -0.009635076
-0.0051003774 -0.005237842 0.0021747628 0.00013674182 -0.004317028 0.0040760054 -0.0041784146 0.003960023
0.005420328 -0.0028135944 -0.0024121418 -0.00590889 0.005430337 -0.00083911524 0.0039056027 -0.0042614783
-0.005106535 -0.0025975157 -0.0011164421 0.0006133315 -0.0042100404 0.0026326964 0.0044659814 0.0043550218
0.007899864 0.0020782547 -0.0028761697 -0.0051563694 -0.0009560997 -0.004433221 0.0023460537 0.0045904
00000000: c22c 68bc eab4 59bb d782 fe3a 0dde 3dbc
00000010: e41d a439 dfcc e33b cdb1 c8bb 3e7e 9fba
00000020: c7cb aa3b 080a 0a3b 09f8 3d3b e659 01bb
00000030: 0456 123b fd75 b03b 5c01 8939 c40e 523b
00000040: 711b 893a 240a 3ab8 63b1 66bb 2299 ecba
00000050: b26f 07bb 0ae4 793a c510 793b 90e0 cc3a
00000060: 784a 79bb 243d 1abb ea47 ebbb 2ef4 03bb
00000070: 52b8 c83b fa13 13bb 1fe9 603c 70dc 1dbc
00000080: 1121 a7bb 34a2 abbb 7786 0e3b 5a62 0f39
00000090: db75 8dbb 0390 853b 15eb 88bb 15c3 813b
000000a0: 029d b13b 4864 38bb 0615 1ebb 5d9f c1bb
000000b0: f8f0 b13b 12f8 5bba 24f5 7f3b dfa3 8bbb
000000c0: b854 a7bb 153b 2abb 9555 92ba fbc7 203a
000000d0: 61f4 89bb 5189 2c3b 5e57 923b 92b4 8e3b
000000e0: 6e6e 013c 5433 083b 1f7e 3cbb c3f6 a8bb
000000f0: c4a2 7aba 8e44 91bb 40c0 193b 116b 963b

exp_avg_sq f4 [64]
0.0012502879 0.00062326196 0.00017297841 0.0012635633 0.00036983308 0.0014253177 0.00061056734 0.00036198462
0.0009504649 0.00059112126 0.00034612574 0.0012782225 0.0005146083 0.000926462 0.00021065224 0.000638418
0.0004935974 0.00030293566 0.00034637089 0.00032727726 0.00094989146 0.00039974993 0.0012300268 0.00038918387
0.00093535706 0.0011833302 0.0011525819 0.00045976514 0.000488222 0.00047049238 0.0021388612 0.0005893148
0.0010484334 0.00015014225 0.0002302992 0.0020596497 0.0005716482 0.0008549029 0.0002804863 0.00012346751
0.0008307619 0.00044951274 0.00027762257 0.0011669062 0.0007047395 0.0012497273 0.00030915346 0.00035631176
0.0019328495 0.0003871605 0.00019033706 0.00045958374 0.00036075682 0.0008056154 0.00022848585 0.00036432763
0.001329897 0.0014080423 0.00026375102 0.00018949661 0.0010046022 0.0015415928 0.00086134655 0.00047838382
00000000: b3e0 a33a 6762 233a 8a61 3539 269e a53a
00000010: 28e6 c139 bad1 ba3a 7b0e 203a c1c8 bd39
00000020: 9f28 793a 7af5 1a3a 3678 b539 088a a73a
00000030: c7e6 063a d0dd 723a 88e2 5c39 825b 273a
00000040: c364 013a 56d3 9e39 1d99 b539 6996 ab39
00000050: 2302 793a 8795 d139 da38 a13a 600b cc39
00000060: c032 753a f919 9b3a 3b12 973a a20c f139
00000070: 0cf8 ff39 6bac f639 232c 0c3b 3f7c 1a3a
00000080: 966b 893a 816f 1d39 797c 7139 30fb 063b
00000090: a9da 153a 901b 603a 3c0e 9339 0f77 0139
000000a0: 7dc7 593a 94ac eb39 df8d 9139 e0f2 983a
000000b0: 44be 383a e4cd a33a e015 a239 5bcf ba39
000000c0: ab57 fd3a cdfb ca39 3795 4739 49f4 f039
000000d0: f623 bd39 ef2f 533a b495 6f39 3a03 bf39
000000e0: f04f ae3a 0f8e b83a 1048 8a39 9cb3 4639
000000f0: dbac 833a 450f ca3a fdcb 613a 97cf fa39

exp_avg f4 [32, 64]
0.0010375184 -0.0013305653 -0.0009390513 -0.00010983907 0.0011486026 -0.003477212 -0.00096898637 -0.0008552533
0.0015297168 -0.00065217196 0.0010453628 -0.0037672564 -0.00052965904 0.0007310162 -0.0012447147 -0.00015831305
0.00063896424 0.0024522995 -0.0025976535 0.00021567119 -0.002595473 0.0014414609 -0.0015895991 8.460246e-05
-0.00082988595 0.001984733 -0.0007216087 0.0003695362 0.0023194274 -0.0001012858 0.00018610306 -0.0035459262
-0.00032961872 0.0013769722 -0.001901399 -0.00065213913 0.0022645765 -0.0002556152 -0.0007832011 0.00063388416
0.0033713672 -0.0017403761 0.00019002892 -0.0013982631 -6.0800976e-05 -0.0017380515 0.00026425227 0.0027145187
-0.00018804794 -0.00013563604 -0.00083747297 -0.0011311222 0.0028109571 -0.0030418292 0.0007134998 -0.0020795343
-0.0014551821 -0.0002599628 -0.0022837485 -0.0011827823 -0.0006519024 -0.003480402 0.00022211227 0.0034266065
0.0022294933 -0.00075186044 -0.00020066084 0.0028429592 0.003588498 0.0025830162 0.0012477986 -0.0021048123
0.007857618 0.0027047258 0.0022409067 0.00330427 -0.00026189612 0.005083497 -0.0054064505 -0.0032306046
0.0019987533 0.008676536 0.001198374 -0.0015657048 -0.0014234426 0.005541201 0.0058353688 0.0009127013
0.005345564 0.0029220092 0.003413635 -0.00293153 0.007463128 0.00036523756 -0.00038277594 0.0015033057
0.0014851923 0.009757536 0.0014525297 -0.0013868615 0.0019875146 0.00647988 0.0008677434 -0.0005843331
0.009536095 -0.002372413 0.005357541 0.0009270746 0.0023982858 -0.0015412115 0.000516877 0.0051658098
0.0022068997 0.0013922189 -0.0014027214 -0.002218497 0.011094737 -0.0057968497 0.003900573 0.0025805058
0.0040509133 0.0010125601 -0.0010049151 -0.0014254788 0.0051830625 0.0028714836 -0.00076915347 0.011427342
-0.004666928 -0.003395308 -0.0023699491 -0.0032357166 0.0019710236 -0.0080384165 0.0005572177 0.00047130632
-0.0005619226 -0.0043534716 0.00094063504 -0.003445919 7.878642e-06 0.0005686066 -0.0037017043 -0.0037085451
-0.0005793236 -0.0020473928 -0.0046779444 -0.00019242436 -0.0075665805 0.0007103451 0.0004955881 -0.0009733477
-0.0023982688 -0.0039609703 -0.00045364603 -0.0016537318 0.002877423 -0.002089993 -0.0006922591 -0.0028860655
-0.005788842 -0.0012735046 -0.0014862632 -0.00097581453 -0.0010515999 -0.000538198 6.3936146e-05 0.00020226951
-8.121086e-05 -0.0014629952 0.0011314265 -0.0041414 -0.0029033693 -0.00079308246 -0.0052749957 -0.0014114043
0.00058485544 0.0002434993 -0.0010706842 -0.0066684466 0.0005059035 -0.006037468 -0.0025808818 -0.005395869
-0.008218576 0.0007880172 -0.0040805493 -0.005062269 -0.0032293506 -0.0030660147 5.5888842e-05 0.0015291797
0.0015390054 -0.00033775033 -0.00067367847 -0.0008291703 0.00042592306 0.0026931423 -7.328068e-05 -0.0020471546
9.159297e-05 -0.0010863371 0.0006132329 -0.0017324648 8.265011e-05 0.000996951 -0.0031957824 -0.0008999595
-0.00020574062 0.0006540024 -0.00071439875 -0.0025156706 -0.00091307925 -0.00018129412 -3.9404324e-05 0.0009306858
-0.00042914037 0.0020100216 0.0003211474 0.0003941435 -0.0011681486 -0.0013771295 0.00019458105 -0.0009978471
-7.34212e-05 0.0032755502 -7.606302e-05 2.7052296e-05 -0.0016428091 -0.0004213189 -0.0009883209 0.00016987782
0.00072938076 -0.0016651123 -0.0020632031 -0.0006522527 -0.0010605846 -0.0027662923 0.0015293763 0.0019164657
-0.0001969751 0.00086003094 -7.75843e-05 0.0009340798 0.0014320601 -0.0015444186 0.0007396896 -0.00078160665
0.0025791063 -0.0006989127 -0.0007145916 0.00018667775 2.0428475e-05 0.0022163675 -0.00030361617 0.0028821528
00000000: 57fd 873a 5d66 aeba aa2a 76ba 6759 e6b8
00000010: b58c 963a f0e1 63bb 9303 7eba 1433 60ba
00000020: c780 c83a 85f6 2aba 8e04 893a 13e4 76bb
00000030: d1d8 0aba aba1 3f3a b225 a3ba d600 26b9
00000040: 2a80 273a c2b6 203b 653d 2abb cb25 6239
00000050: d018 2abb 67ef bc3a 185a d0ba 9a6c b138
00000060: b48c 59ba 4b12 023b 572a 3dba 4fbe c139
00000070: 8901 183b 6669 d4b8 a924 4339 c562 68bb
00000080: add0 acb9 857b b43a 5d38 f9ba 51f4 2aba
00000090: 4a69 143b 1704 86b9 bc4f 4dba 3f2b 263a
000000a0: 28f2 5c3b 551d e4ba 8042 4739 ed45 b7ba
000000b0: 8d04 7fb8 55cf e3ba 578b 8a39 11e6 313b
000000c0: bc2e 45b9 8639 0eb9 dc89 5bba 2a42 94ba
000000d0: 0938 383b 6d59 47bb 290a 3b3a cc48 08bb
000000e0: cfbb beba 9e4b 88b9 f1aa 15bb 9707 9bba
000000f0: 6ee4 2aba 7517 64bb cfe6 6839 eb90 603b
00000100: b11c 123b 8018 45ba 7c68 52b9 f150 3a3b
00000110: 022d 6b3b d247 293b 2c8d a33a e4f0 09bb
00000120: 3dbd 003c c541 313b 2ddc 123b 748c 583b
00000130: 1a4f 89b9 7793 a63b 9828 b1bb 8db8 53bb
00000140: 84fd 023b 0828 0e3c c212 9d3a 5638 cdba
00000150: cf92 baba f792 b53b 9f36 bf3b 5942 6f3a
00000160: d729 af3b 2e7f 3f3b 4bb7 5f3b e91e 40bb
00000170: 418d f43b 5b7d bf39 51af c8b9 920a c53a
00000180: c9aa c23a 13de 1f3c cf62 be3a 5ac7 b5ba
00000190: f640 023b 2c55 d43b 4679 633a ee2d 19ba
000001a0: 483d 1c3c 7c7a 1bbb 508e af3b ec06 733a
000001b0: 8f2c 1d3b 7a02 caba 077f 073a f445 a93b
000001c0: a2a1 103b 1d7b b63a 85db b7ba 3464 11bb
000001d0: b3c6 353c 80f3 bdbb c1a0 7f3b b41d 293b
000001e0: 86bd 843b e1b7 843a 5bb7 83ba 22d7 baba
000001f0: aed6 a93b 802f 3c3b 04a1 49ba bf39 3b3c
00000200: 08ed 98bb d183 5ebb 2651 1bbb 510e 54bb
00000210: 4a2c 013b 90b3 03bc 3f12 123a aa19 f739
00000220: fd4d 13ba 91a7 8ebb f394 763a edd4 61bb
00000230: 822e 0437 8b0e 153a 4b98 72bb 100b 73bb
00000240: c0dd 17ba 8d2d 06bb 7149 99bb 85c5 49b9
00000250: 14f1 f7bb 7436 3a3a 5bea 013a 4228 7fba
00000260: 462c 1dbb 07cb 81bb 57d7 edb9 08c2 d8ba
00000270: 2693 3c3b 44f8 08bb b978 35ba 2524 3dbb
00000280: 54b0 bdbb b9eb a6ba b8ce c2ba cecd 7fba
00000290: d6d5 89ba db15 0dba 7515 8638 4f18 5439
000002a0: c04f aab8 f9c1 bfba 604c 943a 95b4 87bb
000002b0: 7446 3ebb dde6 4fba dfd9 acbb dffe b8ba
000002c0: fc50 193a d853 7f39 3356 8cba fc82 dabb
000002d0: 9c9e 043a f4d5 c5bb 0324 29bb d4cf b0bb
000002e0: 35a7 06bc f092 4e3a 21b6 85bb 64e1 a5bb
000002f0: 83a3 53bb 31ef 48bb 306a 6a38 c26e c83a
00000300: 74b8 c93a 1514 b1b9 cc99 30ba ad5c 59ba
00000310: 6d4e df39 6e7f 303b 44ae 99b8 8e29 06bb
00000320: 9a15 c038 6d63 8eba 5dc1 203a df13 e3ba
00000330: 7154 ad38 20ac 823a 5570 51bb 42eb 6bba
00000340: 14bc 57b9 5c71 2b3a 7d46 3bba f3dd 24bb
00000350: b65b 6fba c519 3eb9 1246 25b8 44f9 733a
00000360: 3ffe e0b9 91ba 033b ad5f a839 0ca5 ce39
00000370: 901c 99ba cc80 b4ba 7408 4c39 31ca 82ba
00000380: b5f9 99b8 9daa 563b 0684 9fb8 5dee e237
00000390: 8753 d7ba 77e4 dcb9 8c8a 81ba 3b21 3239
000003a0: ea33 3f3a e63f daba ce36 07bb f0fb 2aba
000003b0: 5003 8bba af4a 35bb 5a75 c83a eb31 fb3a
000003c0: 1a8b 4eb9 b373 613a c1b4 a2b8 09dd 743a
000003d0: f7b3 bb3a 176e caba bbe7 413a bce4 4cba
000003e0: 3906 293b 3d37 37ba 6e53 3bba edbe 4339
000003f0: d15d ab37 7a40 113b ac2e 9fb9 80e2 3c3b

exp_avg_sq f4 [32, 64]
0.00014433547 0.00013773356 1.5326876e-05 3.7472575e-05 5.942019e-05 0.00011739456 1.3572921e-05 5.4037217e-05
0.00012977938 0.00010686169 1.8576768e-05 0.00017778928 3.93315e-06 6.812468e-05 0.00014491471 7.989052e-05
5.046803e-06 7.562144e-05 7.001421e-05 4.5321547e-05 0.00016999846 5.5869474e-05 0.00011727094 3.6271754e-06
0.00013091163 8.627398e-05 0.0001943088 1.5399439e-05 0.0001863064 2.8397559e-05 1.3738897e-06 6.0088725e-05
6.7473644e-05 0.00022143002 6.548237e-05 7.0212386e-06 7.323319e-05 8.8280445e-05 3.1688516e-05 1.3775626e-05
9.689382e-05 3.8910894e-05 9.5011295e-05 0.00012503615 9.6028365e-05 0.00016123877 8.888245e-05 5.198363e-05
8.2762335e-06 1.0488625e-06 1.8795525e-05 3.0168581e-05 0.00013235249 0.00011519539 1.5672895e-05 9.616623e-05
0.00013067655 1.5277945e-05 0.00011381846 6.8679897e-06 0.00026458703 0.00012131936 9.1922897e-07 5.9276896e-05
0.0003245745 8.934777e-05 4.7583773e-05 0.0001839637 0.00033727495 0.00055287784 8.356044e-05 0.00024268117
0.00095179793 0.00031960386 6.566832e-05 0.00023119565 4.1778138e-05 0.0004847308 0.00094764575 0.0006510926
0.00012566666 0.00073539355 9.673872e-05 9.039325e-05 0.00045567678 0.00020889408 0.000535385 3.05312e-05
0.00049317343 0.00032018614 0.0006198891 0.00013963947 0.0010010732 5.8429338e-05 2.720365e-05 6.760976e-05
0.00035141123 0.0008177355 0.0003824749 6.222267e-05 0.00022459711 0.0007065116 1.27503745e-05 8.827219e-05
0.0008273179 0.00023646501 0.00025760935 0.0001356731 0.00057080324 0.0003124777 0.0013184902 0.00020359212
6.460668e-05 1.4045803e-05 6.0698603e-05 0.00034196733 0.0011259869 0.00067509525 0.00012315898 0.00018049315
0.00034578293 0.00013439763 6.6850924e-05 5.1251853e-05 0.00053969957 0.00040115378 7.847837e-06 0.0006054987
0.0005128566 0.000600262 2.646136e-05 7.628134e-05 4.746802e-05 0.000742512 2.7572107e-05 0.00025736165
0.00018867695 0.00022225705 7.226936e-05 0.00025021716 1.1913926e-05 0.0001657307 0.00038537255 0.00021115341
3.4025867e-05 0.0002540657 0.0003568292 0.00019911499 0.00081434386 7.103433e-05 5.545084e-05 2.4568302e-05
9.0727764e-05 0.00048443608 0.00073036505 4.9918344e-05 0.00020690112 0.00015960528 1.3470264e-05 0.00012579701
0.00034539227 0.00022331337 5.498241e-05 3.1622774e-05 0.0002805951 0.00018564439 7.95604e-05 2.0850139e-05
0.00013807767 0.00010870113 0.00010719171 0.00047984946 0.000135734 0.00038582628 0.00049880205 0.00018788398
3.8501958e-06 5.026723e-07 0.000103940634 0.00036036392 0.00015863388 0.00066939124 0.000115623945 0.0002784961
0.0004485119 1.35414875e-05 0.00012043724 7.379377e-05 0.00028412425 0.00023603765 3.3946226e-06 0.00012448299
0.00010454963 6.122392e-05 2.7623431e-05 6.4128406e-05 0.00015786909 0.00017208265 2.5091043e-05 9.214128e-05
0.00038550425 0.0001406592 1.4089077e-05 9.5485964e-05 2.7576078e-05 0.00019097033 0.00028274138 0.00015919495
3.2661384e-05 0.00024436702 9.384506e-05 9.2921764e-05 0.0001355185 4.595154e-05 0.00022335109 7.972615e-06
0.00011367736 0.00011162097 0.00037992783 3.8739818e-05 0.00054103974 6.165327e-05 6.6501293e-06 9.5443014e-05
7.527301e-05 0.0002748199 9.728135e-05 1.625662e-05 0.00015526239 0.00035935966 4.06646e-05 4.2571282e-05
0.00023473882 5.4291853e-05 0.00012429999 0.00012395548 0.00023986773 0.000199945 0.00023055647 3.471571e-05
3.0683503e-05 4.9642563e-06 1.2127097e-05 5.472529e-05 0.00028999976 0.00015240787 4.2133102e-05 6.521744e-05
6.546158e-05 4.300622e-05 2.843086e-05 7.632706e-06 0.0001704713 0.00015100477 5.6004915e-06 0.00012056631
00000000: c258 1739 926c 1039 3792 8037 df2b 1d38
00000010: f139 7938 b931 f638 40b7 6337 05a6 6238
00000020: 6315 0839 ef1a e038 4ed5 9b37 f26c 3a39
00000030: 80f9 8336 29de 8e38 3ff4 1739 e58a a738
00000040: b557 a936 f496 9e38 98d4 9238 a417 3e38
00000050: 9d41 3239 6455 6a38 5bef f538 666a 7336
00000060: 5345 0939 feed b438 5fbf 4b39 0b2e 8137
00000070: 3e5b 4339 4b37 ee37 7e66 b835 c707 7c38
00000080: a380 8d38 ab2f 6839 9453 8938 fb97 eb36
00000090: c594 9938 3423 b938 49e9 0438 dd1d 6737
000000a0: 7933 cb38 4134 2338 cd40 c738 231c 0339
000000b0: d662 c938 3412 2939 6766 ba38 ff08 5a38
000000c0: 27da 0a37 a4c6 8c35 15ab 9d37 8912 fd37
000000d0: 1ac8 0a39 0e95 f138 4979 8337 daac c938
000000e0: 3806 0939 2329 8037 d2b1 ee38 9573 e636
000000f0: 45b8 8a39 d66c fe38 efc0 7635 15a0 7838
00000100: a72b aa39 3860 bb38 b094 4738 61e6 4039
00000110: 47d4 b039 01ef 103a 2b3d af38 3b78 7e39
00000120: 1482 793a 8190 a739 69b7 8938 1c6d 7239
00000130: ef3a 2f38 7723 fe39 6e6b 783a 16ae 2a3a
00000140: 63c5 0339 6dc7 403a 34e0 ca38 8291 bd38
00000150: e7e7 ee39 940a 5b39 1459 0c3a a00e 0038
00000160: 4f48 013a a8de a739 0e80 223a 2f6c 1239
00000170: 7136 833a 0612 7538 6533 e437 b7c9 8d38
00000180: 9e3d b839 4d5d 563a e986 c839 8b7d 8238
00000190: d481 6b39 3135 393a 71ea 5537 c51e b938
000001a0: 5de0 583a 98f3 7739 be0f 8739 7843 0e39
000001b0: f5a1 153a 0cd4 a339 31d1 ac3a 587b 5539
000001c0: 727d 8738 44a6 6b37 a196 7e38 144a b339
000001d0: da95 933a e0f8 303a 3d24 0139 c342 3d39
000001e0: 334a b539 17ed 0c39 5132 8c38 42f7 5638
000001f0: a07a 0d3a f351 d239 34aa 0337 54ba 1e3a
00000200: 3971 063a e75a 1d3a 57f9 dd37 3cf9 9f38
00000210: 6618 4738 23a5 423a a64a e737 7fee 8639
00000220: 95d7 4539 ac0d 6939 518f 9738 942f 8339
00000230: ece1 4737 ffc7 2d39 d40b ca39 1069 5d39
00000240: ffb6 0e38 1f34 8539 ce14 bb39 86c9 5039
00000250: b179 553a 44f8 9438 e393 6838 0718 ce37
00000260: 1945 be38 e9fb fd39 f875 3f3a 6a5f 5138
00000270: 99f3 5839 b75b 2739 58fe 6137 61e8 0339
00000280: c415 b539 3a29 6a39 ea9c 6638 b2a2 0438
00000290: d61c 9339 89a9 4239 aad9 a638 55e7 ae37
000002a0: f1c8 1039 7af6 e338 1ccc e038 4e94 fb39
000002b0: d153 0e39 ba48 ca39 0ac2 023a b902 4539
000002c0: ee30 8136 61ef 0635 b4fa d938 3aef bc39
000002d0: f556 2639 167a 2f3a 227b f238 1d03 9239
000002e0: 4026 eb39 3f30 6337 4093 fc38 bbc1 9a38
000002f0: 83f6 9439 e080 7739 2ccf 6336 a687 0239
00000300: a841 db38 5765 8038 deb8 e737 ad7c 8638
00000310: a989 2539 1671 3439 9b7a d237 f93b c138
00000320: 811d ca39 eb7d 1339 2060 6c37 a33f c838
00000330: 2d53 e737 353f 4839 e83c 9439 92ed 2639
00000340: e5fd 0838 631e 8039 afce c438 fede c238
00000350: f819 0e39 17bc 4038 5a33 6a39 1fc2 0537
00000360: 1166 ee38 0d16 ea38 0d31 c739 907c 2238
00000370: 90d4 0d3a d94b 8138 2d24 df36 9428 c838
00000380: e4db 9d38 b415 9039 8703 cc38 d35e 8837
00000390: eecd 2239 7068 bc39 488f 2a38 918e 3238
000003a0: 3924 7639 6fb7 6338 8656 0239 0cfa 0139
000003b0: 0185 7b39 54a8 5139 88c1 7139 b69b 1138
000003c0: 29b2 0038 a392 a636 7c75 4b37 d588 6538
000003d0: 1c0b 9839 adcf 1f39 13b8 3038 59c5 8838
000003e0: 6b48 8938 9461 3438 cf7e ee37 390e 0037
000003f0: 8bc0 3239 0957 1e39 dbeb bb36 8bd8 fc38

exp_avg f4 [32]
-0.0003911866 0.004988865 -0.0053556967 -0.00018236095 6e-45 0.004207267 0.009333124 0.0038274878
0.00021526654 0.0021196627 6e-45 0.00060283334 0.0038904224 -0.0014005915 -0.0018985845 -0.0045316415
0.0018793666 0.00095354556 6e-45 0.0030707668 0.0012040673 0.00015101736 -0.0012937699 0.0013198473
-0.0029402059 0.0025133225 -0.0019371719 0.0050638276 -0.0032168326 -0.0030506912 0.0012650198 6e-45
00000000: 2d18 cdb9 a279 a33b d77e afbb 2538 3fb9
00000010: 0400 0000 1ddd 893b f6e9 183c 97d6 7a3b
00000020: 2cb9 6139 0aea 0a3b 0400 0000 7607 1e3a
00000030: 75f6 7e3b 0d94 b7ba edd9 f8ba 2a7e 94bb
00000040: 1455 f63a 5cf7 793a 0400 0000 eb3e 493b
00000050: cbd1 9d3a 6a5a 1e39 b793 a9ba bafe ac3a
00000060: 78b0 40bb 8eb6 243b b4e8 fdba 77ee a53b
00000070: 7fd1 52bb 1bee 47bb 05cf a53a 0400 0000

exp_avg_sq f4 [32]
0.00030750362 0.0010348092 0.0008145942 0.00035555326 5.628956e-20 0.00035035767 0.00045677094 0.00055584864
0.00018503334 0.00026764988 2.795879e-18 0.00034267613 0.0011202584 0.0002889726 0.00093780254 0.00037813853
0.00021350301 0.0005832714 3.159533e-16 0.0007605602 0.0003867635 0.000114943905 0.00036527112 0.00064514705
0.0005180408 0.0007757892 0.00048989 0.00046781078 0.0005492608 0.0004109862 0.00086296594 5.321845e-19
00000000: 7038 a139 6fa2 873a 7e8a 553a 8d69 ba39
00000010: f4e8 841f 36b0 b739 c27a ef39 5fb6 113a
00000020: 8205 4239 5c53 8c39 a94c 4e22 36a9 b339
00000030: a2d5 923a 3f81 9739 ddd6 753a e540 c639
00000040: c7df 5f39 aee6 183a 7a22 b625 5560 473a
00000050: 85c6 ca39 0a0e f138 dc81 bf39 161f 293a
00000060: 21cd 073a 555e 4b3a f66b 003a 8044 f539
00000070: 45fc 0f3a a279 d739 aa38 623a b912 1d21
