checkpoints/full/torsion_energy/20250611190444520597/LYS_dim_16/fold5/best_epoch=231-val_loss_epoch=8.682.ckpt (torch, 50117 bytes, 20 tensors)

fc1.weight f4 [64, 16]
00000000: 04a0 a9bd c029 493f 1d24 7e3e bab5 15bf
00000010: 5353 a13e 9cae 76ba 5cfa 393f 93a1 9c3e
00000020: f1c8 693c 6fe7 32be 89f9 99bc 7237 3d3d
00000030: 9063 cf3c 3dda 173e 65bc d5bd 88ce b9bd
00000040: 1214 0bbd f82c 3d3f a62b 9bbe dbd8 9cbe
00000050: b785 793c a57f cd3d 839d 5e3d 40eb aabe
00000060: 8bb1 60be fed1 97be 64d4 b73d 5a0b c63d
00000070: 2228 b8bc 9a2b 6ebe ad9e 81be 0bfc 263e
00000080: 6d40 19bf 2002 b7be 479a d53d da8c 0dbd
00000090: 8c1c 693e 3cec abbe e530 923c c2e0 86bd
000000a0: 7594 09be 4816 823e b584 9dbd d2cd 99bc
000000b0: a88c 81bd aa07 8e3e 2777 d1bc 13c7 503c
000000c0: e1ec 0e3d 0037 fa3d 40ed 40bf 4c48 8a3e
000000d0: eab8 6b3d 686d e93d 9527 f53e fd53 4a3e
000000e0: 5e16 72bb 9122 49bd 13c5 313e 450d 78bd
000000f0: ffad 843d b75a c5bb 58a3 cdbe 47b6 d3bd
00000100: faf2 08be d85f ac3e 0d63 a83c 3aa7 f43e
00000110: 9c26 08be 4a71 80be ad80 16bf df04 51be
00000120: 5a69 04bd 7335 74bc f803 543c e82c 023d
00000130: 2fd4 923c 4c5c 413d ba09 1f3d 74c0 17bd
00000140: 9fe7 a3be 0c31 60be 6b21 1cbf 3f3e 5d3e
00000150: 4251 f23e 7529 f13e c65d 683d cda0 8bbe
00000160: 0a22 0e3e fd44 943c 9e47 883e 8c06 1fbd
00000170: 0493 d6bd 42c1 3cbe 5e3c 353e 1898 2bbe
00000180: a629 733c e148 d5bd 2ba2 ab3e 1c47 20be
00000190: f0e6 f4bc 5e1b 213d c7f3 343e fc56 163e
000001a0: d68b 4c3d b80b a0bd ccba 8cbd 16fe aebd
000001b0: c2aa e338 de70 ec3d 3bfb 4a3e 129c 9a3e
000001c0: dc0a 193f fc00 3cbf 4a35 2e3d 6f05 113e
000001d0: 1b73 1e3f b9f2 5f3d 3fd9 d3be f2e9 ab3d
000001e0: 79a8 ac3c e760 b0bc 7f5b 41bd 6a60 74bd
000001f0: a230 07bc 78dc 50bd 07e5 b0bc 4d59 923c
00000200: 77e4 7fbe 45c9 a6be 8d6d 1ebe 105f 25bd
00000210: 6a42 51bf c6ad cb3e f78d 18be a0b1 82bd
00000220: 1c70 85bd b793 183e 90a4 953d 95a4 003d
00000230: 4cb3 92bc 471c 6e3e 146e 5fbc 0b98 78bd
00000240: d586 9a3c 2d64 b73e da9c 12be 3fbc 84be
00000250: f540 e9bb cc12 cf3e 9891 c03e fb45 a33d
00000260: 0282 54bd 25ab 283e ad4f 563d daf5 2ebe
00000270: 45f8 a2bd 0fad 5cbe f72f 00bd ad81 9dbc
00000280: e1d9 8fbc bade a43c 4705 e8bc 1b0e 43bf
00000290: a962 92bc d232 8fbd 9589 58be c0cb 61be
000002a0: 5bd3 9539 c4d4 0f3d 06e5 71be 8c11 573e
000002b0: 6da4 eabc e7d1 a3bd 6c15 0a3d 6563 263e
000002c0: dacf 60be 1cf0 933e c044 e4be 697d 373e
000002d0: c25f 723d 5052 b0be 235c ff3c 08f3 ac3e
000002e0: 0432 083b d5d8 b2bd 7305 dabc 5da8 b7bc
000002f0: 7a28 653c 76ad bb3c db6a 57bc 776f bebd
00000300: 4861 dfbd b7db 3b3e 8441 aabe 5db6 0bbd
00000310: b155 aa3e 258c df3e 8966 2e3e b7cb 34bd
00000320: fce4 2ebe 97b0 91be eaef 073d 04d7 69bd
00000330: 1ee7 e73e bb7e 14bf 30ac ea3d 77e6 f2bc
00000340: 8b5d 9e3d 6452 41be 8b50 073e a848 eabc
00000350: fb2f 363e f5bf dab9 34ab e43d ed1e d83d
00000360: 54be a7bb e777 993d 1b3b 353d b9b5 9d3b
00000370: aff5 d43e 2188 7d3e 75c6 553c da1f a4bd
00000380: 13c5 8c3e c853 a2be 8db8 c83d 16cc 833a
00000390: 6ba7 85be 8447 e43e 245f a4bc c2c3 1c3c
000003a0: d2c8 94be 994e 183f 658f 6abd bd6d c6bc
000003b0: f658 143e ef50 d43d 2018 6b3d b843 65bd
000003c0: 6518 a4bd c1ac 4dbd 0687 e23e 872d 0dbf
000003d0: 163f 2dbe 650c 14bf 6caf 573d 5d09 82be
000003e0: d3c7 8eba 34d3 063e aba6 02be 858f 74bd
000003f0: df7f 94bd 435d b2bb a166 9b3d 4af7 063c
-0.08282474 0.7857933 0.24818464 -0.5848042 0.31508884 -0.0009410174 0.72647643 0.3059202
0.0142691 -0.17471097 -0.018795745 0.046195455 0.02531603 0.14829345 -0.10436324 -0.09072596
-0.033954687 0.7389674 -0.3030674 -0.30634198 0.015229634 0.10034112 0.054349434 -0.33382607
-0.21942727 -0.296524 0.08976057 0.09670134 -0.022480074 -0.2325882 -0.25316373 0.16307084
-0.5986393 -0.3574381 0.10429817 -0.034558155 0.22764796 -0.3357867 0.01784558 -0.06585838
-0.13435538 0.25407624 -0.076913275 -0.0187749 -0.06325656 0.27740222 -0.025569512 0.0127427755
0.034893874 0.12217522 -0.75362015 0.27008283 0.057549395 0.11397821 0.4788176 0.19758601
-0.0036939601 -0.04910523 0.17360334 -0.06055953 0.064784996 -0.006022777 -0.40163684 -0.10337501
-0.13373938 0.33666873 0.020555044 0.47783834 -0.13295978 -0.25086433 -0.58790094 -0.20412014
-0.032327034 -0.014905321 0.012940399 0.031781107 0.017923443 0.04720716 0.038827635 -0.037048772
-0.3201265 -0.2189371 -0.6098849 0.21605776 0.4732762 0.47101942 0.056730054 -0.2727112
0.13880172 0.018099302 0.2661714 -0.038824603 -0.1047726 -0.18433097 0.1769881 -0.16757238
0.014841473 -0.10414291 0.33522162 -0.15652126 -0.029895276 0.03933274 0.17671119 0.1468162
0.049938045 -0.07814735 -0.06871566 -0.08544557 0.000108560096 0.11544965 0.198224 0.30197197
0.59782195 -0.73439 0.04253129 0.14162229 0.61894387 0.054674838 -0.41376683 0.08394231
0.021076428 -0.021530582 -0.047206398 -0.05966226 -0.008251341 -0.050991505 -0.021593584 0.017864848
-0.24989496 -0.3257543 -0.15471478 -0.04037386 -0.81741965 0.39781016 -0.14897905 -0.063815355
-0.06515524 0.14900099 0.073067784 0.031406958 -0.017907761 0.23252974 -0.0136370845 -0.060691874
0.018863121 0.35818616 -0.14317647 -0.2592487 -0.007118339 0.40444028 0.3761108 0.07972332
-0.051881798 0.16471536 0.05232208 -0.17085972 -0.0795751 -0.21550392 -0.031295743 -0.019226873
-0.017559947 0.020125736 -0.028322829 -0.761934 -0.01786931 -0.06992115 -0.21146233 -0.2205038
0.00028576967 0.03511502 -0.23622522 0.21002787 -0.028642857 -0.0799902 0.033711836 0.16248854
-0.21954289 0.28894126 -0.44583702 0.17918934 0.059173353 -0.344378 0.031171864 0.33779168
0.0020781765 -0.08732764 -0.026613927 -0.022419149 0.013986701 0.022909861 -0.013148035 -0.09298604
-0.10907227 0.18345533 -0.3325311 -0.034109462 0.33268502 0.4366161 0.17031302 -0.04413959
-0.17079538 -0.2845504 0.033187784 -0.05708982 0.45293516 -0.58005875 0.114586234 -0.02965091
0.07732686 -0.18879086 0.13214318 -0.028599098 0.1779174 -0.0004172322 0.11165467 0.105527736
-0.0051191244 0.07493573 0.04424582 0.004812923 0.41593692 0.2475896 0.013047804 -0.08013888
0.27494106 -0.31704545 0.09800825 0.0010055329 -0.26104292 0.44585812 -0.020064898 0.009568157
-0.29059464 0.5949493 -0.057265658 -0.02422225 0.14487061 0.10366999 0.057396054 -0.055972785
-0.080124654 -0.05021358 0.4424364 -0.55147594 -0.16918597 -0.5783141 0.05265753 -0.2539777
-0.0010893292 0.13166505 -0.12758891 -0.059707183 -0.07250952 -0.0054432466 0.07587934 0.008237669

fc1.bias f4 [64]
00000000: b08c cc3d b02a ec3d 7060 353d 9831 09be
00000010: 021c ef3e 70d9 d73d 4633 d73e b4ee 893e
00000020: eed1 0a3e 40f0 cabc 6a92 f4bc 151d 2fbf
00000030: e3de 083e 76cf 093f 1f94 3e3e 4962 54bd
00000040: 41f0 463e 9508 b83e 2d31 b2be a41c 4f3d
00000050: f579 863d fb1a 893d 1d9c 01be a03c 5f3e
00000060: 0e5b ae3e 68f8 29be a098 813e 6f24 e9bd
00000070: e8d7 1e3e 439c c03e 7dae e03e a24e 9abb
00000080: aafa 103f 996a 0c3f 58e1 9cbe b314 dbbd
00000090: 8efb 873e bd39 9c3e fe36 c43e 316e 963e
000000a0: 9e39 953e 50d5 5ebe f011 9d3e 6316 4b3f
000000b0: e517 5cbe d76f d8bd 8004 36be eae4 333e
000000c0: 8fd8 9a3e 5b7d 853e a5c9 d43e a2d9 a53e
000000d0: 3ae1 b43e 9d9b 09bd 4804 493e b979 dfbd
000000e0: 69b0 23bc 2285 fbbd ae16 efbc 4c3f 4ebe
000000f0: b5e2 90bd 28be 96be 09f3 23bd 0a36 d93e
0.099877715 0.115315795 0.044281423 -0.13397825 0.46701056 0.1053952 0.42031306 0.2693993
0.13556644 -0.024772763 -0.029854972 -0.6840375 0.13366275 0.53832185 0.18611191 -0.051851545
0.19427587 0.35944048 -0.34803143 0.050564423 0.0656623 0.06694599 -0.12657209 0.2180047
0.34053844 -0.16598666 0.25311756 -0.11383902 0.15512049 0.37619218 0.43883124 -0.004709081
0.56632483 0.54850155 -0.30640674 -0.106973074 0.26559108 0.305128 0.38323206 0.29380944
0.2914552 -0.2176106 0.30677748 0.79331034 -0.2149349 -0.10568207 -0.17775154 0.17567793
0.30243346 0.260722 0.41560093 0.32392603 0.35328084 -0.03359567 0.1963054 -0.10911889
-0.00999079 -0.122812524 -0.02918562 -0.20141333 -0.07074491 -0.29441953 -0.0400267 0.4242404

fc2.weight f4 [32, 64]
00000000: 4886 e3bc 074f 23bd eebe e93d 3bb2 d33e
00000010: ca97 13bf 006d 313e 35cd 86be 0718 863e
00000020: b7eb 5ebe 5891 3a3e eda3 763d eea4 783f
00000030: 634a dd3d efce aebb f0c8 9d3d 42c8 9cbe
00000040: 0362 6ebd 57e4 f9bd ec92 ad3e 2124 fc3d
00000050: 4dd7 0c3f d67d 98be d2dc c43e 66fb b43e
00000060: 4efe 1b3d 6d06 963d df0c 2f3e 8b36 ef3d
00000070: 64dc 7d3e eaab ae3d 7de2 2bbe fc07 b8bd
00000080: afce 78be 60eb b33e 12b4 423e 43d0 823d
00000090: cfa1 27bd 6c19 d2be 0a59 87bd 44a8 023d
000000a0: 3dd6 4c3b 23e0 00be 5574 91bc f371 69be
000000b0: 3f60 4bbd 4b80 fa3d 8065 dabe 10a1 0a3e
000000c0: 4faf 11bf 8f59 4dbd 6643 053d a3cd 243e
000000d0: 352c b03e 5147 a53e 82e6 16bf 1051 e13c
000000e0: 01b7 953d 8656 21be eaaf e7bc 7856 70bb
000000f0: 1518 9cbe 9df6 283e 6404 c9be 9dbe 343f
00000100: e040 14be b59e 9a3e 112b a03d 846c 783c
00000110: d2f8 8abd acaf 2c3e ba5a 21be 0c92 4a3d
00000120: 565a 663d 7cbc 8fbe 9a6c a33e 7ee7 683d
00000130: db8b 2a3e f533 0ebe 6c37 b0be b016 16bd
00000140: 7f7e 3a3e a196 4e3e 0ad9 a43e 1fa8 813e
00000150: 785d 483e 61b4 fabc ce83 323c 50f1 843e
00000160: 3231 b53e 373c 033e 8d06 49bd 32ce 4dbd
00000170: 7a33 26bd 705d 5dbc 4a92 ecbc befb 7abd
00000180: e40c 5abe 4d67 9dbe b20a cc3e e5ba 833e
00000190: 471d 97be aaf6 e33d f736 71bb 705e 85be
000001a0: 9346 2c3e 8bfc 0b3e a352 f83d f964 7abd
000001b0: 5a54 80be 47e4 eebe 792f b2bc 0346 c0be
000001c0: f879 0a3e 3ce6 903c a801 7a3b 54a5 2ebd
000001d0: 2f2b 993d a5b1 c0bd 717e 0e3e d4ac ecbe
000001e0: 1615 a83d aecc 7abb 2d48 373e 7e6e 863b
000001f0: 8454 c43c a33c edbe 3e93 503e f32e 8a3e
00000200: b7cd 2dbe 125a a3bd c7d8 9b3e ba8d 843e
00000210: 4ec2 bbbd e2e1 b53e 7d34 703d b263 993d
00000220: 9e11 2cbe 9bc5 d23d bcd6 3fba 398d 27be
00000230: 46a8 633e e062 383e 1d46 b23e 4b4c f63a
00000240: e5f9 f4bc 2a25 8ebe 8ee4 2ebf 2eac 943e
00000250: 2151 1f3e 1b8b db3d 7763 e43d 293e c1be
00000260: 4e3d a13e e79b 813d d980 dd3c 9ecb 2ebe
00000270: be70 0f3e 3bf4 debd e50b 16be 3b3f 77bc
00000280: 42b9 23bd 8efd 18be d3ba 19bf 1a93 e43e
00000290: 1e30 e2bb cdf4 823d 57dc 91be 84a1 3fbd
000002a0: d711 6cbe 9686 cc3e 2b22 3dbd 22dd c13d
000002b0: f9a2 fabd adea 1e3e dbe6 9fbe 5b4d 2cbd
000002c0: bbf5 02bd 41e9 0c3e d7c4 98be 5d89 473e
000002d0: 3ad3 993e 3b80 57be b297 aabd 6deb b3bc
000002e0: d52a 633e 9c28 ddbd db70 ea3e dc9b b23d
000002f0: 097f b43e f850 60be a042 d93d 2088 773e
00000300: 587d f8bd 64e1 0abe 8e02 fb3d c95e a93e
00000310: 2a15 c9bd 027b 32bd 0458 48bc 0029 4b3d
00000320: d585 4e3e 24df 39bd 6692 47bd 732d 64be
00000330: 3b7d f0bd 563a cabe 99dd e43d 02c9 75be
00000340: 8d61 e23d f068 7b3e e2ca 4d3e 186e ecbd
00000350: 1f0e 07bd 95ab 1c3e f2d8 b73d 0f1d eebd
00000360: 1181 fd3d 3055 553e 2e83 ae3d e72a 91be
00000370: 9b4d 6d3e 5157 4bbe ff24 853d 762f 27be
00000380: 1112 373e dba0 6dbe b43e 4e3e 0247 303e
00000390: 7ac8 39bd e9a6 0a3d 69ae a33d 09d3 e1bc
000003a0: 24b5 debd ea1d d93d 72f3 4abd 8633 d33c
000003b0: e4ab a53e 8568 863e eef1 18be 9737 3dbe
000003c0: 3ea0 1cbe a9ed 003e d994 c239 2c18 5a3e
000003d0: 06c9 5b3e 6ef3 4dbe a6b2 b63d 9cf3 c2bd
000003e0: 4149 023f f7c1 603d 4c42 293e fe99 fd3d
000003f0: 5ca2 303e 2f97 77bf 2dc6 233e 90f5 bf3e
-0.027773991 -0.03987029 0.1141337 0.41346917 -0.57653487 0.17326736 -0.26328436 0.26190206
-0.21769606 0.18219507 0.060214926 0.9712666 0.10805204 -0.005334727 0.077043414 -0.30621535
-0.05819894 -0.122017555 0.33901155 0.123115785 0.5501602 -0.29783505 0.38449723 0.35348052
0.03808432 0.07325444 0.17094754 0.11680325 0.24791104 0.08528884 -0.16785617 -0.08985898
-0.24297594 0.35140514 0.19014004 0.06387379 -0.040925797 -0.4103502 -0.0660878 0.03189875
0.0031255626 -0.12585501 -0.017755667 -0.22797374 -0.049652334 0.12231501 -0.42655563 0.13538003
-0.56908125 -0.050134238 0.03253498 0.16094069 0.34408727 0.32280973 -0.58945477 0.027504474
0.07310296 -0.15755662 -0.028282125 -0.0036672633 -0.30487123 0.16500326 -0.39261162 0.7060335
-0.14477873 0.3019921 0.07820714 0.015162591 -0.0678574 0.16863889 -0.15757266 0.049455687
0.056238495 -0.2807349 0.31918794 0.056861393 0.16654913 -0.13887008 -0.34417284 -0.03664273
0.18212317 0.20174648 0.32196838 0.2532358 0.19566905 -0.03060359 0.0108956825 0.25965357
0.35389096 0.12815939 -0.049078513 -0.05024547 -0.040576436 -0.013511047 -0.02887835 -0.061275236
-0.2129398 -0.30742875 0.3985191 0.25728527 -0.29514524 0.11131032 -0.0036806443 -0.26048613
0.16823797 0.13670556 0.12125137 -0.06113145 -0.25064355 -0.46658537 -0.021751152 -0.37553415
0.1352309 0.01768791 0.003814796 -0.042638138 0.0747894 -0.09408883 0.13915421 -0.46225607
0.08207147 -0.0038268971 0.17898627 0.004102527 0.023966081 -0.46335325 0.20368668 0.26988944
-0.16973005 -0.07976164 0.30438825 0.2588938 -0.0916792 0.35523897 0.058643807 0.074897185
-0.16803595 0.102915965 -0.00073180697 -0.16362466 0.2223216 0.18006468 0.34819117 0.0018791048
-0.029904315 -0.2776273 -0.68317497 0.29037613 0.15558292 0.10719892 0.11151784 -0.37742737
0.31492084 0.06328564 0.027038978 -0.17069861 0.14007851 -0.10886427 -0.14652975 -0.015090759
-0.039971597 -0.14940473 -0.60050696 0.4464348 -0.0069027087 0.06394348 -0.28488418 -0.046784893
-0.2305368 0.3994643 -0.046175163 0.09466006 -0.12238116 0.15519209 -0.31230816 -0.04206596
-0.031972628 0.13760854 -0.29837677 0.19485994 0.30043966 -0.2104501 -0.08329715 -0.021962846
0.22184308 -0.10798761 0.45789227 0.08721134 0.3525317 -0.21905887 0.10608411 0.24173021
-0.121332824 -0.13562542 0.12256347 0.33080128 -0.0981849 -0.04357434 -0.012228016 0.049599648
0.2016824 -0.04537882 -0.0487236 -0.22282963 -0.11742636 -0.39497632 0.11175079 -0.2400246
0.110537626 0.24551749 0.20096925 -0.11544436 -0.03297245 0.15299828 0.08976926 -0.11626636
0.12378133 0.20833278 0.08521114 -0.28353044 0.23174135 -0.19857527 0.06501197 -0.16326699
0.17877986 -0.23205893 0.20141107 0.17214587 -0.045357205 0.033850584 0.079922505 -0.02756645
-0.108743936 0.10601409 -0.049548574 0.025781404 0.32357705 0.26251617 -0.14936039 -0.18478237
-0.15295503 0.1259066 0.00037113464 0.21298283 0.21463403 -0.20112392 0.08920793 -0.09519121
0.50893027 0.05487248 0.16529197 0.12382887 0.17249435 -0.9671506 0.15993567 0.37492037

fc2.bias f4 [32]
00000000: 99ee c4bd 0717 563e a3b6 97bd d114 31bd
00000010: adcc d53d f615 973d 96f9 00be 9d03 65bd
00000020: b6ca 253e bc37 adbc 66a7 963e 8661 06be
00000030: 125a b8be 604d d33d c6cb 6a3e ff56 443d
00000040: 06e8 443d 7a9f 84bd fac5 47be 5122 aebd
00000050: cf1e 28be 47e1 213e f12f 2f3e 38d7 cebc
00000060: b44b 093f 3d6f 103f fc52 353d 9c62 a13d
00000070: 4987 b43e 97e2 89be 41d7 97bd 63d1 9b3e
-0.096158214 0.20907222 -0.07407882 -0.043232743 0.104394294 0.073772356 -0.1259521 -0.05591165
0.1619061 -0.02114474 0.2942459 -0.1312314 -0.36006218 0.103174925 0.22929296 0.04793453
0.048072837 -0.0647573 -0.19509116 -0.08502639 -0.16418003 0.15808593 0.17108132 -0.025249109
0.5363114 0.56419736 0.044268593 0.07880136 0.35259464 -0.26930687 -0.07414103 0.30433187

fc3.weight f4 [3, 32]
00000000: 936e 513e bbac 7e3e fb92 6cbd efb1 71bd
00000010: dfc0 c93c 70b1 d53b 6d7a 84bd 532a b73c
00000020: 3c75 0bbd 1261 053e 9d0b ef3d a810 9ebe
00000030: 90b1 e3be 9c54 d53d 7dc4 d03c 3424 773d
00000040: a12a b53d 2eb9 b6be b3fc e03c 0dd5 fcbd
00000050: ea3b bfbe 9bd0 203d 8300 9c3e 8d9a 85be
00000060: 7cb0 283f 6f86 ff3e c4f2 333e 29ce 3a3c
00000070: 47e9 643e f44c 20be fb21 f93d 1cad 873e
00000080: 3685 adbe 0ee3 cbbe 116a 12bf a5ee 17bf
00000090: 69f3 fc3f ea47 dc3f 6955 a03c 2e2c 5a3e
000000a0: f306 843f 9059 29bf 7f5a 043f ea75 fa3d
000000b0: 9b52 02be 369f 353f fa6e 213f 88a1 03bf
000000c0: 2924 8d3f 5c00 a83d 7334 873e 8571 0ebf
000000d0: 4c43 49be 07c8 8c3f d16a 13be 41ce 3dbe
000000e0: 4028 32bd 4987 623e 69bd 1d3f 73a3 003f
000000f0: 15d7 26be a4d5 9a3c 5eed dfbe d86c 833d
00000100: f49d d73f c38e dabe b934 c4be 115a 463b
00000110: ea42 d2bd 1db6 32be 9eb3 6d3f f095 4c3f
00000120: f1ee 723c b006 a13d 11da 20be bc3e 443e
00000130: bd03 533e ae0a e53e ad86 88bd b3f7 c83d
00000140: 36f7 b8bd 6dc8 8fbe b245 4a3f f005 473e
00000150: 3701 bebd 8b41 bdbc 43ea c53e b0b6 b2be
00000160: d9e5 b83c 7d7b 80be 8f40 243f b83c 44be
00000170: a479 1cbf 12be 8c3e bc8f b53e 6db5 8bbe
0.20452337 0.24870579 -0.05775736 -0.05900758 0.0246281 0.0065213963 -0.06468663 0.022359049
-0.03404735 0.1302531 0.11672137 -0.30872083 -0.44471407 0.104165286 0.025484318 0.06033726
0.088460214 -0.35688156 0.027464246 -0.12345324 -0.37350398 0.03926144 0.3046914 -0.26094475
0.65894294 0.49907252 0.17573076 0.0114016915 0.22354613 -0.15654355 0.121646844 0.2649926
-0.33890694 -0.39821666 -0.57193094 -0.5934852 1.9761783 1.7209446 0.019571977 0.21305916
1.0314621 -0.66152287 0.51700586 0.122295216 -0.12726824 0.7094606 0.6305996 -0.5141835
1.102666 0.082031935 0.26407203 -0.5564197 -0.19654578 1.0998544 -0.14396216 -0.18535711
-0.043495417 0.2212192 0.6161714 0.50249404 -0.16292985 0.0189007 -0.43735784 0.06417245
1.6845078 -0.42687044 -0.38321474 0.0030266086 -0.10266669 -0.17452283 0.928522 0.79916286
0.014827476 0.07862604 -0.15708186 0.19164556 0.20606895 0.4473471 -0.06666312 0.0981287
-0.09031527 -0.280826 0.79012597 0.19435859 -0.092775755 -0.023102542 0.3865529 -0.34905005
0.022570537 -0.25094214 0.6416101 -0.19163787 -0.6112311 0.27488762 0.35461223 -0.27286854

fc3.bias f4 [3]
00000000: 91e5 e83e aa8d 633e 9ea9 94bd
0.45487645 0.2222201 -0.072589144

exp_avg f4 [64, 16]
00000000: ce1c 2ebb 60c8 e23a cf04 8a3a d2d7 1d3a
00000010: 965d f8b9 2cc2 9eba 1f98 ae3a 6547 d939
00000020: 8e3e 5a3a 370d 9539 9057 90ba a424 35bb
00000030: ed32 efba 4d83 96ba 1b55 cdba e14b 53ba
00000040: 9631 e2b9 eb33 053b e5c6 1b37 d17c de3a
00000050: aaee 4dba f57b 2fbb 3a20 d53a c345 81bb
00000060: e819 953a a3bd 8a3b 6ad9 903a cffc 08ba
00000070: 3162 33bb 739a abb9 2013 bfba 41b1 73b9
00000080: efcf 61bb b90e da3b 0257 ed3a 83ec 7c3a
00000090: 97e7 143b 95e8 2bbb 861d 65bb 46d3 873b
000000a0: e5f7 3fbb 8cd6 bdba 3424 88ba e27b 97ba
000000b0: e714 4eba d85a bbba d1c8 963a 2ba8 b7b9
000000c0: f280 0dbb 0268 de3b 47d2 e2b9 dbaa 793a
000000d0: ea96 8db9 5ad5 27bb db73 5ebb 3a58 873a
000000e0: 99fe fdba ee09 9738 5537 e838 cf3a 65bb
000000f0: a83e a0bb 7fd5 22b9 d23d 58bb 82ec 09bb
00000100: a9e1 beba bfa6 903a 7cc8 2938 313b 05ba
00000110: 82fa 243b edf1 db3a 0cf7 0a3a 40cb 01ba
00000120: 37cc 243a b878 55bb 9a1f 03b9 8268 1ebb
00000130: 2e06 ca3a d70f 933a 888d 96ba 9d64 0e3b
00000140: 9558 e63a bc90 b1bb 54e0 58bb 1430 0939
00000150: a91c 96bb 0ac8 e039 6e14 20bb 742f 2cbb
00000160: 5b92 74ba 49b5 143b aad2 44bb 44f5 653b
00000170: ac01 e1b9 9907 ca3a 678c b1b9 0949 8bbb
00000180: f0a4 ec3b 122a e9bb a13c 11bc d1b4 db3a
00000190: 860c da3a b492 8f3b 6244 953a fc36 003b
000001a0: 92a6 33bb d47e 35bb b162 cd3a f8a7 8b3b
000001b0: 0a4d ec3b 4519 3b3c 3e98 0c3a 6ee8 b73b
000001c0: ce01 61b9 8838 213b 838f 4d3a cd5c 5f3a
000001d0: 7366 233b 19bf b3b9 ba7a 573a 0b34 2f3b
000001e0: fda4 c0ba 1756 c5ba 46f9 58ba d0a2 feb9
000001f0: 5290 d43a 9a3c c9b9 be91 a93a 4dab 2dbb
00000200: 2de1 3ebb 8394 c8bb 8315 a2bb 4a1a 67bb
00000210: f4e2 8e3b 9124 a43b 098e 8a3b 8455 db39
00000220: abf0 cfb9 b55b c2ba 20d9 7d3b 7e29 e339
00000230: 49ff 0c3b d330 8139 e2fb 9a3a 2245 e03a
00000240: f054 7b3b ec9a 00bc 70d2 58bb b1cd 8c39
00000250: 363e b5b9 f5cd 713a c164 47bb 6890 7d3a
00000260: 188c b9b9 4212 27bb 41eb 4cb8 cb92 2f3b
00000270: 59d8 b53b 0016 253b 614f 8e3b e553 423b
00000280: 254c 25bb e6d9 3a3b 3732 db3a 73b8 73bb
00000290: 708b 0abb 11ca b7bb cb83 3a38 d2f5 9db9
000002a0: 3882 6fba bd18 c73b bdbc 23ba 5936 07bb
000002b0: 5974 86bb 2371 37bb b7fe f43a 38e8 caba
000002c0: e45f 883a a711 20bb 7c4a 093a 17a2 74bb
000002d0: 3d98 3abb 88e2 c139 4314 09ba c909 4f3a
000002e0: 68a8 c5ba e92d cfba 69d6 e639 43ca 00ba
000002f0: 13e1 223b 3fa4 a7ba fcdc 243a 0f20 d939
00000300: 78fd ea38 0be1 bd3a 500b 11ba 5fe1 7bba
00000310: 687e 29ba a00f 6dba 0928 03ba 0375 fbb9
00000320: 7ded 323a 1eb0 66ba 4556 b5ba 461d a03a
00000330: 8117 6939 fefe 0bba a369 be3a 8a3c 83ba
00000340: 73cd d43a d78c 9cbb 56a9 a4ba 2492 583b
00000350: 309f 45ba 8b2d 5a3b 6355 343a 9fa5 96b9
00000360: fadf 3d3a bc00 7fbb 5fa4 1f3b 4a8e 9c3a
00000370: 866f ec39 28ac 913a 5ceb 45ba 488a c13a
00000380: bb1c 0f3a 2a08 1ebb 4b16 20bb f92b 1fbb
00000390: c311 003a f91b a43a 609c a43a 9947 24bb
000003a0: e085 063a 10df a4ba a063 98b8 9404 3536
000003b0: 0714 57ba 6d2a 4239 e554 8039 bfe8 933a
000003c0: 966b 0f3b f40a edbb 6b0b 8cbb d080 7b3a
000003d0: 532e d23a 6596 d93b 33ce d4ba 29d9 f2b8
000003e0: 1a83 01bb 111b 89bb 1321 9d3a cf4f 6c3a
000003f0: 8db3 9c3b d7dd e03b fff9 2e38 be91 443b
-0.0026567462 0.0017302148 0.0010529998 0.00060212344 -0.00047371973 -0.0012112311 0.0013320482 0.00041442658
0.00083253614 0.0002842934 -0.0011012424 -0.0027640248 -0.001824943 -0.0011483222 -0.0015665622 -0.0008060318
-0.00043143024 0.0020325135 9.285029e-06 0.0016974454 -0.0007855693 -0.0026776765 0.0016260215 -0.003945084
0.0011375519 0.0042340322 0.0011051123 -0.00052256597 -0.002737176 -0.00032730735 -0.0014577843 -0.00023240318
-0.0034456213 0.006654587 0.0018107595 0.000964828 0.0022721046 -0.002623116 -0.0034960224 0.004145059
-0.0029292044 -0.0014483496 -0.0010386766 -0.0011557306 -0.0007861391 -0.0014294041 0.001150394 -0.00035029775
-0.002159175 0.006787301 -0.00043262748 0.00095240556 -0.00027006055 -0.0025609345 -0.0033943567 0.0010325976
-0.0019378244 7.202091e-05 0.000110729285 -0.003497768 -0.0048902817 -0.00015529057 -0.0032995832 -0.002104551
-0.0014563102 0.0011036022 4.0479455e-05 -0.00050823676 0.0025173728 0.0016780474 0.0005301095 -0.0004951246
0.0006286534 -0.0032573175 -0.00012504906 -0.0024171178 0.0015413219 0.0011219931 -0.0011486271 0.002172745
0.0017574007 -0.005418865 -0.0033092694 0.00013083249 -0.0045810533 0.0004287365 -0.002442624 -0.0026273401
-0.000932967 0.0022691062 -0.0030032792 0.0035088817 -0.0004291659 0.0015413641 -0.0003386468 -0.00425065
0.0072218105 -0.007115611 -0.008864553 0.0016762262 0.0016635812 0.004381502 0.0011388178 0.0019564023
-0.0027412516 -0.0027694004 0.0015669671 0.004261967 0.007211332 0.011419599 0.0005363262 0.0056124246
-0.00021458344 0.0024600346 0.00078415143 0.00085206033 0.002493289 -0.0003428392 0.0008219887 0.00267339
-0.0014697608 -0.0015055564 -0.0008276891 -0.0004856796 0.0016217327 -0.0003838286 0.0012937111 -0.0026499808
-0.0029125914 -0.0061212196 -0.004946412 -0.0035263472 0.004360551 0.005009242 0.0042283577 0.0004183465
-0.00039661428 -0.0014828356 0.0038734153 0.00043327728 0.0021514466 0.00024641174 0.0011824335 0.0017110447
0.0038350187 -0.007849436 -0.0033084415 0.00026856133 -0.0003456936 0.00092241104 -0.0030425044 0.0009672702
-0.00035390328 -0.002549306 -4.8856487e-05 0.0026790376 0.0055494723 0.0025190115 0.004342959 0.0029652056
-0.0025222388 0.0028511225 0.0016723339 -0.0037188798 -0.002114024 -0.005608805 4.4468597e-05 -0.00030128524
-0.00091365306 0.006075947 -0.0006246081 -0.002063176 -0.004103225 -0.0027991019 0.0018691634 -0.0015480584
0.0010404554 -0.0024424584 0.0005237234 -0.0037328058 -0.0028472089 0.00036980608 -0.00052291545 0.00078978814
-0.0015080096 -0.0015806529 0.00044028767 -0.0004912952 0.0024853393 -0.0012790038 0.0006289033 0.0004141335
0.00011205202 0.0014486624 -0.0005532997 -0.0009608473 -0.00064656744 -0.0009043161 -0.0005003219 -0.0004796163
0.00068255496 -0.0008800047 -0.0013834914 0.0012215755 0.00022229367 -0.0005340426 0.0014527332 -0.0010012549
0.0016235545 -0.0047775316 -0.0012562673 0.003304609 -0.00075386744 0.0033291306 0.00068791787 -0.00028733627
0.0007243153 -0.003891035 0.0024359447 0.0011944261 0.0004509652 0.0011113929 -0.0007550025 0.0014765942
0.0005459298 -0.0024113753 -0.002442735 -0.0024287684 0.0004885459 0.0012520544 0.001255881 -0.002506709
0.0005131643 -0.0012578685 -7.2664814e-05 2.6973767e-06 -0.00082045834 0.00018517087 0.00024477314 0.0011284574
0.0021884195 -0.0072339717 -0.004273822 0.00095940847 0.0016035534 0.006640243 -0.0016235769 -0.000115799085
-0.001976198 -0.004184135 0.0011988006 0.0009014578 0.0047821463 0.006862383 4.171766e-05 0.0029994096

exp_avg_sq f4 [64, 16]
00000000: 887a b937 afef 9337 5359 bc37 f63d 6a37
00000010: f3e9 5e37 a879 6e37 5944 4537 5d6e 5937
00000020: fe46 3e37 30f8 5f37 8446 5537 63d5 4a37
00000030: 987a a437 2747 8537 0b1f 9c37 617e aa37
00000040: 2cc2 e937 7077 6038 d45e 3638 f225 3d38
00000050: c965 c638 2312 8d38 9a41 7538 2200 7d38
00000060: 4613 0238 f610 2038 4aa6 2538 4e46 2938
00000070: 5f53 cc38 2063 a438 062b a138 fe9a 8538
00000080: a4f9 6539 3fc0 8739 f9d3 1839 1bd9 d738
00000090: 2f1e 8339 cf1b 4039 cf64 4a39 54eb 6d39
000000a0: 9717 de38 b562 3b39 669a f638 5478 df38
000000b0: c126 a639 08cc 3139 7902 7d39 ad55 8b39
000000c0: 9295 8738 37a7 9b38 3fdc 1439 c976 8f38
000000d0: e797 be38 3365 c538 1d0d 4b38 9713 9038
000000e0: 806f 4838 2704 8a38 5eeb 9638 33cb 6338
000000f0: 51e7 0539 b068 b638 fb57 0339 1f69 ed38
00000100: 82e9 9d38 4633 9138 2c9c 8a38 b56c 7f38
00000110: 1f87 0239 071d de38 a79c 0139 6b30 8138
00000120: 84c1 3438 0938 5838 358e 6638 8b93 5438
00000130: cb37 2139 f4fa e038 aeb2 d038 2aa7 0739
00000140: b3d9 d038 b7bf c438 de0c 7e38 1b55 1d38
00000150: 8cdc 6938 1302 3638 70f9 8938 2250 b938
00000160: 85f8 5738 f7f3 8238 2ba4 5638 a491 3438
00000170: e64c ac38 0b98 a338 e420 8b38 3696 ba38
00000180: b04c 7d39 7915 3039 8299 8d39 fd3c 2e39
00000190: 35b5 3139 79bf 8639 3bb6 2139 bea2 2039
000001a0: d611 0439 c49e 1239 a88b 2839 c5d3 1d39
000001b0: af30 a239 ac1c 8839 309e 3339 19c9 4439
000001c0: 0555 6638 331d 9538 100d 6538 2111 4238
000001d0: 47b1 8038 37a1 a038 6b94 a138 36c9 3738
000001e0: 4f34 1938 0fca 4b38 7885 4238 454e 1e38
000001f0: 48cc cc38 11db 9138 ede6 8b38 a26b ae38
00000200: 9b7a 0839 696f 8639 85a0 1f39 249d 1439
00000210: 7c6f d639 94bf 3639 8115 8239 914b 4739
00000220: da81 fb38 bc7f 3239 c2c8 0839 92c3 0839
00000230: 2700 d339 671b 6f39 1917 8639 82ea 9a39
00000240: 2c3f cb38 fcea c438 9961 cc38 da82 9f38
00000250: 0c06 b538 9017 a738 4903 8c38 a2c6 b338
00000260: 7181 7138 a3df 8538 2b7d 9538 6173 8e38
00000270: 2060 0139 553b 0a39 fc49 ed38 0343 e338
00000280: 4b4d 1c39 d9b7 a338 9500 a838 01ac 0439
00000290: 0954 c538 ba03 6039 1a86 2639 5a26 1f39
000002a0: 803e 7f38 9fca 9138 1e74 ae38 29e6 8f38
000002b0: e675 3d39 a318 2439 e297 da38 c548 1739
000002c0: 32d2 5038 82cf e037 6640 7538 af3d 4338
000002d0: c792 ef37 5a05 6938 95de cf37 2621 b137
000002e0: be53 e537 596a fc37 bbd1 fd37 66e2 f337
000002f0: 7abe 2638 1b21 2638 c947 2538 d261 3f38
00000300: f4f6 8b37 551b 0e38 375b 8537 6173 8a37
00000310: bd9c df37 3cf2 4e37 03fe db37 bc42 b037
00000320: b0ea 9337 12ca 5437 fdfb 9637 3631 8a37
00000330: 62cf aa37 7946 0238 2000 ba37 5d13 c237
00000340: ef28 3639 2924 fa38 8b0f ca38 f985 9238
00000350: 9bc0 6838 9587 0e39 480d c538 0a99 c938
00000360: e046 9738 9165 a838 8a54 9a38 0153 7838
00000370: fce0 fa38 32db b638 2c2b 0139 28a1 3539
00000380: 65cb a537 481c 3538 03b0 0738 32c7 0438
00000390: 90ab a138 cb1d 0d38 be97 4838 1ef9 2f38
000003a0: 8820 0938 7c33 6538 65ad 0938 7578 fc37
000003b0: eae8 5e38 2c7c 1238 a264 3d38 4eb7 5d38
000003c0: 03d4 0139 9ded b238 5320 0039 395b ce38
000003d0: 4597 2639 f5e9 9539 e70f f338 ea12 2339
000003e0: e4a9 8d38 d6e2 ba38 fade b938 60d8 9f38
000003f0: 58ef 7739 061c 3839 4da1 2639 0a27 4c39
2.2110777e-05 1.7635377e-05 2.2452941e-05 1.3961913e-05 1.3286702e-05 1.4214231e-05 1.1758028e-05 1.2959904e-05
1.1341412e-05 1.3349621e-05 1.27122075e-05 1.2089821e-05 1.960741e-05 1.5887968e-05 1.8611105e-05 2.0324429e-05
2.7866183e-05 5.3516997e-05 4.3480497e-05 4.509645e-05 9.460335e-05 6.726782e-05 5.8473648e-05 6.0320024e-05
3.1012365e-05 3.816277e-05 3.9493934e-05 4.0358216e-05 9.743007e-05 7.838593e-05 7.685092e-05 6.370804e-05
0.0002193214 0.0002589244 0.00014574816 0.00010292438 0.00025008756 0.00018320906 0.00019301775 0.00022689748
0.00010590179 0.00017870481 0.00011758953 0.000106558815 0.0003169086 0.00016956043 0.00024128881 0.0002657598
6.465161e-05 7.422122e-05 0.00014196428 6.840897e-05 9.0882e-05 9.412542e-05 4.8411184e-05 6.870104e-05
4.778756e-05 6.581126e-05 7.196398e-05 5.431026e-05 0.0001277004 8.697936e-05 0.00012525909 0.00011320621
7.5298376e-05 6.923689e-05 6.609442e-05 6.089798e-05 0.00012448103 0.00010591192 0.00012360756 6.160218e-05
4.309557e-05 5.15506e-05 5.4968714e-05 5.068215e-05 0.00015374941 0.00010727896 9.9514946e-05 0.00012936877
9.9587625e-05 9.381718e-05 6.0570303e-05 3.7510978e-05 5.575693e-05 4.3394113e-05 6.5791304e-05 8.836413e-05
5.1491446e-05 6.244325e-05 5.117447e-05 4.3050983e-05 8.2159226e-05 7.800766e-05 6.634163e-05 8.89715e-05
0.00024156529 0.00016792667 0.00027007988 0.00016616653 0.0001694754 0.0002570113 0.00015422043 0.00015319415
0.00012595145 0.0001398279 0.00016073755 0.00015051577 0.0003093532 0.00025961304 0.000171297 0.00018766931
5.4915454e-05 7.1103124e-05 5.461002e-05 4.6269157e-05 6.136536e-05 7.659423e-05 7.704723e-05 4.3817992e-05
3.652676e-05 4.8587153e-05 4.6377507e-05 3.774303e-05 9.7655284e-05 6.954943e-05 6.67105e-05 8.317015e-05
0.00013015645 0.0002564148 0.0001522322 0.0001417292 0.00040900323 0.00017428241 0.00024811554 0.0001900627
0.000119927994 0.00017022988 0.00013044759 0.00013042826 0.0004024517 0.00022803024 0.0002557568 0.0002954789
9.691561e-05 9.3897776e-05 9.745657e-05 7.606084e-05 8.631879e-05 7.9675694e-05 6.676332e-05 8.5723834e-05
5.757943e-05 6.38359e-05 7.128188e-05 6.792579e-05 0.00012338208 0.00013182808 0.00011314821 0.000108366854
0.00014906113 7.80669e-05 8.010973e-05 0.00012652577 9.409345e-05 0.00021363693 0.0001588095 0.00015177709
6.0854945e-05 6.95188e-05 8.318595e-05 6.861642e-05 0.00018068365 0.00015649437 0.000104233404 0.00014427591
4.9786824e-05 2.679951e-05 5.8472528e-05 4.654907e-05 2.8559369e-05 5.5556513e-05 2.477997e-05 2.111548e-05
2.7337923e-05 3.0090263e-05 3.0257614e-05 2.9073282e-05 3.975488e-05 3.9608316e-05 3.940592e-05 4.562905e-05
1.6685088e-05 3.3880893e-05 1.589731e-05 1.650461e-05 2.6656659e-05 1.2334956e-05 2.6225118e-05 2.101191e-05
1.763305e-05 1.2683233e-05 1.7998735e-05 1.6473798e-05 2.036215e-05 3.1060048e-05 2.2172986e-05 2.3135619e-05
0.00017372122 0.00011927664 9.635006e-05 6.986777e-05 5.5492488e-05 0.00013592684 9.396166e-05 9.6129326e-05
7.2134426e-05 8.0297825e-05 7.359039e-05 5.920511e-05 0.000119628356 8.7192646e-05 0.00012318481 0.0001732154
1.9764246e-05 4.31801e-05 3.2350432e-05 3.1656768e-05 7.709034e-05 3.3644767e-05 4.7825037e-05 4.195526e-05
3.2693642e-05 5.4645803e-05 3.282483e-05 3.0096833e-05 5.3145843e-05 3.4924757e-05 4.5154833e-05 5.286122e-05
0.00012381379 8.53196e-05 0.00012219073 9.839837e-05 0.00015887346 0.00028593806 0.00011590105 0.00015551937
6.7550485e-05 8.9114226e-05 8.86302e-05 7.622014e-05 0.00023644918 0.00017558047 0.00015891083 0.00019469499

exp_avg f4 [64]
00000000: 94bc 403b 1b03 483b a69a 193b b5a0 683b
00000010: 8930 acba 1a33 e234 df27 5fbc aeda 1eba
00000020: 02d0 5dbb 5f38 e3bb a30e 073c 010a 06bb
00000030: d67c 593a 9498 a0bb c071 a4ba 1160 1ebc
00000040: 81e3 bdba 9fd8 573c 5d6b 543c 2c3a 963b
00000050: e357 883b aada 373c f0a6 c7bb e0b5 8cbb
00000060: 94c2 16bb 9f08 9139 38c6 0d3c ea6a edbb
00000070: 1fa3 b238 f940 a9ba 308c 513c 1fcc b1ba
00000080: f00b 843b 2393 0c3c b834 7bb8 8d56 2f3a
00000090: 991a ecbb b60b 463a 4233 46bb 4b38 6ebc
000000a0: 29df 97bb 975d 183b 792a 05bc e4cf 73b9
000000b0: 7453 b33a 6590 e8b9 68ed 07bc 218b 03bc
000000c0: 56a5 a03b 41fd 343a d1ae 0f3b 4271 a53b
000000d0: ddfe 5b3c eeaa f1ba 44c0 b839 8b30 38bc
000000e0: 08ae be3c 3440 02bc d676 f639 2ca8 fe3a
000000f0: bc63 67bb e038 14bc fdb5 953a c763 9fba
0.0029409276 0.003051943 0.0023438125 0.003549618 -0.0013137023 4.2132962e-07 -0.013620346 -0.00060598075
-0.0033845906 -0.00693421 0.008243236 -0.002045274 0.0008296495 -0.004901001 -0.0012546107 -0.009666459
-0.0014487357 0.013174205 0.0129650505 0.0045845713 0.0041608675 0.011221567 -0.0060928985 -0.004294142
-0.0023004161 0.00027662978 0.008653216 -0.007245411 8.518085e-05 -0.001291304 0.012789771 -0.0013564861
0.0040297434 0.008580002 -5.989216e-05 0.0006688617 -0.007205319 0.00075548457 -0.0030242954 -0.0145397885
-0.004634757 0.0023249143 -0.008127802 -0.00023251731 0.0013681487 -0.0004435807 -0.008296348 -0.008028776
0.004902522 0.0006904193 0.0021924267 0.005048902 0.013427463 -0.0018437782 0.00035238464 -0.011242042
0.023276344 -0.0079498775 0.00047009316 0.0019428781 -0.003530725 -0.009046763 0.0011422035 -0.0012160473

exp_avg_sq f4 [64]
00000000: 5790 2c38 9eac 4f39 f855 423a b686 9539
00000010: 9f7f d739 ff40 5839 7ae3 493a dd93 6c39
00000020: cbc8 4a3a 744d 9039 92b7 133a f1a4 c138
00000030: 7fa5 4938 5170 003a 1ae3 ec38 23e2 293a
00000040: bf6e 6738 c10f 4d3a 1bfb 3a3a fd48 4a3a
00000050: b0b1 053a 1145 db3a 6c51 533a 77c1 1639
00000060: 3883 3f38 0b5e 9e38 c40a 893a 8bef 213a
00000070: 5a6b f139 d32d 7a39 d71c 5e3a 368a ed38
00000080: 185d 8739 efec 373a 48f1 ca38 fa90 3339
00000090: 78a9 e139 8bbf bf38 0fa3 c039 f706 253b
000000a0: 6e0f 9439 2183 1639 d5d1 2f3a de41 173a
000000b0: a322 3839 a724 b138 f7c9 c339 91e0 253a
000000c0: 7b3b 5c39 8241 8538 77d0 1a3a 71a7 6b3a
000000d0: 45fe 293b 48b3 2439 674f 5e39 e61e 6b3a
000000e0: 1a86 1b3b 617e 993a 545e e038 99e2 ba38
000000f0: 983b 2d3a ef06 1c3a e81f d338 3f1a 4c39
4.1142423e-05 0.00019805363 0.0007413323 0.00028519862 0.0004110308 0.00020623578 0.0007701438 0.00022561797
0.0007735609 0.00027523527 0.0005634959 9.23368e-05 4.8076265e-05 0.0004899549 0.00011295658 0.00064805354
5.5177832e-05 0.0007822477 0.00071327545 0.00077165646 0.0005100025 0.0016728957 0.0008061144 0.00014377186
4.5660156e-05 7.551544e-05 0.0010455479 0.0006177357 0.00046047085 0.00023858929 0.00084729254 0.000113267844
0.00025818567 0.0007016202 9.677053e-05 0.00017124778 0.00043041608 9.1432674e-05 0.00036742582 0.0025181153
0.00028240256 0.00014353964 0.00067069876 0.0005770008 0.0001756051 8.446845e-05 0.00037343774 0.00063277135
0.00021002993 6.354136e-05 0.00059056975 0.0008989489 0.002593891 0.00015707046 0.0002120115 0.0008969143
0.0023731054 0.0011710637 0.00010698722 8.911378e-05 0.00066083064 0.0005951961 0.00010067207 0.00019464733

exp_avg f4 [32, 64]
00000000: b67a 43ba 1a7e 9137 dd06 ed39 72be bbb9
00000010: 5e8d f0b9 5d18 c53a 91da d5b9 3609 4c3a
00000020: 178d b739 f7e0 2439 3605 e635 5b5c d1b8
00000030: 7f81 cf39 ef7e ec39 a63d 1c3a ffe3 0cba
00000040: 1065 a8ba 2dc0 3fba 0138 06ba c172 beb9
00000050: d02c 5339 64ad 22b9 5a37 9c39 0ac4 fbb8
00000060: e72b 84b9 f87c 56ba 9cfb 213a 76af 22ba
00000070: 87e4 1c3a 6f8f cd3a 04c9 43b9 4791 bd39
00000080: b977 203a 1d7c 4db9 2c3c 8dba 2b5e 053a
00000090: fbd2 cb39 00d2 0c3a e894 69b9 9b47 ddb9
000000a0: ef74 99b8 8c8c 9a39 29cf ddb9 2455 fdb9
000000b0: a771 2238 1cdf 7339 9ddb 7d39 a49c 88ba
000000c0: dcbe 83b8 e1dc dab9 4371 c8b9 75a6 273a
000000d0: 962d 0ab9 c288 03ba 1b1c 19b9 eb4b 15ba
000000e0: 63c0 20ba 89ca ea39 1dde 3bba b5a8 433a
000000f0: ed1d 413a 04ed c5b9 2d0f 4d3a c4ac 54b9
00000100: 8211 0f3b bce7 dd3a f5c5 c93a 9059 b039
00000110: cbc2 e93b c07b 0cba d206 db3a c8c8 503a
00000120: a90b 193a b8ab 7e39 6d05 593a 4e5a c739
00000130: 9505 f639 8327 7d3a 7367 2bb9 a952 6e3b
00000140: 776c 5c3b a215 963b 43b0 f33a 46fd 643b
00000150: 408a 4b3b 850e 373b 6bb5 b63a f184 6b3b
00000160: bc03 203b c985 343b 2094 463b de4d 6d3b
00000170: cdc8 23ba 80a7 b13a 957a c03b 861d e83a
00000180: 7f33 143a 23e2 873b cb1b 693a 76fe ea39
00000190: 472c 8c3a 1150 c33a 480a 42b9 cdde 6e3b
000001a0: 4a1e 653b ad54 033a 1ad6 e63a 6e75 0f3c
000001b0: 4ed6 8f38 2062 513a 4b9d b53a 9d55 193b
000001c0: 8197 093b 741f f73a bf57 943b 604e de3a
000001d0: b4bd 033b 1511 663b 31c3 963b 1f17 c53a
000001e0: 5ca1 343b 97e3 363a 5419 1f3b 1a95 e739
000001f0: bfff d437 bdb7 1a3a 58f3 693a 64bb 4b3b
00000200: f79d 8d3a 70f7 0e3a e526 c13a fd04 14b9
00000210: 883a 8b3b 2137 98ba 44ce d63a 818c ac3a
00000220: 313b 14ba 1ad5 74b9 aad3 513a 2e38 c639
00000230: e926 6aba b3b8 e339 bb4c 19ba fe85 543b
00000240: 1aca 2c3b 154b f13a 2f54 7139 d92e 3f3b
00000250: 493b d33a 8b52 ba3a 6f06 493a 6c01 223b
00000260: 8299 0c3b fcf1 2d3b a59a 943a bc59 3a3b
00000270: 3e49 94ba d816 d73a 04a8 783b ab51 563a
00000280: 368a e0b8 bd99 2c3b cde2 b439 effb f437
00000290: 7c1b 2239 3fb3 e03a 6b8f 52ba b322 af3a
000002a0: 93eb b93a 5f11 ef39 88fd 0e3a 1f30 b33b
000002b0: 69b5 79b9 b0ee 343a 8531 883a aa96 b13a
000002c0: 8524 043b 53a6 653a 0ec1 0e3b 6419 bb3a
000002d0: 250a 883a cdc7 5a3b c405 633b f577 223a
000002e0: a72f a13a dded f037 fa40 463b 80b6 a839
000002f0: f002 36b9 a461 7a39 3e7d 0c3a e52d 133b
00000300: a993 433b 2f27 593a 37e6 a83a 2a4d a839
00000310: fcf3 b93b 5165 b5ba 5af5 e83a ade5 343a
00000320: 8b60 9239 c083 3a3a 9107 5639 6bcb 193a
00000330: ce93 2db8 bb57 8f3a b23a 133a 0145 5b3b
00000340: 89f1 283b c517 9e3b 50e8 d23a 0998 1e3b
00000350: 2fa5 c93a 196d 033b 6461 ac3a a731 4c3b
00000360: 91e3 ed3a 9b0f 4e3b bd9d 483b 0a0f 403b
00000370: ce74 42ba 07ac c33a 456f c83b 72a4 ba38
00000380: 1b63 08b8 fc8e 763b 60a0 b939 0bad 7b39
00000390: 10ba c93a e857 213a 0191 68ba e009 6c3b
000003a0: 96ad 073b b3e9 f039 8eda c53a e16a e33b
000003b0: b4dc 3eb9 4e80 753a cddf 9a3a 8da3 d93a
000003c0: 5539 e73a 1d32 1f3b dd8d 823b 6b5b 943a
000003d0: 736e 043b 8d7a 5f3b 6068 733b 2518 ca3a
000003e0: 610e 2c3b 2794 bd39 c9cd ff3a 4602 333a
000003f0: cb11 2539 5585 f539 f4c1 2e3a ff3c 323b
-0.0007456945 1.7344068e-05 0.00045209276 -0.00035809312 -0.00045881694 0.0015037168 -0.0004078937 0.0007783355
0.000350096 0.00015724065 1.7137852e-06 -9.983099e-05 0.000395786 0.00045108 0.0005960114 -0.000537455
-0.0012847502 -0.0007314708 -0.00051200396 -0.00036325122 0.00020139222 -0.00015514117 0.0002979588 -0.00012005128
-0.00025209712 -0.0008182074 0.00061791553 -0.0006205955 0.0005984981 0.0015683005 -0.00018671533 0.0003615713
0.00061213557 -0.0001959656 -0.0010775379 0.00050875795 0.0003887637 0.00053718686 -0.00022276083 -0.00042205755
-7.317389e-05 0.00029477885 -0.0004230675 -0.00048319355 3.8729657e-05 0.000232574 0.00024209773 -0.0010422659
-6.282117e-05 -0.00041744768 -0.0003823136 0.00063953485 -0.00013177688 -0.0005017632 -0.00014601687 -0.00056952116
-0.00061321835 0.00044782858 -0.00071665813 0.0007463799 0.0007366825 -0.00037751358 0.0007822391 -0.00020282256
0.0021830504 0.0016930024 0.0015394079 0.00033636065 0.007133817 -0.00053590164 0.0016710407 0.0007964489
0.00058382243 0.00024287298 0.00082787016 0.0003802352 0.00046924935 0.0009657072 -0.00016346369 0.0036365187
0.0033633986 0.0045802156 0.0018591959 0.0034941002 0.0031057745 0.0027932238 0.0013939565 0.0035937394
0.0024416288 0.0027545562 0.0030300692 0.0036209743 -0.0006247878 0.0013553947 0.005873988 0.0017708994
0.00056534255 0.0041468306 0.0008892386 0.00044821546 0.0010694348 0.0014901181 -0.00018505112 0.0036448718
0.003496068 0.0005009871 0.0017611415 0.008756025 6.858689e-05 0.0007987339 0.0013856081 0.0023396977
0.0020994844 0.0018853978 0.0045270617 0.0016960613 0.0020102086 0.0035105397 0.0046009053 0.0015036798
0.0027561998 0.00069766626 0.0024276571 0.00044170843 2.539146e-05 0.0005902013 0.00089245057 0.0031087035
0.0010804523 0.0005453741 0.0014736323 -0.00014116238 0.004248921 -0.0011613109 0.0016388376 0.0013164432
-0.0005654572 -0.0002334904 0.00080042577 0.0003780736 -0.00089321897 0.00043434426 -0.00058479205 0.0032428498
0.002636558 0.0018409217 0.00023014912 0.002917221 0.0016115691 0.0014215274 0.00076685 0.0024720086
0.0021453802 0.002654194 0.0011337592 0.0028434834 -0.0011313332 0.0016410006 0.0037941942 0.00081756216
-0.00010706896 0.0026336752 0.00034501255 2.9204382e-05 0.00015459763 0.0017143263 -0.0008032235 0.0013361782
0.0014184586 0.00045598575 0.0005454649 0.005468383 -0.00023814071 0.0006902022 0.0010390735 0.001354893
0.002016337 0.0008760441 0.002178255 0.0014274535 0.0010379 0.003338325 0.0034640888 0.00061976846
0.0012297527 2.8720993e-05 0.0030251131 0.0003217943 -0.00017357967 0.00023878232 0.0005359239 0.0022457775
0.002984265 0.0008283732 0.0012885992 0.0003210095 0.005674837 -0.0013839399 0.0017773316 0.00069006794
0.0002791922 0.0007114969 0.00020411449 0.00058667985 -4.1384068e-05 0.001093618 0.0005616351 0.0033457878
0.0025778732 0.004824611 0.0016090963 0.0024199507 0.0015384312 0.002005404 0.0013151583 0.0031157525
0.0018149485 0.0031442407 0.0030611597 0.002930584 -0.0007417918 0.0014928587 0.00611678 8.8998015e-05
-3.2517226e-05 0.0037621846 0.00035405438 0.00024001689 0.0015390534 0.00061547616 -0.0008871705 0.0036016628
0.002070283 0.00045950487 0.0015095042 0.006940231 -0.0001820203 0.0009365127 0.0011815965 0.0016604528
0.0017640988 0.0024291344 0.0039841966 0.0011318749 0.0020207434 0.0034100146 0.003714107 0.0015418573
0.0026253688 0.0003615927 0.0019516285 0.0006828647 0.00015742255 0.00046829382 0.00066664745 0.0027197

exp_avg_sq f4 [32, 64]
00000000: 9028 3638 0e17 0438 ff35 3837 ece6 c437
00000010: 8e89 d537 83b9 f337 d861 2137 ed17 8e37
00000020: f0b9 8f37 5361 1637 6364 3d37 06ec db35
00000030: 4e97 6a37 487f 2137 209b 0537 07ed ad37
00000040: 491d 7837 500e 9a37 cd2b d236 7e58 e836
00000050: ef3b 9d37 e65c bf37 6407 0d37 e8e1 0238
00000060: ecce 3a38 a7dd 2037 cb81 2f38 93a1 5e37
00000070: 4cc9 aa37 7ad6 e837 c770 1138 0615 8737
00000080: d613 b837 075a ec37 82a1 9e36 94e3 9c36
00000090: 2646 7b37 cf87 d437 4806 8437 c298 c737
000000a0: a0e0 2038 78cf a936 bc77 1138 5e37 4d39
000000b0: aad9 1136 85b0 9a37 f33c e134 9403 c337
000000c0: 4579 0537 fa2f 1e37 865c 6238 61fd c337
000000d0: 0f45 2d38 0429 a037 94e7 9b37 54af 9536
000000e0: 3964 8937 2575 a336 9f0c 4537 0b8a b436
000000f0: e246 1837 3310 3a36 0bc1 3637 b174 1a38
00000100: 7d5a 0638 0751 9c38 66ff 9e38 4de3 a537
00000110: 0c51 9739 4750 ad38 ac35 7a37 c785 8b38
00000120: c090 9b38 2108 9f36 e8d6 2938 5909 6035
00000130: 0965 b137 bbd7 ad37 4bc2 a337 f5ea b838
00000140: e00d a138 42ca b638 ba05 ab37 a7a4 c638
00000150: 0725 ba38 1b66 c438 4fda 1338 7a68 e938
00000160: 1e93 7c38 9635 0338 3bf3 ce38 ebb1 9f38
00000170: 14da 5038 384e e038 9cbc 1639 ff94 8a38
00000180: 6e79 7438 17da 8c38 83f1 8036 c322 a637
00000190: 7b5d 6f38 ac75 4739 fa50 5a38 2f19 8938
000001a0: 72e1 c738 11d0 6937 e35b dc38 8b75 8c3a
000001b0: 072a 7636 b4d3 0438 616a 0c37 922b d837
000001c0: 4004 2138 81fe dc37 3586 5239 0902 2539
000001d0: 957b 1039 623c af38 d061 4239 612e 0837
000001e0: 28c1 0f38 70c6 cb37 e6cf 4d38 a9f1 9937
000001f0: c3c2 0e38 4a0a 6736 260f 7a38 6145 0d39
00000200: d013 7b37 3ff9 3f38 d5f3 f238 ef1a 1d38
00000210: 6c54 6739 d652 1b39 8432 9637 cab1 f538
00000220: 54fe ef38 3ece a536 6acb 5638 901a 9a35
00000230: 0fca de37 b60f f837 d402 1c38 aecf cd38
00000240: df25 a538 ef2f e237 c4f2 8136 438d f838
00000250: b61f ae38 5cd9 c038 ae35 e537 6abc 7738
00000260: 8d76 9b38 4b8b 1f38 664a 3438 396a 8438
00000270: 7c67 ae38 7228 5139 32e0 c438 2582 a138
00000280: 82d6 c038 b963 2f38 4e94 5f36 e953 0e38
00000290: d20d aa38 8137 b639 f151 c238 a3aa 0838
000002a0: 9ee3 8c38 f85b af37 b92a 0e39 9a7f 993a
000002b0: bf56 9136 6bc3 5038 0d4c cb36 07db e437
000002c0: 7d74 0938 7103 cb37 81b7 1d39 8deb 9139
000002d0: 5890 5139 de08 e538 e400 4339 d72f 5f36
000002e0: e96c 8c37 f559 8c37 7456 a638 7f7f 0938
000002f0: a887 9438 edbc e135 2932 e838 a304 3439
00000300: 5988 f637 21ed b138 9055 0539 f452 fd37
00000310: ffed fb39 b412 1739 efa3 c137 0d01 e338
00000320: 9312 3339 3c23 1b37 fda9 5738 e68c 9835
00000330: 6890 0638 b80a 1338 2ee0 5838 d5b8 ec38
00000340: b25a 0539 10b8 1039 88d1 1538 b5cc 1839
00000350: 8e49 1a39 758f 0a39 21dd 6838 24cc 0439
00000360: 59c2 aa38 547f 7938 0608 1d39 c3c2 d538
00000370: 69f9 de38 6cc6 2a39 4c42 7e39 c0de db38
00000380: 26cd c338 8279 c838 2f95 c936 2432 3238
00000390: 0d2f 0439 7f74 8039 b951 d538 87b6 0b39
000003a0: e11a 1a39 18ed bd37 42bd 2c39 79c7 d73a
000003b0: 74a7 d436 fd4c 7438 68cb 5137 4744 1a38
000003c0: 8f52 3f38 62ac 6438 eeb9 a739 793e 8c39
000003d0: 766c 7a39 98fb dc38 cfd4 9a39 b3c6 4337
000003e0: 1242 8938 e59c 5338 5cce ae38 e6d9 3b38
000003f0: 84c9 9938 dcc9 8236 bd29 fa38 27a8 8339
4.3429958e-05 3.1492724e-05 1.0979827e-05 2.3472552e-05 2.5455633e-05 2.9054243e-05 9.619129e-06 1.693886e-05
1.7133512e-05 8.963357e-06 1.1288651e-05 1.6385463e-06 1.3982715e-05 9.625983e-06 7.963536e-06 2.0733582e-05
1.478877e-05 1.8364895e-05 6.263587e-06 6.9244406e-06 1.8743767e-05 2.2812234e-05 8.405976e-06 3.1204807e-05
4.4538567e-05 9.588351e-06 4.184413e-05 1.3269851e-05 2.0359315e-05 2.7756429e-05 3.4675726e-05 1.6103044e-05
2.1943746e-05 2.8175315e-05 4.727569e-06 4.675656e-06 1.49770985e-05 2.533561e-05 1.5738551e-05 2.3793782e-05
3.835617e-05 5.060745e-06 3.4682205e-05 0.0001957095 2.173338e-06 1.8440429e-05 4.1953862e-07 2.3247478e-05
7.955653e-06 9.428704e-06 5.3968768e-05 2.33638e-05 4.131073e-05 1.9092586e-05 1.8585277e-05 4.460957e-06
1.6378342e-05 4.871416e-06 1.1745054e-05 5.3804883e-06 9.07641e-06 2.772559e-06 1.0892992e-05 3.682514e-05
3.2032363e-05 7.453752e-05 7.581599e-05 1.9775378e-05 0.0002886135 8.264236e-05 1.4913658e-05 6.6529545e-05
7.417938e-05 4.7395156e-06 4.0492887e-05 8.3460105e-07 2.1147092e-05 2.0723664e-05 1.9521589e-05 8.817568e-05
7.679663e-05 8.71611e-05 2.0387455e-05 9.4720446e-05 8.876068e-05 9.365027e-05 3.5250847e-05 0.00011129766
6.0218495e-05 3.128274e-05 9.868151e-05 7.6148506e-05 4.9794166e-05 0.00010695722 0.00014375377 6.6081055e-05
5.8287224e-05 6.7163426e-05 3.842813e-06 1.980493e-05 5.70691e-05 0.00019021955 5.2050666e-05 6.53736e-05
9.531052e-05 1.39363265e-05 0.00010507533 0.0010716183 3.668132e-06 3.1668416e-05 8.3694185e-06 2.5769496e-05
3.838935e-05 2.6344556e-05 0.00020077157 0.00015736384 0.00013778948 8.3558974e-05 0.0001853772 8.11703e-06
3.4273748e-05 2.429189e-05 4.906943e-05 1.8351553e-05 3.4036824e-05 3.4427671e-06 5.9618753e-05 0.00013472654
1.4965379e-05 4.5770077e-05 0.000115848765 3.74568e-05 0.00022061326 0.0001481281 1.7904917e-05 0.00011715626
0.000114437804 4.941393e-06 5.121102e-05 1.1481625e-06 2.6558553e-05 2.957122e-05 3.7195932e-05 9.813845e-05
7.874867e-05 2.696362e-05 3.872761e-06 0.000118518736 8.302873e-05 9.19576e-05 2.7323924e-05 5.9064863e-05
7.413058e-05 3.803828e-05 4.2984633e-05 6.314036e-05 8.316242e-05 0.0001994686 9.387768e-05 7.7013196e-05
9.1952286e-05 4.1816125e-05 3.3315914e-06 3.3933586e-05 8.108806e-05 0.000347551 9.265904e-05 3.2583845e-05
6.718117e-05 2.0904452e-05 0.0001355809 0.0011711002 4.3314353e-06 4.977306e-05 6.058725e-06 2.728171e-05
3.2771834e-05 2.4201088e-05 0.00015041047 0.00027832054 0.00019985565 0.000109212226 0.00018596981 3.3257436e-06
1.6740016e-05 1.673119e-05 7.9316e-05 3.2782085e-05 7.082458e-05 1.6818791e-06 0.00011071965 0.00017167865
2.9388977e-05 8.4841864e-05 0.00012715743 3.0198578e-05 0.00048051772 0.0001440745 2.308373e-05 0.00010824399
0.0001707769 9.246924e-06 5.141831e-05 1.1365889e-06 3.208258e-05 3.5057514e-05 5.1707197e-05 0.000112877846
0.00012717655 0.00013801479 3.571951e-05 0.00014572109 0.00014713986 0.00013214147 5.5519053e-05 0.0001266455
8.142432e-05 5.948481e-05 0.00014975676 0.00010192909 0.00010632241 0.00016286381 0.00024248025 0.00010484224
9.3365365e-05 9.559376e-05 6.007634e-06 4.2485204e-05 0.00012606029 0.0002450086 0.000101718535 0.0001332407
0.00014696598 2.2640961e-05 0.00016473702 0.0016462646 6.3375865e-06 5.8245834e-05 1.250473e-05 3.678005e-05
4.5614837e-05 5.451998e-05 0.0003199125 0.00026749427 0.00023882263 0.000105372805 0.00029531724 1.1669169e-05
6.5449756e-05 5.045244e-05 8.335404e-05 4.4787208e-05 7.333144e-05 3.8978014e-06 0.00011928703 0.0002511155

exp_avg f4 [32]
00000000: a281 3c38 6890 b43b 3f48 743b cae2 a23b
00000010: d5c7 02bc 5b82 87bb 1d59 b0ba b547 05bb
00000020: 04ec 73bb 08e3 ce3b 8d47 adbb 5b49 f7ba
00000030: 69c8 b23a 71f0 11bc a7d3 f4bb 5485 ba3b
00000040: acfa d5bb 832c eab9 0eca c4bb 033a d03b
00000050: 4ea3 363b 4590 16bc 1887 893a 56fb 453b
00000060: 6ace af39 4c1e 1ebb 3c06 2fbb 876c 8fbb
00000070: bdc9 5a3b 9129 fcb9 3132 983b 5455 c1b9
4.4943423e-05 0.0055103786 0.0037274507 0.004970883 -0.007982214 -0.0041354126 -0.0013454292 -0.002033693
-0.0037219534 0.0063136853 -0.0052880705 -0.0018866466 0.0013640049 -0.008907423 -0.00747152 0.0056921635
-0.0065301266 -0.00044665122 -0.006005532 0.006354572 0.0027868333 -0.00918967 0.0010492532 0.0030209622
0.00033532392 -0.0024126945 -0.0026706597 -0.004376951 0.0033384406 -0.00048096155 0.004644655 -0.00036875403

exp_avg_sq f4 [32]
00000000: 9996 9a38 1237 af39 0b7f c539 1c4a 0a3a
00000010: 8df6 ec39 b1d6 4f3a 9dbb 0339 e596 1439
00000020: 0f2c 083a 5061 263a e423 073a 6aca 7638
00000030: c49c 0339 ad55 be39 d9f4 403a 06ef df39
00000040: 29bd 1c3a 95e7 a038 f87d 7139 d360 273a
00000050: aa27 1739 1c1d 553a aea8 0639 8b08 1639
00000060: 8a60 ec38 19de 6239 91f6 3439 f309 e439
00000070: d066 1f39 d8d6 ca37 637e bc39 1abd 8338
7.371343e-05 0.00033419632 0.00037669422 0.00052753254 0.00045197122 0.0007928415 0.00012563025 0.00014170592
0.00051945535 0.0006346898 0.00051551894 5.8839483e-05 0.00012551533 0.00036303457 0.0007360704 0.0004271196
0.0005979115 7.67253e-05 0.00023030478 0.00063849724 0.00014415258 0.0008129643 0.00012842074 0.00014308297
0.00011271339 0.00021635777 0.00017257991 0.00043494962 0.00015201722 2.418032e-05 0.0003595232 6.28179e-05
