checkpoints/synth/high_energy/torsion_energy/20250611190444044031/LYS_dim_16/fold3/best_epoch=248-val_loss_epoch=5.534.ckpt (torch, 50181 bytes, 20 tensors)

fc1.weight f4 [64, 16]
00000000: 6c7c d33c 127d fe3c 8dd7 e2bd 99d7 be3d
00000010: d42d 463c c11b 543d df47 6c3d 1c4d 303d
00000020: ed0c c93c 5aa1 3abc a079 743d 5ea4 0c3d
00000030: db59 713d 2b23 6b3b 9ab8 a03d 39b0 e33e
00000040: d56a 85be b58f 0a3f cf00 17bf dbf8 c4bd
00000050: 4465 093f ee35 403e 6e56 fdbd 0c6a 4bbe
00000060: 4d60 cc3d 7fe9 533d 18f9 67bd 754a 2eba
00000070: 7365 11bd cadb 9fbc 5f86 5bbc b1bc f53c
00000080: 4db3 833d c034 e1be f68c b73b 4b44 a1bd
00000090: 7643 ddbe e0a2 8abd a4a1 d83e 0611 9fbc
000000a0: 056a d63e 0a67 1abe db02 5b3c da51 873b
000000b0: 9f52 eabd 3814 21bc c1c3 10bb 8516 8abb
000000c0: c388 6ebf 24c5 22bf 332d 1bbd 9820 783c
000000d0: 43d2 cd3e e19b 423e 4274 e8bc 32e4 94bb
000000e0: 3ab2 023e ff6d b03c 2928 cc3c 524f 89bc
000000f0: 976e 463c eddf 333e 043d ea3b efc1 06bc
00000100: 9bb5 8dbb f168 863d 2cae 0cbf 2710 42bf
00000110: 5854 d53b 7cdd 88bd fc83 00bf 145c 133f
00000120: 72ea b73c 6057 6e3d ec13 34be b344 aebc
00000130: 002f 92bc 6ed1 093b 6c6a c6bb 13ff 09be
00000140: 0fe3 50bd d5e7 c83d c117 2b3f 8351 1d3f
00000150: ae4b 3d3d b9df 45bd 8efc 55be dad0 33bf
00000160: 869f bc3c ec4c ebbc 4555 83bd 1cb5 243d
00000170: 46a8 abbc ae67 29bd 4c2f 08be 8552 b33c
00000180: bec8 91be 82f6 5e3f 60f6 863c 66c9 763d
00000190: b8ca 3bbf 85f5 de3d 9183 4a3e 4984 d5bd
000001a0: b0df 10be f80e 1d3d d655 033e eb8c 9e3d
000001b0: 80a7 563c 709f 1abe 180e 94bd 8315 f9bb
000001c0: 0284 b53d 420c 1abf 2e09 8b3e a382 edbe
000001d0: 21a1 4abd 0e2c 0dbe 12df fc3e 40cb 75bd
000001e0: fab3 9d3c 05b1 bfbb de41 213d 7459 4abd
000001f0: 4774 3f3d b347 043e 29fe 54bd 69e2 b7bb
00000200: cb71 b8bd d677 8c3d 552a 093f 6fd1 3b3e
00000210: ed23 8f3b aa35 c8be 563c 943c ae74 71be
00000220: 1276 78bd 4119 513d f36d c8bd ad49 783e
00000230: 94c0 5c3c 20bc b2bd 9e27 8dbe 1269 bebd
00000240: 9b1e b33e 29c2 88be 8373 b43d 37c8 e63e
00000250: 4e17 65be 1703 063f 8790 36bf c8db 8f3e
00000260: bbe7 293d b685 4cbc 94ea 833d d0a8 fa3c
00000270: ad06 17bd 0638 223d 87b9 5dbd 659c b3bc
00000280: c7d1 e1be ac12 563e 11f8 00bd 1189 713e
00000290: 5ed0 113e be41 b03e 8c80 eebe ae71 9e3d
000002a0: 3e82 f5bc 449a 913c b298 ea3d af40 883c
000002b0: 949d d5bc 8878 83bd a0c7 b6bd b8f1 1e3d
000002c0: 7cbc 103f 0958 7dbe 12e8 a93e 1607 8d3c
000002d0: d4ee 6d3e 7929 283f f0bf 47be 0bb1 e73e
000002e0: fa91 d53d 2aa7 dcbc d68d 16bc f4ba e2bb
000002f0: 14e0 0bbd c3c6 9a3d 4093 03bd 0a5f ffbc
00000300: 0cfe b73d 239a 67be f8ba 1ebe 7e0c fabe
00000310: c0b8 32bd 0e0b ad3d 3c8b 8b3e d346 e5bd
00000320: 27eb a23c 7d12 953d 7304 34bf 1f60 e03e
00000330: 8085 f5bc 2369 b8bc 4d50 20be e7db 9bbe
00000340: 97e9 0a3e 659d 42be 1e5c 363e 3eb0 163e
00000350: e4a7 fe3e 091f 2c3f 3ff7 17be b10c ae3e
00000360: 40d6 353c 7139 1d3d 0cfe 993d 87ab 41bd
00000370: 3723 c63d 4a9f 4fbd 6022 38bc e752 6d3c
00000380: 9ab9 873c a851 10bd 3fd8 ab3e b2a9 833d
00000390: 426b a4bc 7a0f 6a3e 1d5c 4dbe 5e2b 36be
000003a0: d99b 9fbd e4a2 803d e70a 8b3e ec4b d4be
000003b0: 08fd 9bbd 964e 82bd 6021 abbd e672 c5bd
000003c0: 0820 1a3f dda1 dc3e 9acc 10bf 12cd 003f
000003d0: 38ca d8be 6588 9a3c 16d7 d1be 4d42 233e
000003e0: e423 cebd 6326 35bc 92df 0c3e 9877 a1bc
000003f0: bd93 9cbd 227d ab3d 6c24 843d 513c 123b
0.025816165 0.031065498 -0.11076269 0.09318466 0.012095887 0.05178428 0.05768573 0.043042287
0.024542296 -0.011391008 0.059686303 0.03433644 0.058923583 0.0035879116 0.0784771 0.44470385
-0.2605807 0.5412553 -0.5898561 -0.09617778 0.53670144 0.18770573 -0.12370001 -0.19864672
0.099793054 0.05173635 -0.05663404 -0.0006648668 -0.03549714 -0.019513983 -0.013398736 0.029997202
0.06430683 -0.43985558 0.0056015207 -0.07874354 -0.4321553 -0.06769347 0.42310822 -0.019417297
0.4187776 -0.15078369 0.01336738 0.0041296305 -0.1144154 -0.009831481 -0.0022089335 -0.0042141103
-0.9317743 -0.6358206 -0.037884902 0.01514449 0.4019948 0.19004776 -0.028375749 -0.0045438046
0.127633 0.021536825 0.024921494 -0.016761456 0.012111328 0.1756589 0.007148387 -0.008224948
-0.0043246276 0.06562985 -0.54953265 -0.75805897 0.0065102987 -0.0668287 -0.5020139 0.57562375
0.02245066 0.058188796 -0.17585725 -0.021272993 -0.017844677 0.002102937 -0.006055167 -0.1347621
-0.05099779 0.098098435 0.6683312 0.614525 0.046214752 -0.04830906 -0.20897123 -0.7024056
0.023025285 -0.028723203 -0.06412748 0.04021178 -0.020954262 -0.041358642 -0.13299292 0.021889934
-0.28473467 0.8709489 0.016474903 0.060250662 -0.733562 0.10886673 0.19776751 -0.10425622
-0.1414783 0.038344353 0.12825713 0.07741722 0.013101459 -0.15099883 -0.07229251 -0.0076014413
0.08863069 -0.60174954 0.2715544 -0.4638873 -0.04947007 -0.13786337 0.4938894 -0.060008287
0.019250859 -0.00584996 0.039369456 -0.049401715 0.04674175 0.12917976 -0.0520002 -0.005611707
-0.09006079 0.068587944 0.5358022 0.18341611 0.0043682964 -0.39103442 0.018095177 -0.23579666
-0.060659476 0.051049475 -0.09786596 0.24246855 0.013473649 -0.08727288 -0.27569288 -0.09297384
0.34984288 -0.26710632 0.088110946 0.45074627 -0.22372171 0.52348465 -0.7131428 0.28097367
0.04148076 -0.012483051 0.064412266 0.030598074 -0.0368716 0.03960421 -0.05413201 -0.02192516
-0.4410536 0.2090556 -0.031486575 0.23587443 0.14239642 0.34425157 -0.46582448 0.077365264
-0.02996933 0.017773755 0.114549056 0.016632406 -0.026076116 -0.06419474 -0.08924794 0.03880474
0.56537604 -0.24740614 0.33184868 0.017215293 0.23235637 0.6568828 -0.19506812 0.4525226
0.104282334 -0.026935179 -0.00918909 -0.006919259 -0.034149244 0.07557442 -0.03212285 -0.031173248
0.089840025 -0.22617392 -0.1550101 -0.48837656 -0.043633223 0.08449374 0.27254665 -0.11195149
0.01988752 0.07278917 -0.7031929 0.43823335 -0.029970884 -0.02251107 -0.15655632 -0.3044121
0.1356567 -0.19005354 0.17808577 0.14715669 0.49737465 0.67234856 -0.1484041 0.33994058
0.011098444 0.03838486 0.07519159 -0.04728272 0.096746854 -0.05068902 -0.011238664 0.0144850975
0.016567994 -0.035234123 0.3356342 0.06428851 -0.020070676 0.22857466 -0.2005467 -0.17789981
-0.077933975 0.06281069 0.27156755 -0.41464174 -0.07616621 -0.06362645 -0.08355975 -0.09641056
0.60205126 0.43092242 -0.565622 0.5031291 -0.4234178 0.018863866 -0.4098441 0.1594326
-0.10065439 -0.011056515 0.1375716 -0.019710347 -0.07645366 0.083734766 0.064522594 0.0022313783

fc1.bias f4 [64]
00000000: 6fdb f93e bfd1 96be e205 c63e 9167 71be
00000010: 927b 39be 9f5c ee3e 83bc b93e e557 1d3f
00000020: f8dc 203f 222f a6be f6fa 843e 5bf9 0c3e
00000030: 3eec 053f 32f7 a43e 8055 fd3e 7142 c7bd
00000040: 312d 243e 7586 c23e 2bde 4d3e 0065 1dbc
00000050: cdaf 853d 5a77 b13e 4de1 903e 35d3 793e
00000060: a4f8 233f aeaf cf3e d619 c0be 8ee8 f1be
00000070: a384 f9be 3d66 783e 0341 a2be 9497 16be
00000080: b889 f03e bd26 78bc 953c 1dbf 3e41 aebd
00000090: c372 b63c dad9 633e 0a00 123f 9165 0dbe
000000a0: b688 49be 7930 eabc cd75 803e 6196 e1be
000000b0: 5c4c 313f b094 013e 339c 50bd 911f 0c3f
000000c0: 3462 0d3f 20ae 983e 3871 d93e 02a3 a53e
000000d0: 0303 10be 7ca1 bb3e a614 503e ff7a 323f
000000e0: 10d0 87be 620b 243e 3993 563e f3d3 953e
000000f0: 352a c83e 8707 fc3e c3a6 df3e fcdf e43d
0.48800227 -0.294569 0.38676363 -0.23574664 -0.18113545 0.4655504 0.36276636 0.6146224
0.6283717 -0.32457834 0.25972718 0.13766997 0.523136 0.32219845 0.49479294 -0.097294696
0.16032864 0.37993208 0.20104282 -0.0096066 0.06527672 0.3466137 0.2829689 0.24396975
0.6405127 0.4056372 -0.3751971 -0.47247738 -0.48734006 0.24257751 -0.31690225 -0.1470626
0.4698007 -0.015145955 -0.61420566 -0.08508538 0.02227152 0.22251073 0.5703131 -0.13808276
-0.19681057 -0.028587567 0.25089875 -0.44060043 0.6925714 0.12654376 -0.050930213 0.54735667
0.5522797 0.29820347 0.42469192 0.32350928 -0.14063649 0.3664664 0.20320377 0.6971893
-0.26525927 0.16019967 0.20954598 0.29263267 0.390947 0.49224493 0.43681917 0.11175534

fc2.weight f4 [32, 64]
00000000: 4b52 03be f45a a93c f121 59be 95c2 2b3e
00000010: 733a 7f3d e946 383e 182e 28bd b53b f4bd
00000020: efa6 1a3e 96dd c33d c1a9 1b3e 2434 1cbc
00000030: b943 88bd 0b91 773c c90f b5bd f6f2 06bc
00000040: 5785 58bc e0ef ac3d 90e7 acbd 16de e4bd
00000050: 84c7 0c3d ad58 13be 8cc0 99ba ef41 d5bc
00000060: 7371 e33d 9ecf 693c 3515 073d e7ce 3bbe
00000070: e294 30be 2fef 18be 4c83 2fbe 27fd 75be
00000080: 2e15 fe3e a6c8 e53d bf44 05bf 5c01 773e
00000090: c348 8a3e 8dc9 243e 8374 49bd fba9 2d3e
000000a0: 60fd 1f3d 2983 91be 082d 563d bcac d7be
000000b0: a389 30be 2858 bd3e 8910 bd3e 51a1 5dbe
000000c0: c0af f9bd 1df3 d13d 5174 6a3e 42c6 a1be
000000d0: 09dc 303e d5d4 fabd a861 d03e f55d 773e
000000e0: cd8a 5fbe 9683 c1bd 328d 553e 1669 b03e
000000f0: 42bf 0a3e 69ea 5dbd 19a2 f0bd 507f 053d
00000100: 6b19 22bd 68a3 1dbe 38c5 a73e 8778 b23e
00000110: cbf1 383e 925c 433e 52bb 41bc 1f44 b4bd
00000120: ab9e 693d 3796 f3ba ed4f 72be c410 a3be
00000130: 470a 10bd 2851 9d3d 491f a03d 2daf 983d
00000140: c4ff 8f3d a1a5 973c f366 62be fda1 a9bd
00000150: 4d35 7a3e c581 ad3c 8d7c 78be 6122 b4bd
00000160: 2106 0cbe e8c8 dd3d 4393 083d 94b7 d4bd
00000170: 4be4 45bf e943 cd3d 6df1 e53d ea1f 8ebe
00000180: f29d f83d 7844 29be b71b a13e 6e64 49be
00000190: 49eb b53d ca36 07bf 707e 7cbe d90d cfbd
000001a0: 106b 5dbe 26e5 85be dd59 5b3e 7ef1 f23d
000001b0: 7f99 19be 4084 b03e 5dd3 293d 3d1a 423d
000001c0: 714f d6bc daf6 ca3e 876b 873e 2c05 923c
000001d0: 4106 6b3d 367f 7bbe a56d 6dbe ef50 873d
000001e0: 6c9e 30be a2a3 953d 56fd da3d 9694 523e
000001f0: 933c 923e 0ed2 ce3d 84dc 733e 79fc e93d
00000200: 7494 b73c 6d0e 74bd a335 a43e 1ddf 71be
00000210: c2cf 90be 0ad3 9fbe 8962 cdbb 072d 58bd
00000220: 4f15 353e 69c2 fd3d 8802 bdbd 0117 92bd
00000230: 489b 5c3c 004b bdbd 189a bc3e 5e1f d4bd
00000240: 5aab 2fbd 502c b63d cf3b 823d 249e c3bd
00000250: d1cd 013e 7055 7a3e 4b2c 25bf 1266 00bf
00000260: 7af5 b3be ace4 a53c 308d 503e 6557 363f
00000270: 5ffb 933f 9153 3fbd 5b7d 263f 4155 253e
00000280: 0ba3 c2be 9b95 7b3e 8a16 ebbc 632e 633d
00000290: 6692 e5bd 1607 973d d239 8cbe 852d fbbe
000002a0: 6b54 973d a31a f6bd 2f9e 80bd f010 bbbc
000002b0: 3cbe 023f f4a0 be3d e8fa fe3d 8b98 f6bd
000002c0: 1777 423d fe8d 873d 858b 073e 1ca1 ed3d
000002d0: 5bf9 95bd 4cd0 19bc 38b0 95bd fc08 b2be
000002e0: 05f8 583d 4294 e7be 4ba3 5bbd f079 07be
000002f0: 05b9 c1be b054 f33e ff11 993e 8b4e 50be
00000300: 2461 9c3d 5420 ddbd 2eb2 fe3e 499b 38bf
00000310: 4983 323e 2651 8d3e 533d 943e 228a 42be
00000320: a595 6cbe c74f 073e 8c36 02be b757 173e
00000330: 6c3a 40be 4a4a 4d3d 7e65 463b 1958 24be
00000340: b407 bbbe 5814 3cbe 53cd 36bc f802 a8bd
00000350: c9ab 8c3d 32f3 1c3e c9e3 b9be 39eb 3fbf
00000360: 09f4 cfbe dbfd e63d 16b3 603e 207c 2e3f
00000370: 6a4d 05bc 4c34 a2be 0f09 8c3e 20e4 9aba
00000380: 666d 2bbf 6226 903d 0ef0 c9bc 9413 25bf
00000390: 55f7 db3d b715 ab3c 2742 af3e 0641 22bf
000003a0: 353d bdbd f628 9dbd 866d 1ebf 1d23 4f3e
000003b0: b03b 353f 6ff2 12bd f019 c13e 8503 e3bc
000003c0: f429 1a3f 9440 393d 5abe 023e f93a 08be
000003d0: e08a 843d 1214 49bf 0034 1a3e d57a 053e
000003e0: 9a49 db3c 78f0 873e 4f11 643c 6ea7 453e
000003f0: 6fce d6bd a98b f63e 8ea6 e13e 55d9 a5be
-0.12824361 0.020673253 -0.21204354 0.16773446 0.0623116 0.179958 -0.041059583 -0.11925451
0.15102743 0.095637485 0.15201475 -0.009533916 -0.06653542 0.0151102645 -0.088409014 -0.008236637
-0.013215384 0.0844419 -0.084426045 -0.11175172 0.03436996 -0.14389296 -0.0011730357 -0.026032416
0.11105623 0.014270691 0.03297921 -0.18340646 -0.17244294 -0.14934991 -0.1713993 -0.24022351
0.49625534 0.11219911 -0.52058023 0.24121612 0.27008638 0.1609251 -0.04918338 0.16959374
0.039059997 -0.2842038 0.05228904 -0.42123973 -0.17240004 0.3698132 0.36926678 -0.21643569
-0.12191725 0.10251448 0.22895934 -0.3159657 0.17271437 -0.12247626 0.40699506 0.24156936
-0.21830292 -0.09448926 0.20854643 0.34455174 0.13549522 -0.05417863 -0.11749668 0.032592118
-0.03957502 -0.15394366 0.32767653 0.3485758 0.18060987 0.19078282 -0.011824446 -0.088020556
0.057036083 -0.0018584196 -0.23663302 -0.3184873 -0.03516605 0.07681495 0.07818467 0.07455287
0.07031205 0.018511595 -0.22109585 -0.0828285 0.24434395 0.021180043 -0.24266262 -0.0879562
-0.13674213 0.108293355 0.033343565 -0.10386577 -0.7730147 0.100227185 0.11227689 -0.27758723
0.12139501 -0.16530025 0.31466457 -0.19667217 0.08882768 -0.52817976 -0.24657607 -0.10110063
-0.21622872 -0.2615139 0.21420999 0.11862467 -0.1499996 0.344759 0.041461337 0.047388304
-0.026160927 0.39641458 0.26449224 0.017824732 0.05737901 -0.24560246 -0.23186357 0.06607234
-0.17247933 0.07306601 0.10692851 0.20564494 0.2856184 0.100986585 0.23814589 0.114251085
0.022409655 -0.05958407 0.32072172 -0.23620267 -0.28283507 -0.31215698 -0.00626785 -0.052777316
0.1768391 0.123905964 -0.092289984 -0.07133294 0.013464756 -0.09242821 0.36836314 -0.10357545
-0.042888023 0.08895171 0.06359064 -0.09551647 0.12676169 0.24446654 -0.6452071 -0.50155747
-0.3514822 0.02025064 0.20366359 0.71227103 1.1561087 -0.046710555 0.6503503 0.16145803
-0.38015017 0.24568789 -0.02869727 0.05546416 -0.11209564 0.073743984 -0.27387863 -0.49058166
0.07389148 -0.12016799 -0.06280171 -0.022835225 0.51071525 0.09308043 0.124502 -0.12040814
0.047476854 0.0661888 0.13236816 0.11602995 -0.073229514 -0.009388041 -0.07309002 -0.3477248
0.052970905 -0.452303 -0.053622525 -0.13230109 -0.3783647 0.4752555 0.29896542 -0.20342462
0.076357156 -0.10797182 0.49745315 -0.72111946 0.17432894 0.27600974 0.28953037 -0.18998006
-0.2310396 0.13214026 -0.1271612 0.14779554 -0.18772286 0.050119676 0.0030272896 -0.16049232
-0.36529315 -0.18367136 -0.011157352 -0.08203691 0.06868703 0.15327147 -0.363066 -0.74968296
-0.40615872 0.11278888 0.21943316 0.6815815 -0.008136133 -0.31680524 0.2735066 -0.0011817254
-0.66963804 0.07038571 -0.0246506 -0.64483 0.10740534 0.020884378 0.34230158 -0.6338047
-0.0924019 -0.07673828 -0.6188587 0.20228238 0.707942 -0.035875734 0.377151 -0.02771164
0.60220265 0.045227602 0.12767926 -0.13303746 0.06471801 -0.7854625 0.15058899 0.13035138
0.026768494 0.2655065 0.013920142 0.1930215 -0.10488593 0.48153427 0.44072384 -0.32392374

fc2.bias f4 [32]
00000000: 22ef 29bc a8e0 af3e 06c2 79be 10bd 6abe
00000010: d916 b03d 97d6 9a3d 8c15 9e3d 4b14 c73d
00000020: f7e3 f3bd 20ab 9d3e 7270 243e f789 173e
00000030: e7ff a23d bb44 09bd ae93 483e 6ef1 453c
00000040: a4a6 203d e1dd 143e fa1f 3b3e 453a 543e
00000050: 70f5 463d 528f 023d 62ee 53bd 9062 713e
00000060: 3c33 003d e485 a63d b009 37bc 692e 863c
00000070: cca9 d7bd 1d6b 04be 7429 34bd fbbb 623e
-0.010371955 0.34351087 -0.2439042 -0.22923684 0.08598108 0.07560461 0.077189535 0.097206675
-0.11908715 0.3079462 0.1605852 0.14798723 0.07958966 -0.033512812 0.19587585 0.012081487
0.03922142 0.14537765 0.18273917 0.20725353 0.04857391 0.031874962 -0.05174101 0.23572755
0.03129886 0.08131006 -0.011171743 0.016379552 -0.10530433 -0.12931485 -0.043984845 0.22142021

fc3.weight f4 [3, 32]
00000000: ebae 23bf 57f3 1b3f 85bd 27bf 93d2 a4be
00000010: df7e 233f a3b0 a03d 3627 bb3e 8e8c 403e
00000020: edd6 2ebf 9480 ea3e 05cf 83bd 1fd1 66bc
00000030: 4e08 4dbf d9d7 14be 6f76 e7bd 02ea 9f3e
00000040: e6af 28bf 6429 d53d 0eee b23e d6e2 7e3e
00000050: c8fe 283f c5ab 0bbe 19f7 3ebd 1aee 8f3e
00000060: b93e 373d 0a5f 44be ab5a 82be 6ec6 50be
00000070: ca76 6d3f f227 a8be 16a2 11bf 7e66 0f3c
00000080: c234 a7be e384 003e e943 ca3f 29c6 0b40
00000090: 462a 7c3b 61b8 9fbd 02fb 903d 59f9 3d40
000000a0: f09d 533e 5385 d4bb 5605 36bc e87d c7be
000000b0: 680e 82bc 014e 2e3e 52c0 16bd 8a17 2340
000000c0: 74a7 03be 5c22 50be 6a08 6dbd 44ba b5be
000000d0: 5427 d83e faae 3a3e 69f4 6abd 4e28 e2bd
000000e0: 0975 d43f 25c6 83be 2f48 103e a1ee 2b3e
000000f0: 8cc3 d43f 1727 163e 6b1a 19be 7ae1 873d
00000100: 5840 4bbd ab9c 0b3e 4dfe 08be ae71 9cbd
00000110: 475b 813f b79b 5a3f 87ad aebe 897c 053f
00000120: 232f e63d 12df a93e 7008 4c3f 04c4 17bf
00000130: fe3c bbbc f82a e1be 7823 613f 7f2e 01c0
00000140: 63fb c83c b3a8 0abf 0379 d23e 984f c93e
00000150: 62e8 31be cfa5 4c3f f6dd 923d 08a4 babe
00000160: e06d a7bd eedd 07be e796 e33d 427f 863e
00000170: adfd 933d 6a35 c03e 9b8f 33be e626 34bf
-0.6393878 0.6091818 -0.6552356 -0.32191905 0.63865465 0.07846191 0.36553353 0.18803617
-0.682967 0.45801222 -0.0643597 -0.014087944 -0.80090797 -0.14535464 -0.11301886 0.3123322
-0.658934 0.10408285 0.34947246 0.24891219 0.66013765 -0.13639744 -0.04662237 0.28111345
0.04473755 -0.1917688 -0.254598 -0.20388195 0.9275938 -0.32842976 -0.5688795 0.008752463
-0.3265744 0.12550692 1.5801975 2.1839697 0.0038477345 -0.07798839 0.07079126 2.968344
0.20665717 -0.00648562 -0.011109671 -0.38963246 -0.01587601 0.17021944 -0.036804505 2.5483117
-0.12856847 -0.20325607 -0.057869352 -0.35493672 0.42217505 0.18230811 -0.057361994 -0.11042844
1.6598216 -0.2573711 0.14090036 0.16790248 1.6622176 0.14663349 -0.14951484 0.06634803
-0.04962191 0.13633983 -0.13378258 -0.0763887 1.0105981 0.8539385 -0.34116766 0.5214315
0.11239459 0.33178002 0.79700375 -0.5928347 -0.022856232 -0.43978095 0.87944746 -2.018463
0.024533933 -0.54163665 0.4110795 0.39318538 -0.17373803 0.79940504 0.07171242 -0.3645327
-0.08175254 -0.13268253 0.11112767 0.26268965 0.07226119 0.37540752 -0.1753525 -0.70371854

fc3.bias f4 [3]
00000000: 3d94 a33d d59d d23c 7513 f53d
0.079872586 0.025710026 0.11966602

exp_avg f4 [64, 16]
00000000: f079 28b9 232d c83a 4771 a03a 5470 1cba
00000010: 766c 50ba 64cd b0ba 4fdd 01b9 fd8f 213a
00000020: ac3c 10ba 4c87 e639 057b 113b 0d0c 73ba
00000030: 8d63 e5ba 8099 143b 30ba b1ba 6d02 6d3a
00000040: 4054 18bb add5 da3a 2921 20ba 2e68 8d39
00000050: d6fb 80ba 6801 433b 8dec b63a d0c0 1cb8
00000060: 3965 ee39 39fc 5e3a 5e95 20b9 82f5 0b3a
00000070: d49a b139 a43d e8ba 472e a33b 1a34 f3ba
00000080: f571 883b 3c58 74bb d2bc 25bb 777a 44b9
00000090: e915 bbba 0745 393a 9232 eeb9 6694 a8ba
000000a0: e154 8a3a 5ffa 03bb a5bb 723a c0c8 943b
000000b0: db06 003c aad8 23b6 7cec 403b 872d 5eba
000000c0: f268 20bb 34e5 953a b7fe 7a3a 49a8 ed3a
000000d0: 2a04 863a bf88 7e3b fc61 0fbb 1887 03ba
000000e0: 92a9 a73a 179a 1fba a288 23ba 02f2 023b
000000f0: c8e7 46bb def8 b83a be82 12ba 6a0e 07ba
00000100: e70c 233b de83 18bb af1e a4ba c495 cd3a
00000110: 632b 2fba 1ed8 ba3a 48ac 9dba fb26 e53a
00000120: f99d 9eba 0aeb ef3a 50ef d1ba c3c3 5db8
00000130: fdbb 2739 93b4 e1ba 57aa 2fb9 f217 9bba
00000140: af02 67b9 a46a c9ba 2d25 583b e5a8 0d3b
00000150: ca03 293b 7699 09bb a78f 013b 07e3 a23b
00000160: d7c3 b2ba 3793 193b 5936 923a d8fd 25bb
00000170: 6e2a eebb 0aed bcbb 4335 4037 b506 d5ba
00000180: 941b 1f3b b42d ecba a28f 3dbb 5e48 863a
00000190: a89f 28ba 2cb3 1139 86a3 0dbb af5c d23a
000001a0: 6dd7 0cb9 69e9 7cb9 e2d2 7cbb a002 65ba
000001b0: 3221 823b f710 cb3a 6a1d 083b 7593 e8ba
000001c0: 5adb 8fb9 fd8c b53a cd19 cfb9 445c fbb9
000001d0: 4e43 b13a f5ff 093b 07aa 6aba 9527 31b9
000001e0: c414 14bb 4b4f 62ba ec4d c33a af00 133b
000001f0: 5093 b839 f953 0c3b f94a 10bb 0cb1 aa3a
00000200: 8a0f 54bb 24a6 a53a 0635 c03a 0498 43bb
00000210: a4b5 143a 1ad7 1c3a 659f 89ba f5ad 00bb
00000220: 302a 333b c2ef 85ba 0551 dd38 f46c 2fbb
00000230: a98b 753a bcad dbb9 cd40 cd3a bff7 e0b9
00000240: a4d0 db3a 1309 80bb ed80 bc3a 19ec 563a
00000250: 5886 723a 9de2 3139 745a 243a 9c9d f83a
00000260: 137d 873a b456 adba f3e0 5bbb 8a18 9439
00000270: 5d71 043b 3874 1fbb f4d4 b3ba 86f6 ff39
00000280: d6d6 23bb 025f d43a bded 4a3a 49fa 913a
00000290: 63ef 313b 2bf6 fdb9 635b 4b3a a492 583a
000002a0: d966 a63a bd79 163b 6c88 1039 a534 6d3b
000002b0: 7288 27bb 9dd0 a9ba 7bba 103b 9d81 c73a
000002c0: a3c7 d9ba 2bed 4f3a d288 12bb 3ae1 8239
000002d0: 5f74 c539 10d8 eab9 3296 9c3a a406 61bb
000002e0: f44b f939 9ee1 093b 31f0 853a 75f0 513b
000002f0: e70d 8d3b 5aaa 903a a2b9 7f3a b24b 1b3b
00000300: e40c 2bbb 0a0f 333b 88ef 243b f114 38bb
00000310: ba55 aa3a 0a1c a43a 6488 bfba 71a9 73bb
00000320: b3ee df3a 7d9e b8ba f9e3 f23a 3830 f138
00000330: 0ebc 373b 47a5 2a3b 5cbc ea37 f669 373b
00000340: 8fe7 02bb 5171 c139 05c1 ceb9 523a 9738
00000350: dd44 fe3a e6da 48ba 0fab a63a 08d2 6a39
00000360: 5cff 14ba 9afa 603b 403d 9738 c585 943a
00000370: 5eda 47b9 24f2 673a f515 d93a 1741 853a
00000380: 6a21 a0b9 fbdb 66ba 719b d4b9 3cdd f3ba
00000390: 4aec 70ba 6ccf 7837 7c1c 82b9 e7bb 1ebb
000003a0: 777f e73a d3c5 02bb c918 14bb a1cc 5039
000003b0: 05d6 833b 4818 ab39 ed04 d33a 1730 20ba
000003c0: a190 fcb9 9cf9 8a3a 067b 90b8 aec3 8cb9
000003d0: 07b5 823a 0f81 4839 e330 15ba f26e 643a
000003e0: f3b4 a539 4953 4d38 a2ac 003a 7981 6bb9
000003f0: 5649 83ba 0b2d c738 3efd 2c38 74db 62b9
-0.00016067154 0.0015272241 0.001224079 -0.0005967666 -0.0007950732 -0.0013488946 -0.00012384843 0.00061631185
-0.0005502205 0.00043969823 0.002219857 -0.000927151 -0.0017500982 0.00226745 -0.0013559517 0.0009041194
-0.0023243576 0.001669576 -0.0006108457 0.00026971236 -0.0009840678 0.0029755477 0.0013955996 -3.737287e-05
0.00045470314 0.0008506212 -0.00015314433 0.0005339013 0.00033875427 -0.0017718566 0.004979882 -0.0018554956
0.0041639754 -0.0037284037 -0.0025289548 -0.00018737638 -0.0014273498 0.0007067476 -0.00045432575 -0.0012861609
0.001055386 -0.0020138246 0.00092595286 0.004540533 0.0078141345 -2.4415008e-06 0.002943783 -0.0008475412
-0.0024476615 0.0011436106 0.00095746986 0.0018131818 0.001022463 0.0038838831 -0.0021878472 -0.0005017384
0.0012791625 -0.000608833 -0.00062383164 0.0019980674 -0.0030350555 0.0014112254 -0.000558894 -0.0005151989
0.0024879517 -0.0023271958 -0.0012521351 0.0015684892 -0.00066821853 0.0014255082 -0.0012029493 0.001748293
-0.0012101523 0.00183043 -0.0016016755 -5.2872823e-05 0.00015996392 -0.0017219953 -0.00016752757 -0.0011832698
-0.00022030876 -0.0015366864 0.0032981143 0.0021615562 0.0025789612 -0.002099601 0.0019769461 0.0049709114
-0.0013638687 0.0023433694 0.0011155113 -0.0025328305 -0.0072682416 -0.005765562 1.1456493e-05 -0.0016252609
0.0024277912 -0.0018018992 -0.0028924723 0.0010244956 -0.0006432482 0.00013895024 -0.002161236 0.001604935
-0.00013431693 -0.00024119545 -0.0038577844 -0.0008736048 0.0039712423 0.0015492727 0.0020769485 -0.0017744141
-0.00027438515 0.0013851222 -0.0003950134 -0.00047943194 0.0013524087 0.0021057103 -0.00089517277 -0.00016894781
-0.0022595385 -0.00086330314 0.0014900542 0.0022430827 0.0003520497 0.0021412356 -0.0022017343 0.0013022735
-0.0032357895 0.0012638015 0.001466424 -0.0029845247 0.00056728185 0.00059829804 -0.0010499774 -0.0019634936
0.0027338378 -0.0010218548 0.00010553192 -0.0026767822 0.0009366819 -0.00041900377 0.0015659571 -0.00042909195
0.0016770554 -0.0039073317 0.0014381685 0.00081986334 0.0009251586 0.00016964455 0.0006269582 0.001896787
0.0010336958 -0.0013224692 -0.0033550828 0.00028247043 0.0020209171 -0.0024330746 -0.0013720081 0.00048821064
-0.0024999878 0.0016202631 0.0007741114 0.0011137213 0.0027150742 -0.0004843933 0.0007757453 0.0008261597
0.0012695446 0.0022960745 0.00013783731 0.0036194709 -0.0025563505 -0.0012955848 0.0022083807 0.0015221123
-0.0016615283 0.0007931764 -0.0022359383 0.0002496334 0.0003766147 -0.00044792937 0.0011946617 -0.0034336234
0.0004754957 0.002103902 0.0010218677 0.0032034193 0.004304636 0.0011037097 0.00097551395 0.002369624
-0.0026100213 0.0027322196 0.0025167186 -0.0028088654 0.0012995519 0.0012520563 -0.0014612791 -0.0037179852
0.0017084688 -0.0014085319 0.0018531076 0.00011500757 0.0028035673 0.0026038454 2.7982685e-05 0.0027986742
-0.0019974445 0.00036896256 -0.00039435193 7.211104e-05 0.0019399185 -0.0007662013 0.0012715774 0.00022394222
-0.00056838035 0.0034329058 7.21165e-05 0.001133137 -0.00019059467 0.00088480324 0.001656233 0.0010166493
-0.00030542474 -0.00088065834 -0.00040551604 -0.0018605362 -0.0009190483 1.4830246e-05 -0.00024816755 -0.0024220885
0.0017661889 -0.0019954338 -0.002259778 0.00019912656 0.004023316 0.00032633753 0.001609949 -0.00061106816
-0.00048172942 0.0010602954 -6.88937e-05 -0.00026848674 0.0009972163 0.00019121564 -0.00056911836 0.0008714042
0.0003160607 4.8953374e-05 0.0004908537 -0.00022459579 -0.0010016363 9.497449e-05 4.1243846e-05 -0.00021634792

exp_avg_sq f4 [64, 16]
00000000: 2539 fc37 bf7f 0e38 e832 f437 91ef d537
00000010: 6d3c ea37 b195 4938 2313 3538 b290 ec37
00000020: 4c87 b737 f43c a937 1932 c237 0bcf bf37
00000030: 9fc7 b537 c966 bb37 bcfc c737 1e88 c937
00000040: 014e c238 0d19 ed38 146d e338 fe9d 9a38
00000050: e6f5 8f38 20af 5a38 cc71 5538 2d8c 8738
00000060: 28b2 8f38 64a5 9738 f65c 9138 e149 9438
00000070: 1bd4 8f38 8d36 9038 6cd5 9038 710d 9238
00000080: 926c cc38 2b23 ee38 dcc9 d338 ee4e d338
00000090: ec89 0339 0a9a 0b39 a3b1 ef38 ae64 e538
000000a0: 6d1e c538 d074 de38 54b5 c938 5936 c538
000000b0: 635a d638 9da6 de38 bbe1 d138 ff16 c738
000000c0: 31db ab38 8faa 8f38 300b b738 f440 a838
000000d0: 95e0 f538 097d 1239 fc63 bb38 42cf b138
000000e0: 2c3a d238 0782 c638 1147 a838 9290 aa38
000000f0: b989 9338 52fc a038 b416 aa38 cc5d a238
00000100: 3969 1d38 ea50 2a38 e699 1f38 2994 2638
00000110: 4f91 4238 48f3 5838 e6b7 6e38 75ac 7c38
00000120: 1b89 3238 6ff1 3838 8b18 2a38 c93a 3238
00000130: 0943 2438 71f0 2738 197f 3338 28f4 3738
00000140: 5763 8c39 0c50 9039 2e5f 9839 9ec7 8339
00000150: 0da7 6239 156c 7439 69d3 7739 7bda 7839
00000160: ed41 6839 a119 6f39 ed9b 6a39 635a 6839
00000170: 1e35 7139 da18 7039 533d 7339 ac83 6539
00000180: f9e1 dc38 d41d d338 ba75 c238 c196 b638
00000190: 2a0c a538 5dd6 d438 0577 c838 1460 ba38
000001a0: 2ef4 aa38 c422 b438 9f7b b738 8cf3 ae38
000001b0: bfe2 b138 9a6e b038 8919 b538 eea4 ac38
000001c0: 844c 9438 ce7d a038 a8da 8a38 a0a7 7a38
000001d0: de5e 6538 fde6 7f38 46b2 a538 e598 8138
000001e0: 2734 6b38 518c 6d38 ddbb 7138 4fa4 6838
000001f0: 17b2 7a38 bf46 6738 cb44 7038 7ef1 7538
00000200: e277 3d38 14d7 6138 9d82 3d38 a914 1c38
00000210: 98d9 3038 623b 7c38 fac8 6f38 85b7 3e38
00000220: 8077 2038 866b 2f38 8f33 2838 517d 2338
00000230: bca9 1b38 325f 2138 5bd9 2538 fc9c 2838
00000240: aefc 9338 5ca0 9f38 2db5 c538 faa0 8938
00000250: e7e8 9038 81b0 a038 4eb1 7d38 05df 8e38
00000260: 3d0a 8838 6c95 8038 ff7a 8738 c0f8 8238
00000270: 70c4 8638 e6e0 9138 2616 8e38 533b 8438
00000280: 81c6 d438 59d1 d338 05f3 ee38 1c10 af38
00000290: 614d c638 a2c1 e238 e873 a938 5fb0 b338
000002a0: 540f b038 426c af38 759b b638 77f6 af38
000002b0: e9f0 a738 5704 bc38 6643 aa38 b67a a838
000002c0: 123e 8f38 2b87 b738 fc2f d138 3b0f 8938
000002d0: e671 8b38 c5e1 8738 92e4 5e38 dcde 8e38
000002e0: 4aa7 7f38 2b37 8138 78ca 8738 f1f1 8538
000002f0: 2af0 8a38 312b 8138 2a61 8838 1865 7238
00000300: f2e7 1a38 c0e0 2638 917d 1438 7588 0c38
00000310: ab1f 3738 4a05 4f38 3ed3 6c38 8648 7038
00000320: 0a4c 2138 ca24 2238 e0ab 1c38 6236 1538
00000330: 6823 1738 f10b 1d38 261d 2a38 0df1 3338
00000340: 83d0 3e38 ae15 5b38 a3d4 5338 1bd6 2338
00000350: c34c 2a38 24c0 1838 8bc8 1b38 82f7 2438
00000360: 9c56 2538 0db6 2038 c2b7 2238 695a 1938
00000370: 3601 1f38 da3c 3338 c807 2438 c02b 2138
00000380: 7d2b 8838 845b 7438 f237 8e38 2f41 8138
00000390: 5cee 9d38 5a4d de38 ad30 b938 f69f a138
000003a0: 0f82 8738 3540 8b38 814b 8538 3b21 7a38
000003b0: 31ac 7538 2ceb 8138 7611 8338 d166 8438
000003c0: fa77 ad37 879c 9437 d99f 9037 1ee2 7837
000003d0: 501c 7f37 0259 9837 726f 8637 23fb 8937
000003e0: 01e8 8237 6d50 7a37 6d71 7f37 e657 7137
000003f0: 0694 8337 73d0 8a37 17ac 7137 6365 8037
3.0067351e-05 3.397441e-05 2.9110772e-05 2.5503135e-05 2.7923112e-05 4.8061545e-05 4.3171585e-05 2.8200771e-05
2.1878303e-05 2.0174753e-05 2.314993e-05 2.2865386e-05 2.1669837e-05 2.234e-05 2.3840337e-05 2.4024452e-05
9.26517e-05 0.00011305707 0.00010844521 7.3727206e-05 6.8645735e-05 5.2138348e-05 5.088914e-05 6.4634114e-05
6.8519555e-05 7.2310475e-05 6.931454e-05 7.070951e-05 6.858279e-05 6.876616e-05 6.906208e-05 6.964326e-05
9.747701e-05 0.00011355275 0.00010098863 0.00010075966 0.00012544513 0.00013313457 0.000114294955 0.00010938324
9.399359e-05 0.00010607543 9.618202e-05 9.403815e-05 0.00010221151 0.00010616819 0.00010007942 9.493343e-05
8.194743e-05 6.8505404e-05 8.728204e-05 8.022963e-05 0.00011724342 0.00013970224 8.9354784e-05 8.4786225e-05
0.00010024416 9.465595e-05 8.0241014e-05 8.13316e-05 7.035159e-05 7.676393e-05 8.1104605e-05 7.742233e-05
3.7529713e-05 4.0606516e-05 3.8051883e-05 3.971547e-05 4.6388534e-05 5.1724986e-05 5.691489e-05 6.0242095e-05
4.2566196e-05 4.409387e-05 4.0554016e-05 4.2493255e-05 3.916308e-05 4.003983e-05 4.2795295e-05 4.385799e-05
0.00026776895 0.0002752546 0.00029062614 0.00025134993 0.00021615271 0.00023309917 0.00023634512 0.00023732513
0.00022149803 0.00022802364 0.00022374066 0.00022158916 0.00023003339 0.00022897442 0.00023197131 0.00021888193
0.00010532508 0.0001006682 9.272569e-05 8.7065164e-05 7.870079e-05 0.00010148876 9.558912e-05 8.887067e-05
8.151714e-05 8.5895444e-05 8.749146e-05 8.342331e-05 8.4822525e-05 8.412935e-05 8.635509e-05 8.23232e-05
7.071442e-05 7.6528275e-05 6.621081e-05 5.9760758e-05 5.4686207e-05 6.1011862e-05 7.901019e-05 6.179678e-05
5.6076937e-05 5.6635883e-05 5.763384e-05 5.5466135e-05 5.9770504e-05 5.514058e-05 5.7284527e-05 5.863746e-05
4.517276e-05 5.3844487e-05 4.5182755e-05 3.721254e-05 4.216432e-05 6.0136786e-05 5.7169214e-05 4.5470446e-05
3.8258266e-05 4.182339e-05 4.010234e-05 3.897894e-05 3.7112957e-05 3.847405e-05 3.9541494e-05 4.0200524e-05
7.0565715e-05 7.61158e-05 9.4274386e-05 6.562653e-05 6.9098365e-05 7.662271e-05 6.048503e-05 6.812628e-05
6.4868924e-05 6.1313476e-05 6.4602114e-05 6.245216e-05 6.426207e-05 6.9560294e-05 6.775213e-05 6.3053005e-05
0.00010145922 0.00010100258 0.0001139399 8.347651e-05 9.455789e-05 0.00010812587 8.080137e-05 8.568237e-05
8.395189e-05 8.364815e-05 8.7073924e-05 8.390558e-05 8.0080536e-05 8.965347e-05 8.1187856e-05 8.033721e-05
6.830333e-05 8.751297e-05 9.9748344e-05 6.535506e-05 6.649252e-05 6.4793545e-05 5.3141797e-05 6.8125984e-05
6.0952538e-05 6.161475e-05 6.4750144e-05 6.386999e-05 6.625087e-05 6.1592444e-05 6.5030836e-05 5.7791447e-05
3.6932477e-05 3.97868e-05 3.5402893e-05 3.3505687e-05 4.3660093e-05 4.935757e-05 5.646352e-05 5.7288e-05
3.8456208e-05 3.8658072e-05 3.735337e-05 3.5575016e-05 3.603418e-05 3.744284e-05 4.0558305e-05 4.290142e-05
4.549372e-05 5.223386e-05 5.0504354e-05 3.906163e-05 4.060265e-05 3.641857e-05 3.714165e-05 3.9331157e-05
3.9419727e-05 3.831652e-05 3.8794948e-05 3.6562244e-05 3.7909682e-05 4.2733598e-05 3.9107894e-05 3.8426137e-05
6.493086e-05 5.8259364e-05 6.781508e-05 6.163341e-05 7.530741e-05 0.00010600193 8.830554e-05 7.706873e-05
6.461527e-05 6.639996e-05 6.355998e-05 5.9635593e-05 5.8572918e-05 6.1950035e-05 6.249819e-05 6.3134015e-05
2.0679076e-05 1.7715864e-05 1.7240573e-05 1.4834599e-05 1.5205776e-05 1.816126e-05 1.602594e-05 1.6448617e-05
1.5605243e-05 1.4919887e-05 1.5225593e-05 1.4385185e-05 1.5685346e-05 1.6547949e-05 1.4404787e-05 1.5306001e-05

exp_avg f4 [64]
00000000: 4fea 0fba a52a 393b ab63 193a 7b37 623b
00000010: 4da7 a739 3796 963b 6545 07bb e300 813a
00000020: be50 aa39 5885 2a3b 9b34 c73a c9a2 7bbb
00000030: e2e9 31bb fa4a 4237 0ee1 08bb e8bd 443a
00000040: f8b2 3eba b12f 793a beaf a0ba 850a 9bba
00000050: 5cf4 f63a e7a0 18bb 0440 853b 4273 d33b
00000060: 0512 a5ba 0932 59bb 5c36 38bb 62d6 293b
00000070: 00ab 1bbc ae55 01ba e8dd 9a39 fe49 113a
00000080: 6bce 293b ec05 c439 e592 dd3a 4d86 2d3b
00000090: 47a1 d93a 5d84 29bb aeb6 a8b9 c725 21ba
000000a0: 3f22 52ba f321 963a 0f3d 94bb 3599 76bb
000000b0: b0ff ba39 09fe 3e3a b75f ab39 9b1e bb39
000000c0: f4b4 0d3b 0208 6c39 bb38 2cbb 9a06 7cbb
000000d0: ca62 123b e1d7 f03b 7fc9 e6b9 9327 bbba
000000e0: 972f 1bbb 2534 1fba 0f17 213b 4e33 443a
000000f0: 99e7 dc39 e9f5 88bb 0c3d 69bb d098 d1ba
-0.0005489932 0.0028254178 0.00058513385 0.0034517932 0.0003197737 0.0045955437 -0.0020640728 0.0009842183
0.00032485084 0.002601942 0.0015198173 -0.0038396588 -0.0027147462 1.1580758e-05 -0.0020886096 0.0007505105
-0.0007274593 0.0009505703 -0.0012259407 -0.0011828697 0.0018841135 -0.0023289265 0.004066469 0.006452949
-0.0012593871 -0.0033141396 -0.0028108573 0.0025915136 -0.009501219 -0.0004933727 0.00029538502 0.0005542337
0.0025910388 0.00037388445 0.001690474 0.0026477755 0.001660385 -0.0025866248 -0.00032179564 -0.0006147292
-0.00080159673 0.001145421 -0.0045238803 -0.003762794 0.00035667187 0.0007285779 0.00032686975 0.00035690222
0.002162275 0.00022509697 -0.0026278931 -0.0038456083 0.0022336715 0.0073499535 -0.00044019145 -0.0014278762
-0.0023679489 -0.0006073139 0.0024580394 0.00074844516 0.00042134224 -0.0041797054 -0.0035589365 -0.0015990976

exp_avg_sq f4 [64]
00000000: 926d a239 9968 4b39 a87b ac39 cacb 7939
00000010: 79c6 ed38 da81 3b3a 42d4 7f39 7f87 6d39
00000020: 6efa 4c39 0ada 4d39 f77f a339 ce6b 6439
00000030: 7308 0139 39e5 0f39 4e78 9a39 63f1 4838
00000040: 5ed1 e938 05c6 ff39 1dac 8138 3702 5038
00000050: ee24 6539 3047 923a 0ffd 503a da06 963a
00000060: 9dba 983a 408f dd39 dad3 bf39 6d81 233a
00000070: 6b2f d43a d5a6 c639 15a0 3f39 8d67 bd37
00000080: 47d3 463a 2e12 7039 4d63 d438 ac6a ef38
00000090: a880 6b39 f5f5 9839 871a 9239 2219 743a
000000a0: 392a 2539 9c8c 9138 76f5 4c3a 75f0 0839
000000b0: 079b 333a 2ea3 5739 2474 bd38 6737 8439
000000c0: f771 033a 0807 4839 00d0 9a39 5b63 8f39
000000d0: 5226 9d38 8e6f 4b3a 64a7 d138 45ba 863a
000000e0: cd9f de38 c80b 6e39 76aa da38 d27f bb38
000000f0: 5dbc 073a aeb0 a33a b74f 383a 47a6 3c39
0.00030980684 0.00019398554 0.00032898528 0.00023822408 0.00011338009 0.0007152833 0.00024397767 0.00022652558
0.00019548248 0.0001963155 0.00031185124 0.00021783935 0.00012305546 0.00013722935 0.00029462803 4.7908525e-05
0.000111493035 0.00048784926 6.183258e-05 4.9593127e-05 0.00021852899 0.0011160132 0.0007972279 0.0011446134
0.0011652295 0.00042259134 0.000365882 0.00062372425 0.0016188448 0.00037889802 0.00018274815 2.2578775e-05
0.00075845834 0.00022894956 0.00010127444 0.00011416277 0.00022459275 0.00029174951 0.00027867054 0.00093116064
0.00015751355 6.940329e-05 0.0007818559 0.00013059548 0.0006851409 0.00020564787 9.033855e-05 0.0002521828
0.00050142355 0.00019076106 0.0002952814 0.0002734911 7.493481e-05 0.00077604584 9.9970755e-05 0.0010278901
0.0001061555 0.00022701838 0.00010426801 8.940663e-05 0.00051779096 0.0012488568 0.00070309214 0.0001799102

exp_avg f4 [32, 64]
00000000: cc15 23ba 7e9f 133a 51ad 22b9 633d 9d39
00000010: 59ba 0739 5e93 cfb9 9f68 e538 2dae 54ba
00000020: c38c 2cba 6edf e5b9 7caa 373a 8b03 a339
00000030: 44c2 5239 131d 113a 8c1b 09b9 4309 1eba
00000040: ebcc 95ba b617 abb9 e4c3 f238 0eb0 76ba
00000050: 8469 db39 09ea ec38 83fd 50ba 7fa8 a1b9
00000060: e2bc b1ba 86ac fdb8 20e0 9b39 19d3 1eba
00000070: 270e 05b8 c9cc 17ba 7120 463a a037 5cb9
00000080: e67c 50ba 9a56 56ba cc0a 25b9 0c28 49ba
00000090: 3ba3 e039 6f61 4739 87cc 0739 a62c 62b7
000000a0: 94a7 013a da63 6539 5241 cfb9 dda1 9b39
000000b0: fe55 c5b9 1ecd 9dba 3dde beb9 5b22 b0ba
000000c0: 5ebf 1239 ae56 60b9 b051 81ba b2a1 a0b9
000000d0: 611a d6b9 7b3b 39b9 9b10 95b9 585b 86b9
000000e0: 784a 703a 7260 a5ba a5d8 a1ba 78a9 1aba
000000f0: 9aad d7ba 5289 2bb9 ab6d 87b9 a679 3dba
00000100: 721f 233a 4672 17ba 91a9 c5b4 349d b9b9
00000110: b1a5 a7b9 29e2 fa38 7c12 d2b8 c2f7 323a
00000120: fa83 c539 89ea 8c39 0ab1 ffb9 4b66 7a37
00000130: f252 26ba 43b3 b0b8 5ede 1139 e84c 633a
00000140: 4694 9f39 8122 91b8 8a6f dcb8 0202 c039
00000150: d8cf 45b9 d608 4eb8 7fea e039 1306 dab9
00000160: 2b37 dc3a 4202 9b37 3779 a7b9 314b ce38
00000170: 7d8d 9939 f00c d839 e937 37ba fdf5 73b9
00000180: 8344 2e39 e53b f739 80e0 a9b8 a6e9 013a
00000190: 6c53 93b9 a568 8439 67c4 03b9 ea5d 1039
000001a0: cee1 0bb8 581f 1039 f24f 0e3a 2e70 b9b8
000001b0: fa3b f938 5d63 f539 2280 b039 64f3 cf3a
000001c0: daf4 d1b8 6a50 073a 50a6 b436 c844 f7b8
000001d0: 8cd8 7639 446b 9db9 c176 79b9 ad2b bf39
000001e0: 92fe 67ba 65a2 d4b8 4445 013a 1b32 7db9
000001f0: 64b9 6a3a 3700 4239 2c0e ceb9 a825 2038
00000200: c240 b5ba 24e9 1aba f529 b13a cb12 efb9
00000210: 2512 98b9 e20c a5b9 4440 7aba 931a 78b9
00000220: 9767 b7b9 5e9c 043a c6b3 0cbb 7a42 d0ba
00000230: 637c 64ba 09b2 03bb 79d4 c5ba 8203 f13a
00000240: 2137 8d3a 2c2e 41ba 1b1e 33ba 9910 4a3a
00000250: 47fe dbb9 9e32 4dba 751e 69b9 4e04 9939
00000260: b6ba 9bba b808 fdb8 6d88 46ba f61a 123b
00000270: d177 0fba e361 69b9 42ce 33ba 507f 313a
00000280: 421a 933a e447 e136 1bb7 9b39 ae52 523a
00000290: 65b3 6aba f570 ecba 128c ceba c788 aeba
000002a0: d30c b6ba bb95 80ba e7f6 4cba f519 c6b9
000002b0: 34f9 b9ba acd1 873a b552 f2b9 490b 08ba
000002c0: db85 0a38 2752 a2ba af16 d338 e52a 8838
000002d0: 95de 023a e6af b4ba 01f3 133a eb40 4bba
000002e0: 5126 e7ba a146 a2b9 a377 89b8 1f47 183a
000002f0: 5448 aa37 5a9f c5ba 3661 b2b9 d0b8 ab3a
00000300: b44d d5b8 bfd6 54bb 9460 553b 67f5 8ebb
00000310: 5a06 08bb 7087 c9bb 1700 babb e0f9 013b
00000320: 09ae 58bb 4d4c b8b9 1bbc dfbb 12a5 04bb
00000330: 8161 133b 119c 9fbb 548e ebbb ca4a 503b
00000340: 11d5 433a 50fe bfb8 e29a b4ba 0b69 853a
00000350: ed9b c9ba 1ac1 043b 06b7 b4b9 e5de 75bb
00000360: 151f 063b e669 83bb f054 9cba a796 3d3b
00000370: dc9f 2a3a 2b07 96ba 9559 4fbb 41f5 6538
00000380: 49ca 573b a4f6 1e3b 26f4 5cba ec99 23ba
00000390: d754 eaba 4996 aeba 2e06 77bb 03c5 d7ba
000003a0: c4a2 e5bb e6f9 813a 9378 e43a f371 28bb
000003b0: 898f 39bb 734e 0fba 0ab6 133b bd1c c63a
000003c0: 4393 6fbb 9bd9 feba 77e2 a5b9 192a 0ebb
000003d0: 9157 9bba 1d3f fabb c883 30bb 6644 02bb
000003e0: 616d 95bb 2bae d5ba 7af1 3c3a ac1e 13ba
000003f0: 8fbb 80ba d9fc 62bb 081c 20bb 1dfe fa3a
-0.00062212045 0.0005631371 -0.0001551409 0.0002999111 0.00012944023 -0.00039591914 0.00010939058 -0.00081131124
-0.00065822544 -0.00043844752 0.00070063 0.00031092422 0.0002009953 0.00055356434 -0.000130756 -0.0006028602
-0.0011428868 -0.00032633328 0.00011575947 -0.00094103895 0.0004184955 0.000112969494 -0.00079723465 -0.00030833852
-0.001356032 -0.00012096115 0.0002973089 -0.00060586777 -3.172285e-05 -0.0005790708 0.0007557935 -0.00021001557
-0.00079531816 -0.0008176357 -0.00015739648 -0.0007673509 0.00042846226 0.00019014416 0.00012950796 -1.3481045e-05
0.00049459306 0.0002187634 -0.00039530784 0.000296845 -0.00037638837 -0.0012039279 -0.00036405204 -0.0013437973
0.00013994935 -0.00021394595 -0.0009866264 -0.0003063805 -0.00040836915 -0.00017665133 -0.00028431867 -0.00025626528
0.000916637 -0.0012617244 -0.001234789 -0.00058998866 -0.0016454936 -0.00016358987 -0.00025830916 -0.0007227905
0.0006222642 -0.0005777221 -3.6817485e-07 -0.00035403075 -0.00031976172 0.000119630546 -0.00010017023 0.000682708
0.00037673098 0.00026877623 -0.00048769295 1.4924978e-05 -0.0006344757 -8.425724e-05 0.00013911116 0.0008670823
0.00030437316 -6.920566e-05 -0.00010511193 0.0003662259 -0.00018864812 -4.9122456e-05 0.00042899323 -0.00041584726
0.0016801109 1.8478491e-05 -0.00031943034 9.836851e-05 0.0002928785 0.0004120837 -0.0006989227 -0.00023265924
0.00016619456 0.00047156136 -8.100364e-05 0.0004955776 -0.0002810018 0.00025254968 -0.00012566299 0.00013767896
-3.335048e-05 0.00013744587 0.0005428783 -8.8423825e-05 0.00011884417 0.00046804073 0.00033664802 0.0015865383
-0.00010011504 0.0005161824 5.3837794e-06 -0.00011790689 0.00023541058 -0.00030025293 -0.0002379073 0.000364629
-0.00088498846 -0.00010139196 0.0004931281 -0.00024146626 0.0008954017 0.00018501362 -0.0003930194 3.8182043e-05
-0.0013828503 -0.00059093744 0.0013516532 -0.00045599634 -0.00029005218 -0.0003148085 -0.00095463195 -0.00023661023
-0.0003498166 0.0005058701 -0.0021469458 -0.0015888952 -0.0008716045 -0.002009513 -0.0015093229 0.0018387886
0.0010773876 -0.0007369246 -0.0006832794 0.0007708162 -0.00041960386 -0.0007827672 -0.00022231958 0.0002918564
-0.0011881206 -0.00012065604 -0.00075734296 0.0022293902 -0.0005472871 -0.00022257077 -0.0006859043 0.0006770985
0.0011223035 6.7138917e-06 0.00029700328 0.00080231845 -0.00089531235 -0.0018039035 -0.0015758297 -0.0013315909
-0.001388932 -0.0009810248 -0.0007818774 -0.00037784842 -0.0014188648 0.001036217 -0.00046219458 -0.000518967
3.3026427e-05 -0.0012384102 0.00010065489 6.492975e-05 0.0004992274 -0.0013785332 0.00056438154 -0.0007753509
-0.001763532 -0.0003095167 -6.554953e-05 0.0005808938 2.029926e-05 -0.0015077398 -0.00034023233 0.0013101343
-0.00010171105 -0.0032476631 0.0032558786 -0.0043627503 -0.002075574 -0.0061501786 -0.0056762802 0.0019832775
-0.0033062717 -0.00035152063 -0.006827844 -0.002023999 0.0022488537 -0.0048708995 -0.0071885977 0.003178286
0.0007470409 -9.154959e-05 -0.0013779069 0.00101784 -0.0015381553 0.00202567 -0.00034468638 -0.0037516889
0.0020465304 -0.004010427 -0.0011927169 0.0028928907 0.0006508806 -0.0011446228 -0.0031639088 5.4826265e-05
0.0032926968 0.0024255896 -0.0008428715 -0.00062408927 -0.0017878067 -0.0013319935 -0.0037692892 -0.0016461912
-0.0070079286 0.0009916394 0.0017430953 -0.0025702685 -0.0028314313 -0.0005466707 0.0022538924 0.0015114766
-0.003655628 -0.0019443514 -0.00031639982 -0.0021692573 -0.0011851658 -0.007636918 -0.0026934016 -0.0019877194
-0.004560158 -0.0016302516 0.00072076137 -0.00056121754 -0.0009821522 -0.0034635572 -0.002443077 0.0019149218

exp_avg_sq f4 [32, 64]
00000000: 8fa4 8838 5145 1437 a0ed b838 5fb5 2238
00000010: 7519 1a38 c76a 3439 a41f b538 6aa3 3739
00000020: 08e8 5339 2bae af37 6a75 7038 2276 5a38
00000030: ae58 1239 d3ef 8e38 0a61 da38 a8de 0738
00000040: 2cc2 6238 13b1 1139 ee5c 2938 ca7a b437
00000050: c0a1 6b38 fa4a 6438 c0a5 b738 d4ef 9e38
00000060: 4d21 7f39 bdb6 1839 f80f a036 a6b5 9c36
00000070: 97c2 6537 38cb 5e38 a46d 6037 ca91 0137
00000080: 2c66 3b39 2674 3e38 fcdf 2236 b189 5038
00000090: 44d1 ac37 a64d 0538 19d0 e038 21b6 1038
000000a0: 62fc 1638 a97a da37 639a bb38 aba1 6c36
000000b0: 7d1b 3939 a376 9938 aefc 1438 7579 4d39
000000c0: 5916 3039 2ba0 f338 e6de 3239 8edc a538
000000d0: 71a2 e137 eafe d238 abaa 4a38 c1ea 7939
000000e0: 3f13 d437 a5fe a938 7b80 8e38 0040 0039
000000f0: 4a80 2039 a52a 1939 71c0 a938 4594 a537
00000100: 30a7 2538 9156 b836 a84b 5338 504e e537
00000110: 9f5e df37 607a e238 e723 2538 f73f d738
00000120: 07b0 fc38 a56b 6a37 eda1 1f38 d36c 0738
00000130: b8fa b038 a683 3438 beda 8938 2b98 ab37
00000140: 1d42 2138 c64a c238 de9b 7f37 3fc7 5d37
00000150: 6b44 1938 2e3b 0a38 b685 6638 7ef2 2e38
00000160: 009d 1939 a76e c238 dc29 3f36 f03b 2b36
00000170: c58d af36 a27f ff37 f6d0 3137 98ea 8136
00000180: 9435 ec38 07c4 da37 2f57 cb35 6512 0138
00000190: 349a 6237 b2de 2537 b5f5 8438 f576 b437
000001a0: 7107 d037 b842 6337 444e 8238 15b0 2a36
000001b0: d76d cb38 a316 3638 1db6 9e37 95f4 0b39
000001c0: 15f1 e038 97f7 8638 dea1 ff38 de52 3a38
000001d0: a21d 9737 31c9 8938 8417 b637 2b81 2039
000001e0: 6185 a437 6dab 5538 bac3 4838 4945 a638
000001f0: ed73 e438 df99 d338 c9d1 7838 6e64 4b37
00000200: 4320 e238 06a2 1138 1ce1 bc38 27da d837
00000210: f292 8038 17ee 2539 e4d7 1539 7c7a 2c39
00000220: 2ed7 d138 e4e1 e938 a967 1539 59d4 8139
00000230: 1018 fe38 914f 8e39 d266 4e39 22e1 cc38
00000240: 75bc 5a38 efc8 8a38 9edf db38 d7b5 6c38
00000250: 5ff7 1d38 2e1a 5139 a7fb 1a38 f4e8 4638
00000260: a5dc 1139 0ee8 b938 6d46 3e38 aaf4 f937
00000270: 15a4 8a38 9979 5439 cf2a 1539 5f45 9d37
00000280: 8a57 1839 4d52 4b38 c15f 8c36 9cf7 5a37
00000290: db58 2039 e106 7638 d11c 6739 f40e 9a38
000002a0: b24b 8838 49a8 e037 bdf8 1a39 d259 8237
000002b0: 4a13 3439 83a2 7838 9e4d 9637 b401 5639
000002c0: 9f14 0339 444c 2639 19c1 1439 6eec 7038
000002d0: 252e 2138 1e1a 9439 6a26 3b38 153e f838
000002e0: d80b 2d39 c69f 5238 2575 5238 53b3 0739
000002f0: b8bc f637 7651 bb39 c7bf 2639 dd76 3838
00000300: 106d 9639 9d08 0d39 4f32 9f39 eb45 ca38
00000310: 7404 3439 a72a 203a a915 e139 a127 ec39
00000320: b88a a539 bc71 8539 c66c b339 7ed8 253a
00000330: 2243 1c3a 7b48 3b3a e4ce 0a3a b47c 5939
00000340: 951f 1c39 63dd 6038 c402 b938 c497 af38
00000350: faf1 8638 4e59 423a bc4d 0438 4bdc c938
00000360: d5b9 a039 b889 363a fa33 0a39 226e a738
00000370: d7e4 5a36 cd99 b339 ed71 9239 89ea 1838
00000380: 696f 063a 0fac 5f39 09b9 9a36 bb78 3937
00000390: 3057 b339 ef8d b739 84a5 203a 393d 6a39
000003a0: b8ba 3d39 bf9b 2138 d5b2 f739 0751 5c38
000003b0: b90e b239 2bf0 8f37 c0e6 3c38 7c11 003a
000003c0: 49f7 ac39 a4ed 5b39 b48e ed39 7d4a 3339
000003d0: 1af0 f438 f04d 093a ec79 5339 11dc 8739
000003e0: d4c3 d939 5a6b f339 c1f9 0e39 354b da39
000003f0: 200b f637 0610 6f3a 69c3 d039 4b36 0b39
6.515637e-05 8.837626e-06 8.818065e-05 3.8792725e-05 3.674017e-05 0.00017205915 8.636646e-05 0.00017513116
0.00020208966 2.0942729e-05 5.732981e-05 5.208527e-05 0.00013956681 6.8157584e-05 0.00010413125 3.2393873e-05
5.4063436e-05 0.00013894243 4.0379287e-05 2.151485e-05 5.6179008e-05 5.4429263e-05 8.756993e-05 7.5786986e-05
0.000243311 0.00014563925 4.7702306e-06 4.670309e-06 1.369477e-05 5.3118187e-05 1.3376968e-05 7.722943e-06
0.00017871772 4.54077e-05 2.4270257e-06 4.97193e-05 2.0601445e-05 3.1781987e-05 0.000107199136 3.4501896e-05
3.5997837e-05 2.6044743e-05 8.9456116e-05 3.5260844e-06 0.00017653215 7.317706e-05 3.5521276e-05 0.0001959557
0.00016792993 0.000116169766 0.00017058439 7.9088946e-05 2.6897733e-05 0.00010061062 4.83195e-05 0.00023833943
2.5281332e-05 8.105979e-05 6.795019e-05 0.00012230873 0.0001530658 0.00014607103 8.094393e-05 1.9738576e-05
3.949477e-05 5.493705e-06 5.037678e-05 2.7335394e-05 2.6627733e-05 0.00010799314 3.9372502e-05 0.00010263913
0.00012049084 1.397255e-05 3.805936e-05 3.228786e-05 8.439034e-05 4.303795e-05 6.573413e-05 2.0455647e-05
3.8446964e-05 9.2645685e-05 1.5235475e-05 1.3219017e-05 3.654176e-05 3.295688e-05 5.49608e-05 4.171067e-05
0.00014649704 9.2712515e-05 2.8485583e-06 2.5515874e-06 5.2319106e-06 3.0457802e-05 1.0598675e-05 3.87181e-06
0.00011263337 2.6078907e-05 1.5150052e-06 3.0773128e-05 1.3506553e-05 9.886617e-06 6.340017e-05 2.1513066e-05
2.4798997e-05 1.35457885e-05 6.213461e-05 2.5434467e-06 9.7002536e-05 4.3413263e-05 1.891987e-05 0.00013347187
0.000107260574 6.435735e-05 0.00012189498 4.442303e-05 1.8014402e-05 6.570144e-05 2.1707041e-05 0.00015306908
1.9612433e-05 5.094281e-05 4.7866e-05 7.928402e-05 0.0001089348 0.00010089925 5.9323185e-05 1.2123126e-05
0.00010782529 3.472159e-05 9.0064685e-05 2.5850792e-05 6.130886e-05 0.00015824322 0.00014290173 0.00016448827
0.00010005977 0.00011152381 0.00014248364 0.0002476301 0.00012116146 0.00027143632 0.00019683994 9.769412e-05
5.2150765e-05 6.6177796e-05 0.00010484386 5.6436136e-05 3.76621e-05 0.00019941546 3.695083e-05 4.7423833e-05
0.00013910474 8.864711e-05 4.536512e-05 2.9797044e-05 6.6109154e-05 0.00020263194 0.00014225695 1.8748162e-05
0.0001452846 4.847562e-05 4.1834724e-06 1.3051464e-05 0.0001529189 5.8657377e-05 0.00022040612 7.3460775e-05
6.499085e-05 2.6781245e-05 0.00014779247 1.5539033e-05 0.00017173323 5.927916e-05 1.7917537e-05 0.00020409265
0.00012500816 0.00015859405 0.00014186314 5.744065e-05 3.8428367e-05 0.0002824822 4.462005e-05 0.00011837125
0.00016502978 5.0216702e-05 5.0177e-05 0.00012941407 2.9413364e-05 0.00035728113 0.00015902436 4.397972e-05
0.00028691487 0.00013450017 0.00030364326 9.645134e-05 0.00017167797 0.00061098713 0.00042931482 0.00045042954
0.00031574606 0.00025452476 0.00034222583 0.00063265103 0.00059609313 0.00071442843 0.00052951113 0.00020741188
0.00014889085 5.3611944e-05 8.8220026e-05 8.372919e-05 6.4346896e-05 0.000741382 3.154365e-05 9.62546e-05
0.00030656034 0.0006963271 0.00013180068 7.9836944e-05 3.2617734e-06 0.0003425613 0.0002793217 3.6458052e-05
0.0005128296 0.00021331034 4.6110986e-06 1.1054969e-05 0.000342065 0.0003501023 0.00061281794 0.00022338786
0.00018094003 3.853044e-05 0.00047244751 5.252755e-05 0.00033961775 1.7158765e-05 4.5037596e-05 0.0004885418
0.00032990638 0.00020973996 0.00045310485 0.0001709852 0.00011679549 0.0005237749 0.00020167948 0.0002591317
0.0004153537 0.00046428555 0.00013635216 0.00041636234 2.9330666e-05 0.0009119514 0.00039818443 0.00013276299

exp_avg f4 [32]
00000000: dab1 0eba 8eea 5d39 02da 7eba e54c 43bb
00000010: e013 163b 492c a1ba 466f 02b8 ee05 74bb
00000020: cf49 c438 0c35 88b8 b240 b739 3f7f 8f3a
00000030: f665 c439 80ec 1839 16a4 8139 ebde 223a
00000040: 6493 00ba 0245 ee39 2f71 05b9 3d87 a8b9
00000050: 4ba1 363a 1016 0739 0400 0080 be31 f637
00000060: 1426 a3bb eac8 5339 efc3 83b9 7eb4 23b9
00000070: 9819 b1bb 082d cc39 0e71 f937 2553 63b9
-0.0005443372 0.00021163581 -0.0009721817 -0.0029800471 0.002290003 -0.0012296523 -3.1098047e-05 -0.003723498
9.359756e-05 -6.494866e-05 0.00034952682 0.0010947956 0.0003746 0.00014583953 0.0002472705 0.0006213027
-0.00049047754 0.00045446312 -0.00012726033 -0.00032144217 0.00069667835 0.00012882822 -6e-45 2.9348648e-05
-0.0049789045 0.00020197374 -0.0002513225 -0.0001561213 -0.0054046623 0.00038943463 2.9735758e-05 -0.00021679381

exp_avg_sq f4 [32]
00000000: 91c7 9e39 0a36 4339 3bae 9f39 f783 5b3a
00000010: 22f2 b338 666a 1539 c036 0639 1eaa 023a
00000020: 1b34 9739 699a 3139 b7c2 e838 c175 6739
00000030: c554 9d39 d296 f738 fdb9 d538 3b2b 2c3a
00000040: 0619 5739 9693 0039 019e 0a39 3906 3d39
00000050: fdbc b039 b4bd 8f38 7f0e c525 7d21 db38
00000060: a397 b839 9f07 d338 5e14 7c38 9d0c a238
00000070: f4e2 3d3a a270 c438 3ad9 6139 4969 fe38
0.00030284797 0.0001861678 0.00030456655 0.00083738513 8.580486e-05 0.00014249384 0.00012799632 0.0004984456
0.00028839786 0.00016937558 0.000110988905 0.00022073743 0.00030008532 0.0001180597 0.000101912745 0.0006567721
0.0002051332 0.00012262011 0.00013219567 0.00018026763 0.00033710143 6.854106e-05 3.4183875e-16 0.000104489714
0.00035208193 0.000100626836 6.010045e-05 7.7271114e-05 0.00072435965 9.366988e-05 0.00021538595 0.00012131275
