checkpoints/full/torsion_energy/20250611190444520597/LYS_dim_16/fold1/best_epoch=246-val_loss_epoch=8.973.ckpt (torch, 50117 bytes, 20 tensors)

fc1.weight f4 [64, 16]
000000 ae ec da 3d 93 b8 df bd 69 02 a0 3e 8c 17 08 3c
       0.10689674 -0.109238766 0.3125184 0.008306395
000010 01 1b 80 be bb 00 30 3e b5 93 48 3e f8 c9 c0 3a
       -0.25020602 0.17187779 0.19587596 0.0014708629
000020 b1 82 e8 bd 69 66 ae be ce e4 52 be 76 a7 15 bd
       -0.113530524 -0.34062508 -0.20595095 -0.036536656
000030 4e 26 8f be aa a2 9c 3e 30 3d 16 bd 28 ea 4f 3d
       -0.27958912 0.30592853 -0.036679447 0.05076042
000040 18 3a 11 bf 4d 3e 4a be ad eb 98 3e b3 df 61 3e
       -0.5672927 -0.19750328 0.29867306 0.2205799
000050 0a 83 3e 3e 68 b5 92 3e 52 2b f7 be a7 41 90 be
       0.18604675 0.28654027 -0.48275238 -0.2817509
000060 bc e1 85 bd d2 38 a3 3c bf cc b3 bd da 77 2d bd
       -0.06537196 0.019924555 -0.087792866 -0.042350627
000070 69 b3 08 be bf aa b6 3d ae ae b4 3c f6 63 b0 bc
       -0.1334969 0.08919286 0.02205595 -0.02153204
000080 3a 28 e4 be e1 31 a5 be a4 93 c6 3e 4c 9c fa bb
       -0.4456194 -0.32264617 0.38784516 -0.0076480266
000090 f5 a8 17 3c 90 d6 e4 be 48 cc a8 3e 40 f4 5f bc
       0.009256591 -0.44694948 0.32968354 -0.013669074
0000a0 71 dc 32 be de 83 16 3e eb f9 2e be b4 38 f3 bc
       -0.17466904 0.14698741 -0.17087524 -0.029690124
0000b0 64 f3 0a 3d b5 09 ff 3e da 1b a1 3d f3 09 34 3d
       0.03392352 0.49812093 0.078666404 0.0439548
0000c0 09 a7 f2 3e 99 f5 5f 3e a1 67 a3 be cd 4a b4 bd
       0.47393063 0.21871032 -0.31915 -0.088033296
0000d0 22 91 31 bd 51 38 e8 3e 26 af 98 be b6 99 18 3f
       -0.0433513 0.45355466 -0.29821128 0.59609544
0000e0 a5 94 b5 3d a6 57 42 bd 22 be 96 3d db e4 a9 bc
       0.08866242 -0.04744687 0.07360484 -0.02073901
0000f0 5a 8e f0 3c 7f 46 e6 bc fd 47 45 bd db d1 91 3c
       0.029364754 -0.028109787 -0.048164356 0.017800262
000100 78 86 3a 3e ed 9e 0e 3f 8f b2 6a 3d e0 a3 fd bc
       0.18215358 0.5571125 0.057299193 -0.03096193
000110 17 5d 84 bd fd dd ed bc c2 75 8b bc c3 1b 26 3c
       -0.06463068 -0.029036516 -0.017023925 0.010138455
000120 0e 0b a5 3d e1 2c 98 3e d6 40 2e be a2 a6 2d bd
       0.08058749 0.2972174 -0.1701692 -0.04239524
000130 c7 31 08 3f 66 90 fc 3e fd f5 6c bc 28 41 91 bc
       0.53200954 0.49328917 -0.014462945 -0.017731264
000140 51 3d 34 bd a1 51 a2 be 43 94 8c bc 03 70 bf be
       -0.04400379 -0.31702903 -0.01716054 -0.37390146
000150 d7 fd b4 bd 8e c8 1a be 1d 30 cf 3d bf ae 4f 3d
       -0.088374786 -0.15115568 0.10116599 0.05070376
000160 a7 f5 85 bb e4 39 c8 bc e9 54 c9 3e d3 e8 88 bd
       -0.004088122 -0.024441667 0.39322594 -0.06685033
000170 65 a1 f3 bd 5b 2c 82 be 6d 6a a1 3e 84 80 e9 3e
       -0.11896018 -0.25424466 0.3152651 0.45605862
000180 9c fd d9 3e fc dc 28 bf 0d 1d 93 be 47 0b b5 3c
       0.425763 -0.65962195 -0.287331 0.022100104
000190 c8 00 02 3f 4b cc 37 3e f5 dd 54 be 70 18 b4 bd
       0.5078244 0.17949025 -0.20787795 -0.087937236
0001a0 b9 e2 10 3e f6 08 38 be 76 31 5c bd 25 3c 6c bd
       0.14148988 -0.17972168 -0.053758107 -0.057674546
0001b0 dd 51 7f 3d f8 58 b5 3e d8 86 21 3d b3 67 ad 3c
       0.06233393 0.3541944 0.039435238 0.021167612
0001c0 30 f2 d4 bc 46 19 24 be 2e 09 45 be 48 cd 97 be
       -0.02599439 -0.16025266 -0.19241783 -0.29648805
0001d0 62 0d 9f 3e 14 36 a0 3e 85 a5 17 3f 5e 2b 3c 3e
       0.31064898 0.31291258 0.5923694 0.18375918
0001e0 91 d8 b3 3c 69 70 03 3d 6e ea 68 bd bc 74 e8 bd
       0.021953853 0.032089625 -0.056864195 -0.1135039
0001f0 b1 75 5d bd 23 be 0b 3d 1e 74 e5 bd 95 86 12 3a
       -0.054067317 0.034116875 -0.11203788 0.00055895123
000200 c4 31 cb be 9d af 11 3e 11 8f 16 bf b6 21 04 bb
       -0.39686406 0.14227147 -0.5881205 -0.0020161695
000210 c3 a5 06 be 36 aa e9 be 99 bd 86 be ad 62 ad 3d
       -0.1314917 -0.45637673 -0.26316527 0.084660865
000220 87 95 8c bd 25 77 5c 3e 80 f8 d6 3b 7d 72 e4 3c
       -0.068644576 0.21529825 0.006560385 0.027886624
000230 b4 8d 52 3e 6b 8e 10 3e f3 65 3d 3e e6 90 a6 bd
       0.20561868 0.14116828 0.18495922 -0.08133106
000240 5c bf 5e bd 4a 9c 31 bb 5e 1a 70 bd fc dc 31 3e
       -0.054381713 -0.0027101212 -0.058618896 0.17369455
000250 21 2e 16 3c 0b fd f6 3e 7c ca 41 bd c6 b6 df bc
       0.009166271 0.4823993 -0.047312245 -0.027308833
000260 75 3b 45 be 9b 23 e4 be cc 2d b9 be a4 8b 0c be
       -0.19260962 -0.44558415 -0.36167753 -0.13725144
000270 3d b1 8c 3e f7 a6 e2 be 1a c2 71 bc e4 bd 8a bd
       0.27478972 -0.4426801 -0.01475575 -0.067745
000280 4f a5 00 3f 16 24 91 be 25 79 ce 3e 49 f0 2f be
       0.5025224 -0.28347844 0.403268 -0.17181505
000290 c8 46 9b 3e 54 02 ab be 22 f6 93 bc 5f d7 1d 3d
       0.3032744 -0.33400214 -0.018061701 0.038535472
0002a0 b2 af 17 3e 1c 45 b0 3b 88 2a ab 3d e2 c6 8c 3d
       0.14813116 0.005379332 0.083577216 0.068738714
0002b0 0d fc 84 bd 8d 03 ae 3c d1 6a 85 3d 87 57 39 3d
       -0.06493387 0.021241928 0.06514514 0.04524949
0002c0 e8 c7 ad bd d7 36 8d 3e 35 97 f0 3e 51 37 96 bd
       -0.08485395 0.27580902 0.46990362 -0.073347695
0002d0 62 a9 e3 be 82 75 0a be 53 bc aa bd a1 7c e5 bd
       -0.44465166 -0.13521388 -0.08336701 -0.11205412
0002e0 b5 57 0e bc 1b bc 26 3d 34 33 da bc cb 49 e7 3d
       -0.008687903 0.040706735 -0.026635744 0.11293372
0002f0 75 95 8f 3d df 21 20 3e 90 64 46 3e 4b 57 a5 bd
       0.070109285 0.15637921 0.19374299 -0.080732904
000300 7d fd b5 3c bb 2a 48 bd 07 be 17 3e ac 83 5c bf
       0.0222156 -0.048868876 0.14818583 -0.86138415
000310 6f d8 b7 bb 05 b7 17 3e b5 1f e9 3e 74 3b 7b 3e
       -0.0056105177 0.1481591 0.45532003 0.24534398
000320 03 84 8b 3d 40 86 34 bc f3 dd 8b be ef 69 a6 3e
       0.068122886 -0.011018336 -0.2731777 0.32502696
000330 df 41 92 bc 4d a3 a3 bd 6e 6f bb bd 14 80 19 be
       -0.017853675 -0.079901315 -0.09152113 -0.14990264
000340 7a b0 ca 3c fd 64 01 3e 66 78 b9 be cf 51 87 bd
       0.024742354 0.1263618 -0.3622467 -0.066074006
000350 77 bc f4 be 55 f3 52 bf 67 d0 aa 3e 61 12 01 bf
       -0.47800037 -0.82402545 0.33362123 -0.5041867
000360 10 e4 22 3d e5 81 ce 3d 50 ed 38 be 88 80 d0 3d
       0.03976828 0.10083369 -0.18059278 0.101807654
000370 4b 41 9d bd 7e bd 8a ba 0d 79 08 3e 40 b9 be 3d
       -0.07678469 -0.0010585038 0.13327427 0.093126774
000380 dc d8 6f 3e 64 da 79 be e8 a6 65 3e 7e c8 36 3d
       0.23422569 -0.24399716 0.22426951 0.044624798
000390 64 50 9c bd 7c 4d 4e 3f ab 8f a6 bd ed 3b 8f 3c
       -0.07632521 0.8058698 -0.08132871 0.01748463
0003a0 62 61 eb bc 94 51 88 be 3f f7 a2 3d dc c6 8f 3c
       -0.02873296 -0.2662474 0.07957315 0.017550878
0003b0 a3 48 b0 3e 3b 7b 9c 3e 80 82 ad bc a9 64 d0 bb
       0.34430417 0.30562767 -0.021180391 -0.006359656
0003c0 ff c8 51 3e 98 53 de bc 44 6c 4e 3e e7 74 0e bd
       0.2048683 -0.02713947 0.20158488 -0.034779456
0003d0 2f 33 2e 3f e4 6b f8 3e f2 3f 17 be 7c 64 3b 3c
       0.6804685 0.48519814 -0.14770487 0.011437532
0003e0 a2 de 6a bb 2b 6a 91 3d 8e 7d bb 3c e5 ec 68 3c
       -0.0035838266 0.07100328 0.022887018 0.014216636
0003f0 03 09 d9 3d 3b fb 81 bd 24 d6 52 bd 0c 6a ad bc
       0.10597422 -0.063467465 -0.05147375 -0.021168731

fc1.bias f4 [64]
000000 1a c9 a9 3e 5e 4e 69 be bf 8f 02 3e 05 e7 86 3c
       0.3316124 -0.22783801 0.12750147 0.01646758
000010 c8 6b 0a 3f 97 b2 bf 3c b1 a8 09 3f 05 8e 04 3f
       0.5407071 0.023400588 0.5377303 0.51779205
000020 87 57 06 be f5 38 60 3e 74 d3 a4 3e c1 7f bf 3e
       -0.13119327 0.21896727 0.32192576 0.37402156
000030 d5 ff ce 3d e4 d6 50 be 7b d9 40 3e 54 7e a3 3e
       0.1010739 -0.20394474 0.18832962 0.31932318
000040 d3 6e 8c 3e 9c 91 e4 3e 48 4c 41 3f b4 da dc 3e
       0.27428302 0.4464234 0.7550702 0.43135607
000050 17 b2 47 3e f0 fe f5 be 91 6d 15 bf 6f 84 28 3e
       0.1950153 -0.48046064 -0.5837031 0.1645677
000060 4c 06 bd bc ab f1 25 bd bd 42 74 be 5d 31 37 3e
       -0.023074292 -0.040513676 -0.23853584 0.17889924
000070 7d 8a 7d 3e ba 83 f2 3e d3 0e b4 3e 45 15 45 3e
       0.2475986 0.47366124 0.3516756 0.19246395
000080 10 d5 4f bd 87 2e 91 3e d9 ca 08 3f d1 08 4c bc
       -0.0507403 0.2835581 0.5343452 -0.012453274
000090 25 51 f6 be d1 8e 2e bd bc 91 f9 3d 33 b2 11 bf
       -0.48108783 -0.04261667 0.12186 -0.56912535
0000a0 ba 1d 34 3e b6 24 df be 49 d6 78 3d f2 51 00 3f
       0.17589465 -0.43582696 0.060751233 0.5012504
0000b0 95 30 be 3e 40 83 07 3e 80 a9 14 3d 62 04 a4 3e
       0.3714644 0.13233662 0.03629446 0.32034594
0000c0 42 ac 35 3e 69 f8 4f be 53 81 08 3e a8 24 65 3e
       0.17741492 -0.20309605 0.13330583 0.22377264
0000d0 38 27 71 3e 51 8a 7e 3e be 2f 9d 3d d8 67 28 3e
       0.23550117 0.24857451 0.07675122 0.16445863
0000e0 74 b6 22 be 3d 20 27 3d ce f9 94 3e 33 43 70 bb
       -0.15889913 0.04080223 0.29096836 -0.0036661148
0000f0 4c ad 09 bd 5c f0 5e be e7 64 54 3e 08 e6 5a 3c
       -0.033612534 -0.21771377 0.20741616 0.013360508

fc2.weight f4 [32, 64]
000000 6b ce 95 3e 51 cd df 3d 86 15 76 bd 9f f0 a9 be
       0.29259047 0.10927833 -0.06007912 -0.33191392
000010 b3 e2 89 3d d5 00 b4 3d 52 ed 4a be 6a 4f 75 bd
       0.067326926 0.08789221 -0.19817093 -0.05989019
000020 08 ee 22 be 93 fd 7b 3b 2d c2 e6 3e dd d2 13 3d
       -0.15911114 0.0038450703 0.4507002 0.036089767
000030 bd 00 b1 3c a6 53 5b 3d ef bc 58 3e b2 2e c4 be
       0.021606797 0.05354657 0.21165822 -0.38316876
000040 8e e9 43 bd 26 cb f0 bb f8 65 07 3e 41 67 8e be
       -0.047830157 -0.007348436 0.13222492 -0.2781315
000050 fa c9 8f 3e 31 85 f5 be 75 ae 0b 3e ce 5a 42 3e
       0.28083783 -0.4795318 0.13640769 0.18979952
000060 b1 b2 a7 bc 36 a0 d6 3d c6 6c 3a 3b 91 6f e2 3a
       -0.020470949 0.104797766 0.0028446182 0.0017275681
000070 4a 21 6a bd 9b 34 44 3b c4 4d 48 3e ed d4 0f 3f
       -0.057160653 0.0029938582 0.19560915 0.56184274
000080 9a 6a b5 3e 70 1d 58 bd 0d 33 55 3e 4c 5c 27 3e
       0.35432893 -0.05276245 0.20820256 0.16343802
000090 ec d6 4a 3e a6 8b 77 bd 56 59 24 3d e2 a9 bf bd
       0.19808549 -0.060435914 0.04012426 -0.093585745
0000a0 87 73 4e 3e d2 77 a2 3d d1 de 15 3e bb 65 21 bf
       0.20161258 0.0793301 0.14635779 -0.63045853
0000b0 c0 87 6c bd fe 8f d0 3d 03 50 ad be 9f 7d 3d 3e
       -0.05774665 0.10183714 -0.33850107 0.18504952
0000c0 c5 2a 59 3e f1 6c fa 3d d9 5e 1c 3e 3f 9d 20 be
       0.21207722 0.1222781 0.15270557 -0.15684985
0000d0 a7 47 8e be c6 82 80 be 62 a7 0a be 8f 2b d3 be
       -0.2778904 -0.25099772 -0.13540414 -0.4124417
0000e0 e1 2e c7 3e 21 00 c6 bd d8 43 0e be ee 87 c3 be
       0.38902953 -0.09667993 -0.13893068 -0.38189644
0000f0 03 b7 24 3e 2c a0 69 be a5 c3 9b bd 6d 08 da 3e
       0.16085438 -0.22815007 -0.076056756 0.42584553
000100 ab 68 a9 3e 40 bd 5f be 1f 70 67 3e 06 7c c5 bc
       0.33087668 -0.21849537 0.22601365 -0.02410699
000110 7b 85 a7 bd 77 22 15 3e 38 1f 50 3d 66 84 88 be
       -0.08179756 0.14563929 0.050811023 -0.26663512
000120 7a d2 cf 3d 2f 71 25 3e a4 94 09 3e 21 21 33 3e
       0.10147567 0.16156457 0.13435608 0.17493106
000130 c3 ff 61 be 9c 1e ba bd 47 9d af 3d b8 0e c1 be
       -0.22070222 -0.090878695 0.0857492 -0.37706542
000140 4e 6d 13 3b 8b 29 17 be 6d 8e e4 3d 71 7b ae 3e
       0.002249557 -0.14761941 0.11159978 0.34078553
000150 78 c1 40 be f3 72 31 be 7b 1b b5 3c 4f 9a 0e bd
       -0.18823802 -0.17329006 0.02210783 -0.03481513
000160 9d 7d 3f bd f2 b6 ca bc ec a1 d8 3d 77 8a f0 bc
       -0.046750654 -0.024745438 0.10577759 -0.0293629
000170 82 16 8f 3d 04 29 1c 3e 24 22 7c 3e b1 6f c3 be
       0.06986715 0.15250021 0.24622399 -0.3817115
000180 aa aa 96 3d be 68 43 3e d1 db 3e 3d b8 5a 54 bd
       0.0735677 0.19082925 0.046596352 -0.05184433
000190 2c 46 9f be b4 d8 d1 3d 69 af 4b 3e bd 9d 06 be
       -0.31108224 0.10246411 0.19891132 -0.1314611
0001a0 fb c3 93 3d bf fb c5 bd da e1 46 3c 2c 98 c1 bd
       0.07215115 -0.096671574 0.012138808 -0.094528526
0001b0 87 aa 2b 3c be 88 4f bd 9d c0 c1 be 6b b1 22 be
       0.010477669 -0.050667517 -0.37842265 -0.15887992
0001c0 8f d9 43 3e 5c cb ed 3d cd ac 48 3d ea e6 d8 be
       0.19125961 0.11611053 0.04899292 -0.42363673
0001d0 9d ca bb bc e9 7f c1 bd 8e 80 ca 3d 7a 31 2a be
       -0.022923762 -0.09448225 0.09887801 -0.16620436
0001e0 49 76 c1 be 93 ea 3e bd 79 be 76 bd 5d 42 fe 3d
       -0.37785557 -0.046610426 -0.060240243 0.124150015
0001f0 ad e9 86 3d 9c 02 ca 3e a4 76 fb 3d dc 69 c5 3e
       0.06587539 0.39455116 0.12278488 0.38557327
000200 86 c4 88 3d af 75 8d bd f3 6b 15 bd ee 7e bc 3d
       0.06678109 -0.06907212 -0.0364799 0.092038974
000210 5f 7b a4 3e d9 e6 c3 3d bb f6 5b 3e b3 89 07 3e
       0.32125375 0.09565515 0.21480839 0.13236122
000220 46 ea 96 3d b4 db 95 3d fe 20 88 3d ad 76 38 3e
       0.07368903 0.07317296 0.06646918 0.18014021
000230 ea 46 c4 bd 3e 4e 3a 3e 72 31 d2 be 74 58 ce 3d
       -0.09583838 0.1819391 -0.4105335 0.10075465
000240 72 ef 06 3e 21 70 78 3e 86 f8 a4 ba b6 a1 26 3e
       0.13177279 0.24261524 -0.0012586273 0.16272625
000250 01 05 63 be 19 13 85 3e 7d 94 3f bd 51 ad c7 3c
       -0.22169878 0.25991133 -0.04677247 0.024374636
000260 30 d5 1a be d6 d9 07 bd 6d 6c 37 be 4f 86 09 be
       -0.15120387 -0.03316673 -0.17912455 -0.13430141
000270 41 2f 34 3e 7e a7 81 3d fc 51 3f bc ba 82 18 3e
       0.17596151 0.06330775 -0.011677261 0.14893618
000280 a7 ed 11 3e 08 f7 57 be 47 3c ad bd e1 bd 11 be
       0.14250813 -0.21090329 -0.084587626 -0.1423259
000290 f2 10 7e bd 32 34 70 3e 5e b4 04 3e 29 f9 a1 3e
       -0.06202788 0.23457411 0.1295943 0.31635407
0002a0 98 5c 5d bd db f4 b1 3d 29 c4 03 3d da d5 22 be
       -0.054043382 0.086892806 0.032169495 -0.1590189
0002b0 20 20 b1 3d 39 c7 55 3e d4 74 d5 3c 2f a0 8b bd
       0.086487055 0.20876779 0.026056685 -0.06817662
0002c0 9d f8 40 bc 17 07 d9 3e 32 e6 eb bd c2 5d 81 3e
       -0.011778024 0.42388222 -0.11518516 0.25266844
0002d0 2c 6d 21 be 9d 4d 1a be 9c d4 ca 3d 13 f5 06 3f
       -0.15764302 -0.1506867 0.09903833 0.52717704
0002e0 43 a4 6d 3e d5 23 f5 3c 87 1b 2c 3e 33 61 38 bd
       0.23207192 0.029924313 0.16807376 -0.04501457
0002f0 d2 7a c9 bd 8c 89 0b bd 10 75 20 3e 6a ae 9e 3d
       -0.09837879 -0.03406672 0.15669656 0.077481106
000300 47 c1 96 3d 6c 3f f3 3c ed 5d a4 bd c3 f9 4a 3e
       0.073610835 0.029693328 -0.080257274 0.19821839
000310 b6 c1 8f 3c a6 ff 88 3d 70 aa f7 3d 9f 45 0e bc
       0.017548423 0.06689386 0.12093055 -0.008683591
000320 4e c5 dd bb e3 b2 16 bd fb b1 95 3e 1a 7d 4c 3e
       -0.0067679053 -0.036791693 0.2923735 0.19969597
000330 61 46 dc 3d ed 31 9a 3d f6 56 82 be 01 cf 95 bd
       0.10755611 0.07529054 -0.2545697 -0.073148735
000340 2b 35 ad 3d 99 c5 bb bd c6 80 f2 3e 62 11 d5 3d
       0.084574066 -0.09168548 0.4736387 0.10403706
000350 56 33 59 3d 0e e3 a3 3d 42 35 35 3e 03 0f ac bc
       0.053027473 0.080022916 0.17696097 -0.021003252
000360 99 c1 56 3d 09 95 08 3d 74 9a fd 3d 42 97 de 3d
       0.052430723 0.033345256 0.12382975 0.10868694
000370 ed 09 0f be d5 06 77 3e 0a b9 32 3e 42 eb 02 bb
       -0.1396863 0.241237 0.174534 -0.001997665
000380 93 1c 9f 3d 09 f4 59 bb 95 05 16 be e1 4f 21 bd
       0.07769122 -0.0033257029 -0.14650567 -0.03938282
000390 dd 06 2a be 51 4f 52 bd 8d 9f 96 3c 1d a2 1b 3d
       -0.1660418 -0.051345173 0.018386627 0.0379964
0003a0 24 e5 0d 3e d6 32 0c 3e 3f 01 60 bd ec 0e 38 3d
       0.13856941 0.13691267 -0.05468869 0.044936106
0003b0 0e 2d ef 3d af 38 92 3d a0 e7 31 3d 52 58 1d 3e
       0.116785154 0.07139718 0.043433785 0.15365723
0003c0 2f 06 2d 3e 2a be 4f be 90 64 59 3e 9a 02 90 be
       0.1689689 -0.20287386 0.21229768 -0.28126985
0003d0 cf 1f 07 3e bc 6c 4b be 81 53 f5 bd 6b bb 69 bb
       0.13195728 -0.19865698 -0.11978818 -0.0035664688
0003e0 a8 9b 01 3e 98 d4 34 3d a6 99 93 bd 52 e3 1f 3e
       0.12657034 0.044148058 -0.072070405 0.1561406
0003f0 52 ff 06 3c bc b4 15 bd 9d 61 c1 3a 5b 71 af 3d
       0.008239584 -0.036549315 0.0014753822 0.08566543

fc2.bias f4 [32]
000000 38 20 9e 3d 08 83 01 3e 8a 2d 4a 3e b3 c2 9a be
       0.07720989 0.1264764 0.19743934 -0.3022667
000010 32 62 e1 38 d1 8e 26 3e 16 b2 ed 3d 1a ca 6a be
       0.00010747126 0.16265418 0.11606233 -0.22928658
000020 8d 16 d8 3d 83 22 9e 3e 7f b4 39 bd e7 54 69 3e
       0.10551176 0.30885705 -0.04533815 0.22786294
000030 13 b5 ab 3e 2f 46 28 3e 1a 23 d7 3c fb 80 be be
       0.33536586 0.16433023 0.026261855 -0.3720778
000040 f8 45 b1 bd c3 e3 0c 3f cc ba 1a 3e 15 58 33 be
       -0.086559236 0.55035037 0.1511032 -0.1751407
000050 fa 5c 03 be c7 3b c7 bd 38 a3 e4 3d 0f 49 84 3c
       -0.12828436 -0.097281985 0.11163944 0.016148118
000060 15 70 37 bd 77 49 2d 3e e6 fc 92 3a ff f5 dd 3c
       -0.044784624 0.16922556 0.0011214286 0.02709484
000070 40 6b e3 bb 4d 85 6b be ab a9 1c be 18 0a 82 3e
       -0.0069402754 -0.23000069 -0.15299098 0.25398326

fc3.weight f4 [3, 32]
000000 10 72 e5 3c 6e 23 55 bd 68 5b 00 3e c8 e5 d0 be
       0.02800849 -0.05203574 0.12534869 -0.4080031
000010 9a 00 5f bc 12 ce ca 3d 4f 6f 9c 3c 43 f7 b7 be
       -0.013610983 0.09902586 0.019096045 -0.35930833
000020 0b 34 5b 3c 32 83 49 3e cd 15 a4 bd 02 34 de 3d
       0.013379107 0.19678953 -0.08011971 0.108497635
000030 63 d3 08 3e ad 63 cd 3d 93 a5 d0 3d 53 ff c0 be
       0.13361888 0.10028777 0.10187831 -0.37694797
000040 8a bc a9 bb b3 67 33 3f d3 44 73 3e 77 8e a5 be
       -0.0051799463 0.7008011 0.23756723 -0.32335255
000050 95 5a 93 be e0 29 80 3d 36 54 9f 3d ac 52 8e bb
       -0.28780046 0.06257987 0.07779734 -0.0043433513
000060 1e 46 0b 3d fc b0 41 3e 75 3e 23 3d d2 24 24 3b
       0.034002416 0.1891517 0.039854486 0.002504636
000070 94 f5 42 3d a0 87 e0 be 58 1e 66 3e 05 73 7b 3e
       0.047597483 -0.43853474 0.22472513 0.24555595
000080 8d bf 89 be 59 73 47 be 8c 14 41 be 0e 07 20 bd
       -0.26903954 -0.19477595 -0.18855494 -0.039069228
000090 4a ea 4d 3f fb 70 39 3f 4b 48 7d 3f 5b 42 ee 3d
       0.8043562 0.7243802 0.98938435 0.1163375
0000a0 69 4c 17 bf be 6c 13 3f 3a 9a 80 3f b7 56 a9 be
       -0.5910097 0.575878 1.0047066 -0.3307397
0000b0 f4 3f 0f be d7 65 b6 3f 12 3d 9e be 8c 89 97 3d
       -0.1398924 1.4249829 -0.30905968 0.07399282
0000c0 72 0a 14 3f ad 75 65 be 62 6d 1f bf f5 df 10 3e
       0.5782844 -0.22408171 -0.6227628 0.14147933
0000d0 1d a3 0a bf 80 b6 a8 be 89 65 4e 3f 38 c9 cd 3f
       -0.5415514 -0.32951736 0.8062368 1.6077032
0000e0 09 cd 06 bf 89 e4 8a 3e 78 81 0f 3f 90 14 1c bf
       -0.5265661 0.27127483 0.5605693 -0.60968876
0000f0 10 0f 9e 3f a5 0a 41 3e ad 8a e9 be e4 a0 22 3f
       1.2348347 0.18851717 -0.45613614 0.6352675
000100 22 72 63 3f 1a 92 1f bf 42 79 97 3e 84 34 3e be
       0.8884603 -0.6233231 0.295847 -0.1857472
000110 23 ea db bd d3 47 3f be df 39 88 3f cc 78 31 3c
       -0.107380174 -0.18679743 1.0642661 0.010832023
000120 fc c2 88 bd 07 78 83 be 46 e7 0f be e4 c2 63 be
       -0.06677815 -0.2567751 -0.14053068 -0.22242314
000130 08 10 22 bf 5b 56 ee 3d bc 68 cd be 96 77 9b bd
       -0.6330571 0.11637565 -0.40118968 -0.075911686
000140 48 a3 f2 3e 4f fa 7a be b6 fe 6f 3d 34 14 5d be
       0.473902 -0.24509548 0.05859252 -0.21589738
000150 5e 31 67 3e 3a ac 5f 3f 5b 3e 24 be 12 a8 27 bd
       0.22577426 0.8737217 -0.16039412 -0.04093177
000160 45 20 14 3f 13 78 eb 3e 70 12 49 3f 93 48 22 3e
       0.5786174 0.45990047 0.7854376 0.15847997
000170 4c 70 d8 bd be 7d 91 3d 5c 18 ab 3f ab ca 1b bd
       -0.10568294 0.071040615 1.3366809 -0.038035076

fc3.bias f4 [3]
000000 84 d0 57 3f 44 f7 fd bc 2a 7f e8 3d
       0.84302545 -0.031001695 0.113523796

exp_avg f4 [64, 16]
000000 0c 87 aa b8 e5 43 c3 b9 c8 6a 2b 3a 50 dc 33 3b
       -8.131386e-05 -0.00037243884 0.0006539044 0.002744455
000010 c8 d2 da b9 0e ac 24 bb 76 a5 a9 b9 32 f3 f7 39
       -0.00041737244 -0.0025126967 -0.0003235747 0.00047292706
000020 11 88 e4 3a ab fa 8c ba c0 54 0a 37 22 ab b2 39
       0.001743557 -0.0010755857 8.245173e-06 0.0003407831
000030 17 5c d0 ba 22 fd 0e ba d7 b8 35 b9 ec 26 a9 ba
       -0.0015896586 -0.000545459 -0.00017330363 -0.0012905276
000040 b0 45 12 bb 21 6f 94 3b a3 ba 8d b8 43 f1 af 3a
       -0.002231937 0.004529849 -6.758168e-05 0.0013423342
000050 4f 22 ad 3a b8 c6 eb 3a 82 a1 3b ba 2f 0e 41 ba
       0.0013209077 0.00179883 -0.00071575504 -0.0007364479
000060 b5 56 65 3b e4 a7 be 3a ce b4 b2 b9 9e b2 b2 3a
       0.0034994308 0.0014545885 -0.00034085516 0.0013633554
000070 93 bf 24 bb 04 6e 1b bb 18 8b ed ba c3 89 cf ba
       -0.0025138601 -0.0023716697 -0.0018123118 -0.0015833903
000080 10 9e 02 3b 7b 12 e5 39 90 db af ba e0 cd 8e ba
       0.0019930638 0.00043692053 -0.0013416875 -0.0010895096
000090 7d d6 1e bb c2 91 10 ba c9 79 93 ba bc d9 bf 3a
       -0.0024236732 -0.00055148837 -0.0011251505 0.0014637033
0000a0 cc dd eb b7 21 a8 17 3b 25 96 a6 b9 c3 b2 dc 3a
       -2.8117465e-05 0.0023140984 -0.00031773854 0.0016837943
0000b0 72 0a 0f bb 91 e5 f5 3a b7 54 a0 ba af 74 0c 3b
       -0.0021826294 0.0018760433 -0.0012232278 0.0021431854
0000c0 ae 75 02 3a ee a0 86 39 83 61 c8 38 af 01 6e 3a
       0.0004976642 0.00025678374 9.554906e-05 0.00090792304
0000d0 59 8f 82 b8 da 36 04 3a 72 ca 7c b8 a6 7a 61 39
       -6.225584e-05 0.0005043574 -6.0270024e-05 0.00021503362
0000e0 96 4e 2a ba d5 e9 59 ba 78 fa 65 3a 1a de 27 3a
       -0.00064966956 -0.0008312737 0.00087729795 0.000640364
0000f0 05 58 5f ba f4 9f af b9 6a 27 b1 b9 eb d2 9a ba
       -0.0008519891 -0.00033497775 -0.00033789437 -0.0011812126
000100 46 19 95 ba bc 49 a8 ba c4 84 78 b9 4b ec ca ba
       -0.001137533 -0.0012839357 -0.00023700582 -0.0015481798
000110 32 d6 5f 3b c0 a6 8b 3b dc 3f 07 3b 40 ac 0f ba
       0.003415477 0.0042618215 0.0020637428 -0.00054806843
000120 c3 30 0c bb 98 19 5c ba 06 97 c4 bb bd ba 02 bb
       -0.002139137 -0.0008396148 -0.0059994487 -0.001994773
000130 25 aa 51 3a ae 8e 29 bb a6 49 82 3a 8f ba e7 b8
       0.0007998071 -0.0025872397 0.0009940162 -0.000110496876
000140 17 88 fa 39 8c 0a 9e ba 35 53 93 ba 1c 9b 6c ba
       0.0004778511 -0.0012057587 -0.0011240008 -0.00090257986
000150 5f 08 60 ba 5a 51 26 3b 4d b6 93 ba f8 38 f9 3a
       -0.0008546169 0.002537808 -0.001126954 0.001901417
000160 0e ae 6d b8 2f af 4d ba f6 4f 27 ba 15 5c 4f ba
       -5.6667304e-05 -0.0007846234 -0.00063824595 -0.00079101446
000170 5c bb bd 38 28 33 95 3a 2d 6b 06 ba 9e 7a 4f ba
       9.047121e-05 0.0011383044 -0.0005127665 -0.0007914695
000180 72 3c 55 bb 97 66 97 b9 2c 65 2b ba 2c 12 02 b9
       -0.003253725 -0.000288774 -0.0006538208 -0.00012404536
000190 35 d4 0a bb fc 22 39 3b e4 b9 87 bb 84 e9 88 39
       -0.0021183614 0.0028249612 -0.004142033 0.00026113924
0001a0 17 5d 84 39 d1 fc 05 ba 01 c6 21 3a 81 83 0c bb
       0.0002524636 -0.000511122 0.00061711675 -0.0021440687
0001b0 f9 e3 2b b9 69 34 48 ba c4 b6 65 bb 2b 57 3f 3a
       -0.00016392757 -0.0007637204 -0.0035051564 0.0007299061
0001c0 45 fb c0 3a e6 79 0e 3a 8a 0c f0 b7 4f fc 0a 3a
       0.0014723322 0.00054350344 -2.8616068e-05 0.0005301879
0001d0 de 50 06 39 af 33 93 ba 67 96 8a 3a dd 6a 8a 3a
       0.00012809361 -0.0011230613 0.0010573388 0.0010560412
0001e0 da a1 02 ba 93 38 55 3a 9f fc 57 ba ea 26 22 b9
       -0.0004983224 0.00081337354 -0.00082392426 -0.0001546402
0001f0 85 87 54 3a 58 ee 09 3a 8b 8c 25 b9 3e fc b8 3a
       0.0008107352 0.0005261651 -0.00015787983 0.001411326
000200 36 9e bd ba a7 9b 3d 3b e0 69 f6 b9 1d 02 15 3b
       -0.0014466706 0.0028931887 -0.0004699966 0.0022736855
000210 72 a9 a0 ba 20 7b 38 ba 72 5e 15 bb 0a 39 96 ba
       -0.001225753 -0.000703739 -0.002279189 -0.0011461091
000220 d4 31 a3 3a bf 12 ae 3b d2 8b 53 bb 7f b8 0f bb
       0.0012450763 0.0053122933 -0.0032279384 -0.0021930037
000230 1f 30 78 b9 2c 67 4a b9 2b 46 90 bb 74 58 2f b9
       -0.0002366905 -0.00019302656 -0.004402896 -0.00016722252
000240 f9 e8 04 ba b3 57 0c b8 c0 0a 4a 39 22 19 df 3a
       -0.0005070116 -3.3460277e-05 0.00019268226 0.001702104
000250 2d 6f 88 3a ce 2e f3 ba 3f db fb 39 91 ae dc 3a
       0.001040911 -0.0018553378 0.00048037802 0.0016836693
000260 83 49 a6 38 25 20 1a bb c2 63 44 b8 a1 fe 07 bb
       7.9291895e-05 -0.0023517695 -4.682295e-05 -0.0020751136
000270 83 c5 04 ba 59 22 0d 3b 8c 07 09 3a ac f2 0e 3b
       -0.0005064832 0.0021535365 0.000522726 0.0021812124
000280 bf 12 1c bb df de 70 3b 16 62 ad 3b 69 a5 7b 3b
       -0.0023814884 0.0036753935 0.005291234 0.0038398153
000290 d5 ad 27 bb ef ff be bb 4d e5 13 ba 8a d0 8d ba
       -0.002558579 -0.0058288495 -0.00056417735 -0.0010819596
0002a0 36 84 cf 3b 65 fb 0c b8 20 2b c2 3a 1d b4 95 3b
       0.0063328994 -3.361273e-05 0.0014813878 0.0045685903
0002b0 7b 83 8b ba ad a9 01 bb e9 fc ab 3a 06 e6 09 3b
       -0.0010644043 -0.0019784973 0.0013121638 0.0021041646
0002c0 4b 08 67 39 ff f9 08 bb 94 60 51 39 fb 70 df 3a
       0.00022032966 -0.0020900962 0.00019967771 0.0017047221
0002d0 52 8c 87 bb cd 58 d7 bb 39 3b 1b bb ba 4c 0b 3a
       -0.0041366005 -0.006571865 -0.0023686423 0.00053138623
0002e0 2c 9e e0 b9 ad df bd 39 d8 ef b2 3b 7e e7 c8 3a
       -0.00042842457 0.0003621554 0.0054607205 0.0015327779
0002f0 8b 49 17 3b 83 96 41 3b bc 91 83 3a c3 b7 c9 3a
       0.0023084607 0.0029539175 0.0010037939 0.0015389848
000300 c7 77 86 ba 84 53 8d 3a a4 12 c7 3a 39 72 0f ba
       -0.0010259085 0.0010782336 0.001518805 -0.00054720376
000310 b6 3a 57 3a 2b f6 bb ba fb c4 0a bb 4f 05 b1 3a
       0.0008210348 -0.0014340332 -0.0021174538 0.001350561
000320 32 06 87 ba 0e 89 ba 3a 47 3c d6 3a a2 14 8b 3a
       -0.0010301529 0.0014231519 0.0016344868 0.0010611007
000330 f7 9d 13 39 32 b9 43 3a d6 6c a8 3a 0e 0c ee b8
       0.00014077859 0.0007466256 0.0012849818 -0.0001135097
000340 f5 6e c0 b9 ad aa 5a ba e5 b4 e5 b9 5a 14 13 3a
       -0.00036703763 -0.0008341473 -0.0004381306 0.00056106376
000350 17 ca 17 3b 28 f6 f3 3a e8 c1 49 3a 2e 6a f5 38
       0.0023161226 0.0018612789 0.0007696436 0.00011702288
000360 12 d0 d3 ba 74 b5 4c ba fc 50 11 3a 9d 6d 38 3a
       -0.0016160032 -0.0007809021 0.00055433786 0.00070353766
000370 6c 07 6e 3a e4 3b 0c 3a 07 82 8c 3a c2 98 7f ba
       0.00090800854 0.00053495006 0.0010719904 -0.0009750241
000380 41 fc 47 3b 36 8f 8c ba 51 62 59 3a 7c e6 8b 3a
       0.0030515345 -0.0010723833 0.00082925434 0.0010673548
000390 94 a8 ca 3a 22 1d cd ba e8 8c bc 3b c6 49 3c 3b
       0.0015461617 -0.0015648941 0.005754102 0.0028730496
0003a0 be 98 d3 3a 56 2c 4d 3b 52 28 ad 3a ba aa 0b ba
       0.0016143543 0.0031306944 0.0013210869 -0.00053278694
0003b0 ee 1e c0 39 f8 17 8f ba af 12 ab 3a 68 b2 4b 3b
       0.00036644138 -0.0010917177 0.0013051833 0.003108168
0003c0 37 cb 1b 3b 60 de df 3b ee 4d 89 3b 0d f5 6e 3b
       0.0023772249 0.006831929 0.004190198 0.003646198
0003d0 41 06 3c bb a4 42 26 38 00 a8 d5 3a d6 50 88 bb
       -0.002869025 3.9639548e-05 0.0016300678 -0.004160027
0003e0 ef c3 52 3b 32 f5 28 3b 98 ce 63 b8 c3 9c c5 3a
       0.0032160243 0.0025780913 -5.4313423e-05 0.0015076626
0003f0 60 69 02 bc 25 37 f9 bb 17 76 97 bb ff fa a2 ba
       -0.007959694 -0.0076054507 -0.0046222317 -0.0012434422

exp_avg_sq f4 [64, 16]
000000 a5 8c 68 38 31 a1 86 38 50 8f 9d 38 7b 84 41 38
       5.5444096e-05 6.419642e-05 7.5130374e-05 4.6138168e-05
000010 7d cf 86 38 c0 e5 df 38 f9 9b 46 38 83 94 87 38
       6.4282656e-05 0.00010676263 4.735214e-05 6.464964e-05
000020 08 e3 18 38 77 65 50 38 8d 53 5e 38 38 b1 21 38
       3.6451063e-05 4.968556e-05 5.3006737e-05 3.855044e-05
000030 43 39 01 39 7a 17 68 38 7e 61 b9 38 ce de aa 38
       0.0001232373 5.5334975e-05 8.839647e-05 8.147732e-05
000040 03 25 cd 38 fa 8b 2b 38 94 03 df 37 ad 47 d1 37
       9.782056e-05 4.089994e-05 2.6585338e-05 2.4948118e-05
000050 d1 eb 9a 37 3e 91 f1 37 73 82 7d 38 fa c5 49 38
       1.8468041e-05 2.8797072e-05 6.044139e-05 4.8106514e-05
000060 2b 12 e7 37 a5 da df 37 36 6a ea 37 ce eb d0 37
       2.7545806e-05 2.6685486e-05 2.7944432e-05 2.4905337e-05
000070 d4 1b 81 38 51 5e 47 38 56 37 3d 38 38 1b 63 38
       6.156383e-05 4.7533136e-05 4.5112647e-05 5.4146367e-05
000080 7b 1a 09 38 d1 fa a2 38 91 2a 84 38 28 af 4f 38
       3.2688007e-05 7.77148e-05 6.302179e-05 4.9515773e-05
000090 bb b6 10 39 5b 9b 88 38 c0 d1 9c 38 10 f7 91 38
       0.00013800983 6.5139226e-05 7.477729e-05 6.960158e-05
0000a0 08 f0 3a 38 e2 9c 9d 38 1b af 5f 38 2d 8c 3b 38
       4.4569402e-05 7.515565e-05 5.3330423e-05 4.4714823e-05
0000b0 66 22 dd 38 69 6d 2f 38 b6 1b 98 38 70 3d a3 38
       0.000105445084 4.1825147e-05 7.2530864e-05 7.783889e-05
0000c0 4e 14 4c 37 17 68 92 37 7e 9b 53 37 31 fb 8b 37
       1.2164075e-05 1.7453027e-05 1.2612783e-05 1.6687061e-05
0000d0 d4 58 88 37 1a b1 46 37 21 18 d5 37 ba 94 3f 37
       1.6253827e-05 1.1842954e-05 2.5402815e-05 1.1419115e-05
0000e0 a4 b1 1c 37 86 6d 48 37 88 91 31 37 10 d1 27 37
       9.339685e-06 1.1946429e-05 1.0583906e-05 1.0002652e-05
0000f0 63 df d6 37 15 56 a7 37 76 4a af 37 61 b5 dc 37
       2.561481e-05 1.9948036e-05 2.08963e-05 2.6310505e-05
000100 e6 23 df 37 fc b9 8c 38 db 44 3f 38 4f e1 38 38
       2.6600388e-05 6.7103625e-05 4.5602075e-05 4.4078854e-05
000110 f9 08 e8 38 78 76 52 38 9b 92 6f 38 9b 66 5d 38
       0.00011064293 5.0178234e-05 5.7118577e-05 5.2786065e-05
000120 50 f0 2f 38 47 21 5a 38 76 ca 39 38 8c 8c 31 38
       4.194706e-05 5.2006242e-05 4.4295994e-05 4.2330983e-05
000130 3e 37 a1 38 7c 67 30 38 d0 62 7f 38 54 c5 83 38
       7.687368e-05 4.2058047e-05 6.0888764e-05 6.283322e-05
000140 b2 d5 df 37 18 21 bd 37 7f 63 eb 37 bc bc 01 38
       2.6683181e-05 2.2545966e-05 2.8060515e-05 3.093177e-05
000150 18 c7 f7 37 66 96 57 38 9d 53 e1 37 14 7a b6 37
       2.9537405e-05 5.1400064e-05 2.6861026e-05 2.1752938e-05
000160 0d 79 87 37 36 b5 99 37 5f da e6 37 42 2d b4 37
       1.6149623e-05 1.8323404e-05 2.7519824e-05 2.1478747e-05
000170 8e 40 4d 38 5e a3 31 38 34 65 c2 37 c7 1c bf 37
       4.893593e-05 4.2352236e-05 2.3173729e-05 2.2782375e-05
000180 d9 21 76 38 82 1d 28 39 c0 d1 af 38 da 06 ac 38
       5.8682494e-05 0.00016032721 8.383719e-05 8.202875e-05
000190 ef 4e 38 39 c6 aa 97 38 36 8a 16 39 45 e9 00 39
       0.00017577012 7.23205e-05 0.00014356602 0.00012293931
0001a0 df 47 b9 38 26 6f 06 39 39 86 a3 38 e0 2f a7 38
       8.8348745e-05 0.00012820642 7.7974466e-05 7.972098e-05
0001b0 90 c2 0d 39 db aa 98 38 22 fe 0e 39 df d6 1b 39
       0.00013519288 7.279749e-05 0.00013636847 0.00014861998
0001c0 8d 8d 43 38 1a bf 26 38 56 fd 39 38 e7 68 d4 37
       4.6623452e-05 3.975546e-05 4.4343375e-05 2.5321218e-05
0001d0 b3 3d a5 37 8b 17 d0 37 1d 53 73 37 7e e5 ad 37
       1.9698264e-05 2.4806495e-05 1.450328e-05 2.0730073e-05
0001e0 f7 9a 89 37 f7 20 a3 37 24 34 99 37 3f f8 70 37
       1.6403834e-05 1.9446465e-05 1.8263301e-05 1.4362914e-05
0001f0 d6 80 56 38 5a 19 09 38 20 29 29 38 82 ab 39 38
       5.1141564e-05 3.2686956e-05 4.033104e-05 4.4267166e-05
000200 92 a4 9a 38 89 7a b9 38 f4 72 d4 38 84 62 8f 38
       7.373946e-05 8.8443114e-05 0.000101303594 6.837121e-05
000210 58 ab 13 39 ee cf cf 38 9f 97 d7 38 2a f3 8d 38
       0.00014082843 9.909259e-05 0.000102802405 6.768697e-05
000220 d8 4b 5d 38 65 d0 8f 38 6a 25 80 38 07 29 55 38
       5.276114e-05 6.857588e-05 6.1104845e-05 5.0821367e-05
000230 d0 8b 00 39 74 5a 99 38 68 7d be 38 e0 bd 03 39
       0.00012259115 7.312457e-05 9.083265e-05 0.00012563867
000240 7e a7 21 38 5c 1a 67 38 f5 c7 1c 38 84 15 28 38
       3.854138e-05 5.509924e-05 3.7379523e-05 4.007436e-05
000250 c5 62 7f 38 9a 73 5b 38 83 e9 67 38 9f df 32 38
       6.0888724e-05 5.232133e-05 5.5292167e-05 4.264677e-05
000260 38 c3 1b 38 c3 15 0e 38 5e c4 22 38 23 67 11 38
       3.713669e-05 3.3875705e-05 3.880669e-05 3.4666748e-05
000270 91 b3 74 38 e6 dc a9 38 77 af 6c 38 c5 ad 89 38
       5.8341368e-05 8.0996935e-05 5.64302e-05 6.565036e-05
000280 80 2b 18 39 1f 1f 33 39 1d 05 73 39 07 fd 2d 39
       0.00014512055 0.00017082364 0.00023176191 0.00016592826
000290 9b 7d 8a 39 86 39 ea 39 1d ec 65 39 f4 55 36 39
       0.00026414994 0.00044674816 0.00021927101 0.00017388893
0002a0 0a b2 f1 38 be ed 17 39 97 be 2a 39 5e 85 09 39
       0.00011524938 0.00014489048 0.00016283464 0.00013115021
0002b0 4c e8 de 39 06 1b 86 39 57 6c 87 39 dd 32 8e 39
       0.00042516214 0.00025578606 0.00025829926 0.00027122247
0002c0 49 37 1d 39 00 c3 68 39 57 b7 5c 39 b2 86 14 39
       0.00014993282 0.00022197887 0.00021049134 0.00014164558
0002d0 c4 3d bc 39 13 c2 8a 39 1a d8 4a 39 d4 3e 4d 39
       0.00035904173 0.00026466008 0.00019344725 0.00019573729
0002e0 54 9b e2 38 26 ae 0a 39 8f 74 12 39 92 14 f2 38
       0.00010805452 0.00013225581 0.00013967066 0.00011543291
0002f0 15 86 c5 39 e6 49 96 39 2c 60 9e 39 b4 06 b1 39
       0.00037674667 0.00028665288 0.00030207762 0.00033765065
000300 1a 8a 1c 38 3b b8 fb 37 3c a1 20 38 46 d7 3e 38
       3.7321915e-05 3.000732e-05 3.8297134e-05 4.550002e-05
000310 4c 53 fb 37 59 49 3b 38 0a 56 d2 37 82 7b f4 37
       2.996032e-05 4.4652585e-05 2.5074016e-05 2.914458e-05
000320 ba 06 bc 37 37 1f ba 37 38 aa ee 37 b4 ae b4 37
       2.2414479e-05 2.2187463e-05 2.8451075e-05 2.1539025e-05
000330 78 a5 39 38 ca 69 2c 38 75 1a 28 38 77 91 53 38
       4.4261542e-05 4.110652e-05 4.007896e-05 5.0441795e-05
000340 ed 56 d3 36 9f ed 12 37 74 91 28 37 f2 5d e2 36
       6.2984095e-06 8.757604e-06 1.0047446e-05 6.7462615e-06
000350 87 5d 73 37 9d 6d d5 37 8e ad 3f 37 51 5b a2 37
       1.4505705e-05 2.5442621e-05 1.1424896e-05 1.9354427e-05
000360 70 ef bf 36 81 e9 05 37 8e 0a 10 37 28 ae e8 36
       5.7201178e-06 7.981785e-06 8.585526e-06 6.9344132e-06
000370 4a 4a 94 37 74 b8 67 37 b9 2f 2a 37 a6 00 32 37
       1.7677568e-05 1.3811619e-05 1.0143901e-05 1.0609778e-05
000380 c4 2a 94 38 ad bb f3 38 48 93 bc 38 63 9a a7 38
       7.065156e-05 0.000116221 8.991972e-05 7.991937e-05
000390 a5 ce e7 38 ee e3 87 38 85 d6 b0 38 7d 48 9e 38
       0.00011053429 6.479757e-05 8.432291e-05 7.547529e-05
0003a0 e1 57 90 38 61 6d c6 38 c9 75 96 38 5a 22 8a 38
       6.882824e-05 9.461749e-05 7.1744966e-05 6.586751e-05
0003b0 64 7e bb 38 2c c3 9f 38 9f ba ba 38 3c 18 d4 38
       8.940397e-05 7.6180644e-05 8.903932e-05 0.00010113462
0003c0 3b 8a 4b 39 01 60 4a 39 05 6a 0a 39 48 b6 05 39
       0.00019411083 0.00019299985 0.00013200201 0.00012751773
0003d0 1c 44 16 39 e4 56 10 39 b8 de 46 39 18 7d 21 39
       0.00014330487 0.0001376528 0.0001896572 0.00015400758
0003e0 13 a6 01 39 70 a1 df 38 9e f9 ea 38 a4 ab ed 38
       0.00012364266 0.00010663539 0.00011204484 0.00011333011
0003f0 51 b3 65 39 f9 0c 65 39 ba 66 56 39 7a 14 70 39
       0.00021905942 0.00021843975 0.00020446899 0.00022895812

exp_avg f4 [64]
000000 00 1c f6 3a 83 db 08 3b f3 66 ef b8 8a dd 48 3a
       0.0018776655 0.0020882792 -0.00011415584 0.00076624064
000010 89 22 20 bb 43 d3 a1 ba a3 b4 3d 3b 9d 15 59 ba
       -0.0024434647 -0.0012346286 0.002894678 -0.00082811137
000020 cb 1a 4f 3b f0 3b a9 ba 7a 5a 8d 3b 68 cc 09 3b
       0.0031601663 -0.001291154 0.004313764 0.0021026377
000030 26 2f 38 3a 1f 79 e7 ba 31 d3 8d bb d5 12 df 3b
       0.00070260686 -0.0017659998 -0.0043281545 0.006807665
000040 cd 27 13 ba 20 f0 8c 3b fc 65 aa b8 a2 80 67 3b
       -0.0005613536 0.004301086 -8.125228e-05 0.0035324474
000050 19 52 89 3b 13 32 09 bb 7d 65 47 bb 7c f3 1d ba
       0.004190695 -0.0020934388 -0.0030425482 -0.00060253567
000060 4d ae 84 ba b5 aa c4 bb 19 35 94 3a 87 40 21 bb
       -0.0010122746 -0.006001795 0.0011307328 -0.0024605112
000070 1c 98 83 3a a8 5d 92 3a f4 b5 35 3b b7 3d 93 b9
       0.0010039839 0.0011166828 0.002772686 -0.00028084006
000080 d4 0b 4c 3c 5a 76 33 ba 29 65 94 bb 0f a1 ee 3a
       0.012453992 -0.0006845944 -0.004528661 0.0018205958
000090 b7 90 cb 3a 48 8a 82 3a da ce 02 bb 50 cd 82 3b
       0.0015530799 0.0009959424 -0.001995972 0.0039917603
0000a0 93 77 d8 ba 6a de 95 38 17 a5 55 b9 93 f9 22 bb
       -0.0016515128 7.1463015e-05 -0.00020374764 -0.0024867996
0000b0 fd c8 0f 3b 68 1b 12 3a d3 fb d4 3a 00 19 f5 ba
       0.0021939867 0.0005573542 0.0016249366 -0.0018699467
0000c0 c4 37 e6 39 fe 19 27 3b d5 7f ef 3a 45 c4 7f ba
       0.00043910567 0.002549767 0.001827235 -0.00097567245
0000d0 9d 05 f7 b9 68 c0 c2 bb 45 73 b2 ba ac 84 c5 3a
       -0.00047115693 -0.005943347 -0.0013614675 0.0015069447
0000e0 6a 8f 14 3a 93 d2 aa ba b2 0c fb 3a ac 5d 13 3a
       0.00056671223 -0.0013032727 0.0019153564 0.0005621563
0000f0 13 69 12 3a 4d 2c f4 bb 49 b1 36 bb fe 12 36 3b
       0.0005585115 -0.00745157 -0.0027876666 0.0027782316

exp_avg_sq f4 [64]
000000 9d c0 8c 39 b5 b4 2a 39 35 3d 41 39 04 45 7e 38
       0.0002684639 0.00016279782 0.00018428716 6.0622595e-05
000010 81 bc 18 39 5d 1c dc 38 04 36 9a 39 81 02 02 39
       0.00014566073 0.000104957006 0.00029413414 0.00012398699
000020 f6 a8 9e 39 13 9e 32 39 fd 3b 6b 3a ed 1f 72 3a
       0.00030261994 0.0001703429 0.00089734775 0.00092363247
000030 96 fd f1 38 53 94 27 38 de 70 64 39 82 df 0d 3a
       0.000115390096 3.995404e-05 0.0002178582 0.00054120284
000040 45 4a c8 39 ff 19 6a 3a 4d 03 e8 39 ac 3c 60 3a
       0.00038202308 0.00089302653 0.00044252948 0.00085539627
000050 f7 ea 1c 3a c0 9c b1 38 b9 a2 29 39 17 83 28 39
       0.000598594 8.469215e-05 0.00016177715 0.00016070563
000060 96 73 42 38 94 11 d3 39 56 60 ff 38 2c a5 9b 39
       4.6360852e-05 0.00040258153 0.000121772915 0.00029686966
000070 88 d0 22 3a fe 64 37 39 85 bb a2 3a d9 43 0c 39
       0.0006210883 0.00017489863 0.0012415504 0.00013376716
000080 64 20 73 3b f3 a4 fd 39 58 b4 a7 3a d0 a0 f4 38
       0.0037098164 0.00048378817 0.0012794835 0.0001166478
000090 0d 67 0d 3a fa 5a 4d 38 35 7b 57 3a a9 be 02 3a
       0.0005394079 4.8960537e-05 0.00082199584 0.0004987517
0000a0 ba f4 1b 3a 25 3f 24 39 db 4e a7 39 8d 0d 1c 3a
       0.0005949248 0.00015663782 0.00031911474 0.0005952947
0000b0 92 58 b7 39 c6 0b 08 3a 39 cd d2 38 42 b9 94 3a
       0.0003497047 0.00051897427 0.00010051806 0.0011346715
0000c0 a9 76 7e 3a 6f c9 ba 38 90 7f d0 38 53 e7 52 3a
       0.0009707013 8.906691e-05 9.941973e-05 0.0008045334
0000d0 02 ba 5e 39 54 e2 5e 3a 6e fa fa 38 f6 f4 3b 39
       0.00021240863 0.00085023534 0.00011967575 0.00017924965
0000e0 66 f3 95 38 ad d3 54 38 af d0 22 39 8f 09 aa 38
       7.15021e-05 5.0741877e-05 0.00015527265 8.108012e-05
0000f0 61 05 b8 38 c4 10 2d 3a fe e7 e1 38 97 cd e3 39
       8.7748056e-05 0.00066019245 0.00010772048 0.0004344999

exp_avg f4 [32, 64]
000000 26 63 a7 37 47 58 06 38 a5 1c da 39 5a 9f 0f 3a
       1.9954121e-05 3.2030304e-05 0.00041601542 0.00054787623
000010 0f 21 0c 3b 90 0b 38 39 cc e0 8d b9 33 ad 35 3a
       0.002138201 0.00017551915 -0.00027061102 0.0006930411
000020 9d b5 04 3b 00 01 ef 39 85 2d aa 3a e7 13 44 3b
       0.0020249852 0.00045586377 0.0012983537 0.002991909
000030 9e 0f f8 3a b9 66 d7 3a dd cd 18 b7 df 2d 0c b9
       0.0018925553 0.0016433812 -9.107837e-06 -0.00013368529
000040 d5 0c 8d 39 cb 76 b0 3a 4c 5e 88 3b 91 ef a4 3a
       0.00026903176 0.0013463137 0.0041616317 0.0012583603
000050 f5 6d d3 3a 34 1f 4c 3a 99 6c f2 b9 23 3c 4b 3b
       0.0016130792 0.0007786632 -0.00046238748 0.0031011186
000060 e2 4d b8 3a b9 dd ea 3a c1 8c 28 3a 76 c6 15 3b
       0.0014061297 0.0017918862 0.00064296654 0.0022853888
000070 55 cb cd 3a ac e3 35 39 b7 6c 1e 3a 53 3c 65 38
       0.0015700856 0.0001734632 0.00060434215 5.4654036e-05
000080 a5 d8 37 3b 3d 2e e9 38 ce 26 91 3a b7 b6 c1 b9
       0.0028052714 0.00011118918 0.0011074187 -0.00036947962
000090 89 f8 9f b8 8e 13 2f 3a 0b a4 b1 3a 59 e2 e6 39
       -7.628004e-05 0.0006678634 0.0013552917 0.0004403766
0000a0 dc 08 ba 3a d1 f7 04 3a 1b fe cb 3a 51 fc ee 3a
       0.0014193314 0.0005072328 0.00155634 0.0018233155
0000b0 ec 2e c8 3a 94 17 39 3a da de 67 39 e6 c5 11 3b
       0.0015272773 0.00070607034 0.00022112895 0.00222432
0000c0 72 ab e5 b9 fd c2 57 3a 3a 53 06 3a 11 da 80 3a
       -0.0004380602 0.00082306546 0.0005124096 0.0009830614
0000d0 09 ab 86 3a 38 74 2a 3a 9d 4a d3 39 35 c4 3e ba
       0.0010274361 0.00065023033 0.00040300647 -0.0007277162
0000e0 3c 95 40 b9 34 9a 7c 3a 29 f4 42 3b ad 23 98 39
       -0.00018366141 0.0009636015 0.0029747582 0.0002901828
0000f0 82 50 4c 3a d3 27 d3 3a db d0 f4 3a 63 54 80 3a
       0.0007793979 0.0016109891 0.0018677966 0.0009790774
000100 3e 7c 07 3a 93 63 29 ba bd 11 24 3a ee dd 56 37
       0.0005168355 -0.0006461676 0.0006258747 1.2807066e-05
000110 dd 96 14 3a b4 f6 ab 39 7f 50 09 ba c4 c0 b5 ba
       0.00056682323 0.0003279947 -0.000523813 -0.0013866653
000120 cb ed 10 b9 59 dd a8 ba 70 f9 92 39 5b 73 40 3a
       -0.00013821495 -0.001288335 0.00028033135 0.0007341408
000130 f1 a8 89 ba 2c 2c f4 39 76 f1 93 39 df de 47 ba
       -0.0010502619 0.00046572217 0.00028217927 -0.0007624458
000140 8d 77 d2 ba 76 04 dd b9 74 00 0a bb 90 89 95 b9
       -0.0016057357 -0.00042155728 -0.00210574 -0.00028521987
000150 68 8c 56 ba 1b 3a a6 b9 0c ba 0e ba 25 16 d1 39
       -0.00081843743 -0.0003170528 -0.0005444593 0.00039880085
000160 80 69 99 b8 da c0 28 3a fc 78 8e ba b5 3d f9 b8
       -7.3152594e-05 0.00064374285 -0.0010869796 -0.00011884739
000170 c9 52 cc 39 f3 f7 0c ba 91 54 93 ba 1f 55 1c 39
       0.00038971592 -0.00053775235 -0.0011240413 0.0001490903
000180 8f 89 ef 39 b7 df a2 38 1f b8 df 38 29 0c 02 b9
       0.00045688121 7.766432e-05 0.00010667764 -0.00012402296
000190 be 40 86 39 b8 83 5e ba ef 53 9f ba a5 35 9c 37
       0.00025606708 -0.00084882556 -0.0012155751 1.862163e-05
0001a0 f1 da b7 ba 9e 8b ac b9 2c a5 26 ba ae 31 25 ba
       -0.0014027042 -0.0003291042 -0.000635701 -0.00063016533
0001b0 31 96 d4 b9 eb 0f 4b ba ec ee 93 b8 9f 60 7c ba
       -0.00040547692 -0.00077462074 -7.054009e-05 -0.0009627435
0001c0 1b 2a 6d ba ab ec 09 39 2b 05 9a b9 c3 bd 28 39
       -0.0009047107 0.00013153504 -0.0002937702 0.0001609242
0001d0 8c b3 2b ba d0 5b 01 b9 74 de d7 b9 9d c3 62 ba
       -0.0006549887 -0.00012336602 -0.00041173736 -0.00086503645
0001e0 82 d9 40 b8 05 a9 64 39 92 2a 93 ba 5a 80 f3 b9
       -4.5978937e-05 0.00021806739 -0.0011227897 -0.000464442
0001f0 ce 83 00 ba 19 69 91 3a 92 85 1f b9 f9 22 00 ba
       -0.0004902453 0.0011093944 -0.0001521318 -0.0004888024
000200 1c 61 cb 38 e4 24 50 b9 77 15 07 3a 11 36 fe b8
       9.697882e-05 -0.00019850169 0.000515304 -0.000121217345
000210 fc ab 9e 3a 85 4f b9 38 19 eb a5 b9 09 91 61 b9
       0.0012105699 8.836299e-05 -0.00031646414 -0.00021511702
000220 93 c6 56 3a 8d 9f b9 b7 00 fe 3c 3a aa 85 cb 3a
       0.0008193042 -2.2128015e-05 0.000720948 0.0015527506
000230 b9 6f a5 38 01 c4 80 3a c0 3e bc 38 57 83 d9 b9
       7.888623e-05 0.0009824039 8.976227e-05 -0.0004148732
000240 4c a8 26 b9 22 e1 cc 39 2b 74 84 3a 08 ff a5 38
       -0.00015893689 0.0003907765 0.0010105422 7.9153164e-05
000250 35 01 0b 3a 34 22 96 39 79 7c 00 ba 75 7f b7 3a
       0.0005302609 0.00028635713 -0.00049013604 0.0013999777
000260 45 9d c9 39 86 89 4c 3a 98 f8 e2 b8 71 a1 04 3a
       0.00038454882 0.0007802475 -0.00010822824 0.0005059457
000270 5a e1 6b 3a 3d 62 64 38 c0 03 a3 39 7e 40 c5 b9
       0.00089981186 5.4450928e-05 0.00031092577 -0.00037622818
000280 27 0f 96 3a 47 34 db b8 4e a3 ff 39 70 1f e8 b8
       0.0011448608 -0.00010452471 0.00048759062 -0.00011068478
000290 8d 8e 26 37 ba a0 1e 37 e7 49 4d 39 87 c8 3c 39
       9.927561e-06 9.454956e-06 0.00019577854 0.0001800378
0002a0 f1 7e 73 b8 0c fc b0 38 d1 2d 66 3a 0e 46 20 3a
       -5.8053938e-05 8.4392814e-05 0.0008780631 0.00061139546
0002b0 a0 e3 18 3a 8f 98 11 b8 97 5b df 39 ce 2a 2b 3a
       0.00058322586 -3.4712775e-05 0.00042602114 0.0006529511
0002c0 7c 6a d5 b9 e6 60 32 3a 94 f3 0f 39 d0 eb c8 39
       -0.00040705863 0.00068046 0.00013728283 0.00038322667
0002d0 dc bf 10 b8 37 aa 33 39 2a ec 57 b9 3e d3 bc b9
       -3.451096e-05 0.0001713418 -0.00020591976 -0.00036015542
0002e0 b7 f5 8c b9 6a 4c 17 b8 48 aa 62 3a 63 9b f3 b8
       -0.00026885953 -3.607237e-05 0.00086465897 -0.00011616086
0002f0 aa 7d b0 38 14 b4 5b 3a a1 53 4a 3a 93 cc b6 39
       8.415741e-05 0.0008381021 0.000771815 0.00034866165
000300 cf d5 86 39 17 19 cd b9 ee 80 79 b8 92 8b 09 b8
       0.00025717771 -0.0003911934 -5.94863e-05 -3.279333e-05
000310 47 ff 2a b9 42 d5 3d 38 cf f5 9e b8 f3 66 fc b9
       -0.00016307562 4.5259723e-05 -7.5798125e-05 -0.0004814189
000320 ad 07 e8 b9 4c 97 d1 b9 6a e9 44 b9 a4 fd b0 b6
       -0.00044256207 -0.0003997631 -0.0001877897 -5.2747364e-06
000330 95 13 20 ba 31 4e 19 b9 0d 79 57 39 42 59 ac b9
       -0.00061064336 -0.00014620346 0.00020549093 -0.000328729
000340 36 8a 0d ba b2 68 56 ba c2 18 0a bb 6f e7 94 b9
       -0.0005399318 -0.0008179053 -0.0021071886 -0.0002840119
000350 5b d2 39 ba 04 8f c4 b9 a0 5f 93 b9 a5 73 89 b9
       -0.00070885353 -0.00037490588 -0.0002810927 -0.00026216838
000360 2e 2c 94 37 b3 c5 a8 39 0f d0 34 ba 4e 50 d4 b9
       1.7663548e-05 0.00032190754 -0.0006897458 -0.00040495623
000370 67 f0 08 b9 a0 68 2a b9 c0 1d 58 ba f3 9b 84 b9
       -0.00013059528 -0.00016251439 -0.0008244179 -0.00025293193
000380 16 3d 93 b9 a9 6d fe 38 be 03 70 38 0a b0 69 37
       -0.00028083537 0.000121320896 5.7223944e-05 1.39288695e-05
000390 77 15 c3 38 1a ff 90 b9 17 f6 8b b9 f7 5d b7 b8
       9.302323e-05 -0.00027655886 -0.00026695497 -8.743622e-05
0003a0 9e 05 8c ba f9 6d a7 b8 b0 b0 32 ba d8 4f 3b ba
       -0.0010682826 -7.9836645e-05 -0.00068164896 -0.00071453815
0003b0 0d 1d 78 ba 8c 92 00 ba 60 e0 39 b9 f2 c0 4c ba
       -0.0009464778 -0.00049046497 -0.00017726561 -0.00078107335
0003c0 ed 31 6b b9 e6 67 7c b9 32 1b 79 b9 47 31 48 38
       -0.00022429945 -0.00024071298 -0.00023756622 4.772961e-05
0003d0 18 cb e7 b9 e7 79 1f ba a0 18 61 38 cc 30 b9 b9
       -0.0004421107 -0.00060835335 5.3667114e-05 -0.00035322306
0003e0 54 7b f2 b8 f6 dd 1e b9 e8 dc 87 ba 70 24 af b9
       -0.00011562431 -0.00015150741 -0.0010365518 -0.0003340575
0003f0 5c 5d 5c b9 2b dc 67 38 ea 68 2e ba ac 0e 6d ba
       -0.00021015614 5.527974e-05 -0.00066532067 -0.0009043019
