checkpoints/synth/high_energy/torsion_energy/20250611190444044002/ARG_dim_16/fold5/best_epoch=247-val_loss_epoch=12.917.ckpt (torch, 50181 bytes, 20 tensors)

fc1.weight f4 [64, 16]
00000000: a0b9 8c3b f7be ed3c 3c65 523e afb3 8dbe
00000010: 7b4f 3dbd cbef 10bd 25b8 c7bd aa83 7cbe
00000020: cc0a 0d3d 3bdd b23d 2bbb d73d 3242 54be
00000030: 77ef c93d bec8 293d dae9 a13e d9ea e1bd
00000040: 8e38 e4be 990d 00bf b8ac aabe 431c 783c
00000050: a9ab a33d 6930 90be b841 aa3e 56ac 183f
00000060: 3a08 ebbc 8902 0c3e 531a aebc 50ac 923d
00000070: f043 9c3b 8122 863c b7a1 a03c c716 db3b
00000080: 40ab 75bc 59dd 92be 8fda 0d3d ec62 d33e
00000090: d3af 363d 9943 023f 78e3 303f ef9d 05be
000000a0: 78c3 df3c 2f71 fe3c e04b 493d ea99 4bbb
000000b0: 60c9 99bd 3841 2e3c e23c b93d 2dd6 e73c
000000c0: 1ea7 b0be 65d2 973e ff58 a3be 6d9e 333b
000000d0: ba39 a63d f3b3 cb3d 8600 e1bb ee30 71bc
000000e0: 3a18 453e 7fe6 14bf ae22 513e 2250 793c
000000f0: dfd6 1bbe bfb4 f8bd 0854 84bd 7364 363b
00000100: 0b0b 29bf fb00 3c3f 0ad7 85be 24c0 0cbe
00000110: 2883 d9bc 710c 8cbd 225b b5be dd3b b03e
00000120: 829e 5bbd c717 4d3d 99d0 ccbc 2ff0 9abc
00000130: 7514 8dbb 0fd0 b03d d1ec 0cbd d966 cc3c
00000140: b374 be3d 29e3 febe 913e e83e 367a 64be
00000150: 4af9 7cbd f923 7dbd 1e8a 0a3f 0682 063f
00000160: 67b0 4d3c 9d73 de3b 9186 793d df1e 4c3d
00000170: e2d7 233b 3dee 123e bb43 ccbd 60ed 00bd
00000180: f229 293e adf8 e83e 0e3e 4bbf 4e6e c43d
00000190: 0067 6fbe 178c eebe 8f89 05bf 044c 55be
000001a0: 2605 84bc d0d3 d63d 6f79 4dbd b43c 42bc
000001b0: 6b00 adba e82a 2bbd 5ba3 2b3e ada1 af3c
000001c0: c922 2a3f 296c d53e dd21 c63e 3496 183d
000001d0: fba4 d13c fa3d 0cbf 6128 053f 4b8a 553d
000001e0: 75ad a23a b0cf 0fbe 1ba7 4a3d 5ba1 ee3c
000001f0: 3793 21bc acba 1a3e 28f3 9e3d 7c82 a03c
00000200: 9b4e 01bf b450 943d 7e35 503e e0f9 df3e
00000210: aef3 ba3c f9c8 393f 5c2c 17bf 04c0 cd3e
00000220: 25a7 03bd 790c 803d 3ce4 71bc d02c 793d
00000230: dfad f5bb 194a 4d3d 24ac 043c 987b 98bd
00000240: 4823 efbe 9f9b 7b3d 7dd5 95be d4df 2d3f
00000250: 60b9 98be fdc8 8f3d a4ad 30bf 78f7 2c3e
00000260: ec65 393d 610b 60bd 6341 1dbe 1ba6 1bbd
00000270: ba74 0c3e bff8 a2ba 0b1a 613d affd 80bd
00000280: cfb3 0cbf ffc8 c63e 7018 cf3e 6292 0cbd
00000290: a81d 49be 7b62 1dbf 3b75 5d3d c443 25bc
000002a0: 3450 ea3c 0308 0fbe 341c b93d 102e 5f3c
000002b0: 7a72 acbc eec6 993c 2882 9ebd c69c d23c
000002c0: aed1 b33e 8ef2 c13e 6d40 063e c083 8b3d
000002d0: c1b3 20be 4a4a 1ebf 6d89 07bd c75c 06bf
000002e0: 5f6b 1bbd 44b7 e9bc 811f a6bd 470f 27bc
000002f0: 27b3 583d e4fc 273d dffa 1cbd 4865 5f3d
00000300: bca9 723e e02f f53e 2bd0 1abe 2766 b0be
00000310: ea9d 14bf b9e7 1f3e c281 a9be ec23 b03d
00000320: 7a1f af3a 67db a5bc 5f09 a9bd 7ee3 933d
00000330: e796 6f3e a31e 23bc 963e 113d 5187 c53c
00000340: 1c5b 97bd d224 403d 3537 b73e 823d 38bf
00000350: 7726 933d 46cb eebe 00cd f33e f65e 9cbe
00000360: f2be 3abd a5b9 44bd 8413 003e f022 053d
00000370: 4b24 493c 73e2 abbd 39c7 db3c 4b82 0a3e
00000380: ab6e 083f eee8 453d 0147 03bf c98c 103e
00000390: a29c 52be dd74 063f 6544 09be 9ef4 733e
000003a0: ff87 e93d 4f7f 853c 0c2a 5abd 62fa 43bb
000003b0: 1a36 04bd e734 023e ae8b c1bc c779 33bd
000003c0: ea6b 0ebf 8464 c3be d6fc 26be e0c0 c7bd
000003d0: d270 a0be 59c6 a1be f7aa 8bbd e324 84be
000003e0: 0504 21bd d357 8b3e 99fb eebd 8f5c 313c
000003f0: ee61 66bc df53 02bd e24e cfbc 2c44 c13c
0.004294589 0.029021723 0.2054643 -0.2767615 -0.046218377 -0.035384934 -0.0975192 -0.24659601
0.034434125 0.087336026 0.10533746 -0.20728377 0.098601274 0.04145121 0.31623727 -0.11031122
-0.44574398 -0.5002075 -0.333349 0.015143457 0.07991726 -0.28161934 0.33253264 0.59637964
-0.028690446 0.13672842 -0.021252787 0.07161772 0.004768841 0.016373875 0.019608362 0.006686065
-0.014994442 -0.286845 0.03463226 0.4128641 0.044601273 0.50884396 0.6909709 -0.13048528
0.027314886 0.03105983 0.049144626 -0.0031067082 -0.07509112 0.010635667 0.090448156 0.02830037
-0.345025 0.29652706 -0.31903836 0.0027407662 0.08116479 0.09946432 -0.0068665175 -0.014721138
0.19247523 -0.5816421 0.20423386 0.015216859 -0.15218686 -0.121438496 -0.0646134 0.0027830868
-0.66032475 0.73438996 -0.26140624 -0.13745171 -0.026551798 -0.068383105 -0.3542109 0.34420672
-0.05361796 0.050071504 -0.02500181 -0.018913357 -0.004305417 0.08633434 -0.034405533 0.024951385
0.09299602 -0.49782684 0.45360234 -0.22312245 -0.061761178 -0.061801884 0.54117 0.5254215
0.012554265 0.0067886845 0.06091935 0.04983413 0.0025000502 0.14348693 -0.09973856 -0.03147638
0.16519907 0.45502225 -0.7939156 0.095913514 -0.23379135 -0.46591255 -0.5216302 -0.20829779
-0.016115736 0.10489619 -0.050164636 -0.011855293 -0.0013198977 -0.041788965 0.16761534 0.021439398
0.6645933 0.41684082 0.3869771 0.03725262 0.025591364 -0.5478207 0.5201474 0.05213384
0.0012411313 -0.1404407 0.04947577 0.029129675 -0.009861759 0.15110272 0.07761222 0.01959347
-0.5051057 0.072419554 0.20332906 0.43745327 0.022821274 0.72572285 -0.5905206 0.4018556
-0.032141823 0.06252379 -0.014763888 0.060833752 -0.0074975337 0.050119493 0.008097682 -0.07445449
-0.46706605 0.06142771 -0.2926444 0.6791966 -0.2982893 0.07020757 -0.69014955 0.16891277
0.045263216 -0.05469835 -0.15356974 -0.038000207 0.13716403 -0.0012433751 0.054956477 -0.06298386
-0.54961866 0.38825223 0.40448332 -0.03431929 -0.19640219 -0.61478394 0.054066878 -0.010086957
0.028602697 -0.139679 0.090385824 0.013621822 -0.02105068 0.018771615 -0.07739669 0.025709521
0.3512091 0.37880367 0.13110514 0.06812239 -0.1569357 -0.61832106 -0.033090044 -0.52485317
-0.037944194 -0.02852977 -0.08111478 -0.0101965135 0.052905228 0.04101266 -0.038325187 0.05453995
0.23697561 0.47888088 -0.15118472 -0.34452936 -0.5805346 0.15615739 -0.3310681 0.086006016
0.0013360821 -0.02024622 -0.082537405 0.07221125 0.23397408 -0.009956035 0.035460077 0.024112375
-0.073904246 0.046910115 0.35784307 -0.71968853 0.07185071 -0.4663946 0.4761734 -0.305412
-0.045592256 -0.048028607 0.12507445 0.032504022 0.012276719 -0.08392801 0.026828395 0.13526265
0.53293866 0.048317842 -0.5128022 0.14116205 -0.20567563 0.5252207 -0.13404997 0.23823783
0.11402892 0.016296057 -0.053262755 -0.0029903878 -0.032278158 0.12715493 -0.023626175 -0.043817308
-0.55633414 -0.38162625 -0.16307387 -0.09753585 -0.31336075 -0.3159664 -0.06819718 -0.25809392
-0.039310474 0.27215442 -0.11669082 0.01082529 -0.014061434 -0.031818267 -0.025306169 0.023592077

fc1.bias f4 [64]
00000000: f95e 0c3f ecdd 4a3e da6f 1cbf 14d5 ea3d
00000010: 6d24 b43e 16b4 983e a520 3fbb 282b ca3e
00000020: c57d 7cbe 8e44 9a3c 4f58 b83e 052e 3d3e
00000030: 077b ce3d bafd c33e 9b6d b63e 8b94 213e
00000040: 3d7b ba3d 3141 193e 8ad2 943e c783 15bd
00000050: dac3 cc3e 9b5f 013f 866c c43e fba0 56be
00000060: d1d8 443e 5228 af3e b8d3 8cbd 4867 93bd
00000070: 2fad cebd 1605 56bd b983 a43e 2f43 b83e
00000080: eb96 61be efee 86bd 0c9f 133e c352 bf3d
00000090: 5bfd 28be 7029 bc3e e32d 5e3e d6ae f5be
000000a0: 6b26 663d 3f24 a43c 9b35 dc3e 3618 07bf
000000b0: 5c8a 113e 13d5 b3be d028 f1bd 508b e6be
000000c0: ac09 123f 8ae5 c4bd adf7 d83e 1648 0c3f
000000d0: 206a 4abf f45a 433e dfdf 353e 5179 b63d
000000e0: ce05 3c3d 23bd cd3e b718 ca3e 4fc6 4fbf
000000f0: 6675 f23b 0218 b73e 1758 433e 658b 1dbe
0.54832417 0.19811219 -0.6110817 0.11466423 0.3518404 0.29824895 -0.0029163745 0.3948605
-0.24657352 0.018831518 0.36004874 0.18474586 0.10082059 0.38279516 0.35630497 0.15779321
0.09105537 0.14966275 0.2906688 -0.036502626 0.39993173 0.5053651 0.38364047 -0.20959847
0.19223334 0.3421045 -0.0687632 -0.07197434 -0.10091626 -0.052250944 0.32131746 0.35988757
-0.22030227 -0.06588542 0.1441614 0.093419574 -0.16502897 0.36750364 0.21697192 -0.47984952
0.056188982 0.020036815 0.43009648 -0.5277132 0.14212936 -0.351235 -0.117753625 -0.45028162
0.5704601 -0.096140936 0.42376462 0.54797494 -0.79068184 0.19077665 0.17761181 0.08909858
0.045903973 0.40183362 0.3947198 -0.8116197 0.007399249 0.35760504 0.19076572 -0.15385206

fc2.weight f4 [32, 64]
00000000: b87a e53d f35b 4c3e 6db3 5abf 8bf1 603d
00000010: 8c76 2ebe 1321 ad3e 5285 1a3b 34e0 03bd
00000020: e51d 533d 9c58 febd d202 00bf 406b cbbe
00000030: e939 4c3e 0f29 b8bc 27f0 cdbd f4fa 253e
00000040: 98ef 783e 7acb 4dbb 4217 313e cb7a ae3c
00000050: 62c1 3f3e fb4a ed3c b863 933d 1c40 61be
00000060: 41bb d6be a1a4 ad3d c264 a43d 3713 913e
00000070: 0ca2 d4bd 646b 5ebe 2430 73bd c270 b23e
00000080: 77c5 9b3d 8e3f 11bc f4d0 2c3e 4782 ecbd
00000090: 3eeb 6fbe e2bf 51be 70fd b23e 556f f83c
000000a0: df71 523d ba64 b23d 7912 94bd 08a8 90bd
000000b0: 2ea4 1f3d 95e2 89bd f67f 553e 1d07 9cbc
000000c0: 6dc3 8a3d dea7 86be 86d8 adbb 9dc7 9a3d
000000d0: dc4a 063f a37e 4f3d acbe 22bc f2f7 a3be
000000e0: 4e65 bc3e b9af d8bd fcd5 273e 9ac8 b83e
000000f0: 5c8c 7dbe 6dfd ea3d f6d3 c0be fa0d 1b3e
00000100: 93ce 46bd dbf0 803d 2ddb e53e 8448 03be
00000110: ad53 363e b9eb 05bd f564 493e b278 a0be
00000120: d266 593e cf14 663e e946 3fbd 1fbc febd
00000130: ca96 8cbd c7dc a53e 44c0 67be cd90 e4bc
00000140: 3d7e 913e 2532 88be 2525 b63d 0790 07bf
00000150: 11f0 0b3e 5d1d 95ba ee91 0e3e 906a 153f
00000160: 5ae5 653d 7f27 463e c973 943d 3deb 413e
00000170: 83fe 09bc 9768 28bf 4761 01be 1ef9 ce3d
00000180: e20c f0bd eef8 de3d 75b4 3e3d ca2e b43d
00000190: 51ac 03bc eb6a 453d ec30 9dbe 09d9 e0bf
000001a0: 8b1e c6bd 47bd 3b3e 30cc c5bd 948b 02bc
000001b0: 6487 2fbe ab10 e0bd 263e 7f3e b123 a33d
000001c0: 7d4d 823d 5704 ab3d eb19 7d3d e54c 923e
000001d0: 7992 c43c a196 8bbe 8b53 863e f00a ca3d
000001e0: 759c c3be 28f8 b3be 32e5 04bf 0b3f 423d
000001f0: 912c b83d 6833 cdbd f10b 833e 42e0 8a3e
00000200: 25cb 813e c506 943e 73e8 f43d f2da 1f3e
00000210: a242 9abe 6a63 f1bd 2fe9 42be ad7d 993e
00000220: 9882 013e 9ff5 8ebd bd2b e4bd 6a01 5c3d
00000230: 0d84 febc db9f cfbd 5e96 a4bc 4241 693e
00000240: d1a0 c3bd d1ab 8d3d a1a8 03be 7a80 9abd
00000250: c3c2 8f3e d3de f3be 9ccc a73d ec6d 93bc
00000260: d34a 4ebe 9a51 14be b76a 69be 141c cb3d
00000270: 2a7d e9bd c55a 7e3e f886 073d a512 253e
00000280: da71 00be 333d 2ebc 7ce2 283e 57ac f2bc
00000290: 367d bf3e 31c8 bebd 27e8 8d3d 6979 30be
000002a0: 9cc5 963d 0332 163e b405 433d 0cb9 b73c
000002b0: f9e6 eabd ed58 06be 6567 913e b4ee df3b
000002c0: a432 a83d 4185 833e 2e72 7f3d ab44 203d
000002d0: 97a2 bbbe 2e09 843e 9646 bdbd a34b 833e
000002e0: bd31 e83e 7cd1 883d 4baa 2fbc a1ff e83d
000002f0: fc88 2bbe 2671 b23e 93fc 1cbd b8e5 783e
00000300: 13f3 c53c ac9b a93d df4c 30bf 26f4 0dbe
00000310: e7c9 9ebd d15d a7bd 0711 8fbe d308 8cbc
00000320: 5670 913d 770a 18be 1fcc 93be 8e6e b63d
00000330: 001c ef3b 632c 90be 6581 4fbc 4cef 6bbd
00000340: cdde 4bbe 2b0f 423e 31ec 223e 50c3 a73e
00000350: f928 f8bd bb30 05be 7f4e 1b3e 9e93 563b
00000360: 4061 a53b 6a21 dcbd 986d 2c3e 5b58 23be
00000370: 120b 113e 46fc 1f3d 8f3b 583e 9d38 84bd
00000380: 6143 30be f301 bd3d e443 2c3b d6a1 173e
00000390: 2ecc 0b3e b1f4 713e 7883 50bd 69bf b9be
000003a0: 99d1 23be 96ee 61be 5312 7b3d 19ba 153f
000003b0: 8308 8b3e 8259 433d 3b37 a23e 955b bbbd
000003c0: 8d32 8ebe f243 8fbf 4715 313e 1af6 91be
000003d0: ff1e a43f 1383 a63e ca7b 483e 2ff1 43bf
000003e0: 9072 283e 6a98 d73d 83a0 e2bd 27c0 1a3e
000003f0: d360 d63c bc89 fa3c 0ee3 cfbd 17cf 333e
0.11205047 0.19956951 -0.8543003 0.054917853 -0.1703741 0.33814296 0.0023578 -0.03219624
0.05154218 -0.12419245 -0.50004303 -0.39730263 0.19943966 -0.022480516 -0.10055571 0.16209012
0.24310148 -0.00314018 0.17294028 0.021298787 0.18726113 0.028966418 0.07196754 -0.21997112
-0.41939738 0.08478666 0.080270305 0.28334972 -0.103824705 -0.21720654 -0.059372082 0.34851652
0.07606023 -0.00886525 0.16876584 -0.11548286 -0.23429582 -0.20483354 0.34958982 0.030326525
0.051378127 0.08710618 -0.07230086 -0.070632994 0.038974933 -0.0673267 0.20849594 -0.01904636
0.06775556 -0.26299948 -0.0053053526 0.075576045 0.52457976 0.05065788 -0.009933155 -0.32025105
0.3679604 -0.105803914 0.16390222 0.36090547 -0.24760574 0.114741184 -0.37661713 0.1514205
-0.04853685 0.062959395 0.4489378 -0.12820631 0.17805357 -0.032695506 0.19667418 -0.31342083
0.21230629 0.22468875 -0.046698485 -0.12438225 -0.06864698 0.32395002 -0.22631937 -0.027901078
0.28416625 -0.26600757 0.088938035 -0.52954143 0.13665797 -0.0011376549 0.13922855 0.58365726
0.05612693 0.19351004 0.07248647 0.18937393 -0.008422497 -0.6578459 -0.12634765 0.10106109
-0.11721207 0.10887323 0.046558816 0.08797987 -0.008036689 0.048197668 -0.30701387 -1.7566234
-0.09673794 0.18333922 -0.09658086 -0.007967848 -0.17141491 -0.10940679 0.24926051 0.07965792
0.06362436 0.08350437 0.061792295 0.2857429 0.023995625 -0.27263358 0.26235613 0.098653674
-0.38205305 -0.35150266 -0.51912224 0.047423404 0.08992875 -0.100195706 0.25595048 0.2712422
0.253503 0.28911415 0.11958399 0.15610865 -0.30128962 -0.1178654 -0.19034265 0.29978696
0.12647474 -0.06980442 -0.11141155 0.053712286 -0.031068826 -0.10137912 -0.020091232 0.227788
-0.09552158 0.06917537 -0.12857296 -0.07544036 0.2807828 -0.4763094 0.08193323 -0.01799675
-0.2014573 -0.14484254 -0.22794615 0.09917465 -0.11400826 0.24839313 0.0330877 0.16120394
-0.12543431 -0.010634708 0.16492647 -0.029623194 0.37400216 -0.09315527 0.06929045 -0.17233814
0.0736191 0.14667515 0.04761286 0.022427104 -0.11469836 -0.1311986 0.28399196 0.0068338756
0.08212784 0.25687602 0.06236475 0.039127987 -0.36647484 0.25788254 -0.09241979 0.25643644
0.45350447 0.06680581 -0.010721753 0.11376882 -0.16751474 0.3485195 -0.03832681 0.24306381
0.024163758 0.08281645 -0.68867296 -0.13862666 -0.077533536 -0.08172191 -0.27942678 -0.017094051
0.071015045 -0.14847742 -0.2886667 0.089078054 0.007297039 -0.28158864 -0.012665127 -0.05760126
-0.1990921 0.18951099 0.15910412 0.327662 -0.1211719 -0.1300687 0.15166663 0.0032741795
0.0050469935 -0.10748561 0.16838682 -0.15951674 0.14164379 0.039058946 0.2111647 -0.064561106
-0.17213203 0.092288874 0.0026285583 0.1480783 0.13652107 0.23628499 -0.05090663 -0.36278847
-0.15997924 -0.2206367 0.061296772 0.5848709 0.2715493 0.047692783 0.31682763 -0.09148327
-0.27772942 -1.119261 0.17293273 -0.28508073 1.2821959 0.32521877 0.19578472 -0.7653989
0.16449952 0.105271176 -0.110657714 0.15112363 0.026169216 0.030583255 -0.10150729 0.17559467

fc2.bias f4 [32]
00000000: 7d07 56bd 734e b5bd 75b6 353d 76b6 93bd
00000010: 3f24 c2bd 2c98 c0bc cea9 68bd 4a98 64bc
00000020: 4915 b03a 07e4 b1bd ef02 08bd 94c2 1c3d
00000030: 7a60 793e b7fa a33d b03f d3bd bb7e 1a3e
00000040: eae7 253e c8e1 98bd 0040 553e 0aaa d43d
00000050: a52d 8b3e a3e6 ec3d 4881 70bd 0ef8 ff3d
00000060: 51a7 453d 0607 a23d 8197 513d 73e8 c3bd
00000070: 52ee 113e 78b4 73be ae5f 7c3e 18ed 18be
-0.052253235 -0.088528536 0.044363458 -0.07212536 -0.0947957 -0.023510061 -0.056802563 -0.013952324
0.0013434078 -0.08686071 -0.033205923 0.0382715 0.24353209 0.080068044 -0.10314882 0.15087406
0.1620175 -0.07464939 0.20825195 0.10383995 0.27183262 0.11567428 -0.058717042 0.124984846
0.04825527 0.07911496 0.051169876 -0.095658205 0.14251068 -0.23799312 0.24645874 -0.14934194

fc3.weight f4 [3, 32]
00000000: 4b4e 1ebf 8bc9 8a3f ee6e fc3e a117 a0be
00000010: af45 ad3b 0d14 f3be 62ed c4bf b44d d9be
00000020: 640f 90be 7e44 823f 2707 b83e eb6a 5cbe
00000030: e635 97be 11f0 7b3f 14d5 573f 0de3 993f
00000040: ff59 28bf 4d1e d4be 8f6a 8b3e b398 03bf
00000050: 690c 373e 97e0 50bf 8817 443f 9cf8 e83e
00000060: abe9 d4be 1959 023f 3f15 523f 8f4c 35be
00000070: a4aa b33f b9a6 d53e 51e4 933e b563 023f
00000080: 3b4e 523e 23d3 bc3d 7ca9 8a3d 564f 043f
00000090: 08fa 1040 ba4b ef3f b75b bb3f 35aa ff3e
000000a0: f696 283e eee6 e53f 13f6 cb3e d09f 053d
000000b0: ec0a f7be c76f e43d 051a 8e3f e074 923f
000000c0: 2eb0 39bd e554 f4bc 06a5 7cbe 7c5f ffbc
000000d0: 7078 afbe f3f1 80bc 2970 f83f 428a 793d
000000e0: 3fef 9ebe 7c7f 15be 6b0a 343e a30a e73f
000000f0: 066a f13d ebbe 493f ff17 79be 0a22 ec3e
00000100: 08fc 2fbf e177 2e3a 6ac9 e0bd 61c1 5a3f
00000110: 5801 89be 723e 5cbe 531b 953e 0eb5 5dbe
00000120: 5a6c 763e cdb5 dfbf fa71 873e a207 51bf
00000130: bbb8 6f3e 6c52 e53e 770d e3be d9a7 00c0
00000140: 02c2 ccbe 9801 bd3e a38e 97be e666 f6be
00000150: 055d 903e d067 b7bd b82e 8dbd 883f 1c3d
00000160: 4c50 ac3e c2b9 313e b63f b5bf 02fe babc
00000170: ae6b 993e f33e 9bbe b56a 59be f334 b13e
-0.61838216 1.0842756 0.49303383 -0.31268027 0.005287848 -0.47476235 -1.5384943 -0.42442095
-0.28136742 1.0177152 0.35942957 -0.21525161 -0.2953331 0.9841319 0.84309506 1.2022415
-0.65762323 -0.41429368 0.27229735 -0.51404876 0.17875828 -0.81592697 0.76598406 0.45502174
-0.41584525 0.509172 0.8206367 -0.17704986 1.403645 0.41728762 0.2888513 0.5093339
0.20537655 0.09219959 0.06770608 0.5168356 2.2652607 1.8694985 1.4637364 0.49934545
0.16463837 1.7961099 0.39836177 0.032623112 -0.4825052 0.11154132 1.110169 1.1441917
-0.045334034 -0.029825637 -0.24672326 -0.03117346 -0.34271574 -0.01574037 1.9409229 0.06092287
-0.31041905 -0.14599413 0.17582099 1.8050121 0.117878005 0.7880694 -0.2432556 0.4611972
-0.68743944 0.00066554366 -0.10975917 0.8545132 -0.26758838 -0.21508196 0.2912241 -0.21651098
0.2406477 -1.7477356 0.26454145 -0.8165227 0.23410313 0.44789445 -0.4434621 -2.0102446
-0.39991766 0.36915278 -0.2960101 -0.4812538 0.28195968 -0.089553475 -0.068936765 0.038146526
0.33655012 0.17356017 -1.4160068 -0.022826198 0.29964966 -0.30321464 -0.21232112 0.3461071

fc3.bias f4 [3]
00000000: 6f29 0abd 21df cbbd 3540 883d
-0.03373092 -0.09954668 0.066528715

exp_avg f4 [64, 16]
00000000: 5db6 00ba 738e 933b 8711 943a d594 f0ba
00000010: acbd 0c3a fbeb d4ba b656 693b dac6 ccb8
00000020: 9b61 03bb 6990 9e39 234c eab8 b5f7 d83a
00000030: 9c3e ce3a bcaa 1aba 85a0 f1ba d96d 8bba
00000040: 43ed 8e3a e1df 8839 0924 54ba fbed 783a
00000050: 9083 f53a 0c38 6bba 1855 583b 4a4e b5b9
00000060: 0318 4d3b d7ff 74ba e9f4 d23a e416 1fbb
00000070: ffad 9eb9 fcd9 a9b9 5f9f eeba 39f2 30bb
00000080: 1520 ce3a 43b7 c6ba a16e d9ba 65c3 32ba
00000090: ce5c e4ba d15c 173a 876e c9ba e56e 13bb
000000a0: 3ad6 4b3a 2ec0 8e3b 139e c5ba a97d 463a
000000b0: ba58 5cbb 9cca c13a f54d b2ba 113f 4f3a
000000c0: fdd6 83ba 34ab 34bb ebbe c9ba 13a8 2cba
000000d0: dd00 b2ba 84b1 a0ba 2086 87ba 9c5c 1eba
000000e0: b33a ee3a a593 7bb8 26a5 f1ba 1cc2 9aba
000000f0: 328f 98ba 82e0 f9b9 1cb0 5eba 4ae0 503b
00000100: c161 8d3a debe 9b38 16f7 5cbb 6a1e 033b
00000110: 1fad a1b7 7d90 a236 d99a 8039 938a 5d3a
00000120: 7237 4cbb 2f7f a93a e2f3 f6ba 34a2 283b
00000130: 81e1 933a 8c21 6dbb 1f38 a9b9 aa14 9938
00000140: 7859 5dba aa41 97ba 0044 303a 1c9e 6fbb
00000150: 274d a4bb 7a42 77bb ed8f 7e3a 772e f83a
00000160: a521 b5bb 2e86 8ebb 1211 95bb 502a 763a
00000170: abd8 3dbb fa51 183c 11c2 c9ba 1f17 04bb
00000180: 68ff a5ba fd68 223b 766e 423b 24c2 38bb
00000190: 2025 8e3a b637 173a 44f3 82ba 3a89 41bb
000001a0: 6b68 95bb 7b52 4dba 3131 293b 76a2 6c3a
000001b0: 33fb d139 86dd 4639 e125 b5ba 8b7d 6639
000001c0: 50e1 81ba 80b3 2d3b 3ecb 45bb b44f 533b
000001d0: 71b1 9d3b 76ea dbba a53b 033b c11c 623b
000001e0: 7172 0039 d568 2139 7619 1c3b 3b31 52ba
000001f0: 2ffe 7e3b 9f2a abbb edbb ddba bdc7 89bb
00000200: 9f3a 8b3b 3372 8aba 06cb f5ba 453e 103b
00000210: bb97 78ba 0be3 62ba 88a9 e6ba 7416 e73a
00000220: b6db 31bb 42bb 873b ac8d 10bb a08a 8a3a
00000230: 9420 28bb 8625 49bb def2 86ba 7abb 82ba
00000240: 4e3e b738 2ffa 8c3a fca7 95ba db2e e8b9
00000250: 940e 99ba c316 8839 d53c 7bb9 4e17 a73a
00000260: ba64 efb9 61ce f439 14ca d539 9b20 43ba
00000270: 1610 a8ba 4deb b4ba 1a39 7739 f2e6 c9ba
00000280: 4d49 7cbb e2e4 2c3a 7bc5 c3bb 9393 903b
00000290: 1aa2 0a3c 5710 d9ba a1a3 343a 853e 913b
000002a0: 7b8a 8939 5818 06bc caa5 843b d98b 6a39
000002b0: 7f6c 823b 26bd 5bbb dda8 913b 85a8 ad3a
000002c0: 1d34 6bbb 280a f03a 3d91 71bb c775 dc3b
000002d0: b588 6c3b 1894 d4ba 721d 173b e8b0 d5b8
000002e0: 8149 76b8 2fa9 3339 8222 8d3b a9a0 24bb
000002f0: ffdf e13a 23d4 73bb 0e53 bbbb a85f e4ba
00000300: b2cd 1bb9 26d7 103a c8cf 663b ca4b 74ba
00000310: d5b6 b5bb b0ca 683b a22f 9d3a 5f47 b8bb
00000320: d9e8 a93a 846c b8ba 1f7a 953b b055 84bb
00000330: 34c9 57ba 37a4 b03b d35b a2bb 1e4b b33a
00000340: 878e 11bb f71c f5b7 41d1 133b 7581 6539
00000350: ecca 19bb e2e3 d93a 9c4a c1ba 2060 e3b9
00000360: af54 c8b9 912c 50ba 5dcd 193b dd53 a8ba
00000370: 4f99 afba fc2d 263b d9cd b13a fc21 5e3a
00000380: 1c2e f538 c957 da3a 5926 093b 1cb2 b83a
00000390: 4ea3 3f3a 9912 de3a 9802 483a c48a a0ba
000003a0: ddec 383b 9c5c 0638 efa6 653b f740 7ebb
000003b0: e3f9 613a cc57 b13a f69f 60bb 89b0 3a3a
000003c0: aecb 92ba 37a6 f0b9 7bfa 153b 395e a339
000003d0: 2c1a 05bb 0fc4 0b3b f55a dcba 0b5b 88bb
000003e0: 4553 b03a 78d6 273a f0dc df3a dd7b 84ba
000003f0: 7131 873a 7ae7 033b bf3d 613a d8c0 e03a
-0.0004909987 0.0045030653 0.0011296727 -0.0018354902 0.00053688395 -0.0016244644 0.0035604662 -9.764517e-05
-0.002004719 0.00030243702 -0.00011172171 0.0016553315 0.0015735212 -0.0005900075 -0.0018434679 -0.0010637596
0.001090445 0.00026106744 -0.0008092528 0.0009495911 0.0018731225 -0.000897289 0.0033009704 -0.0003458134
0.003129483 -0.00093459844 0.0016094717 -0.0024275118 -0.00030265746 -0.00032396603 -0.0018205455 -0.0026999845
0.0015726114 -0.0015160817 -0.0016588756 -0.0006819277 -0.0017422677 0.00057740236 -0.0015368023 -0.0022496518
0.00077757577 0.0043564057 -0.0015077017 0.00075718254 -0.003362222 0.0014785114 -0.0013603555 0.0007905821
-0.0010058578 -0.0027567865 -0.0015391981 -0.00065863243 -0.001358058 -0.0012259935 -0.0010339655 -0.00060410216
0.0018175453 -5.9980568e-05 -0.0018436059 -0.0011807117 -0.0011639355 -0.00047660252 -0.000849487 0.0031871968
0.0010786579 7.426528e-05 -0.003371661 0.0020007142 -1.9273311e-05 4.844797e-06 0.00024529433 0.000845113
-0.0031160978 0.001293158 -0.0018840993 0.0025731446 0.0011282415 -0.0036183326 -0.00032276005 7.2994575e-05
-0.0008443813 -0.0011539955 0.0006724 -0.0036562746 -0.00501408 -0.0037728832 0.00097107777 0.0018934746
-0.0055276924 -0.0043494916 -0.004549154 0.00093904603 -0.0028968256 0.0092968885 -0.0015392919 -0.0020155383
-0.0012664618 0.0024781816 0.002966789 -0.0028191889 0.0010844804 0.00057684944 -0.0009990712 -0.0029531256
-0.0045595667 -0.000783242 0.0025816674 0.0009026894 0.00040050744 0.00018965275 -0.0013820493 0.00021981278
-0.0009909067 0.0026504695 -0.0030180956 0.0032243552 0.0048124124 -0.0016778249 0.0020024565 0.0034502002
0.00012249664 0.0001539321 0.0023818887 -0.00080182 0.003890883 -0.0052235867 -0.0016916968 -0.004204719
0.0042489315 -0.0010562598 -0.0018752522 0.0022009772 -0.0009483059 -0.0008655048 -0.0017598132 0.0017630593
-0.0027139015 0.004142196 -0.00220571 0.0010569878 -0.0025654184 -0.0030692532 -0.0010295769 -0.0009974085
8.737725e-05 0.0010755713 -0.0011417861 -0.00044285398 -0.0011677318 0.000259569 -0.00023959887 0.0012748034
-0.0004566068 0.0004669307 0.00040777086 -0.0007443518 -0.0012822177 -0.0013803035 0.00023577028 -0.001540391
-0.003849584 0.00065953855 -0.0059744692 0.0044121235 0.0084615 -0.0016560656 0.00068908377 0.0044325017
0.00026233852 -0.008184515 0.004048084 0.00022368076 0.003980219 -0.003352949 0.004445179 0.0013249075
-0.0035889216 0.0018313574 -0.003686025 0.0067279073 0.0036092226 -0.0016218452 0.0023058322 -0.00010189583
-5.8719426e-05 0.00017133796 0.004307092 -0.0025120175 0.0017232894 -0.00372053 -0.005716688 -0.0017423527
-0.0001485858 0.00055252237 0.0035219062 -0.0009319155 -0.005545477 0.0035521202 0.0011992345 -0.0056237425
0.0012963071 -0.0014070426 0.004561677 -0.004038535 -0.0008231581 0.0053906697 -0.004954794 0.0013679003
-0.0022210197 -2.9219764e-05 0.0022555145 0.00021887368 -0.0023466898 0.00166237 -0.0014746967 -0.00043368433
-0.00038210067 -0.0007941211 0.0023468353 -0.0012842376 -0.001339713 0.0025356999 0.0013565376 0.0008473692
0.00011691099 0.0016658242 0.0020927398 0.0014091167 0.0007310406 0.0016942798 0.0007629781 -0.0012248387
0.0028217353 3.203434e-05 0.0035042127 -0.0038796046 0.0008620305 0.0013530194 -0.0034275032 0.00071216427
-0.0011199617 -0.00045900207 0.0022884894 0.00031159984 -0.002030979 0.0021326577 -0.0016811775 -0.004161244
0.0013452551 0.0006402503 0.0017079394 -0.0010107715 0.0010314417 0.0020126984 0.000859227 0.0017147316

exp_avg_sq f4 [64, 16]
00000000: f8d6 bb38 a43e e538 8268 bc38 2530 bc38
00000010: 4e33 a238 5e34 e238 0af9 cc38 dab2 cf38
00000020: 0831 8c38 eaf6 9538 0ffe 8f38 e401 8638
00000030: 1053 8d38 e5f0 8338 4572 8d38 8775 8c38
00000040: 35b3 c938 88bc ea38 b3e8 de38 1144 c438
00000050: 230c bf38 5601 9f38 566c a638 167f a238
00000060: 06ac a738 4cfc ac38 4c4e a738 0da7 a738
00000070: c3a5 a938 9710 a638 ea4a 9b38 c53a a538
00000080: 219b 8139 c577 7f39 6863 6239 58b5 9739
00000090: c5be 3939 22ca 6f39 835b 8b39 225e 3439
000000a0: 5917 6039 669a 5e39 9bbe 6139 3525 5439
000000b0: fb91 6239 bf0d 5a39 62e7 4939 b886 6939
000000c0: 10d5 5a38 265e 6738 35d0 7338 e42c 4a38
000000d0: 74de 4038 f767 6238 bca9 4f38 c529 4538
000000e0: ef33 3438 aff8 6638 21b9 3d38 b205 3238
000000f0: 13ef 3638 d112 3d38 c369 3e38 e82f 2938
00000100: 1a47 9d38 89bc 8838 2e85 9838 beab 8738
00000110: 29e4 9738 301b 9f38 0595 8e38 1cfa 7338
00000120: 0765 7938 d6a6 6838 0238 7938 c9ee 6838
00000130: a806 7338 12f2 7138 1fc7 7338 fe62 6038
00000140: 5ca0 9339 953b ac39 5b91 a539 5982 a539
00000150: f81c 8839 0081 8d39 2b8a 8d39 2cf5 8039
00000160: 5883 9239 e515 8939 cdf8 8739 14e6 6239
00000170: a3e3 8e39 d657 8439 9807 8539 0338 9a39
00000180: 0d45 9b38 0ce3 9d38 bbe7 c338 5477 ad38
00000190: 424e ad38 16dc ab38 7c07 9538 c5b9 8938
000001a0: 2cbe 8f38 44c0 9438 17f3 9138 cbc9 8a38
000001b0: 7e4c 8a38 f09f 8638 8c85 8e38 b5bd 9038
000001c0: 2caf 0039 d551 0039 5a64 0d39 f824 0039
000001d0: 416d d738 d341 0039 ce07 b838 cecc df38
000001e0: d252 e638 b8b2 ef38 983a e438 8c7e e138
000001f0: cf64 ee38 6505 e438 8705 dc38 8045 e138
00000200: 17cd a338 c509 db38 809e dc38 a1d0 b738
00000210: 317d e038 2d39 9438 509c 9438 a787 b938
00000220: 2a06 ab38 e395 a438 4a6e a738 e578 aa38
00000230: f815 a338 9e77 b738 1eb9 a838 6b10 9f38
00000240: ea9f 6c38 ee56 9f38 2cfd 8b38 fab1 7a38
00000250: 7567 9438 e69a 6138 998c 8238 3a02 6638
00000260: e0b3 6238 bf81 6638 2746 6238 58b9 5538
00000270: 2f85 6338 23c7 6138 8696 5538 7e9f 5d38
00000280: 6f7a 8939 ce72 b239 a841 9b39 9b80 a039
00000290: dfd2 9439 f6e9 7039 dbcf 8339 ca90 6339
000002a0: 6bac 7639 4b10 8939 b69d 7e39 0843 6f39
000002b0: d19f 8139 3018 7b39 db3f 7d39 041a 8839
000002c0: 436e 1439 5354 5539 ad83 4339 c8fb 2c39
000002d0: 188d 3c39 de65 1a39 af8e 1739 d3f2 2639
000002e0: 8653 2239 ee60 2839 dffd 1f39 ac92 0a39
000002f0: df9e 1a39 bd29 2739 bc71 1f39 be99 2939
00000300: 658d 3c39 0c61 3239 0c03 5939 7082 2e39
00000310: 08e4 6739 c0f7 6939 e35d 3039 85b2 2739
00000320: 8672 3339 63f4 2e39 3144 2b39 76d9 2339
00000330: 348b 2739 7ea5 1a39 bd4f 2c39 853d 1939
00000340: 3762 1738 8adf 3038 a9f9 2738 684c 2538
00000350: ed5d 1738 fc8e 1338 32ff 0538 95c6 0b38
00000360: d7da 0338 83f7 0138 5742 0d38 41bb ff37
00000370: 1b1e 0938 a4e2 0938 6f0d 0e38 e184 0938
00000380: 82a2 0939 7062 0d39 f437 1739 8dbe 0739
00000390: 7a0d 2239 bc6a 2639 4193 f838 8b56 eb38
000003a0: 5b88 0539 840f fa38 4a36 0039 a9a3 ed38
000003b0: 6a61 f238 30fd ed38 812d 0039 d286 f638
000003c0: 7dcb 1939 8237 ec38 ec81 f138 dea9 e338
000003d0: 1dab d138 7dbd 0939 df61 ed38 7759 ef38
000003e0: 09b2 de38 49b1 f338 ea19 d338 7277 c738
000003f0: 6c68 db38 940f c638 3a30 cf38 d25f db38
8.956896e-05 0.00010931239 8.984005e-05 8.973506e-05 7.734318e-05 0.00010786274 9.773865e-05 9.903843e-05
6.684853e-05 7.150865e-05 6.8660935e-05 6.38997e-05 6.7388755e-05 6.291437e-05 6.744688e-05 6.6976114e-05
9.617807e-05 0.00011193106 0.000106291285 9.358687e-05 9.10985e-05 7.58196e-05 7.935676e-05 7.7484336e-05
7.9952224e-05 8.248593e-05 7.9777645e-05 7.994296e-05 8.0894235e-05 7.918587e-05 7.40493e-05 7.87876e-05
0.00024720377 0.00024363313 0.00021590071 0.00028936076 0.00017714042 0.00022868117 0.00026580328 0.00017201205
0.00021371002 0.00021229088 0.00021528678 0.00020231756 0.00021607422 0.00020795221 0.0001925505 0.00022270798
5.217368e-05 5.5162374e-05 5.8129623e-05 4.820236e-05 4.5983543e-05 5.3979424e-05 4.9510723e-05 4.700736e-05
4.296371e-05 5.5067878e-05 4.5233526e-05 4.244381e-05 4.3614837e-05 4.5078636e-05 4.539803e-05 4.0337356e-05
7.499587e-05 6.520103e-05 7.2727315e-05 6.469291e-05 7.242739e-05 7.586775e-05 6.798845e-05 5.8168647e-05
5.9460315e-05 5.546849e-05 5.9418388e-05 5.5535496e-05 5.7941914e-05 5.7684323e-05 5.812116e-05 5.3497955e-05
0.00028157502 0.0003285079 0.0003157955 0.0003156837 0.00025961525 0.00026989728 0.0002699656 0.0002459673
0.0002794515 0.0002614699 0.00025934578 0.0002163875 0.00027253953 0.00025242445 0.00025373395 0.000294149
7.403838e-05 7.528634e-05 9.341488e-05 8.2715094e-05 8.2638595e-05 8.1949096e-05 7.106268e-05 6.567271e-05
6.8541936e-05 7.093002e-05 6.959418e-05 6.61794e-05 6.5946006e-05 6.4194086e-05 6.795963e-05 6.901791e-05
0.00012272288 0.00012237516 0.00013484192 0.00012220803 0.00010272349 0.00012231553 8.7752574e-05 0.000106716165
0.00010982681 0.00011429697 0.00010882801 0.00010752407 0.000113675014 0.00010872892 0.00010491447 0.000107417814
7.810647e-05 0.000104445535 0.000105199404 8.76498e-05 0.00010704471 7.06784e-05 7.0863054e-05 8.846755e-05
8.1550636e-05 7.848048e-05 7.9837235e-05 8.12875e-05 7.776538e-05 8.7484004e-05 8.045345e-05 7.584769e-05
5.6415716e-05 7.597903e-05 6.6751934e-05 5.97704e-05 7.07646e-05 5.378844e-05 6.2250714e-05 5.4838347e-05
5.405012e-05 5.495711e-05 5.3947933e-05 5.0955772e-05 5.4245054e-05 5.382964e-05 5.0923343e-05 5.2839045e-05
0.00026221896 0.00034036342 0.00029612822 0.00030613397 0.0002838587 0.00022975341 0.00025141131 0.00021702345
0.00023524619 0.00026142815 0.0002428208 0.00022817787 0.0002472387 0.00023946236 0.00024151748 0.00025959325
0.00014155456 0.00020344676 0.00018645702 0.00016496994 0.00017981639 0.00014724533 0.00014453636 0.00015921453
0.00015480639 0.00016057838 0.00015257996 0.00013215345 0.00014745769 0.0001594191 0.00015205791 0.0001617437
0.0001798175 0.00017011556 0.00020695868 0.00016642525 0.00022114825 0.00022312906 0.00016819643 0.00015992865
0.00017113434 0.00016684974 0.00016333234 0.00015625902 0.00015978218 0.00014748235 0.00016432903 0.00014614135
3.6092675e-05 4.2169857e-05 4.0048417e-05 3.9410224e-05 3.608868e-05 3.5180696e-05 3.194734e-05 3.3325126e-05
3.1436644e-05 3.098651e-05 3.3678803e-05 3.0485566e-05 3.2691383e-05 3.287442e-05 3.386795e-05 3.27871e-05
0.00013125877 0.00013483479 0.00014421326 0.00012945589 0.00015454544 0.00015870755 0.0001185299 0.00011221793
0.00012734665 0.00011923819 0.00012227256 0.00011331525 0.00011557604 0.000113482005 0.00012223983 0.00011755306
0.00014667022 0.00011263696 0.00011515975 0.00010855844 9.997769e-05 0.00013135928 0.000113192706 0.00011413072
0.000106189465 0.00011620165 0.00010066091 9.511308e-05 0.00010462184 9.4442774e-05 9.879512e-05 0.00010460582

exp_avg f4 [64]
00000000: 75db c6ba 6b0c 573a 4a64 4d3a 415d a9ba
00000010: b7aa f2ba f21b be3b 546b 6abb 7a1e 063b
00000020: 8f9e 33ba 6cab 213a 9065 c6bb b40f 15bb
00000030: 5a74 063b 004c 6fba e4ee f4b7 6cc2 293b
00000040: f528 563a 6d8e b5bb 8054 f63a a9aa 88bb
00000050: 543a ec3b 8303 383a f3c4 6a3b 7988 a0bb
00000060: e38e 6ebb 8751 a63a c3a4 a9b9 2f8b cd3a
00000070: 8c36 093b 9eb8 0f3a 31fc bcba 17d9 9abb
00000080: eac5 903a 2d0e aaba 0b91 31ba 77c1 f43a
00000090: 83ca ed3a 7750 ceba a4ad 2c3b 4712 4fba
000000a0: f143 69ba 91ef 333b 180b baba b358 d9bb
000000b0: 27ca d4bb 3b5c 85ba 4b74 553b b51d e9ba
000000c0: 2610 78bb 41bc c3ba d94d 983b 141e 88bb
000000d0: 30fa 213a f8a6 323b d531 49bb 5cc1 733b
000000e0: ecab 92ba 6184 d2bb 586c 9dbb 4b18 2eba
000000f0: d9e8 0abb d44c 25bb e6dd dc3a 8af7 ae3b
-0.0015171604 0.00082034495 0.00078350736 -0.0012921469 -0.0018514012 0.005801671 -0.003576954 0.0020464943
-0.0006851935 0.00061672064 -0.0060545877 -0.0022744955 0.0020516128 -0.00091284513 -2.9198309e-05 0.0025903238
0.0008169555 -0.00554066 0.0018793494 -0.004170735 0.0072091017 0.0007019566 0.0035822957 -0.0048990813
-0.0036401085 0.0012689092 -0.0003235695 0.0015681739 0.0020937053 0.0005482527 -0.0014418421 -0.004725586
0.0011045311 -0.0012974195 -0.0006773627 0.001867338 0.0018142018 -0.0015740533 0.0026348615 -0.0007899147
-0.00088983687 0.0027456025 -0.001419398 -0.006632888 -0.006493825 -0.0010174582 0.0032570537 -0.0017785343
-0.0037851422 -0.0014933423 0.004647952 -0.004153976 0.00061789434 0.0027260166 -0.0030699868 0.0037194109
-0.0011190153 -0.006424472 -0.0048041753 -0.0006641193 -0.0021195917 -0.0025222795 0.0016850799 0.0053395675

exp_avg_sq f4 [64]
00000000: 6177 e739 89d0 8139 60d9 0e3a 0219 2b39
00000010: c372 6039 6083 443a b6ef 3c39 4fcd 8c39
00000020: 9e39 4f39 9f3c 2039 2da3 293a 7aa3 d139
00000030: 95d0 fd39 6dae c238 9f40 c439 0110 9d39
00000040: a21f 3c3a 4161 a039 2e4a 5539 8436 493a
00000050: 21aa 173a 71b5 9c3a f3cd 323a d34d 6439
00000060: 5bc7 c839 18d0 aa39 32ac ae38 b743 8238
00000070: 325d b439 7122 4739 2956 a438 cdbb 2e3a
00000080: 7f40 c138 9dde f539 26f6 8939 e6b6 b539
00000090: 1f1e 3b39 9348 f539 feff d139 8cd1 4739
000000a0: b8fe 8a39 e799 4939 ea9a 4c3a 1bc1 9339
000000b0: bd9f ef39 95db 9b39 de5a 9c39 3af0 7439
000000c0: dea9 4239 b614 6a39 a344 7739 1010 bf39
000000d0: 8012 6939 a145 ee39 21bd fc39 341d 5a39
000000e0: 12ee 1439 f0f2 323a 2fa4 2d3a 4ee6 2d39
000000f0: 23e1 6139 12c2 013a dd83 b139 525d 1a3a
0.00044148698 0.00024760168 0.00054492615 0.00016317147 0.00021405057 0.0007496383 0.00018018376 0.00026855848
0.00019762522 0.00015281372 0.00064711535 0.00039985386 0.00048411326 9.28313e-05 0.0003743218 0.00029957297
0.00071763445 0.00030590038 0.00020340897 0.0007675665 0.0005785544 0.0011955929 0.000682085 0.00021772766
0.00038295504 0.0003257997 8.3290404e-05 6.211496e-05 0.0003440171 0.0001899095 7.836178e-05 0.0006665558
9.2149705e-05 0.000468959 0.0002631407 0.0003465928 0.0001784493 0.00046784114 0.00040054315 0.00019056181
0.0002651119 0.00019226187 0.00078050664 0.000281819 0.00045704647 0.00029727505 0.0002982234 0.00023359145
0.00018564562 0.00022323694 0.00023581325 0.00036442326 0.00022227503 0.00045446775 0.00048206098 0.00020800979
0.00014203068 0.00068263616 0.00066238915 0.00016584361 0.00021541542 0.0004949878 0.00033858317 0.00058885396

exp_avg f4 [32, 64]
00000000: 76af 013b bc72 e3b9 f687 b3b9 204a 3aba
00000010: 85d0 b3ba 679e 093b 2f7a a5ba 17fb 023a
00000020: f316 36ba f4b8 0cbb d2a9 a5b9 84b8 07b9
00000030: bc9a 0dba 8c86 393b d283 6fb9 d4a8 11b8
00000040: 57a6 d4ba 45be a13a 1045 75ba 448d 3e3a
00000050: 4f83 cab9 bbe2 123b 7027 803b c3d9 b53a
00000060: 1d80 183b 5a7f 603b 350c 443a d7a1 6f3a
00000070: e84c 313a 4a50 a3b8 0473 0bbb 9980 353b
00000080: 6258 3e3b 8c45 933a 3c08 983a 10f5 f138
00000090: 19d8 7739 dd40 8c3a eb34 373a e004 343a
000000a0: 53e7 9bba c423 a337 9ae1 90b8 1a8b 1d3a
000000b0: 8a86 0fba 928a 2a3a e3b5 9bba 1276 0bba
000000c0: cf8c 573a 1c2a e039 ccbd 803a 4804 e13a
000000d0: 2521 593a 19f5 22ba 8286 7939 fb41 9d3a
000000e0: edf0 81ba e8ce dd3a df6a 6fba 3fc6 803a
000000f0: 9dc8 e53a 2e30 bd3a f1c6 e8b9 78a4 2e3b
00000100: dc69 0dba 325b 3abb 9bc2 3339 10f2 9c3a
00000110: 14e3 8539 b947 63bb 34cc 16bb 0ae4 d8ba
00000120: fb88 15b9 0645 3cba 222b 2a38 307f f1b8
00000130: 3bd5 55ba 081d 83ba a785 85bb bf10 bfba
00000140: 08c1 6dba 46c8 b9ba c701 26ba 96f8 9cba
00000150: 5f75 4abb d1ee 13bb e121 d0ba 23a4 82b9
00000160: b7ad 8dbb d765 d9ba 2dea d1ba aef7 5bbb
00000170: 14b2 7abb 8673 a3b9 ea89 9dba f5f9 93ba
00000180: ca47 d7ba 0452 3bbb a8ef a6bb 1701 28bb
00000190: 9fe5 44bb 7266 8ebb 9bf1 dfba 3e6f bcb8
000001a0: e4c2 83b9 fb5c 85ba de51 e8b9 c8ae 4639
000001b0: 0a3a f639 3537 8dba 4483 65ba c21c 0c39
000001c0: 1cce 78ba a681 15bb fcb5 9bba be6a c8bb
000001d0: fcd9 36ba a7f0 edba 9a6c d0b8 4abd 97ba
000001e0: f337 27ba f6fe 5fbb 4e39 6e39 8629 13ba
000001f0: a632 d7b8 ed39 3239 d065 48bb 3e92 0bba
00000200: 3f08 3d3a 6bc5 19bb 8794 8139 9aa9 be38
00000210: d5be 063a 8a0a 8ab9 c619 e4ba 5665 363b
00000220: f893 92b9 ce0d 00bb 122b 123b 2531 113b
00000230: fbed 933a eadf 423b 0f60 06bb 5c78 3bba
00000240: cdd3 083a 99b5 c9ba 625c cb3a 557f 3a3a
00000250: df19 beba 8748 8a3a 3578 413b 28a5 e438
00000260: 4223 09bb 6a21 153a 9659 ed38 422a e5ba
00000270: fb5c 09bb 7349 f43a 00cf 53b7 5e49 183b
00000280: 46b2 f5b8 463f 6aba 59aa 08bb 7f37 84ba
00000290: 742a e2ba ed27 62bb 3982 98ba 5441 023a
000002a0: 9f2b a33a ff35 8439 6f0d 32b9 08d2 8139
000002b0: 8852 e93a b508 46b8 b3fc 1aba 47bd 743a
000002c0: b89d 6a39 1d30 a9ba b82f b0b8 5e16 5ebb
000002d0: 0e2d 20b9 95b1 01bb d427 e739 051a 5e39
000002e0: eb22 073a 7a9b 17bb 28a4 393b f55c 56b8
000002f0: 87f1 6b39 f407 243a 85fa 9439 0f40 0a3a
00000300: d0f8 ecb9 4c5a 97b9 ffee 00b9 d6e6 81ba
00000310: 0cc8 02bb 1bea 2739 394c 9037 e8f1 2eb9
00000320: 4d84 36ba 0f63 7cb9 f12c 7eba 96ea d0b9
00000330: 5ba7 1bba 67a0 22ba 1328 3a3a 8f1f 11b9
00000340: 4566 36ba cdc2 413a 4dfe 15ba 18b8 12ba
00000350: 7f44 8538 d907 48ba 9a77 37ba 8ad0 6f39
00000360: 5b93 693a 090c 5ab8 41b0 4cba c89a 25ba
00000370: 713d a638 89ef 5aba cca1 89ba ca3d 90ba
00000380: f148 1739 7101 66b9 4771 51b9 6e1f 0b39
00000390: 9025 d9b9 90c8 7c39 ae9f 0f3a 5da7 a4b7
000003a0: 1846 b4b8 0ef3 e2b8 a7be 6fb9 be25 37ba
000003b0: a20d 9aba 0ddf 64ba 6857 133a f5f8 1eba
000003c0: b479 bc39 6421 8937 3d03 bbb9 bd90 8f39
000003d0: 39a1 d0b8 baef 16ba e851 e7ba f122 41b9
000003e0: 4a3a 0eba d2d9 1db9 bd6f 17ba 55a8 4f38
000003f0: 7253 88ba 1c09 40ba 7b17 48ba ebf5 e139
0.001978842 -0.00043382298 -0.0003424284 -0.00071063824 -0.001371876 0.0020998956 -0.0012624915 0.0004996522
-0.0006946169 -0.0021472545 -0.00031597778 -0.0001294334 -0.00054017804 0.0028308956 -0.00022841923 -3.4727927e-05
-0.001622389 0.001234003 -0.00093562994 0.0007268975 -0.00038626275 0.0022412974 0.0039109513 0.0013874102
0.002326972 0.0034255595 0.00074786256 0.00091412425 0.0006763474 -7.787401e-05 -0.0021278271 0.0027695058
0.002904438 0.0011235937 0.0011599134 0.00011537422 0.00023636258 0.0010700483 0.00069887814 0.00068671815
-0.0011894502 1.9447769e-05 -6.908477e-05 0.00060098025 -0.0005475065 0.0006505634 -0.0011879768 -0.0005320023
0.0008222581 0.00042755983 0.0009822189 0.0017167414 0.0008282832 -0.0006216332 0.00023796599 0.0011997813
-0.000991372 0.0016922625 -0.00091330515 0.0009824707 0.0017531101 0.0014433914 -0.0004439871 0.0026648324
-0.00053944974 -0.0028435704 0.00017143266 0.0011973996 0.00025536923 -0.0034680201 -0.0023009898 -0.0016547453
-0.00014260777 -0.0007181916 4.057133e-05 -0.00011515466 -0.0008157079 -0.0010003159 -0.0040747705 -0.0014577134
-0.00090695964 -0.0014174066 -0.00063326623 -0.001197594 -0.0030892713 -0.0022572766 -0.0015879237 -0.00024917824
-0.004323687 -0.0016586137 -0.0016015224 -0.0033564377 -0.0038253115 -0.00031175854 -0.0012019251 -0.0011289703
-0.0016424593 -0.002858282 -0.005094487 -0.0025635415 -0.0030044091 -0.0043457085 -0.0017085554 -8.985259e-05
-0.00025131472 -0.0010174805 -0.00044311484 0.00018947863 0.0004696402 -0.0010773899 -0.0008755217 0.00013362154
-0.0009491162 -0.0022812872 -0.0011879797 -0.0061162403 -0.0006975231 -0.0018153385 -9.9384415e-05 -0.0011576798
-0.00063788815 -0.0034179068 0.00022718796 -0.00056137925 -0.00010261433 0.00016996982 -0.0030578263 -0.0005324221
0.00072110066 -0.0023463618 0.0002471546 9.091497e-05 0.00051401305 -0.00026329263 -0.0017402701 0.0027831397
-0.00027957535 -0.0019539478 0.0022303504 0.0022154537 0.0011286134 0.0029735514 -0.0020504033 -0.0007151419
0.0005219549 -0.0015389203 0.0015515203 0.0007114311 -0.001450356 0.0010550179 0.0029521112 0.0001090265
-0.0020925556 0.0005688878 0.00011317727 -0.0017483907 -0.0020959962 0.0018637612 -1.2624776e-05 0.002323709
-0.000117157164 -0.000893582 -0.0020853488 -0.001008734 -0.0017255084 -0.003450866 -0.0011635489 0.0004968841
0.0012448913 0.00025217232 -0.00016980407 0.00024761283 0.0017801085 -4.7214988e-05 -0.0005912289 0.0009336066
0.00022374734 -0.0012908016 -8.401222e-05 -0.0033887844 -0.00015275573 -0.0019789685 0.00044089428 0.00021181263
0.00051550445 -0.0023133443 0.0028326605 -5.110815e-05 0.00022501322 0.00062572886 0.0002841541 0.00052738277
-0.00045198807 -0.0002886824 -0.00012296064 -0.0009910713 -0.0019955663 0.00016013572 1.7201632e-05 -0.0001668405
-0.00069624634 -0.00024069495 -0.0009696028 -0.00039847632 -0.00059377187 -0.00062037114 0.00071013084 -0.00013840034
-0.00069579884 0.00073913933 -0.00057217927 -0.000559689 6.3546926e-05 -0.0007630564 -0.0006998718 0.00022870503
0.00089102023 -5.198646e-05 -0.00078082463 -0.00063173147 7.926941e-05 -0.00083517336 -0.001050049 -0.0011004743
0.00014427655 -0.00021935046 -0.00019973992 0.00013267781 -0.00041417452 0.00024107308 0.0005478811 -1.9628258e-05
-8.596125e-05 -0.00010821792 -0.0002286384 -0.000698652 -0.001175333 -0.0008730747 0.00056206295 -0.0006064319
0.0003594883 1.6347221e-05 -0.00035669832 0.00027382924 -9.948243e-05 -0.0005757768 -0.0017648311 -0.00018418931
-0.0005425556 -0.00015053831 -0.0005776843 4.9509417e-05 -0.0010400845 -0.0007325576 -0.00076328934 0.00043098567

exp_avg_sq f4 [32, 64]
00000000: 7f7c d538 57bd 8938 bad0 0d36 7f9f 2838
00000010: 7c3a df38 12bf aa38 df40 ef37 c66a bd38
00000020: ceb1 7438 47ef 8438 5405 9a38 dff6 f237
00000030: 7cd7 7d38 858c c338 60c9 df38 a710 4e38
00000040: bb82 4d38 9fc4 1038 47b1 7a38 e477 4938
00000050: 7dd4 d138 1453 d238 d9fe 1f39 2b20 e637
00000060: 79ed 8838 c61d fb38 d156 be37 32b2 1138
00000070: 3542 f237 3000 8737 ff51 7438 3b83 2a39
00000080: 324c 2e38 96ef 4338 2ed5 4038 b79e 4f38
00000090: 550f 9337 5afa a738 722e eb38 5b59 b937
000000a0: ff98 7538 76dc 0638 2b79 2039 cbe6 d737
000000b0: e06c 8038 5b44 c237 295e 2338 c776 a037
000000c0: 6bfc 2939 3ea5 0538 233c 7638 9e83 9d38
000000d0: 87fe 5536 b201 b838 dba8 a038 0fc7 b938
000000e0: 6520 1b38 3371 d638 362e e638 cf71 f036
000000f0: d121 3938 c498 2c39 cdb3 5738 3cac 5438
00000100: 50d4 bd38 de11 e138 9c2a 0636 c7d5 8338
00000110: eca1 8d39 4b0a a238 ce8e 8738 8535 9138
00000120: 82f5 1039 c2d5 1439 6fe2 b238 657e 4f37
00000130: ffa2 9338 c3d6 5b38 bad6 4039 7ceb d637
00000140: 9a4b 9638 190e cd37 0de2 7238 368b 3238
00000150: 68c6 3a39 4869 a538 805b 0e39 af53 3b38
00000160: 40db 0339 4d8d 1039 a1f1 0038 21c2 e238
00000170: 4efe a538 77bc fb36 580c a938 e3cc 6439
00000180: 6083 1e38 9ca8 c838 7033 0639 3d78 bb38
00000190: 4dde 9b38 6251 5239 a993 1039 0bff a934
000001a0: be34 8238 75ea 1f38 0dd4 4039 611f 1a38
000001b0: fdac 9b38 b345 4c38 7553 4238 63c3 7b37
000001c0: 6b35 fe38 6b35 7838 2016 8c38 1ad3 3839
000001d0: 4b12 1237 c74c 1039 3daa 2339 6408 9d38
000001e0: ff41 e537 458c 1639 e7ab ef37 8988 3237
000001f0: c04d d038 7531 4339 5a43 9138 388e 3038
00000200: 5e59 1339 1650 9d38 b1df 4a36 99b1 4f38
00000210: 06ce 1339 83e5 9e38 9536 b038 566b 1c39
00000220: fa39 3138 5c80 9f38 0b0a 1c39 def9 d138
00000230: 88fe 8638 7db7 1d39 afd6 b538 3175 a138
00000240: 3958 4938 052a c238 5f54 8d38 7eff 7138
00000250: 051c 8e38 da37 e938 a868 0139 46fa c037
00000260: 7034 8e38 664c bb38 5223 bb37 6b1a ec37
00000270: a63f d837 8ad8 a838 23e8 5938 51bf 2939
00000280: 8163 0038 289e fa37 ae1d d038 935c 5738
00000290: 3c67 9e37 e053 e538 87bc a938 9426 db37
000002a0: b199 c838 0a8d 8938 6cae 0939 8df0 8037
000002b0: 8a3e be38 33fe ac37 cf82 f337 1357 7b37
000002c0: aaaf 2839 6d34 b538 4648 cb38 4727 3739
000002d0: 8d74 1136 3a37 0739 5625 9c38 7671 ce38
000002e0: 8989 cd38 4c40 2639 e593 1039 d891 9e36
000002f0: f38a 8138 9aec 0e39 3e66 c738 2b6b c537
00000300: da36 0538 a4fc 2237 5304 f034 325c a337
00000310: 71eb 2f38 18bf f536 efa2 9437 f247 3037
00000320: d4dd 1438 3d0f c637 d024 8636 339e e036
00000330: 5d38 8837 e520 1937 c424 a938 e908 1836
00000340: 2258 7337 e2d1 9837 a0e7 1037 8f90 e037
00000350: 5060 6038 cd0b 0b38 6826 3c38 e38f 0638
00000360: ee24 1738 081f c538 1ce9 1537 3598 fa37
00000370: fe29 e137 4dff 4337 bbe6 0c38 bf12 4d38
00000380: 289b e736 54f1 5e38 209f 4e38 a3e5 6138
00000390: c8e0 0437 3753 9f38 0de8 bc38 5f96 3634
000003a0: 8c3a 3736 fa49 3235 1f61 a038 c064 0f37
000003b0: b2f4 2437 ca16 1038 7504 fb37 526e 4237
000003c0: 8ea5 7137 59bb e635 fe38 3a37 5c46 2138
000003d0: 4433 7936 89ac 4b37 99ee 5e38 db61 3836
000003e0: 9637 e335 7169 5f38 4577 ae37 b900 2f35
000003f0: 9b77 0838 9888 3138 f438 4c37 ad3d bb37
0.00010179821 6.567936e-05 2.1132132e-06 4.0202864e-05 0.00010644362 8.141821e-05 2.8521228e-05 9.0321104e-05
5.8339727e-05 6.3388194e-05 7.344285e-05 2.8963606e-05 6.0520586e-05 9.3244984e-05 0.00010670978 4.9129736e-05
4.899756e-05 3.4515393e-05 5.9769747e-05 4.803379e-05 0.000100054756 0.00010029055 0.0001525836 2.7433116e-05
6.529218e-05 0.000119741584 2.2690192e-05 3.473665e-05 2.8879478e-05 1.6093341e-05 5.8250498e-05 0.0001626135
4.1555795e-05 4.6714755e-05 4.5974906e-05 4.950046e-05 1.7530905e-05 8.009812e-05 0.00011214324 2.2095328e-05
5.855504e-05 3.215341e-05 0.00015303928 2.5737469e-05 6.123795e-05 2.3158433e-05 3.8949922e-05 1.9128796e-05
0.00016211129 3.1863565e-05 5.8706977e-05 7.510859e-05 3.1887628e-06 8.7741195e-05 7.660846e-05 8.858565e-05
3.698505e-05 0.000102254 0.00010975862 7.1658064e-06 4.413893e-05 0.00016460108 5.1427447e-05 5.0705145e-05
9.0517686e-05 0.00010732164 1.9992358e-06 6.286386e-05 0.00027014257 7.726679e-05 6.463901e-05 6.9241076e-05
0.00013824369 0.00014194011 8.529878e-05 1.236759e-05 7.0398666e-05 5.241368e-05 0.00018390539 2.5620444e-05
7.166639e-05 2.444447e-05 5.7907822e-05 4.2568157e-05 0.00017812254 7.887423e-05 0.00013576262 4.466221e-05
0.0001257481 0.00013785549 3.0742613e-05 0.00010812679 7.915181e-05 7.502323e-06 8.060847e-05 0.000218201
3.7792488e-05 9.568149e-05 0.00012798398 8.939251e-05 7.432383e-05 0.00020057478 0.00013787918 3.166427e-07
6.208707e-05 3.812691e-05 0.00018389542 3.6745685e-05 7.4231975e-05 4.8702303e-05 4.633093e-05 1.5006258e-05
0.00012121614 5.9177557e-05 6.679841e-05 0.00017626249 8.706537e-06 0.00013761512 0.0001560831 7.487906e-05
2.732966e-05 0.00014357369 2.8571068e-05 1.0641416e-05 9.932695e-05 0.00018615073 6.926684e-05 4.209412e-05
0.00014052304 7.5012606e-05 3.0230551e-06 4.9518047e-05 0.00014095762 7.576777e-05 8.402501e-05 0.00014917305
4.2254083e-05 7.6056196e-05 0.0001488106 0.00010012438 6.437028e-05 0.00015041041 8.6707405e-05 7.698907e-05
4.8004298e-05 9.2584676e-05 6.739119e-05 5.7696823e-05 6.776307e-05 0.00011120709 0.00012341386 2.3004726e-05
6.780855e-05 8.931085e-05 2.2308584e-05 2.8145694e-05 2.5778845e-05 8.051198e-05 5.1953026e-05 0.00016188367
3.061025e-05 2.987597e-05 9.923741e-05 5.134621e-05 1.888314e-05 0.00010935194 8.093664e-05 2.6124799e-05
9.5653704e-05 6.55894e-05 0.00013130315 1.5370804e-05 9.071555e-05 2.0622369e-05 2.902877e-05 1.4981039e-05
0.00016087168 8.6405176e-05 9.693256e-05 0.00017466872 2.1674525e-06 0.00012895177 7.445614e-05 9.843979e-05
9.80078e-05 0.00015854946 0.00013788005 4.7257454e-06 6.177081e-05 0.00013630316 9.5081035e-05 2.3534134e-05
3.1760756e-05 9.714775e-06 4.470663e-07 1.9474046e-05 4.1942523e-05 7.323815e-06 1.7718847e-05 1.0507169e-05
3.5492543e-05 2.3610535e-05 3.9977967e-06 6.694137e-06 1.623871e-05 9.1271695e-06 8.065396e-05 2.2654951e-06
1.4504449e-05 1.8217546e-05 8.636998e-06 2.6770196e-05 5.349546e-05 3.3151173e-05 4.485846e-05 3.2082095e-05
3.60356e-05 9.399472e-05 8.935367e-06 2.98732e-05 2.6841644e-05 1.1682348e-05 3.3593486e-05 4.8893267e-05
6.902399e-06 5.315368e-05 4.9262424e-05 5.3858046e-05 7.920149e-06 7.597211e-05 9.0077614e-05 1.7004776e-07
2.7303204e-06 6.641782e-07 7.647485e-05 8.546922e-06 9.832134e-06 3.43535e-05 2.9923607e-05 1.1588987e-05
1.4403266e-05 1.7190861e-06 1.10997335e-05 3.845092e-05 3.7133732e-06 1.2139914e-05 5.3151136e-05 2.7475096e-06
1.6928996e-06 5.3265543e-05 2.0797956e-05 6.519363e-07 3.2536318e-05 4.23273e-05 1.2172608e-05 2.2320857e-05

exp_avg f4 [32]
00000000: d989 793a 31ab 67bb 263c abb8 6e7e 5bba
00000010: c225 2839 1730 8b3b cd2d bd3a 142d a03b
00000020: 881a 893a 6783 be39 cdde aa37 0653 46ba
00000030: 83cc 80bb f7d8 4fba ec64 b93b caea 073b
00000040: 1777 ad3a f992 073a d0b5 d6ba 6f79 c73a
00000050: a736 7cbb 79f2 6c3b a97e c03b a0d7 87ba
00000060: 82e3 05bb ec03 22bb 898f 69ba be37 613b
00000070: d133 92ba deab 333b 6b13 35bb 4eda 0a3a
0.0009519137 -0.003534984 -8.165119e-05 -0.00083730265 0.00016035794 0.004247676 0.0014433205 0.004888186
0.0010460177 0.00036337526 2.0369329e-05 -0.0007565472 -0.0039306297 -0.00079287536 0.005657783 0.002073931
0.0013234344 0.0005171742 -0.0016381089 0.0015218685 -0.0038484724 0.0036155267 0.005874474 -0.0010363944
-0.0020429795 -0.0024721576 -0.0008909633 0.00343655 -0.0011154359 0.0027415673 -0.0027629982 0.0005296812

exp_avg_sq f4 [32]
00000000: 0f96 8339 2feb 9d39 6ca5 a039 5538 b738
00000010: ad5e ca39 a434 a139 2f96 4b39 8a88 df39
00000020: 6535 1339 3654 0639 5202 8f39 74a1 c138
00000030: f3db ba39 6e7d a039 c6d2 8239 22cd bd39
00000040: 7a78 063a 4134 cb38 f572 1f39 e7a3 8039
00000050: 2e13 5539 157b 253a 357f 173a 5416 6f39
00000060: 7a50 9039 0a61 bb39 b854 6839 3c9b cb39
00000070: 74e1 a439 c9e9 333a 48ea 2339 b40e c138
0.0002509807 0.000301206 0.00030640827 8.736613e-05 0.0003859898 0.00030747533 0.00019415536 0.00042635604
0.00014038903 0.00012810607 0.00027276814 9.23303e-05 0.0003564056 0.0003061103 0.0002495257 0.00036201725
0.0005129647 9.689527e-05 0.00015206246 0.0002453618 0.00020320408 0.0006312591 0.0005779148 0.00022801134
0.0002752578 0.0003573972 0.00022156804 0.00038834836 0.00031448493 0.0006863145 0.00015632168 9.205696e-05
