checkpoints/synth/high_energy/torsion_energy/20250611190442459345/MET_dim_12/fold1/best_epoch=243-val_loss_epoch=5.499.ckpt (torch, 47109 bytes, 20 tensors)

fc1.weight f4 [64, 12]
-0.32903585 0.3529007 -0.3357588 0.0431231 0.26055247 -0.17211208 0.030442676 -0.46101326
0.025170168 -0.077635184 0.204852 -0.005845926 -0.4058576 -0.43357122 -0.0006865666 -0.4123387
-0.20640294 -0.021664748 -0.05702425 0.37409627 -0.05595669 0.11572448 0.018011253 -0.061288845
-0.21495858 0.43864447 -0.04712418 -0.13611996 0.10520105 0.08598909 0.3280228 -0.12999162
0.0372577 0.036283325 0.30453274 -0.07842928 -0.38355637 -0.319512 -0.5384359 -0.10483472
-0.34018794 0.019334612 -0.0076040267 0.27987397 -0.011312015 0.19696271 0.12104712 -0.062600374
-0.026458375 -0.35737452 0.1639677 -0.07393983 0.07630431 -0.010475629 -0.6827047 0.43638706
0.094300166 0.057807084 -0.15311353 -0.022179238 0.44120282 0.31189385 -0.2694566 -0.28301102
-0.21219471 0.049408577 -0.11513118 -0.20573024 -0.058048934 0.026841173 -0.22139268 -0.04039528
-0.14857891 0.036520723 0.15496463 0.49095297 0.21576695 -0.20700483 -0.102039434 0.07121424
0.24978462 0.26702523 -0.020949634 -0.103409134 -0.023729578 0.3875436 -0.077007405 -0.13242817
-0.34059015 -0.14394864 0.16728178 -0.2988775 0.13947883 -0.2704602 -0.37796035 -0.06630505
0.302136 0.072987504 -0.02876075 -0.13623251 0.20197168 0.7340172 -0.02098776 0.08464158
0.13259424 0.14821486 -0.12282716 0.2686098 0.02988775 -0.43783775 0.31244177 -0.028884035
0.40209863 0.084453374 0.0612313 -0.13662004 0.09197108 0.12912571 -0.040821787 0.27246606
-0.5265881 -0.34677058 0.34181842 -0.4656561 -0.16272299 -0.15552655 0.010808315 -0.027595125
0.011363798 0.25621474 -0.21369448 0.056480173 -0.24143487 0.3049552 -0.1309867 0.3564556
-0.2476199 0.41954017 0.28682822 -0.065463014 0.11672961 0.28278786 0.23668705 0.070628084
0.07643298 0.37456024 -0.36698687 -0.41309047 -0.078328416 -0.14280958 0.04440664 -0.05308148
0.0997072 0.44801652 0.6601795 0.04480495 -0.35296518 0.1013248 -0.043259285 0.4760158
-0.5795356 0.042012066 -0.2922462 0.2034626 0.044579394 0.04261296 0.058659393 0.025912127
-0.43925598 0.27248624 0.3178785 -0.32180372 0.19506823 -0.3858793 0.04959803 0.32741722
-0.1515054 -0.015423422 -0.13477635 -0.063637644 -0.1682811 0.22863522 0.16596772 -0.48490468
-0.07465711 0.7048736 -0.39308694 0.14864296 0.041986845 0.065291174 0.2138187 -0.10252772
0.6115629 0.33890608 0.08817596 0.4386146 0.24403872 0.06128442 0.21054287 -0.32793418
0.010286907 0.14887662 0.3395183 0.022167932 0.6831625 0.4450777 -0.030730255 -0.19968382
-0.29998258 -0.039766043 -0.39057556 0.2236299 0.061383177 0.3072779 0.0069942893 0.029675126
-0.21589714 0.17090516 -0.29015476 -0.045156166 0.4493128 0.033165798 0.26042107 -0.27199483
0.14390644 -0.036364064 -0.30020332 -0.12327667 0.06870202 0.6748756 -0.5296302 -0.17852812
-0.001005825 0.66436625 -0.022294885 -0.0030975717 -0.19837071 -0.035746224 0.07109626 -0.11975175
-0.63578254 0.16226135 -0.12916954 0.23952587 0.20402113 0.31408814 -0.035670225 0.12271113
0.032473825 0.2443805 0.1843473 0.03297604 -0.05048017 -0.16896163 -0.02334895 0.08257889
00000000: 6377 a8be 67af b43e 94e8 abbe d9a1 303d
00000010: 2267 853e 263e 30be eb62 f93c ee09 ecbe
00000020: ab31 ce3c 32ff 9ebd b9c4 513e 2e8f bfbb
00000030: 91cc cfbe 0cfd ddbe b4fa 33ba 0f1e d3be
00000040: 4b5b 53be 457a b1bc 4392 69bd 8c89 bf3e
00000050: d832 65bd f500 ed3d 568c 933c 030a 7bbd
00000060: 1a1e 5cbe 0296 e03e 4905 41bd 0863 0bbe
00000070: a673 d73d 0c1b b03d 9bf2 a73e 861c 05be
00000080: 889b 183d d39d 143d b7eb 9b3e 889f a0bd
00000090: 8061 c4be 1497 a3be efd6 09bf 96b3 d6bd
000000a0: 1d2d aebe 9f63 9e3c 332b f9bb a44b 8f3e
000000b0: 0856 39bc 98b0 493e 8de7 f73d a034 80bd
000000c0: 3cbf d8bc cbf9 b6be 26e7 273e c46d 97bd
000000d0: 6f45 9c3d f9a1 2bbc bcc5 2ebf 206e df3e
000000e0: 7220 c13d 1fc7 6c3d cbc9 1cbe 3cb1 b5bc
000000f0: 56e5 e13e 8db0 9f3e 37f6 89be d2e6 90be
00000100: 9249 59be a660 4a3d e5c9 ebbd f3aa 52be
00000110: b8c4 6dbd 05e2 db3c c3b4 62be 8575 25bd
00000120: 1225 18be c196 153d 0caf 1e3e 305e fb3e
00000130: 03f2 5c3e 13f9 53be 0dfa d0bd c5d8 913d
00000140: 8ac7 7f3e 88b7 883e 919e abbc 2bc8 d3bd
00000150: 8864 c2bc 1d6c c63e 0fb6 9dbd 409b 07be
00000160: d561 aebe 4667 13be ea4b 2b3e 7906 99be
00000170: 8ad3 0e3e c279 8abe 0584 c1be f1ca 87bd
00000180: 92b1 9a3e 797a 953d aa9b ebbc 8980 0bbe
00000190: aad1 4e3e 8de8 3b3f 86ee abbc 9158 ad3d
000001a0: c9c6 073e a3c5 173e ce8c fbbd 3987 893e
000001b0: 28d7 f43c 452c e0be 5ef8 9f3e 369e ecbc
000001c0: dfdf cd3e e4f5 ac3d accd 7a3d 20e6 0bbe
000001d0: 555b bc3d 8839 043e bf34 27bd ac80 8b3e
000001e0: 7ace 06bf ea8b b1be d302 af3e 7a6a eebe
000001f0: dba0 26be 5a42 1fbe 5c15 313c 2c0f e2bc
00000200: 392f 3a3c 942e 833e bad2 5abe c157 673d
00000210: b43a 77be 1723 9c3e 6121 06be 5981 b63e
00000220: 1290 7dbe f8cd d63e 26db 923e 7911 86bd
00000230: ef0f ef3d 92c9 903e 175e 723e 75a5 903d
00000240: e588 9c3d 5cc6 bf3e b4e5 bbbe 9880 d3be
00000250: a66a a0bd ad3c 12be bde3 353d f76b 59bd
00000260: 4a33 cc3d 6c62 e53e 8601 293f 6585 373d
00000270: dab7 b4be 6083 cf3d a630 31bd 58b8 f33e
00000280: 725c 14bf d814 2c3d 4ba1 95be 8058 503e
00000290: e298 363d ed8a 2e3d d544 703d ab45 d43c
000002a0: 29e6 e0be 5183 8b3e f9c0 a23e 75c3 a4be
000002b0: f7bf 473e f991 c5be 4e27 4b3d 3ba3 a73e
000002c0: 3b24 1bbe 85b2 7cbc d002 0abe 7454 82bd
000002d0: e151 2cbe 5a1f 6a3e 71f3 293e 6d45 f8be
000002e0: d4e5 98bd 9972 343f b142 c9be dc35 183e
000002f0: 66fa 2b3d 61b7 853d 4af3 5a3e 0efa d1bd
00000300: 638f 1c3f 1985 ad3e 9995 b43d 1892 e03e
00000310: 49e5 793e 5f05 7b3d 8d98 573e fde6 a7be
00000320: 6a8a 283c 1d73 183e 58d5 ad3e 8699 b53c
00000330: bde3 2e3f 39e1 e33e 04be fbbc ea79 4cbe
00000340: 5197 99be b8e1 22bd 85f9 c7be 3dff 643e
00000350: ed6c 7b3d 8753 9d3e 5a30 e53b 4019 f33c
00000360: 2414 5dbe c301 2f3e 2a8f 94be acf5 38bd
00000370: 540c e63e dcd8 073d e955 853e e842 8bbe
00000380: 365c 133e 7cf2 14bd 40b4 99be 7b78 fcbd
00000390: a5b3 8c3d a6c4 2c3f d895 07bf 13d0 36be
000003a0: e3d5 83ba e813 2a3f c3a3 b6bc a100 4bbb
000003b0: b121 4bbe a26a 12bd ea9a 913d 6840 f5bd
000003c0: a5c2 22bf d727 263e 0545 04be 4546 753e
000003d0: eaea 503e 29d0 a03e f11a 12bd f94f fb3d
000003e0: 4603 053d e23e 7a3e 8ac5 3c3e e211 073d
000003f0: 4bc4 4ebd 4704 2dbe 4c46 bfbc 1f1f a93d

fc1.bias f4 [64]
0.6740502 -0.0067118234 0.3719583 0.064409114 -0.07565189 0.53070617 -0.32995513 0.5111724
-0.049717527 -0.033080813 0.17875715 0.33509505 0.20922935 -0.16827369 -0.28745538 0.16378793
-0.25000504 -0.10936116 0.28637502 -0.5685855 0.11023856 0.38788077 0.1734577 0.2999293
0.20653664 0.1772611 0.19814031 0.26629263 -0.13102885 0.06896135 0.04097223 -0.2756729
0.2848035 0.043345846 -0.16419317 -0.49043253 -0.32258156 -0.23780525 0.33285168 0.11390356
0.11579313 0.23219809 -0.6315628 -0.10659336 0.10410257 -0.07658676 0.30325136 0.3688853
0.0101720905 0.39940125 0.097394116 0.31569752 0.1800406 0.15836433 -0.3790715 -0.11513905
0.44783062 0.10829459 0.15870538 -0.015691102 -0.14368176 0.23725064 0.1661095 0.13848321
00000000: 8e8e 2c3f dbee dbbb 5171 be3e ede8 833d
00000010: 61ef 9abd 5cdc 073f e1ef a8be 32dc 023f
00000020: 9ba4 4bbd bf7f 07bd 1d0c 373e 9491 ab3e
00000030: 3840 563e f04f 2cbe 5a2d 93be 06b8 273e
00000040: a900 80be bef8 dfbd bf9f 923e d28e 11bf
00000050: c1c4 e13d 4f98 c63e e59e 313e 5590 993e
00000060: 577e 533e ef83 353e 4be5 4a3e 8257 883e
00000070: 6d2c 06be 9c3b 8d3d 7fd2 273d 0025 8dbe
00000080: c4d1 913e 6a8b 313d 4122 28be f919 fbbe
00000090: 6929 a5be 3883 73be 896b aa3e 4546 e93d
000000a0: f324 ed3d 56c5 6d3e 1aae 21bf 9f4d dabd
000000b0: ba33 d53d 85d9 9cbd c343 9b3e 89de bc3e
000000c0: d7a8 263c 527e cc3e 9176 c73d 1ba3 a13e
000000d0: 905c 383e 422a 223e a915 c2be 06ce ebbd
000000e0: 0e4a e53e 8ec9 dd3d aa83 223e a08a 80bc
000000f0: 5021 13be d5f1 723e 9c18 2a3e 8bce 0d3e

fc2.weight f4 [32, 64]
-0.2788582 0.14030367 -0.15221938 0.2952749 0.08425367 0.12600064 -0.35171005 0.19657435
-0.31997752 -0.019961089 -0.017483212 -0.26265955 0.05424847 -0.009241039 -0.25215456 0.1166475
-0.25879273 -0.008877196 0.53101695 -0.5717226 -0.2909406 0.072507344 0.043049708 -0.08278629
0.18234915 0.06056163 0.15240286 -0.24685612 0.5598394 -0.01594175 0.03956604 -0.14624606
0.11195765 0.33419314 0.1942967 -0.3898269 0.020452315 0.26992273 0.4253848 0.015389928
0.15695395 0.35678968 -0.3784309 0.13569933 0.07328947 0.17424671 -0.028254954 -0.1395494
0.006392077 -0.07325106 0.037013385 -0.08289158 0.22753389 -0.1641478 -0.055100508 0.039595176
-0.014534668 -0.16303456 0.2207629 -0.26798373 -0.08626072 0.00012905 0.37983993 -0.089190096
-0.114192374 -0.048778556 0.03475215 -0.07623593 0.076043 0.27566427 -0.06414032 -0.29950947
-0.5655852 -0.31164294 0.18402041 0.051984567 -0.040037505 -0.12210985 0.2511744 -0.15423901
0.09246572 -0.2446756 -0.033763114 0.03448837 -0.21138169 -0.1919809 -0.049595144 -0.1107166
-0.00073646544 -0.19837175 0.23307902 0.15532635 0.06324761 0.047470048 0.08792242 0.13420302
0.069105424 0.16968922 0.055336792 -0.3262134 -0.15597983 0.20131636 0.3130652 -0.06952817
0.07659555 -0.11427128 -0.28695652 0.26234236 0.23380196 0.025369119 0.21854043 0.21361895
-0.08636473 0.040165514 -0.059288844 -0.120762795 -0.107654825 -0.18954085 0.060849994 -0.008081395
0.09327313 -0.22311935 0.3695698 -0.16009872 0.0605935 -0.06849853 0.23797183 0.21357316
-0.08412669 -0.2997285 -0.1400509 -0.07058295 -0.10120003 0.040451106 0.14654966 0.015100669
-0.05472922 0.049714603 -0.18433325 -0.32459036 -0.045673344 -0.3213425 0.12793463 0.07790921
-0.6476676 0.44823402 0.15251572 0.30419642 0.018340103 -0.25726599 0.25269952 0.10027971
-0.086984344 0.3598039 0.13839358 -0.1993851 0.092626736 -0.09633068 0.28556553 -0.1598527
0.0062453896 -0.28901178 0.112541944 -0.046209417 -0.080992095 0.30238602 -0.021634286 -0.042683695
-0.15668084 0.15011111 -0.037242 0.08656761 -0.19235985 -0.08125394 -0.1863523 -0.08249714
-0.067421496 0.3216267 -0.17202444 0.098965764 0.19219525 0.09071331 0.31910768 0.18583426
-0.34569925 0.08389053 -0.19599693 0.1498469 -0.09892522 0.22021827 -0.003352196 0.3091678
0.0608146 -0.4212958 -0.19892876 0.16139044 0.20251723 -0.40242672 0.02339279 0.034054518
0.06739535 0.38981456 0.11268492 -0.02474359 0.076533556 -0.06152597 -0.21705231 0.018493026
0.14257596 -0.06759598 0.023661226 0.10431313 -0.16125914 0.18516535 0.06566276 -0.21496563
-0.22832085 0.2150122 0.27939466 -0.21361224 0.16976456 0.24299848 0.020312151 0.012491131
-0.16410471 -0.11599943 0.07953339 0.08395498 0.2835213 0.14164804 -0.04542781 -0.18583542
0.13358109 -0.29739505 -0.5643234 -0.14474155 0.20528138 -0.42052934 0.08209744 0.013905695
0.19198969 0.24111256 -0.23651731 0.13689733 -0.00032139645 -0.055994958 -1.5358155 -0.27962807
-0.05444448 -0.06747301 0.036250353 -0.030954419 -0.3177418 0.22130345 -0.2578894 0.083500594
00000000: 81c6 8ebe c4ab 0f3e 66df 1bbe 462e 973e
00000010: 308d ac3d 5006 013e 5713 b4be c94a 493e
00000020: 18d4 a3be 7085 a3bc f438 8fbc 507b 86be
00000030: a533 5e3d ba67 17bc 671a 81be e2e4 ee3d
00000040: 7b80 84be a971 11bc baf0 073f 6a5c 12bf
00000050: 2bf6 94be bb7e 943d e454 303d dc8b a9bd
00000060: bcb9 3a3e 790f 783d 7f0f 1c3e dac7 7cbe
00000070: a351 0f3f 4698 82bc 0010 223d 87c1 15be
00000080: 0d4a e53d 5d1b ab3e b7f5 463e 6497 c7be
00000090: 9d8b a73c 5033 8a3e 09cc d93e 0926 7c3c
000000a0: 89b8 203e 23ad b63e b2c1 c1be c4f4 0a3e
000000b0: ca18 963d bb6d 323e ef76 e7bc 0ae6 0ebe
000000c0: a174 d13b a704 96bd 599b 173d 10c3 a9bd
000000d0: a5fe 683e 5c16 28be 12b1 61bd 8d2e 223d
000000e0: d122 6ebc 88f2 26be ab0f 623e 2a35 89be
000000f0: 76a9 b0bd 9851 0739 617a c23e 4ca9 b6bd
00000100: b1dd e9bd 06cc 47bd 4558 0e3d 9521 9cbd
00000110: 6fbc 9b3d de23 8d3e 005c 83bd 4e59 99be
00000120: 31ca 10bf aa8f 9fbe d96f 3c3e c5ed 543d
00000130: 5efe 23bd bb14 fabd ee99 803e d5f0 1dbe
00000140: ab5e bd3d 3e8c 7abe 314b 0abd ad43 0d3d
00000150: 7174 58be a496 44be 4724 4bbd 63bf e2bd
00000160: 5c0f 41ba f721 4bbe 44ac 6e3e df0d 1f3e
00000170: f787 813d f46f 423d ab10 b43d 846c 093e
00000180: 2587 8d3d 03c3 2d3e d5a8 623d 7105 a7be
00000190: 2db9 1fbe e025 4e3e 154a a03e c964 8ebd
000001a0: 21de 9c3d 1007 eabd f7eb 92be bd51 863e
000001b0: c869 6f3e e6d2 cf3c 10c9 5f3e edbe 5a3e
000001c0: fedf b0bd 9884 243d dcd8 72bd 7c52 f7bd
000001d0: 227a dcbd ff16 42be d83d 793d d467 04bc
000001e0: fc05 bf3d 6679 64be 4138 bd3e ebf0 23be
000001f0: e430 783d f548 8cbd e3ae 733e ecb2 5a3e
00000200: 9d4a acbd 0476 99be 8169 0fbe cb8d 90bd
00000210: f641 cfbd 0fb0 253d 1d11 163e cc68 773c
00000220: bf2b 60bd 8aa1 4b3d dbc1 3cbe b530 a6be
00000230: f913 3bbd 0187 a4be 4c01 033e dd8e 9f3d
00000240: 8bcd 25bf ee7e e53e 152d 1c3e a2bf 9b3e
00000250: fc3d 963c 5eb8 83be d561 813e 735f cd3d
00000260: d924 b2bd 3738 b83e 0cb7 0d3e 9c2b 4cbe
00000270: 16b3 bd3d 0549 c5bd a535 923e 6db0 23be
00000280: 20a6 cc3b 5af9 93be 647c e63d 1646 3dbd
00000290: 2fdf a5bd 57d2 9a3e 633a b1bc 19d5 2ebd
000002a0: f170 20be bab6 193e 118b 18bd 5c4a b13d
000002b0: fbf9 44be 7768 a6bd 23d3 3ebe 43f4 a8bd
000002c0: 4814 8abd 41ac a43e 2d27 30be 90ae ca3d
000002d0: d5ce 443e e6c7 b93d 1562 a33e 564b 3e3e
000002e0: 7eff b0be ccce ab3d 6bb3 48be 7771 193e
000002f0: 4e99 cabd e680 613e 84b0 5bbb 3e4b 9e3e
00000300: bb18 793d 15b4 d7be fbb3 4bbe 8943 253e
00000310: ad60 4f3e e00a cebe 3da2 bf3c c07c 0b3d
00000320: 9306 8a3d c695 c73e 5ac7 e63d 12b3 cabc
00000330: a0bd 9c3d a802 7cbd f642 5ebe b07e 973c
00000340: 6fff 113e c36f 8abd 30d5 c13c 1fa2 d53d
00000350: 1e21 25be fc9b 3d3e 327a 863d f31f 5cbe
00000360: f1cc 69be 282c 5c3e d10c 8f3e 2bbd 5abe
00000370: c3d6 2d3e 98d4 783e ab65 a63c 9aa7 4c3c
00000380: 110b 28be 1c91 edbd 67e2 a23d 97f0 ab3d
00000390: b429 913e 2f0c 113e 8312 3abd a44b 3ebe
000003a0: 7bc9 083e 2a44 98be 8077 10bf 2137 14be
000003b0: 4835 523e 9f4f d7be b422 a83d b6d4 633c
000003c0: f298 443e 36e6 763e 9831 72be d02e 0c3e
000003d0: 1a81 a8b9 f85a 65bd 9a95 c4bf 692b 8fbe
000003e0: 2d01 5fbd 4a2f 8abd 407b 143d 1f94 fdbc
000003f0: 0eaf a2be 5f9d 623e 140a 84be 5c02 ab3d

fc2.bias f4 [32]
0.006532501 0.11294805 0.10481602 -0.1882416 0.27319235 0.11615563 0.007396763 -0.051040456
-0.011702321 -0.100086346 0.23901553 -0.037738156 -0.22671182 0.16180179 0.2376462 0.04625405
0.024602417 0.12237276 -0.2726263 0.048375275 -0.057127018 -0.06724179 0.040871963 0.13511118
-0.0023133731 -0.08347257 -0.11145793 -0.094202116 -0.04901679 0.21344194 0.10562118 0.14291729
00000000: 970e d63b 4f51 e73d c8a9 d63d 68c2 40be
00000010: dedf 8b3e 01e3 ed3d 8c60 f23b cc0f 51bd
00000020: 17bb 3fbc 12fa ccbd 7dc0 743e 5393 1abd
00000030: 2527 68be 5eaf 253e 8759 733e e374 3d3d
00000040: 028b c93c 929e fa3d ad95 8bbe 2725 463d
00000050: 05fe 69bd 10b6 89bd 5c69 273d 965a 0a3e
00000060: f69b 17bb abf3 aabd 0e44 e4bd 0aed c0bd
00000070: d4c5 48bd 8690 5a3e eb4f d83d e958 123e

fc3.weight f4 [3, 32]
-0.70576733 -0.5862936 -0.18276057 -0.4073886 0.5305942 -0.467125 -0.059435215 -0.13920091
0.18969414 -0.48451477 0.37018022 0.647808 -0.60862285 -0.5299729 0.3773147 0.44994497
-0.4982822 0.37195194 -0.33369684 0.3915844 -0.1443059 -0.16120091 0.77332926 -0.2131725
-0.3350028 0.06953949 0.14722277 0.20644993 0.09112026 0.38249344 0.20680656 0.37708446
-0.15559392 -0.11722696 0.59014297 0.60886747 -0.0069375476 -0.23423572 0.85495406 1.9483423
1.2009571 0.3170493 -0.052434 0.20595258 -0.25304356 1.5260006 0.19380358 0.54200846
0.16239996 0.024206806 0.1374289 0.1121046 -0.13066143 -0.009045035 1.0073711 0.2055895
0.22598214 1.5219594 0.13969667 -0.22414654 -0.12799303 -0.30099237 -0.27464345 0.51941675
-0.036391 0.10918539 -0.22874522 -0.3350476 -0.049808677 0.15131332 -0.7718711 0.14684843
0.36692452 0.9323142 0.26632068 -0.328561 -0.08441336 0.108004555 0.43847916 -0.22038259
0.11870038 -0.09458862 -0.56146014 -0.58580345 -0.5806179 -0.6231007 -0.31181484 0.32292724
0.30214047 -0.4318665 -0.8826177 -0.52829653 -0.038372166 0.38674158 0.47527227 0.13069256
00000000: 2bad 34bf 5617 16bf 9625 3bbe 3d95 d0be
00000010: 06d5 073f 022b efbe 5772 73bd af8a 0ebe
00000020: 2e3f 423e 5212 f8be 4388 bd3e bfd6 253f
00000030: b5ce 1bbf 4eac 07bf 642f c13e 305f e63e
00000040: d81e ffbe 7c70 be3e 50da aabe c07d c83e
00000050: edc4 13be da11 25be e8f8 453f e449 5abe
00000060: 7d85 abbe b86a 8e3d 91c1 163e 9c67 533e
00000070: 429d ba3d 2ed6 c33e 19c5 533e 3711 c13e
00000080: 0354 1fbe b014 f0bd 9c13 173f bdde 1b3f
00000090: 5e54 e3bb 7ddb 6fbe 45de 5a3f 4863 f93f
000000a0: f6b8 993f 4954 a23e 09c5 56bd 3ce5 523e
000000b0: ed8e 81be fd53 c33f 7274 463e 11c1 0a3f
000000c0: 2d4c 263e 5a4d c63c 29ba 0c3e 1997 e53d
000000d0: 1ccc 05be a031 14bc 89f1 803f 0e86 523e
000000e0: dd67 673e 91cf c23f a50c 0f3e ac86 65be
000000f0: 9b10 03be ac1b 9abe 119e 8cbe 7ff8 043f
00000100: bb0e 15bd 979c df3d 303c 6abe 5c8b abbe
00000110: 2f04 4cbd e1f1 1a3e 5899 45bf 6f5f 163e
00000120: 88dd bb3e 25ac 6e3f 2f5b 883e 2639 a8be
00000130: e9e0 acbd 7e31 dd3d 5780 e03e f9ab 61be
00000140: 2f19 f33d aeb7 c1bd dabb 0fbf 37f7 15bf
00000150: 60a3 14bf 8783 1fbf 32a6 9fbe b856 a53e
00000160: 28b2 9a3e 9b1d ddbe 3cf3 61bf 713e 07bf
00000170: 222c 1dbd fe02 c63e e356 f33e 45d4 053e

fc3.bias f4 [3]
0.03766672 -0.1786175 0.10827263
00000000: 6b48 1a3d 82e7 36be 0abe dd3d

exp_avg f4 [64, 12]
0.0008653394 -0.0017562198 -0.00021211628 0.001109749 0.00013791819 0.00026378807 0.001061305 -0.00062891166
0.00046789742 5.954926e-05 0.0008714963 -0.00043217873 0.00084693945 -0.00036037498 -0.00067203655 0.0014272532
-0.00019017377 0.00032681972 -0.0007445506 0.00032274207 0.00096538774 0.00020174723 -0.00088102545 -0.0010490926
0.00022922573 -0.0010133821 -0.001628565 -0.0017969086 -0.0014169463 -0.0014820716 -0.0030231038 -0.0006105273
0.00067469676 6.344315e-05 0.0005296414 0.0026849718 0.00070481445 -0.0014543349 -0.00025320647 0.003044432
0.0009392612 0.00026191334 0.0004551797 0.0043774825 -0.00031906614 0.0034183206 -0.0013590275 0.00022909732
0.0004275734 -0.0008055968 0.0008166962 -6.2156934e-05 -0.0022499722 0.002306421 -0.00049350946 0.0015068034
0.0006948812 0.002009651 0.0004838956 -0.00081368006 -0.0007799232 -0.0005113569 -0.0011534094 -0.00021104951
-0.00093822466 -0.00044521564 -0.0011456695 0.0010239109 0.0010668954 -6.123096e-05 0.00020563621 0.0012163493
-0.0008780759 0.002034391 -0.0001399835 0.00018436086 0.0010023456 -0.0011598148 0.0014123206 -0.0005222929
0.0011755769 -0.0022869932 0.0012651385 -0.0003108914 -0.0016575617 4.0895644e-05 -0.0016205625 -0.00081783003
-0.0015095475 -0.0012874603 -0.0020427352 5.616686e-05 0.0012204117 0.00043925658 0.000737903 0.0014399247
0.0030618398 0.0012240768 0.00062872696 0.00045669396 -0.00049282925 -0.0006775562 0.002048288 -0.002776626
-0.0017862156 0.000484055 0.0010785103 -0.00037246261 -0.0005814324 0.0010423386 0.00017563488 -0.002235805
0.00019377585 0.0014012333 0.0011481193 -0.0017122437 -0.0016811073 5.6484267e-05 0.0006684637 -0.001754343
0.0012870297 1.7815511e-05 -0.00069232314 -0.00052781985 2.0223353e-05 2.3557071e-05 0.0021334714 0.00020506744
-0.0008459495 -0.0007864834 0.00076941215 -0.0009942728 0.0012616153 -0.004040103 -0.0015101995 -0.0007112314
-0.0015777422 -4.153698e-05 0.00107534 0.003099165 9.939245e-05 0.0019825194 0.0001970414 0.0038242051
0.0008913323 0.00014404133 0.00016081477 0.000108632055 -0.00053194974 -9.538727e-05 -0.00037937736 -0.0008083035
0.0007603957 4.254914e-05 0.00029493766 0.0003210892 0.001714404 -0.0041780104 0.002057796 0.00011695559
-0.0009828499 0.0015210299 0.00021914326 0.0011994006 -0.0017861107 0.002916691 -9.610862e-05 0.0006182249
0.00030045887 -0.000462911 -0.0032788666 -0.001380565 -0.0023349856 0.0028404095 -0.003714967 0.0002343704
0.003198153 0.0024339203 0.0007823337 0.0019879125 -0.0021442499 -0.003077416 -0.0019527742 -0.0009664147
0.000628868 -0.00096764957 -0.0015065691 0.0026652087 0.0019470954 8.935524e-05 -0.0019451209 0.0017859931
-0.0015652676 -0.0029059523 -0.001929421 -0.0006764591 -0.0044646915 -0.0020503432 -0.0034400162 -0.0015799156
-2.483279e-05 -0.0014850622 0.0030552836 0.0014082233 0.0016398254 -0.00022248102 0.0009754503 0.00050234003
-0.0014969668 -0.0001275009 0.0019746283 -0.000588911 0.0011807344 0.0028799446 0.00042063458 0.0014288452
-0.00097079016 0.0025892877 0.002902139 -0.0001229464 0.0022346051 -0.0008502125 0.0024628968 -0.0007011342
-0.0027792598 -0.002838815 0.000121497396 -0.0047785607 0.0067601264 0.00059129455 0.001513428 0.0056323265
-0.0036962093 0.0010202737 -0.00062514987 -0.009747757 0.00024178931 -0.0022170662 0.0030549546 0.0009967606
-0.0024320108 0.0013950954 0.0015269979 0.00043188324 0.0014778593 -0.00040392322 -2.0739537e-05 -0.0019422467
-0.000518624 -0.0010248349 0.00021943054 -0.0003797484 0.0025748839 -0.0046892352 0.0017786595 0.003195538
00000000: f2d7 623a f530 e6ba 886b 5eb9 ff74 913a
00000010: 229e 1039 094d 8a39 7d1b 8b3a 8cdd 24ba
00000020: 2150 f539 88c4 7938 2075 643a 0c96 e2b9
00000030: 2505 5e3a b6f0 bcb9 9c2b 30ba ac12 bb3a
00000040: 6269 47b9 0059 ab39 f22d 43ba b535 a939
00000050: 1312 7d3a 1c8c 5339 9ef4 66ba b581 89ba
00000060: 505c 7039 76d3 84ba 9375 d5ba 3f86 ebba
00000070: d4b8 b9ba 1242 c2ba 441f 46bb cb0b 20ba
00000080: 22de 303a c80c 8538 a2d7 0a3a 5af6 2f3b
00000090: 4cc3 383a 629f beba ccc0 84b9 1885 473b
000000a0: c138 763a 6a51 8939 2fa5 ee39 fc70 8f3b
000000b0: 5548 a7b9 e705 603b 6521 b2ba d839 7039
000000c0: ee2b e039 b02e 53ba 8e17 563a 405a 82b8
000000d0: 4574 13bb 5327 173b dc5e 01ba ef7f c53a
000000e0: b028 363a 59b4 033b 5eb3 fd39 254d 55ba
000000f0: c373 4cba 950c 06ba ff2d 97ba 2c4d 5db9
00000100: 31f3 75ba d56b e9b9 4a2a 96ba c034 863a
00000110: 12d7 8b3a 1f69 80b8 0da0 5739 e96d 9f3a
00000120: ad2e 66ba 6b53 053b 89c8 12b9 fe50 4139
00000130: 2361 833a ed04 98ba 9e1d b93a 7cea 08ba
00000140: d115 9a3a 61e1 15bb 01d3 a53a 23ff a2b9
00000150: 8b42 d9ba 5d87 2b38 0e69 d4ba a563 56ba
00000160: 02dc c5ba 00c0 a8ba 69df 05bb b594 6b38
00000170: 39f6 9f3a 054c e639 d56f 413a dbbb bc3a
00000180: 26a9 483b 3471 a03a 27d1 243a 6d70 ef39
00000190: 3631 01ba 079e 31ba 923c 063b 0ef8 35bb
000001a0: 731f eaba c3c8 fd39 cd5c 8d3a 1647 c3b9
000001b0: 456b 18ba 149f 883a a12a 3839 9586 12bb
000001c0: 4f30 4b39 96a9 b73a 7e7c 963a 5d6d e0ba
000001d0: 9a58 dcba 85e9 6c38 d73b 2f3a fcf1 e5ba
000001e0: 8db1 a83a 8572 9537 057d 35ba 645d 0aba
000001f0: 52a5 a937 6d9c c537 b6d1 0b3b 5f07 5739
00000200: b6c2 5dba 022c 4eba 60b2 493a 4252 82ba
00000210: c95c a53a d762 84bb e3f1 c5ba ee71 3aba
00000220: 3ecc ceba fe37 2eb8 6cf2 8c3a 5c1b 4b3b
00000230: ea70 d038 28ed 013b e69c 4e39 849f 7a3b
00000240: 4ca8 693a cd09 1739 63a0 2839 64d1 e338
00000250: 8b72 0bba a70a c8b8 2be7 c6b9 54e4 53ba
00000260: 4b55 473a cb76 3238 dda1 9a39 dd57 a839
00000270: dab5 e03a b1e7 88bb 17dc 063b 0e46 f538
00000280: f8d2 80ba 4b5d c73a d2c9 6539 3535 9d3a
00000290: ee1b eaba f425 3f3b ec8d c9b8 5f10 223a
000002a0: e886 9d39 ddb2 f2b9 41e2 56bb 13f4 b4ba
000002b0: 8f06 19bb 2a26 3a3b ce76 73bb 53c1 7539
000002c0: 1b98 513b 6882 1f3b 8715 4d3a a347 023b
000002d0: 8b86 0cbb 79ae 49bb 3bf4 ffba fe56 7dba
000002e0: 9eda 243a dda9 7dba 1278 c5ba c8aa 2e3b
000002f0: ae35 ff3a 3b64 bb38 6df3 feba fc17 ea3a
00000300: aa29 cdba ca71 3ebb a0e4 fcba 6754 31ba
00000310: 8c4c 92bb 0d5f 06bb e571 61bb 2c15 cfba
00000320: 0350 d0b7 6ba6 c2ba 273b 483b 2294 b83a
00000330: 69ef d63a cb49 69b9 5db5 7f3a 78af 033a
00000340: df35 c4ba c3b1 05b9 c468 013b 2661 1aba
00000350: dfc2 9a3a 74bd 3c3b 9e88 dc39 1748 bb3a
00000360: a07c 7eba 0ab1 293b d031 3e3b 2ceb 00b9
00000370: 7472 123b cce0 5eba 8d68 213b 52cc 37ba
00000380: 3e24 36bb 6a0b 3abb 6bcc fe38 7995 9cbb
00000390: 0d84 dd3b 1b01 1b3a 385e c63a 618f b83b
000003a0: 1a3c 72bb b4ba 853a 19e1 23ba 0eb5 1fbc
000003b0: d388 7d39 334c 11bb a235 483b bca5 823a
000003c0: 5f62 1fbb a2db b63a 8c25 c83a 636e e239
000003d0: bbb4 c13a a8c5 d3b9 d1f9 adb7 fc92 feba
000003e0: 44f4 07ba c153 86ba f016 6639 f818 c7b9
000003f0: 62bf 283b 28a8 99bb e921 e93a 3b6c 513b

exp_avg_sq f4 [64, 12]
2.0379091e-05 1.9443249e-05 1.679093e-05 1.4399476e-05 1.8154287e-05 1.6015489e-05 1.3756934e-05 1.1723969e-05
1.266611e-05 1.3049962e-05 1.5600208e-05 1.1700105e-05 1.8608276e-05 2.6230757e-05 2.1744852e-05 3.101995e-05
2.9295912e-05 2.2951212e-05 2.0516762e-05 2.3014923e-05 1.8400227e-05 2.2796397e-05 2.0169966e-05 2.0865762e-05
5.426167e-05 8.896972e-05 6.608309e-05 6.825227e-05 5.733614e-05 5.3292104e-05 5.410212e-05 5.8327267e-05
4.6644713e-05 5.501031e-05 6.139443e-05 5.65089e-05 0.00013093164 0.00014060881 0.00016230001 0.00012430188
0.00014503015 9.7751064e-05 0.0001023685 0.0001327291 0.00010685154 0.00013049693 0.00011888594 0.00012624664
3.600902e-05 6.060138e-05 5.314646e-05 5.3759948e-05 4.357056e-05 3.5810088e-05 4.1794407e-05 4.2237567e-05
3.937452e-05 4.822785e-05 5.2853968e-05 4.4155524e-05 3.2101238e-05 6.334412e-05 3.6468944e-05 3.868779e-05
2.9616305e-05 3.027702e-05 3.0182799e-05 3.4618275e-05 3.292332e-05 3.346836e-05 4.2714986e-05 3.0451401e-05
2.1360393e-05 2.8721739e-05 2.4574081e-05 3.1494936e-05 2.3685066e-05 1.965863e-05 2.0727208e-05 2.090978e-05
2.3945215e-05 2.5273874e-05 2.665676e-05 2.0367934e-05 7.110773e-05 9.979968e-05 8.205867e-05 8.416052e-05
0.00010255152 7.367364e-05 7.01962e-05 6.907185e-05 6.8866786e-05 8.3001534e-05 9.709463e-05 6.846569e-05
8.243261e-05 0.00014006252 8.258294e-05 9.0950074e-05 6.020274e-05 0.000117574615 7.805753e-05 8.863941e-05
7.699506e-05 8.013189e-05 9.081523e-05 8.1948696e-05 4.2227217e-05 6.378244e-05 5.413338e-05 5.083968e-05
4.7600126e-05 4.644829e-05 4.2182477e-05 4.192903e-05 4.3975593e-05 5.1890147e-05 5.5277866e-05 4.6202684e-05
2.251054e-05 2.5220535e-05 2.0427018e-05 2.3472974e-05 2.092018e-05 2.316761e-05 1.7625309e-05 1.6147937e-05
1.6231073e-05 2.027834e-05 2.0141644e-05 1.9438916e-05 0.00013814167 0.00019256884 0.000144753 0.00012459733
0.00011334031 0.000111054236 0.00012232644 0.00012528454 0.0001122774 0.000117048934 0.00014107692 0.00012870933
1.1649886e-05 2.2568664e-05 1.5808502e-05 9.037416e-06 4.718418e-06 8.182913e-06 9.488386e-06 1.3994507e-05
1.0050036e-05 1.0029191e-05 8.646849e-06 9.6538e-06 6.933984e-05 0.00015011318 9.539935e-05 0.00013222768
5.0519135e-05 7.345613e-05 7.879231e-05 6.972053e-05 8.419843e-05 8.992683e-05 0.00011306982 7.2771894e-05
6.9947266e-05 7.8768484e-05 9.223759e-05 9.273876e-05 9.8324614e-05 6.937915e-05 6.2429135e-05 7.074823e-05
6.4698055e-05 7.9342964e-05 8.197054e-05 7.829291e-05 0.000119005024 0.00015789263 0.0001298439 0.00010808117
9.749992e-05 0.00011870323 0.00010151281 0.00012399597 8.751404e-05 0.00010511573 0.00010502818 0.00011027158
0.0001147305 0.00019848753 0.00014332069 0.00012688385 8.607697e-05 9.224331e-05 0.00011295621 0.000106447114
0.000112571164 0.00011715924 0.00015002173 0.00010026926 0.00011661383 0.00020578109 0.00012203851 9.821842e-05
6.679522e-05 8.258475e-05 0.00010592752 0.0001027289 9.8427896e-05 0.00010223235 0.0001317326 9.024789e-05
0.00016170646 0.00022582855 0.00017246444 0.00016331278 0.00017493182 0.00015161399 0.00013324941 0.00015315467
0.0001378611 0.00015946035 0.00019063093 0.00014177732 0.0003615974 0.00069085445 0.000510648 0.00035398334
0.00024761696 0.00035664334 0.00032763492 0.00044228506 0.00030029798 0.00029969297 0.0003184501 0.00035693558
9.25935e-05 8.764307e-05 8.111158e-05 9.055585e-05 9.738889e-05 6.932926e-05 7.096887e-05 7.502347e-05
6.4704574e-05 7.505191e-05 8.396846e-05 7.459257e-05 9.664531e-05 0.00018613745 0.00012279887 0.00011622947
00000000: c4f3 aa37 0f1a a337 3fda 8c37 4795 7137
00000010: 094a 9837 0059 8637 95cd 6637 10b2 4437
00000020: 8780 5437 29f1 5a37 31dd 8237 914b 4437
00000030: f818 9c37 1f0a dc37 b768 b637 6b1b 0238
00000040: 7ec0 f537 5a87 c037 691b ac37 2c10 c137
00000050: 305a 9a37 e43a bf37 ac32 a937 e208 af37
00000060: 0697 6338 4195 ba38 1796 8a38 a922 8f38
00000070: 367c 7038 f685 5f38 b6eb 6238 6da4 7438
00000080: 61a4 4338 dfba 6638 e2c0 8038 f803 6d38
00000090: b24a 0939 6470 1339 142f 2a39 0857 0239
000000a0: 3c13 1839 b4ff cc38 acae d638 322d 0b39
000000b0: 7c15 e038 01d6 0839 6752 f938 1361 0439
000000c0: 6408 1738 3c2e 7e38 94e9 5e38 4e7c 6138
000000d0: 88bf 3638 ca32 1638 674c 2f38 3e28 3138
000000e0: 1226 2538 4248 4a38 84af 5d38 a233 3938
000000f0: 71a4 0638 9ed7 8438 3bf6 1838 b344 2238
00000100: 8870 f837 68fb fd37 1131 fd37 1733 1138
00000110: 2517 0a38 6160 0c38 de28 3338 e371 ff37
00000120: 182f b337 77ef f037 7024 ce37 6e19 0438
00000130: 4baf c637 96e8 a437 57df ad37 6967 af37
00000140: f5dd c837 3b03 d437 f59c df37 cedb aa37
00000150: ac1f 9538 8c4b d138 ea16 ac38 567f b038
00000160: ee10 d738 3c81 9a38 4c36 9338 abda 9038
00000170: 936c 9038 1c11 ae38 489f cb38 3d95 8f38
00000180: acdf ac38 bfdd 1239 6130 ad38 73bc be38
00000190: 3382 7c38 6492 f638 d1b2 a338 ece3 b938
000001a0: 6878 a138 7b0c a838 0e74 be38 dfdb ab38
000001b0: 211d 3138 f0c2 8538 460d 6338 b13c 5538
000001c0: 3fa6 4738 79d1 4238 17ed 3038 f4dc 2f38
000001d0: 6f72 3838 9fa4 5938 28da 6738 c1c9 4138
000001e0: 04d5 bc37 b090 d337 b05a ab37 d4e7 c437
000001f0: bf7d af37 1058 c237 10da 9337 6e75 8737
00000200: f727 8837 671b aa37 daf5 a837 c110 a337
00000210: 1fda 1039 4eec 4939 d6c8 1739 57a6 0239
00000220: 1eb1 ed38 cae5 e838 c144 0039 d05e 0339
00000230: 7876 eb38 2b78 f538 0cee 1339 26f6 0639
00000240: e173 4337 d651 bd37 809c 8437 689f 1737
00000250: e752 9e36 5849 0937 4f30 1f37 f3c9 6a37
00000260: 939c 2837 0c43 2837 ef11 1137 c1f6 2137
00000270: 8b6a 9138 b367 1d39 2311 c838 99a6 0a39
00000280: 82e4 5338 760c 9a38 4d3d a538 ed36 9238
00000290: b093 b038 1997 bc38 e61f ed38 1d9d 9838
000002a0: a7b0 9238 8230 a538 ae6f c138 be7c c238
000002b0: a033 ce38 a67f 9138 63ec 8238 ab5e 9438
000002c0: 81ae 8738 ee64 a638 99e7 ab38 3031 a438
000002d0: 5692 f938 fb8f 2539 b526 0839 a3a9 e238
000002e0: df78 cc38 50f0 f838 46e3 d438 ea04 0239
000002f0: be87 b738 9471 dc38 9342 dc38 9b41 e738
00000300: 789b f038 1721 5039 5b48 1639 200c 0539
00000310: 3984 b438 c072 c138 e7e2 ec38 5c3c df38
00000320: 2f14 ec38 63b3 f538 274f 1d39 a647 d238
00000330: 938e f438 f1c6 5739 edee ff38 9dfa cd38
00000340: 6914 8c38 5a31 ad38 6725 de38 2970 d738
00000350: 136b ce38 9365 d638 b321 0a39 7843 bd38
00000360: bf8f 2939 64cc 6c39 92d7 3439 f13e 2b39
00000370: e76d 3739 92fa 1e39 deb8 0b39 2598 2039
00000380: cf8e 1039 d034 2739 1ae4 4739 0faa 1439
00000390: c894 bd39 751a 353a 02dd 053a d796 b939
000003a0: 96d2 8139 dcfb ba39 6ac6 ab39 7fe2 e739
000003b0: 5071 9d39 1c20 9d39 a6f5 a639 1523 bb39
000003c0: c22e c238 04cd b738 731a aa38 cde8 bd38
000003d0: 433d cc38 dd64 9138 1fd5 9438 eb55 9d38
000003e0: 01b2 8738 3065 9d38 3918 b038 956e 9c38
000003f0: 0eae ca38 e42d 4339 92c3 0039 39c0 f338

exp_avg f4 [64]
-0.002110261 -0.0008159883 -0.0033203482 0.003101251 -0.0008653311 -0.0024096959 0.00053561263 -0.003523676
-0.0005285879 0.00031423528 -0.002413077 -0.0025383462 -0.0005337436 -0.0014909816 -0.0040189005 -0.0017262605
-0.0067187445 -0.0018838103 0.0049653095 0.0013268609 0.0026589253 -0.000904184 0.0040876875 0.0035659447
0.0007414454 0.0049095284 0.004143243 0.00036407038 0.0013028075 0.0027030276 0.004636624 -0.00063733774
-0.0023632383 -0.0027367105 -0.00044047323 0.00088392873 -5.442197e-06 0.0056281593 -0.0017255602 -0.003233
-0.0010959811 0.0051521533 0.0020678986 -0.0014339074 -0.0076990137 0.0011761487 -0.0045778686 -0.0042263754
0.0015423986 0.0041507683 -2.0213223e-05 -0.00036217444 0.0009185667 -0.0011296151 0.00012916684 -0.00048348607
-0.0044125305 0.0033156346 -0.003398842 0.00084666174 0.00039105385 0.0022068266 0.00091260165 0.0070485193
00000000: 4e4c 0abb 0ce8 55ba 339a 59bb 5c3e 4b3b
00000010: 63d7 62ba fdeb 1dbb 5b68 0c3a 79ed 66bb
00000020: ef90 0aba f2bf a439 b724 1ebb 625a 26bb
00000030: edea 0bba 0a6d c3ba fbb0 83bb b143 e2ba
00000040: ea28 dcbb 2fea f6ba 09b4 a23b 10ea ad3a
00000050: 5d41 2e3b c306 6dba 02f2 853b a0b2 693b
00000060: 8f5d 423a 1ce0 a03b 0bc4 873b b3e0 be39
00000070: f7c2 aa3a 4725 313b d2ee 973b 0313 27ba
00000080: 8fe0 1abb 625a 33bb 51ef e6b9 74b7 673a
00000090: 1e9c b6b6 6c6c b83b 312c e2ba bde0 53bb
000000a0: 06a7 8fba 65d3 a83b 9585 073b f3f1 bbba
000000b0: 0248 fcbb 0029 9a3a f201 96bb 687d 8abb
000000c0: 4f2a ca3a 2b03 883b 918f a9b7 3be2 bdb9
000000d0: f8cb 703a 980f 94ba f670 0739 677c fdb9
000000e0: fd96 90bb 1e4b 593b 1bbf 5ebb 82f2 5d3a
000000f0: 5c06 cd39 68a0 103b a93b 6f3a 44f7 e63b

exp_avg_sq f4 [64]
7.346973e-05 7.409162e-05 0.00023458757 0.0003074942 0.000118896955 0.00010538306 6.599421e-05 0.0002941095
0.0002674107 0.00014027978 5.7745652e-05 0.00037500454 2.8652586e-05 0.00021622833 0.00021712613 0.00034154308
0.00032044936 0.00029772116 0.0005769947 0.0010458056 0.0002373527 0.00033493218 0.00028400024 0.00070119044
5.477526e-05 0.0008657245 0.00054484647 0.0013395525 0.00031150997 0.00036416526 0.00052370713 8.6203734e-05
0.00024336558 0.00030350444 6.7052366e-05 0.0005433402 2.5327266e-05 0.00025378104 0.00022533213 0.0005010355
8.555673e-05 0.0012018222 0.00014187788 0.00026736766 0.00048807453 2.4251249e-05 0.00059835304 0.00022149229
0.00013034376 0.00044787495 0.00030511676 8.971155e-05 0.00032856708 4.2353648e-05 0.0006990275 2.3183658e-05
0.0006235704 0.00028451183 0.00086020783 0.00038307603 0.00035598836 4.874676e-05 0.0001605859 0.00058140175
00000000: c313 9a38 a361 9b38 9ffb 7539 2c37 a139
00000010: 5158 f938 1901 dd38 5f66 8a38 b532 9a39
00000020: 4233 8c39 1118 1339 ec33 7238 429c c439
00000030: f65a f037 5abb 6239 5aac 6339 2311 b339
00000040: fc01 a839 7517 9c39 7541 173a 6a13 893a
00000050: e1e1 7839 d699 af39 dee5 9439 18d0 373a
00000060: 7dbe 6538 caf1 623a 07d4 0e3a ec93 af3a
00000070: 2952 a339 6fed be39 6449 093a 47c8 b438
00000080: f32f 7f39 ad1f 9f39 779e 8c38 f26e 0e3a
00000090: e475 d437 ea0d 8539 2247 6c39 ec57 033a
000000a0: eb6c b338 7686 9d3a 0ec5 1439 7b2d 8c39
000000b0: 41e4 ff39 296f cb37 cbda 1c3a 6240 6839
000000c0: e3ac 0839 c2d0 ea39 14f8 9f39 8623 bc38
000000d0: 8743 ac39 e2a4 3138 f13e 373a 877a c237
000000e0: 1a77 233a 882a 9539 927f 613a 98d7 c839
000000f0: f3a3 ba39 6f75 4c38 f362 2839 3669 183a

exp_avg f4 [32, 64]
0.00042298977 0.00033842147 0.00010271075 0.00022643688 0.00078407343 -3.8031452e-05 0.0001588334 0.00033096664
-0.00040943574 -0.00014066098 0.00020013688 -8.097217e-05 0.0005075776 0.00018659972 -5.5557382e-05 0.0005839832
-0.000335988 8.7101136e-05 -0.00014107405 3.221754e-05 0.00020052456 0.00017225803 -0.00035746786 -0.00051313994
5.733049e-05 -5.0869043e-05 -2.4062158e-05 -0.00010436199 0.00065206474 -0.00022606626 -0.00018733497 0.0001970993
0.00032132692 -0.0001189916 -7.076451e-05 -4.663304e-05 5.9269725e-05 0.0003722805 0.00028530508 0.0004294871
0.0002922935 0.00037571538 5.6288918e-05 0.00016002901 -0.00025468974 -2.8093065e-05 -0.00017447268 0.00057746214
-0.00023735847 -1.2030713e-06 0.0001462648 -0.00031386316 8.7869295e-05 0.00015392595 -0.00019139385 0.000103010585
0.00031887798 -0.00048534872 0.00032057386 0.0003159177 3.4250752e-07 -0.00014884364 -0.00027885547 0.00043326864
0.00033557854 0.00028614947 0.0002965632 0.00028389468 0.0004355482 0.00013443411 0.00011256923 0.0006676019
0.0001178128 -0.0001863112 -2.5676763e-05 0.0003589944 0.00022013542 0.00040066746 -8.252631e-05 0.00072827993
-0.00015191831 2.091978e-05 -4.5938326e-05 2.0991443e-05 0.00035403424 0.00019145253 -0.00030564575 -0.00038656712
-9.6507065e-05 5.278575e-05 -0.00019985878 3.2697833e-05 0.0005540222 -0.00034672354 9.0902286e-05 0.00019334802
0.0002337405 2.0163927e-05 2.8847875e-05 4.503506e-05 4.3082677e-05 0.0003153122 0.00033211277 0.00020257657
0.00065559446 0.00015878698 1.6895443e-05 -0.000178774 -0.0002092254 0.00021080642 -0.000106214975 0.00047622668
0.00021954683 4.68847e-05 6.707755e-05 0.00016130098 0.000116693445 8.227209e-05 -0.00018780644 0.0004011337
0.00030964587 -0.00014652722 0.00031712253 -0.0001168547 8.056741e-05 -0.00014312322 -0.00018465059 0.00031031185
0.0023841474 0.00023980602 0.0019184432 -0.00021989089 0.000110366775 0.0014367289 0.00042052043 0.0021126617
7.3278454e-05 -0.00016943211 0.00081638095 0.00058320456 0.0011202462 0.0003486228 0.0015085489 0.0011753935
0.00048783649 0.00039773012 0.0017903858 0.00013711535 0.000643356 -0.00018187694 0.00121213 0.0023221392
0.00206742 0.0010819827 0.00091348414 0.00069255056 0.00047437695 0.0018041034 0.0015720858 0.00073101243
0.00033988984 0.0002638763 3.2825155e-05 4.2779324e-05 0.00078805146 0.0008377159 0.0015394264 0.0007653358
0.0007916727 0.0016937577 4.0933228e-05 0.00013702617 0.0019197516 -0.00014820092 0.0011734215 0.0017355017
0.0005227575 0.00095176435 0.0009809458 0.0011017013 0.00033742675 0.0009987411 0.00031283774 0.00032448847
0.0021344016 0.00073634123 0.0018513298 0.00018147092 -0.00021149717 0.0018041536 -3.243991e-05 0.0017858245
0.0015559337 0.00011485962 0.0014102054 0.00048475762 -5.2987067e-05 0.0012568863 -3.899715e-05 0.0014367448
0.000341488 -4.5710585e-05 0.0003762455 0.0018931304 0.0009798006 0.00088355975 0.00010438448 0.00083331927
0.00090854533 0.00033308033 0.00053395896 0.0005064647 0.0005624065 0.00094232336 0.00067005906 0.00036198317
5.083965e-05 0.0004260806 -1.9083713e-05 4.7807574e-05 0.00045701402 0.00023848268 0.0013077427 0.00086233974
0.00035918865 0.00020136141 0.00033130753 -9.117788e-05 0.00041974228 0.00095499837 0.0005985615 0.0003576857
0.001926038 0.00015158352 1.895756e-06 0.00012083106 0.00032990793 3.2358632e-05 0.00031576786 0.00089766795
0.00071925647 0.00031290748 7.0277034e-05 0.0016798155 0.00057381205 0.0003235087 5.611882e-06 0.00021294494
0.0013175604 0.0006629061 0.00073292805 -4.335238e-05 -8.854257e-05 0.0005446441 0.00017823829 0.00024688794
00000000: bac4 dd39 296e b139 6a66 d738 b06f 6d39
00000010: 478a 4d3a f683 1fb8 848c 2639 9785 ad39
00000020: 89a9 d6b9 657e 13b9 d6db 5139 9acf a9b8
00000030: f50e 053a fba9 4339 4906 69b8 7316 193a
00000040: 8c27 b0b9 11aa b638 47ed 13b9 5221 0738
00000050: e743 5239 2aa0 3439 866a bbb9 3d84 06ba
00000060: 2576 7038 385c 55b8 17d9 c9b7 ebdc dab8
00000070: 53ef 2a3a 330c 6db9 596f 44b9 71ac 4e39
00000080: c577 a839 218b f9b8 6867 94b8 d897 43b8
00000090: 6298 7838 a52e c339 0095 9539 c82c e139
000000a0: f83e 9939 aafb c439 c417 6c38 76cd 2739
000000b0: e187 85b9 66a9 ebb7 a7f2 36b9 d460 173a
000000c0: 6ee3 78b9 3779 a1b5 a95e 1939 008e a4b9
000000d0: 7846 b838 2f67 2139 e5b0 48b9 6307 d838
000000e0: 142f a739 6776 feb9 b212 a839 c2a1 a539
000000f0: e0e1 b734 e912 1cb9 5933 92b9 5528 e339
00000100: 97f0 af39 5506 9639 0a7c 9b39 b3d7 9439
00000110: 4a5a e439 e2f6 0c39 2513 ec38 0102 2f3a
00000120: 4412 f738 885c 43b9 6e64 d7b7 6a37 bc39
00000130: 27d4 6639 ad10 d239 fa11 adb8 0aea 3e3a
00000140: 434c 1fb9 e37c af37 e7ad 40b8 c816 b037
00000150: ac9d b939 a6c0 4839 143f a0b9 29ac cab9
00000160: d663 cab8 4466 5d38 2f91 51b9 0825 0938
00000170: cd3b 113a 72c8 b5b9 cba2 be38 77bd 4a39
00000180: 3d18 7539 b425 a937 57fe f137 07e4 3c38
00000190: acb3 3438 7d50 a539 6c1f ae39 bc6a 5439
000001a0: 33dc 2b3a 0e80 2639 b0ba 8d37 4875 3bb9
000001b0: 8463 5bb9 eb0b 5d39 bbbf deb8 10ae f939
000001c0: 2736 6639 10a6 4438 fcab 8c38 e722 2939
000001d0: 51b9 f438 7e89 ac38 e8ed 44b9 414f d239
000001e0: f757 a239 1aa5 19b9 7743 a639 e40f f5b8
000001f0: 4df6 a838 5913 16b9 c49e 41b9 5ab1 a239
00000200: 5b3f 1c3b 7074 7b39 4674 fb3a 8392 66b9
00000210: b674 e738 9f50 bc3a 4c79 dc39 9574 0a3b
00000220: 12ad 9938 96a9 31b9 6602 563a 32e2 183a
00000230: 3ad5 923a 5cc7 b639 80ba c53a a90f 9a3a
00000240: 4ec4 ff39 6f86 d039 61ab ea3a 9fc6 0f39
00000250: e4a6 283a 38b6 3eb9 55e0 9e3a 082f 183b
00000260: 8d7d 073b 51d1 8d3a e276 6f3a 488c 353a
00000270: ccb5 f839 aa77 ec3a 720e ce3a 6aa1 3f3a
00000280: 3e33 b239 e158 8a39 bead 0938 f36d 3338
00000290: 3d95 4e3a 2a9a 5b3a 94c6 c93a d1a0 483a
000002a0: 4188 4f3a 1401 de3a b8af 2b38 afae 0f39
000002b0: 2da0 fb3a 6266 1bb9 7ecd 993a c679 e33a
000002c0: a909 093a d37f 793a 1493 803a f666 903a
000002d0: a7e8 b039 31e8 823a 5f04 a439 1b20 aa39
000002e0: 51e1 0b3b 0607 413a 52a8 f23a 3b49 3e39
000002f0: 57c5 5db9 5979 ec3a 1710 08b8 5412 ea3a
00000300: 79f0 cb3a cae0 f038 a4d6 b83a 1127 fe39
00000310: 6e3e 5eb8 1bbe a43a df90 23b8 2851 bc3a
00000320: be09 b339 5eb9 3fb8 d142 c539 ea22 f83a
00000330: a76c 803a b19e 673a fee8 da38 1c73 5a3a
00000340: 722b 6e3a 49a1 ae39 61f9 0b3a 45c4 043a
00000350: 766e 133a 4006 773a e7a6 2f3a 8fc8 bd39
00000360: a93c 5538 9263 df39 f615 a0b7 fe84 4838
00000370: 629b ef39 3511 7a39 9068 ab3a a40e 623a
00000380: 7c51 bc39 8b24 5339 58b3 ad39 c036 bfb8
00000390: db10 dc39 db58 7a3a c8e8 1c3a c387 bb39
000003a0: 1c73 fc3a 64f2 1e39 ae71 fe35 ae66 fd38
000003b0: 7ef7 ac39 d1b8 0738 a58d a539 7a51 6b3a
000003c0: 7c8c 3c3a bb0d a439 b261 9338 412d dc3a
000003d0: e06b 163a 9a9c a939 b34d bc36 f949 5f39
000003e0: feb1 ac3a e0c6 2d3a f821 403a 43d5 35b8
000003f0: eeaf b9b8 72c6 0e3a 7ae5 3a39 bd70 8139

exp_avg_sq f4 [32, 64]
6.6922345e-05 1.4005642e-05 2.4371602e-05 1.9022242e-05 1.1035302e-05 4.8881648e-05 1.3031973e-06 5.7389396e-05
4.6924383e-06 4.950416e-06 2.9095396e-05 2.1912465e-05 2.6658878e-05 7.480652e-06 6.105496e-06 2.0853953e-05
2.8747415e-06 1.2093518e-05 2.437093e-05 1.3279919e-06 1.3251694e-05 3.156982e-05 1.7611552e-05 2.2101909e-05
3.023999e-05 1.2533283e-05 1.6889815e-05 3.243498e-05 1.1261909e-05 1.2637042e-05 1.3454259e-05 5.122531e-06
3.0434272e-05 1.3160095e-05 6.7681794e-06 1.0768217e-06 4.3223417e-06 4.4431263e-06 2.7001384e-05 2.022025e-05
1.9794526e-05 2.7736858e-05 4.5594206e-07 9.677831e-06 2.2745066e-05 4.5792654e-06 2.9895396e-05 4.2551605e-05
8.756128e-06 2.5921041e-05 1.9482382e-05 3.1699266e-05 2.9348961e-05 2.050576e-05 1.7029912e-06 9.635341e-06
4.8911268e-05 5.2556943e-06 3.122269e-05 9.221358e-06 8.58141e-06 1.2539753e-05 1.711548e-05 2.6049669e-05
4.989276e-05 8.520508e-06 1.9189863e-05 1.1017544e-05 6.0167063e-06 2.63242e-05 9.282588e-07 3.6917863e-05
1.3452888e-06 2.8187576e-06 1.8656647e-05 1.3568476e-05 1.6169814e-05 3.6177116e-06 4.5203997e-06 1.1760106e-05
1.8249771e-06 4.128776e-06 1.8433679e-05 1.5638988e-06 9.653612e-06 1.6266722e-05 1.112389e-05 1.566641e-05
2.1708182e-05 8.735025e-06 1.0160411e-05 2.0798045e-05 4.8016555e-06 8.614919e-06 1.02592e-05 3.159855e-06
1.8314517e-05 8.624557e-06 3.5285825e-06 6.5793216e-07 2.4500575e-06 3.6173813e-06 1.7993383e-05 1.3054354e-05
1.278742e-05 1.8653749e-05 3.085783e-07 6.5221557e-06 1.7547842e-05 2.2663316e-06 1.8255734e-05 3.2662003e-05
6.0551e-06 1.7027583e-05 1.31650395e-05 1.4981609e-05 1.4199366e-05 1.15400235e-05 1.0818073e-06 6.243996e-06
2.696926e-05 2.8599825e-06 2.1619178e-05 5.76255e-06 5.781879e-06 8.4853855e-06 1.0278248e-05 1.8954e-05
9.692436e-05 7.803482e-06 2.6681215e-05 6.824152e-06 1.8856079e-05 7.032888e-05 4.4103053e-06 5.3061154e-05
1.1666101e-05 1.1012277e-05 1.3961113e-05 1.3835717e-05 2.1936981e-05 1.7577952e-06 1.0598516e-05 2.7283884e-05
5.0761787e-06 2.1332055e-05 5.3984175e-05 6.5405e-06 1.8333618e-05 1.0977416e-05 2.524768e-05 5.1552088e-05
6.619907e-05 3.3793043e-05 5.3526786e-05 4.4186665e-05 1.2193301e-05 4.9343438e-05 3.8504055e-05 5.6635126e-06
3.4040477e-05 2.4987728e-05 1.966085e-05 9.5272134e-07 1.9322368e-05 9.884012e-06 4.347038e-05 1.0646964e-05
1.1947628e-05 7.259041e-05 2.7736794e-06 1.2543808e-05 2.8426437e-05 1.2631642e-05 2.9573379e-05 5.5383956e-05
1.1553432e-05 5.8115857e-05 1.7063096e-05 3.4757497e-05 1.86482e-05 3.775035e-05 6.1566907e-06 1.5919342e-05
8.9986774e-05 1.7006916e-05 3.691947e-05 2.9043333e-05 2.1765085e-05 3.2016123e-05 2.532991e-05 4.4061264e-05
4.6181263e-05 5.3541334e-07 2.4689169e-05 1.0364616e-06 1.2406426e-06 2.5021378e-05 1.4578779e-06 3.237696e-05
7.923018e-06 9.2164083e-07 3.0881831e-06 4.3414835e-05 1.3274113e-05 4.0465434e-06 2.7980818e-07 2.1018355e-05
1.2035036e-05 5.7594343e-06 1.2127181e-05 5.63304e-06 1.270926e-05 9.568905e-06 1.3365831e-05 3.1379343e-06
2.969637e-06 1.2817165e-05 1.6799427e-06 3.9930487e-07 6.119759e-06 3.4903278e-06 4.6101668e-05 7.2717385e-06
1.9498345e-06 2.2453532e-06 8.833068e-07 1.7854013e-06 5.3667054e-06 1.6113177e-05 7.877895e-06 2.8609466e-06
3.2838805e-05 7.094548e-06 9.734492e-09 7.708923e-07 1.2259942e-05 1.255108e-06 6.5721806e-06 2.9053434e-05
2.2103388e-05 5.5450937e-06 7.836519e-06 4.093199e-05 3.6177046e-06 2.8263305e-06 2.986074e-09 3.9652616e-07
2.9058087e-05 6.334909e-06 2.4282584e-05 1.0785247e-06 3.2882238e-07 6.6143166e-06 8.665871e-07 7.720243e-06
00000000: a958 8c38 c6f9 6a37 9e71 cc37 f491 9f37
00000010: 4324 3937 4506 4d38 85e9 ae35 65b5 7038
00000020: bd73 9d36 c01b a636 e311 f437 a9d0 b737
00000030: 81a1 df37 5002 fb36 d0dd cc36 86ef ae37
00000040: afeb 4036 44e5 4a37 2c70 cc37 743d b235
00000050: 9853 5e37 d669 0438 85bc 9337 7d67 b937
00000060: e2ab fd37 0a46 5237 9aae 8d37 cb0a 0838
00000070: 88f1 3c37 af03 5437 9ab9 6137 35e2 ab36
00000080: 1a4d ff37 2dca 5c37 381a e336 5087 9035
00000090: a208 9136 2a16 9536 0881 e237 a89e a937
000000a0: 6c0c a637 73ac e837 33c8 f434 f85d 2237
000000b0: a8cc be37 97a7 9936 e0c7 fa37 7079 3238
000000c0: 49e7 1237 0371 d937 196e a337 d4f4 0438
000000d0: 6a32 f637 c903 ac37 5592 e435 79a7 2137
000000e0: 1326 4d38 125a b036 1cf5 0238 6eb5 1a37
000000f0: e0f8 0f37 d461 5237 3793 8f37 3d85 da37
00000100: f143 5138 4ef3 0e37 ebf9 a037 fed7 3837
00000110: 1de3 c936 cad2 dc37 762d 7935 41d8 1a38
00000120: c58f b435 e329 3d36 d880 9c37 29a4 6337
00000130: 69a4 8737 d0c7 7236 f0ad 9736 454d 4537
00000140: bcf1 f435 ea89 8a36 06a2 9a37 27e7 d135
00000150: f3f5 2137 8574 8837 bea0 3a37 5c6b 8337
00000160: f719 b637 a68c 1237 a276 2a37 7677 ae37
00000170: e81d a136 cc88 1037 ee1e 2c37 e50d 5436
00000180: 20a2 9937 31b2 1037 96cc 6c36 c19c 3035
00000190: ab6b 2436 23c2 7236 7ff0 9637 0604 5b37
000001a0: 8d89 5637 9f7a 9c37 aeaa a534 e4d8 da36
000001b0: b433 9337 4817 1836 e423 9937 8ffe 0838
000001c0: ea2c cb36 75d6 8e37 6adf 5c37 8559 7b37
000001d0: d039 6e37 069c 4137 9e32 9135 8483 d136
000001e0: 0b3c e237 20ee 3f36 d55a b537 ed5b c136
000001f0: f601 c236 745c 0e37 bd70 2c37 68ff 9e37
00000200: df43 cb38 b3eb 0237 79d1 df37 05fb e436
00000210: 1f2d 9e37 887d 9338 3cfc 9336 fb8d 5e38
00000220: 86b9 4337 5fc1 3837 863a 6a37 f41f 6837
00000230: 4f05 b837 62ed eb35 48d0 3137 b2df e437
00000240: 0b54 aa36 3df2 b237 116d 6238 7876 db36
00000250: 25cb 9937 a52b 3837 fbca d337 a239 5838
00000260: 5bd4 8a38 01bd 0d38 f381 6038 1255 3938
00000270: d491 4c37 1df6 4e38 6a7f 2138 3409 be36
00000280: afc6 0e38 bd9c d137 5bed a437 83be 7f35
00000290: 7816 a237 82d3 2537 f753 3638 5da0 3237
000002a0: ac72 4837 ae3b 9838 7323 3a36 3f73 5237
000002b0: 4f75 ee37 7dec 5337 5914 f837 124c 6838
000002c0: 9dd5 4137 6dc1 7338 b822 8f37 94c8 1138
000002d0: b46e 9c37 2156 1e38 9295 ce36 878a 8537
000002e0: 48b7 bc38 13aa 8e37 fbd9 1a38 15a2 f337
000002f0: 2a94 b637 0d49 0638 917b d437 6cce 3838
00000300: c1b2 4138 53b9 0f35 961b cf37 8d1c 8b35
00000310: 2884 a635 00e5 d137 4eac c335 7fcc 0738
00000320: 1aed 0437 ad66 7735 953e 4f36 5318 3638
00000330: e2b3 5e37 8bc7 8736 8b38 9634 9350 b037
00000340: 16ea 4937 2a41 c136 d975 4b37 7203 bd36
00000350: db39 5537 228a 2037 cf3d 6037 4d95 5236
00000360: fa49 4736 4e09 5737 647a e135 0b60 d634
00000370: 5458 cd36 603b 6a36 4a5d 4138 c2ff f336
00000380: e7d9 0236 e0ae 1636 621c 6d35 eca1 ef35
00000390: a613 b436 c92a 8737 4d2b 0437 b0fe 3f36
000003a0: 66bc 0938 b40d ee36 c03c 2732 51ef 4e35
000003b0: 0db0 4d37 2f75 a835 9a86 dc36 c6b7 f337
000003c0: aa6a b937 fe0f ba36 9879 0337 64ae 2b38
000003d0: b1c7 7236 fdab 3d36 9233 4d31 24e2 d434
000003e0: c4c1 f337 7490 d436 74b2 cb37 d4c1 9035
000003f0: 0189 b034 8cf0 dd36 699f 6835 3186 0137

exp_avg f4 [32]
2.4773017e-05 0.00032068513 0.00262982 0.0018169945 -0.0010617446 -0.0018380414 0.001908691 0.0005582247
0.0026354375 2.94069e-05 -0.0020638662 0.00037612492 -0.000876972 0.0031519507 -5.143369e-05 0.0032725073
0.0014697842 -0.00018406192 0.0025685516 0.0020208086 0.0008828074 0.0010872718 0.0020638248 0.0012876485
0.0009303625 0.0022512916 0.0019934066 0.00038716948 6e-45 -0.004625258 -0.0021332174 0.001888273
00000000: a6cf cf37 a121 a839 0f59 2c3b 3828 ee3a
00000010: 3d2a 8bba 6fea f0ba 0b2d fa3a d355 123a
00000020: 4eb7 2c3b d6ae f637 ee41 07bb a232 c539
00000030: 98e4 65ba f590 4e3b 81ba 57b8 9077 563b
00000040: c6a5 c03a bf00 41b9 2555 283b 8b6f 043b
00000050: 346c 673a ca82 8e3a 3c41 073b 50c6 a83a
00000060: 92e3 733a 688a 133b d0a3 023b 02fd ca39
00000070: 0400 0000 7a8f 97bb 73cd 0bbb ee7f f73a

exp_avg_sq f4 [32]
0.00010952369 6.610778e-05 0.00012531914 4.1614378e-05 6.272294e-05 8.561779e-05 0.00015651561 0.00053753477
0.0003899671 2.4675357e-05 5.2973144e-05 0.000121477846 9.114048e-05 0.00037233293 8.653151e-05 0.00015116936
6.63632e-05 3.231834e-05 4.031237e-05 5.0591218e-05 7.158392e-05 6.4243104e-05 0.0001667943 0.00010184251
7.4296004e-05 0.00048898166 4.7343645e-05 8.315182e-05 7.325768e-18 0.00012345825 9.3492636e-05 7.3398594e-05
00000000: 15b0 e538 58a3 8a38 1a68 0339 198b 2e38
00000010: 1f8a 8338 b38d b338 571e 2439 59e9 0c3a
00000020: 8074 cc39 edfd ce37 7b2f 5e38 ecc1 fe38
00000030: ac22 bf38 ae35 c339 4078 b538 3783 1e39
00000040: 792c 8b38 8e8d 0738 1415 2938 e831 5438
00000050: 531f 9638 41ba 8638 81e5 2e39 4894 d538
00000060: 5dcf 9b38 012f 003a da92 4638 cb61 ae38
00000070: f622 0723 9274 0139 7a11 c438 92ed 9938
