checkpoints/full/torsion_energy/20250611190441570299/ARG_dim_16/fold5/best_epoch=246-val_loss_epoch=24.925.ckpt (torch, 50117 bytes, 20 tensors)

fc1.weight f4 [64, 16]
000000 90 a5 50 be 49 8e 8e be af d9 dd be e1 0b 65 be
       -0.20375657 -0.2784293 -0.43330142 -0.22367813
000010 e6 3d cd be 04 0d 1c 3f 9f 08 d1 be 61 5b dc 3c
       -0.40086287 0.6095736 -0.4082689 0.026899042
000020 70 03 01 3e 2a 17 19 3e c3 b3 8c bc 17 40 7b 3d
       0.12598968 0.14950243 -0.01717556 0.061340418
000030 db 9a 7f 3b 13 89 c3 bc b2 42 b6 bd 4e ee 8a bd
       0.0039002213 -0.023869073 -0.0889944 -0.06783734
000040 f7 1a a3 bc 37 a2 4a be c8 0f f2 3d 46 16 81 3d
       -0.019910319 -0.19788443 0.11819416 0.063030764
000050 ed 07 71 bd 81 49 2e be 3f b7 5b bf 06 23 cd 3d
       -0.05884545 -0.17020227 -0.85826486 0.10016446
000060 44 c8 1b bd d6 25 23 3d 4c c9 f2 3d f9 66 5f 3d
       -0.038032785 0.039831005 0.118548006 0.05454156
000070 a9 29 12 bd 75 45 79 3c 90 58 ab 3e 83 2b 1f bd
       -0.03568426 0.015214314 0.33466005 -0.038859855
000080 4b 36 97 be 78 08 84 3e 06 15 06 3e 7d 97 5f be
       -0.2953361 0.2578771 0.13093957 -0.21835132
000090 20 f2 1e be 01 0e 7c be 35 78 3b bc 55 0d 60 be
       -0.15522051 -0.24614717 -0.011442234 -0.21880086
0000a0 61 de 51 bd 36 01 25 be cd 09 41 be e2 c6 e6 bd
       -0.051237468 -0.16113743 -0.18851395 -0.11268403
0000b0 7d 09 ac 3e e3 6c db be a6 03 93 3e 28 2b 94 3d
       0.3360099 -0.4285651 0.2871372 0.07234794
0000c0 7e 19 57 be f5 34 4b be 22 62 ce 3d 84 e0 4b bd
       -0.21005818 -0.1984442 0.10077311 -0.04977466
0000d0 02 4d 08 3d 6f c1 c0 bd db 43 4a 3e a9 0e 90 3e
       0.033276565 -0.094118945 0.19752447 0.28136185
0000e0 6d 0f 91 3c 47 b4 c8 be 85 a0 99 3e 50 e3 07 3e
       0.01770755 -0.3920004 0.3000528 0.13270307
0000f0 70 f4 6c be 7a 7c aa be ae 95 38 bc 87 65 6d bd
       -0.2314012 -0.33298093 -0.011266155 -0.057958152
000100 07 77 e8 3b dd 53 65 3e 31 cb e8 be db 44 e9 3e
       0.0070942673 0.22395273 -0.45467523 0.45560345
000110 10 a1 c2 bc df ac 3b 3e 18 98 1c be 30 92 a9 3e
       -0.023758441 0.18327664 -0.15292394 0.33119345
000120 aa 7c bf 3d 91 02 28 3d 1c 44 bb be 63 a6 b4 3e
       0.0934995 0.041018073 -0.365754 0.35283193
000130 0b 3a 91 3d 66 35 24 bd cd 92 7f be 4b 02 ac 3d
       0.07091149 -0.040089987 -0.24958344 0.08398875
000140 51 52 01 3e 1f 6a 00 bf 9a c9 78 be 16 9b 04 3e
       0.12629057 -0.5016193 -0.24295655 0.12949786
000150 09 3d 19 3f 5f 06 4f bd 92 fe bb be 2d e6 d8 3c
       0.5985876 -0.050543185 -0.3671766 0.026476944
000160 26 f6 5d bc c9 b8 3d be 97 89 8d bd 8c 81 0f 3c
       -0.013547456 -0.18527521 -0.06911009 0.008758914
000170 a0 67 56 3e 72 33 e7 bb bf b4 ae 3c 6e 12 d4 bd
       0.20937967 -0.0070556933 0.02132642 -0.10355078
000180 9b 88 23 be 04 40 02 3f e5 b2 60 be 51 82 06 3e
       -0.1597008 0.5087893 -0.21943243 0.1313565
000190 15 ac 94 bb a0 52 60 be 35 1c 6c 3f dd d6 c5 3e
       -0.0045371153 -0.21906519 0.9223054 0.3864049
0001a0 5c 95 6b 3d a6 14 9b ba b3 fd c8 3c 71 78 8b bd
       0.057515487 -0.0011831715 0.024535036 -0.06810082
0001b0 ae 30 b8 bd 80 4f c6 3c 3f ec 15 3d 39 42 1f 3d
       -0.0899366 0.02420783 0.036602255 0.038881514
0001c0 92 38 1d be 54 60 11 be 4d 23 3a 3e c2 d2 dd bd
       -0.15353611 -0.14196903 0.18177529 -0.108312145
0001d0 6b a7 d5 bb bb 38 83 ba bf 84 85 bc 59 cf 2d 3f
       -0.006520202 -0.0010011414 -0.01629865 0.6789451
0001e0 c2 1f aa 3d a2 5e 34 be ae 7e 02 3f 82 9f 37 3e
       0.083068386 -0.17614225 0.5097455 0.17931941
0001f0 b5 83 87 3d 00 d7 9c 39 df a7 cc be ca db 75 3d
       0.06616918 0.00029914826 -0.39971825 0.06002406
000200 c6 a1 b7 3d 86 d4 9e bd 19 39 07 3f 6d fc 9a be
       0.08966403 -0.077553794 0.528215 -0.3027071
000210 1a 33 17 3e af cc 14 3d 32 e9 23 bd 38 af c9 bc
       0.14765587 0.036328014 -0.040017314 -0.024619684
000220 d1 2f 95 3c 80 a0 3b bb c2 a6 ab bd 11 d0 91 bc
       0.018211277 -0.00286296 -0.08381416 -0.01779941
000230 77 28 41 3d 50 6a 6d 3d ec b5 af bd 25 4d 82 be
       0.04715773 0.057962716 -0.08579621 -0.25449482
000240 7a 5d ad 3d bb 1c d1 3d 5e ce bf bd 4e 8f 5f be
       0.08465095 0.10210558 -0.09365533 -0.2183201
000250 46 81 f2 3c 9c 23 75 3e 0c ed a4 be 9a 92 21 bf
       0.029602658 0.23939365 -0.32212102 -0.6311432
000260 bf ed 10 bd 38 31 8c bd b3 e4 03 3e 41 0b 09 3f
       -0.035382982 -0.06845325 0.1288021 0.535328
000270 e7 88 9e 3d d2 30 de 3d 33 f9 63 3e b8 d0 15 3e
       0.07740956 0.108491555 0.2226303 0.14630401
000280 92 4b ef be e7 d8 cd be d8 90 1a 3e da 99 48 bd
       -0.46737343 -0.40204546 0.15094316 -0.04897485
000290 07 9c 2d be df 16 43 be f6 46 6d 3e 7e 6d 2e be
       -0.16954051 -0.19051693 0.231716 -0.17033955
0002a0 45 cb 8a 3d ad 10 1d 3e 8e 84 62 bd 46 b8 92 3c
       0.06777052 0.15338393 -0.055302195 0.017910134
0002b0 ae fa 79 be 27 83 23 3e 6d bf 13 be 63 b1 0e bd
       -0.24412033 0.15968 -0.14428492 -0.034837138
0002c0 e7 60 02 be 3d 33 d9 3d d8 60 1b 3e 05 e6 89 bd
       -0.12732278 0.10605476 0.15173662 -0.06733326
0002d0 0c b6 15 bd 59 60 1f bd b3 b5 00 bf 21 ed f8 3e
       -0.036550567 -0.038910244 -0.5027725 0.48618415
0002e0 40 fa 64 bc 4a 99 5c be 8a 47 22 be de 8d 1a 3e
       -0.01397568 -0.2154285 -0.15847602 0.1509318
0002f0 a2 b4 9f bc f1 dd 27 bd 51 2d a9 be d7 26 d6 bd
       -0.019495312 -0.040983144 -0.33042386 -0.10456627
000300 4f ee 62 3c 8d 3c c8 3d 72 f7 0f 3f b1 e6 98 3c
       0.0138507625 0.09777174 0.56236947 0.01866469
000310 e0 b3 0f bd 6b 51 da bc 60 d4 f7 3d b0 41 ca 3e
       -0.03508365 -0.026650151 0.12101054 0.3950324
000320 58 3a d8 3c 69 96 b0 bc 6c d0 bb be b7 4d 5b 3d
       0.026395008 -0.021556096 -0.3668245 0.05354091
000330 f5 8f 74 3d 09 85 2c 3e 22 97 b5 3e c1 58 e4 3d
       0.0597076 0.16847624 0.35466868 0.11149741
000340 87 2b cb 3d ea 02 de 3e 53 10 ab bd 3b e7 d6 3c
       0.099204116 0.43361598 -0.08352723 0.026233306
000350 9b b5 7b bc 15 55 7e 3e 39 14 cb 3e ba 9f e7 be
       -0.015363122 0.24837144 0.39663866 -0.4523905
000360 12 62 3c 3e 6e d9 96 3e be 2a 79 3d 78 c6 e7 3d
       0.18396786 0.2946276 0.060831778 0.11317152
000370 2c 4b 93 3d 8b 79 fc bd 37 31 c9 3e b9 72 80 be
       0.07192072 -0.1232787 0.3929536 -0.25087526
000380 9e 7c 6c be b7 fa dc 3e 9b 5c 4d bf 29 8f c7 3e
       -0.23094413 0.4316003 -0.8021943 0.3897641
000390 09 af dc bd e2 5a b5 bd 3b b2 6a be be 87 25 be
       -0.10775573 -0.08855225 -0.22919552 -0.16165063
0003a0 ea b3 00 3d 36 c0 c0 3c 6b 8c 81 3e ab 28 78 bd
       0.03142158 0.023529153 0.25302443 -0.06058566
0003b0 31 9d 8a bd 20 41 0c 3c d4 b5 a0 bd de 44 25 bd
       -0.06768263 0.008560449 -0.07847181 -0.04034888
0003c0 e3 ab bf 3d 03 7d 8b 3e 20 7f 75 3e 45 98 12 be
       0.09358957 0.27243814 0.23974276 -0.14315899
0003d0 30 22 49 3d 9d 56 8e 3f 74 f2 19 be 6a 63 10 3d
       0.04910487 1.1120182 -0.15033895 0.03525106
0003e0 83 24 a1 3d a1 7f 7b 3e e4 5c 13 3e 67 76 96 3d
       0.07868292 0.24560405 0.14390904 0.07346802
0003f0 67 b9 14 3d b6 5f 8b bc 46 c5 c8 bd 9e fb 42 bd
       0.036309626 -0.017013412 -0.09803252 -0.047603242

fc1.bias f4 [64]
000000 ef 88 98 bd fd dd 43 3e 8d 5b 0a bd 68 47 92 3e
       -0.07447993 0.1912765 -0.033778716 0.28570104
000010 53 1f e7 be 53 5b 7f 3e b3 2a 06 bd 69 a6 af 3e
       -0.45141086 0.24937181 -0.032755565 0.34306648
000020 f2 a5 1b 3f 2e 8c 9e 3e a7 97 b3 3d 73 88 95 be
       0.6080009 0.30966324 0.0876916 -0.29205665
000030 70 62 57 bc 9d d4 77 3e 42 53 80 bc 2a 25 f4 be
       -0.013146028 0.242022 -0.0156647 -0.47684604
000040 84 93 64 bd 69 71 40 3c 2b bb bf be 18 45 58 3e
       -0.055804744 0.011745789 -0.37447485 0.21120107
000050 a3 c3 a6 3e b8 15 bc 3e 50 f0 df 3e dc c4 48 be
       0.32571134 0.3673532 0.4373803 -0.19606346
000060 4d 49 f5 3c 2f 25 eb 3e 59 bb 86 be 0c ec 27 be
       0.02994218 0.45926806 -0.2631481 -0.16398638
000070 ef 38 d8 3d 5d 0b 44 bd 36 77 09 3f 27 b6 0e be
       0.10557734 -0.0478624 0.53697526 -0.13936673
000080 fe d0 7d 3d a0 a2 1d 3e 64 86 9c bc 56 6a 18 bf
       0.06196689 0.15394068 -0.019107051 -0.59537256
000090 a0 32 a7 3e 80 d5 ea 3e aa 09 2e be be c3 47 bd
       0.3265581 0.45866013 -0.16995874 -0.04877066
0000a0 35 6b 52 be 47 39 34 be f6 29 90 3e 43 53 0e be
       -0.20548709 -0.17599975 0.28157014 -0.1389895
0000b0 d4 d1 7b bc 76 93 c9 bd 07 32 bb 3d b5 f1 30 3e
       -0.015369851 -0.09842579 0.09140401 0.17279704
0000c0 fb 02 89 3e 06 f5 c2 bd 87 4d 01 be 60 2e 6f 3e
       0.26760086 -0.09519391 -0.1262723 0.23357534
0000d0 b6 63 8e be e0 34 ca 3d 3c 21 8b 3e 41 b5 79 3e
       -0.27810448 0.09873366 0.27173793 0.24385549
0000e0 a5 84 c5 39 32 46 df 3e 6b ca 03 3d 10 7c 17 bf
       0.00037673596 0.43608242 0.032175463 -0.5917368
0000f0 a0 13 50 be c3 34 d5 3e ca ff 8d bd 85 73 64 be
       -0.20319986 0.41641816 -0.069335535 -0.22309692

fc2.weight f4 [32, 64]
000000 19 eb 1c be ba b0 56 bd 5c 5a a1 bd eb ef 77 3e
       -0.15324058 -0.052414633 -0.07878563 0.24212615
000010 77 96 66 bd 64 73 cc bd f3 a7 5e 3e 0f 24 c1 3d
       -0.05629584 -0.099829465 0.21743755 0.09430706
000020 3f 5d 35 3e 19 e7 93 3d f5 6d 35 3e 49 e8 b7 3d
       0.17711352 0.07221813 0.17717727 0.08979852
000030 e7 ee 13 3d 21 92 c3 3d e1 14 21 3e 0f fb 7c be
       0.036116507 0.09549356 0.15730621 -0.24705146
000040 fc bb 10 3c 57 9d 44 bd 01 ec cd 3d 23 54 61 be
       0.0088338815 -0.048001613 0.1005478 -0.22004752
000050 8d 05 dd bd cb 18 0f 3e 71 b8 d5 3c 44 1f 54 3e
       -0.10792074 0.13974302 0.026088925 0.20715052
000060 25 89 91 bc 19 6e 93 be 1b 7f 84 3d e7 bc ad 3e
       -0.01776559 -0.28794935 0.06469556 0.33933184
000070 1d 18 82 3e 55 dd b5 bd 70 a9 03 3e e6 f8 71 be
       0.25409022 -0.08880106 0.12857604 -0.23630103
000080 d4 a2 85 be 79 21 88 3e 7d 5c b7 bc 51 c4 68 3e
       -0.2610079 0.26588038 -0.022382969 0.22731139
000090 db 4d ec 3e 4a 98 f4 3d c2 ce d3 bd 6e 17 5c 3c
       0.4615315 0.11943109 -0.1034217 0.01343332
0000a0 7c 7a 9e 3c a9 36 ba 3e 5d a3 2a 3d 05 c0 79 3d
       0.019345514 0.36369827 0.0416597 0.06097414
0000b0 a7 71 34 bc 1b c7 9f be 36 75 90 be ea 26 9a bd
       -0.011013425 -0.31206593 -0.28214425 -0.075269535
0000c0 37 29 eb bd b7 f4 32 3e f3 64 2e 3e 96 cb f0 3d
       -0.114824705 0.17476164 0.17030697 0.11757581
0000d0 da d7 53 be 1c 56 52 3c 93 9e e8 3d f0 f5 d1 be
       -0.2068781 0.012837913 0.11358371 -0.41007948
0000e0 36 bd ea be 93 e0 2e bf d6 84 30 bf 20 e2 b9 3d
       -0.4584748 -0.68311423 -0.6895269 0.09076333
0000f0 76 fe fd 3c 53 a6 39 3c b9 7e 48 3e 63 24 5a 3d
       0.031005125 0.011331159 0.19579591 0.053257357
000100 30 7c 02 3e 71 e9 9d 3d 01 0d 23 be b0 f3 59 3d
       0.12742686 0.07710541 -0.1592293 0.053210914
000110 cb 56 4a bc 9a 1b 66 be 27 96 b9 3d 57 05 42 3e
       -0.012349795 -0.22471467 0.090618424 0.1894735
000120 5b 2d 25 3e 4b 2d 5e be f6 58 da 3d 87 29 16 bf
       0.16130583 -0.21696965 0.10661499 -0.58657116
000130 75 1f 21 3e ce 3a 5e 3d 0a 45 06 3d 21 27 e3 3c
       0.15734656 0.0542553 0.032780685 0.027728619
000140 26 2a 67 3d 82 44 b9 bd c8 a1 02 bd 0e 1f 86 bc
       0.05643668 -0.0904627 -0.031892568 -0.01637223
000150 cd 8c 45 3d d2 38 2a be 1a b1 cd 3c 9b 57 a8 3e
       0.04822998 -0.16623238 0.025108863 0.32879338
000160 9f ab 52 be bf c7 97 bc d8 66 ec 3d dd f2 52 be
       -0.20573281 -0.018527864 0.115430534 -0.20600457
000170 d3 66 82 bd 70 83 87 3e b8 a0 33 3e 93 fe 9d 3d
       -0.063672684 0.26467466 0.17541778 0.07714572
000180 6a 4c d0 3e 74 79 87 3c bf 01 73 3e ae 77 ba 3e
       0.406833 0.016537406 0.23731135 0.36419433
000190 ee a8 1e 3e ed 99 91 bc ba 26 cd 3d ad 94 14 3e
       0.15494129 -0.017773593 0.10017152 0.1450984
0001a0 d0 a2 52 3d 82 e8 77 be 19 73 b1 be 56 76 c2 bd
       0.0514248 -0.24209788 -0.34658125 -0.09495227
0001b0 34 44 8e 3e 24 41 e6 bc 3d 9c ff 39 41 bc 1f bf
       0.2778641 -0.028107233 0.00048753797 -0.6239663
0001c0 f2 52 95 be d6 8f 09 3e 77 fc d2 3e 33 66 fe 3d
       -0.29164845 0.13433775 0.4120824 0.12421837
0001d0 e6 65 3d bd ae 0c 87 3e 02 97 2a bf ea d2 8f 3e
       -0.046239756 0.2637686 -0.6663667 0.28090602
0001e0 f1 6a 14 3e 89 c0 9b bd 7b c0 18 3e df 00 0c 3e
       0.1449392 -0.076050825 0.14917175 0.13672207
0001f0 04 c0 de be 93 96 a2 be 7e d2 0a 3d 39 69 ea bd
       -0.4350587 -0.31755504 0.033892147 -0.11445851
000200 2d 32 23 bd 0a 61 a0 bc a7 46 56 3e 67 0c 98 be
       -0.039842773 -0.019577522 0.20925389 -0.29696962
000210 25 7c 63 3e b8 a3 37 be 91 e2 04 3f 7f 8c 84 3e
       0.22215326 -0.17933547 0.5190821 0.2588844
000220 53 64 01 be 21 61 c8 bd e6 36 2c 3d 95 cb 9d bd
       -0.12635927 -0.09784151 0.042044543 -0.07704846
000230 bf b3 2f be 5f 3f d4 3d ce 12 8f 3e c3 a2 4b 3f
       -0.17158411 0.103636496 0.27944034 0.7954523
000240 15 b0 16 bd 03 4d 3d be 54 e2 cd 3e 1e b8 51 bb
       -0.03678902 -0.18486409 0.40211737 -0.0032000612
000250 52 05 b2 bd 4e 89 1c 3e e2 01 da bd 93 f6 fc 3d
       -0.08692421 0.15286753 -0.1064489 0.12351718
000260 fd 3d b0 3a 14 b8 09 3e 07 24 ac 3c ad 1e f0 3d
       0.0013446208 0.13449126 0.021013273 0.11724601
000270 c8 45 08 be 29 49 aa bd 56 02 17 3e 58 0f 87 3b
       -0.1330787 -0.083147354 0.14746985 0.004121702
000280 bc c7 ad bd bf 0e bc 3d 91 10 59 3d 2c 02 8e 3e
       -0.08485362 0.091825 0.052994315 0.27736032
000290 81 4e 7d be 17 ee 0e be dd 0f 77 3e ac 7a a9 3e
       -0.24736978 -0.13958012 0.24127145 0.33101404
0002a0 95 33 ab bd 53 e6 8d 3e 33 be c9 be 81 7a 99 3d
       -0.08359448 0.27714786 -0.39402923 0.07494069
0002b0 4f 60 6c 3e bd f1 08 be 78 1c cf be d5 ce eb 3d
       0.23083614 -0.13373466 -0.40451407 0.115140595
0002c0 49 75 97 3e f0 d8 84 3e ce 73 ab be af e7 c8 bc
       0.2958167 0.2594676 -0.3348679 -0.024524538
0002d0 e4 cb bc be 94 ae 9c bd 99 87 d6 bd 24 17 e1 3d
       -0.36874306 -0.07650486 -0.10475082 0.10990742
0002e0 1e 74 f4 bd f9 a7 02 bf d0 18 83 3e ad af 3f bd
       -0.1193621 -0.51037556 0.25604868 -0.046798397
0002f0 55 f6 8e 3c 0c e1 c1 bd 14 5a 2a be 70 c2 4d be
       0.017451445 -0.094667524 -0.16635925 -0.20093703
000300 2f 14 b3 bd 05 b0 d7 be 70 95 a6 3d 29 db 94 3d
       -0.08744084 -0.4212648 0.08133972 0.07268364
000310 49 a4 d2 3b bf 76 af 3e 1d ed b3 3d 02 0f 5c be
       0.0064282757 0.34270284 0.0878546 -0.214901
000320 a6 b8 d9 3e a2 94 c1 bc c9 5c f2 bd af 36 86 bd
       0.42523688 -0.023630444 -0.118341036 -0.06553399
000330 72 97 ab 3d 22 f0 72 bd e6 60 6f bc 1a 2a 64 bd
       0.08378495 -0.05931104 -0.014610505 -0.055704214
000340 aa bb 89 3d 46 15 10 3e 0f c5 39 bd b6 a8 9f be
       0.06725247 0.14070615 -0.045353945 -0.31183404
000350 36 99 bd bd 3a 64 b3 3e d9 fb 8a 3a 95 ac 49 3e
       -0.09257738 0.35037404 0.0010603621 0.19694741
000360 0e 46 88 be de 72 ab bd c3 06 75 3e eb b7 15 3d
       -0.26615947 -0.083715186 0.2392836 0.03655235
000370 90 e8 64 3e 9a c5 83 3e 0c aa a7 3e cf 2c b2 bd
       0.2235434 0.25736696 0.32746923 -0.08699953
000380 f7 86 29 3d cc 88 c7 3c 5b 31 bb 3d 8e f0 b8 3e
       0.041388478 0.024357222 0.09140273 0.3612103
000390 dd 6e 9c be 8d 31 33 be 6c 6f 99 3e 12 69 9a be
       -0.30553332 -0.17499371 0.2996782 -0.30158287
0003a0 67 91 95 3b af bf 7a 3e cf 63 03 3e a8 d9 6d 3d
       0.0045644525 0.24487184 0.12831043 0.0580689
0003b0 03 4b e8 bd f1 5d fc 3d 17 e2 4b be 61 70 33 3d
       -0.11342432 0.123226054 -0.19910465 0.043808345
0003c0 07 31 36 3d c3 a7 29 3e bc 1c 30 3d b3 cb 5f 3e
       0.04448035 0.16567902 0.042996153 0.21855049
0003d0 1c 01 68 3e 91 65 76 bd 8f 1d 93 be 4a 52 21 be
       0.22656673 -0.060155455 -0.2873349 -0.15754047
0003e0 e0 35 ab 3d 6d 7e d0 3d e4 a6 43 3e 71 25 0f bf
       0.08359885 0.10180364 0.19106632 -0.55916506
0003f0 c2 1e 06 3e 0f c7 67 3e 42 46 76 be bd f2 12 3d
       0.1309767 0.22634529 -0.24050239 0.035876025

fc2.bias f4 [32]
000000 e9 76 91 3d 01 8f 10 3e 7a c1 82 bd 11 9a 9b bd
       0.071027584 0.14117052 -0.06384559 -0.07597745
000010 c3 f2 48 3e c6 70 60 bd 15 35 a8 3d 9e 34 22 3d
       0.19623856 -0.05479505 0.082132496 0.03960096
000020 9d ea c0 3d bb 3f 71 bd c3 96 0d 3e f0 62 6d 3d
       0.09419749 -0.05889867 0.13827042 0.057955682
000030 9c 71 0d 3e f7 9c e2 3b 6a 94 91 bc 12 7c c8 3d
       0.1381287 0.0069156843 -0.017770965 0.097892895
000040 15 20 ba 3d 86 11 c2 3d 32 d6 3d bb 8c 40 e6 3d
       0.090881504 0.094759986 -0.0028966782 0.1124278
000050 be 16 f4 bd 8c 66 65 bc 96 be 32 be a4 4a 0d 3e
       -0.119184 -0.0140015 -0.17455515 0.13798004
000060 4e 8e a6 bc fd 42 fe 3d d2 ba f1 3d e0 d0 88 3d
       -0.020331528 0.12415121 0.11803211 0.06680465
000070 0b 51 52 bd ae 55 04 be e4 d5 18 3e eb ab 07 3e
       -0.05134682 -0.12923309 0.14925343 0.13249175

fc3.weight f4 [3, 32]
000000 ba 53 3a bd 8e 2a 1a 3f a1 1b 94 be ac 24 b0 be
       -0.045490004 0.60221183 -0.2892733 -0.34402978
000010 33 29 62 3e 2d d1 3d 3f 60 c3 98 be b7 fa 9f be
       0.22086029 0.741473 -0.2983656 -0.31245968
000020 f7 f8 98 3e 30 91 13 40 49 66 93 3e 72 95 a2 3e
       0.29877445 2.3057365 0.28788975 0.31754643
000030 e4 58 8d 3e 65 56 59 3e 8a 03 bc bc f0 a5 b1 3e
       0.2760688 0.21224363 -0.022950906 0.34696913
000040 19 1b 71 3e e9 d7 01 bc 79 8a d2 3c eb d2 27 3d
       0.23545493 -0.007925012 0.025700795 0.04097263
000050 9a 42 1b be 84 49 10 bf 45 d3 40 3e 72 8a be bd
       -0.15162125 -0.56362176 0.18830593 -0.0930375
000060 d3 40 4f 3e ee ba f8 bd be 69 19 bf 12 34 d9 be
       0.20239572 -0.12145029 -0.59926975 -0.4242254
000070 60 b7 cb be 3d 08 c2 be 1e a8 1e 3f a1 46 88 3e
       -0.39788342 -0.3789691 0.61975276 0.26616386
000080 ad 27 1d bf ae 85 8d 3e ea c0 d3 3e 4b 6e ca be
       -0.61388665 0.27641052 0.4135812 -0.39537272
000090 4e bb 7d 3f 58 9e 53 3e 7b c5 1f 3f c7 f0 7d be
       0.9911393 0.20665872 0.62410706 -0.2479888
0000a0 7d 6b bd 3f d5 37 44 bf 94 5c 36 ba 27 73 ee be
       1.4798428 -0.7664769 -0.0006956544 -0.4657223
0000b0 bc 55 b3 3e d5 c1 fe be 68 48 17 3f 7f 74 b8 be
       0.35026348 -0.49757257 0.5909486 -0.3602638
0000c0 3d e2 1f bd 80 e8 3a bf 1d a8 9b 3f b9 e5 02 3f
       -0.039034117 -0.73011017 1.2160679 0.5113178
0000d0 15 29 f4 be b2 3c 7c bd 91 33 7e bf 8c a2 97 3e
       -0.47687593 -0.06158132 -0.99297434 0.296162
0000e0 ed 63 b0 3f 59 3d 2e be 97 05 0f be 59 a0 fd 3e
       1.3780495 -0.1701559 -0.13966976 0.49536398
0000f0 08 b6 c6 3d 60 83 1d 3f 2a 74 c3 be fa d8 62 3c
       0.097026885 0.6152859 -0.38174564 0.013845677
000100 6b fe c2 be cd c8 f8 be 12 e6 11 3f ed 7e fb 3e
       -0.3808473 -0.485907 0.56991684 0.49120274
000110 91 54 14 bd 34 36 03 bf 61 34 c3 3d 11 d5 39 be
       -0.03621346 -0.5125458 0.09531475 -0.18147685
000120 9d 69 d6 3e 7b 0f ae be 8a ae 13 3f fd 94 96 be
       0.41877452 -0.33996186 0.576882 -0.29410544
000130 74 0f 71 3c 6c 7d 7c 3e 07 65 2a 3e 55 02 99 be
       0.014713157 0.2465722 0.16640101 -0.29884592
000140 9a 86 eb 3e d8 1d 4a bd 7a 83 a1 bd 9d ea 4b be
       0.4600113 -0.049344867 -0.07886405 -0.19913717
000150 62 68 28 3f 6f cd 85 3e 9f 6b a2 3e b4 1c 66 be
       0.65784276 0.26133296 0.31722733 -0.22471887
000160 8d 14 15 bc 92 74 5a bf 6d e7 dc be 21 2d 2c bd
       -0.009099138 -0.8533412 -0.43145314 -0.042035226
000170 07 57 bc be 1b bd 99 be f1 84 41 3e ea b7 14 3f
       -0.36785147 -0.3002709 0.1889837 0.5809313

fc3.bias f4 [3]
000000 c6 6d 96 3c cf 9d 98 bb a3 8d 5f bd
       0.01836289 -0.004657484 -0.054578435

exp_avg f4 [64, 16]
000000 b8 44 b7 b9 50 52 00 bb 4e 3e 0f ba e8 a2 40 39
       -0.0003495568 -0.0019580312 -0.0005464301 0.00018371234
000010 7f de a2 3a 31 2e 99 ba 02 b4 ec 3a 9d 17 0e 3b
       0.0012425928 -0.001168674 0.0018059018 0.0021681555
000020 96 52 50 bb c9 75 1d 3a 74 83 3f 3b ee 25 9f 3a
       -0.0031787506 0.0006006626 0.002922264 0.0012142041
000030 26 77 1b 3b d8 dc af ba 4a b4 20 3b 7b 43 e1 bb
       0.002372214 -0.0013417257 0.0024521523 -0.0068744994
000040 37 07 83 3b b5 88 5f bb 72 59 b4 3c 6b 3e bf bb
       0.003998663 -0.0034108583 0.022015307 -0.005836298
000050 1c db 2b 3d fd a2 d2 3b bc 3e 97 3a 4f df 69 3c
       0.041957006 0.006428121 0.0011539082 0.014274432
000060 04 f7 49 ba 3e e2 11 3d 44 f2 ef bb 51 30 ae 3c
       -0.00077043497 0.035616152 -0.0073225815 0.021263273
000070 c4 eb 68 bc e2 31 e5 3c 7b 6c 41 3c 72 d1 25 3c
       -0.014216367 0.027977888 0.011805649 0.010120736
000080 b2 bb 3d bc ac 36 26 bc 7d 51 60 bc 9f 9b 87 3c
       -0.011580395 -0.010144871 -0.013691303 0.016553698
000090 ef b9 22 bc cb b7 11 bb ee 37 21 bb a4 1f 98 3b
       -0.009932025 -0.0022234793 -0.0024599987 0.0046424437
0000a0 ff 72 ac bc 68 49 b9 bc 13 dc 73 3c 7a 58 c7 bc
       -0.021050928 -0.02261801 0.014884013 -0.024334181
0000b0 4d 4d 69 3c 54 49 59 3b 17 35 ad bb 0e 47 1d 3c
       0.014239621 0.003315528 -0.00528587 0.00959946
0000c0 2d b0 12 3a 80 d3 53 3b 83 e1 19 3b 8c 40 77 3a
       0.000559571 0.0032322109 0.0023480363 0.00094319205
0000d0 00 c7 75 bb 91 37 fa 3a 6f 62 e2 ba db 83 7e 3b
       -0.0037502646 0.0019090046 -0.0017271767 0.0038835916
0000e0 14 e8 50 3a 42 3b e7 3a 9d f4 1d ba 08 4c 26 bb
       0.00079691526 0.0017641562 -0.0006025525 -0.0025374908
0000f0 4a 76 d5 3a 41 98 8c bb 50 cb b2 3b e0 6d 38 ba
       0.0016285863 -0.004290611 0.0054563656 -0.00070354156
000100 d1 31 4a bb 90 60 1a bc 9a 5b c2 bc 81 04 58 3c
       -0.0030852447 -0.009422436 -0.02372532 0.013184668
000110 34 82 98 3b 61 a4 12 bd 26 a0 17 3c 5a 2a 92 bc
       0.0046541933 -0.035801295 0.009254491 -0.01784246
000120 fe ef 5e bc 00 da b8 3c a5 87 63 bc fa 06 95 3c
       -0.013607023 0.022564888 -0.013887321 0.018191803
000130 52 7c 9f bc df 55 03 bc 7f 8f 8f bb 3d 90 31 3c
       -0.01946846 -0.008016079 -0.0043811197 0.010837612
000140 fa 41 3c bc f7 de 06 bc bb dc 1c bc 97 2f 15 3c
       -0.011490339 -0.00823187 -0.009574111 0.009105585
000150 ec 04 44 bc 89 ba dd bb e5 82 86 3b ae 0c f1 39
       -0.011964064 -0.0067666215 0.0041049593 0.0004597655
000160 a5 5b 49 bc 7a 71 67 bc ba b0 6c 3c f9 2b 4c bc
       -0.012289916 -0.014126176 0.014446432 -0.012461656
000170 e7 06 35 3c 3b e6 1b bb 38 7c a4 bb 69 af c2 38
       0.011049009 -0.002378835 -0.005019691 9.2833136e-05
000180 98 b1 b3 3a 97 b2 38 3b f4 a5 0d 3c b3 fc 52 3b
       0.0013709543 0.002818262 0.008645523 0.0032194078
000190 db 80 08 3c 88 57 5d 3b 28 7f 26 bc 95 61 30 3c
       0.008331503 0.0033774097 -0.010162152 0.010765453
0001a0 db 4d 13 bb 2d 11 e1 bb f9 f6 94 3c 6f 57 be bc
       -0.0022476825 -0.0068685026 0.018184172 -0.023235051
0001b0 10 cb a1 3c d7 3f db 3a 1a e8 00 3c 8f 9b fa 3b
       0.019750148 0.00167274 0.007867837 0.0076479386
0001c0 77 f9 9f 3c f0 3b 66 3c f9 0e 33 3d 5b d0 e6 bc
       0.019528134 0.014052376 0.04371545 -0.028175524
0001d0 c2 ce a2 3c 14 72 97 3c e7 e9 0a bc 27 7f b5 bb
       0.01987398 0.018487014 -0.008478618 -0.0055388394
0001e0 80 d7 f0 3c 39 48 07 3d 75 16 d9 bc 97 85 0b 3d
       0.029399633 0.03302786 -0.026499966 0.034062948
0001f0 46 df 01 bd 7b 72 1f 3b 12 db d2 3b f8 c5 ab bc
       -0.03170707 0.002432971 0.0064348066 -0.020968422
000200 00 aa 55 bb fd 57 81 bb ef 95 2a b9 35 31 ff bb
       -0.0032602549 -0.0039472566 -0.00016268318 -0.0077878484
000210 59 b5 7d bb 41 65 cc 39 08 10 fe 3b 79 85 82 bb
       -0.0038712828 0.00038985352 0.007753376 -0.0039831963
000220 e3 15 25 bc 1b 5a 71 bb 00 4e 5e 3b dc 4f 80 bb
       -0.010076019 -0.0036827389 0.0033921003 -0.00391577
000230 8a 77 8b 3b 63 e7 92 3a d3 c2 dd b9 03 b0 d8 bb
       0.0042561935 0.0011207875 -0.0004229756 -0.006612779
000240 2c 55 8c ba ce 05 9d bb 93 14 88 3a 42 c2 86 3b
       -0.0010706536 -0.0047919517 0.0010382108 0.004112513
000250 d8 a6 ca 3a c4 e7 12 bc a6 c3 31 3c 86 d3 b6 bb
       0.00154611 -0.00896639 0.010849869 -0.005579415
000260 e2 dc ac bb 68 26 e6 3b 47 23 aa 3b 18 db 34 ba
       -0.0052753547 0.0070236214 0.0051921937 -0.00068991026
000270 5e 5a c9 bb 6b e1 2f 3b 6f d7 67 bb 03 c7 e1 3b
       -0.006144806 0.002683724 -0.003537621 0.006890179
000280 07 fc 11 3a 28 2c 81 bb 13 1d cc bb 07 a7 39 bb
       0.0005568866 -0.0039420314 -0.006229052 -0.0028328316
000290 54 53 cf 3b 14 89 29 39 65 0a da ba 4e f1 dd bb
       0.006327072 0.00016168162 -0.0016635178 -0.0067731505
0002a0 15 05 29 bb d9 8a ad 3b e3 0c 01 bc dd 5a 57 3c
       -0.0025790383 0.005296093 -0.007876608 0.013144222
0002b0 96 db b8 3a d7 6a b2 3b fb 21 99 39 dc 3e 25 bb
       0.0014103528 0.005444865 0.00029207752 -0.002521447
0002c0 fe b3 8d 3b e6 22 55 3c a0 64 ee ba e5 89 00 3a
       0.0043244353 0.013008809 -0.0018187948 0.00049033604
0002d0 28 49 44 bc 89 4a f8 3b e5 76 c4 bb 7f 81 ab bb
       -0.011980332 0.0075772447 -0.0059956186 -0.005233943
0002e0 56 40 03 3c aa bb f2 bb cf 3c 4d bc 4e b2 d8 ba
       0.008010944 -0.007407625 -0.012526705 -0.0016532631
0002f0 fa 75 d0 bb 2e 05 39 bc 4d 31 8c bb 0c 60 1f bc
       -0.00636172 -0.011292739 -0.004278338 -0.009727489
000300 a5 6b 4e 39 37 55 a4 3b a9 4b c2 3b e0 76 74 3b
       0.00019685792 0.005015041 0.0059294295 0.00373023
000310 f2 ac 32 bc c6 0f 14 3a 09 a6 b9 3b e0 44 89 ba
       -0.010905491 0.00056481024 0.005665545 -0.0010472797
000320 61 39 7c 3b da b0 d2 3a b1 cd 61 3a 61 3c 93 3a
       0.003848635 0.0016074434 0.0008613719 0.0011233204
000330 9d 74 b1 bb 54 87 ac bb 66 a5 01 bc c6 a1 07 bb
       -0.0054155127 -0.005265156 -0.007912969 -0.002069579
000340 05 e0 b3 bb f9 d5 49 bc 13 59 06 bb 1e ff eb ba
       -0.0054893517 -0.012319081 -0.002049987 -0.0018005108
000350 a4 e3 6b 3b 3d c7 59 bc 6f c9 5b 3c a8 c0 e2 bb
       0.0035993839 -0.013292131 0.013414725 -0.006919939
000360 9f 42 69 bc 33 b1 8c 3b 9d db c2 3b 70 71 df 3b
       -0.014237075 0.0042935847 0.00594659 0.0068189427
000370 70 d2 8f bb 12 96 a7 3b e8 9a 56 bb 47 a0 e4 3b
       -0.0043891 0.0051143253 -0.003274614 0.0069771144
000380 5d a6 c8 bb c0 01 da bb db 93 a7 bb 16 ca 49 3b
       -0.0061233477 -0.0066530406 -0.0051140613 0.0030790619
000390 ac 33 35 bb d5 b4 39 bc b1 a1 09 3c da 60 c3 bb
       -0.0027649207 -0.011334618 0.008400367 -0.0059624733
0003a0 4d 29 e6 bb 5f 0f 50 3c 8a 71 9f bb dc ca 1a 3c
       -0.0070239664 0.012698977 -0.00486583 0.0094477795
0003b0 0e 88 3f bc 7c b8 f1 3a 0c 0f 55 ba b3 c9 cd ba
       -0.011690153 0.0018441821 -0.00081275473 -0.001570037
0003c0 dc 39 d5 bb e6 d7 d7 bc 45 08 cf bb 5c 3a 63 bc
       -0.0065071415 -0.026348066 -0.0063181245 -0.013868894
0003d0 6d 7c e2 3c 2c 7d 02 bc c7 67 98 3b 2f fb 09 3c
       0.027647221 -0.007964414 0.004651043 0.008421703
0003e0 23 39 92 bc 4e d8 3d 3c 5f 5d 95 3c 83 d9 11 3c
       -0.01784951 0.011587216 0.018233 0.0089019565
0003f0 3d 01 7f 3c 1d 9d bb 3c 3c 36 81 3c 8e b3 d8 3c
       0.01556426 0.022902066 0.015772931 0.026452806

exp_avg_sq f4 [64, 16]
000000 10 9b a8 38 8f 6d a1 38 6b 1a c1 38 ae 07 c4 38
       8.039747e-05 7.697485e-05 9.207878e-05 9.347439e-05
000010 3a 39 07 39 fe 64 bf 38 50 e5 20 39 6d 91 cb 38
       0.00012895922 9.126401e-05 0.00015344215 9.706882e-05
000020 59 a6 80 38 5d 37 a4 38 21 42 a6 38 9b b2 80 38
       6.1345e-05 7.8304416e-05 7.927814e-05 6.1367835e-05
000030 33 58 df 38 d5 dd c0 38 14 4f 36 39 a0 8d fa 38
       0.00010649897 9.196593e-05 0.00017386331 0.00011947309
000040 03 48 31 3a 6a 16 d9 39 e8 13 5e 3a dd 51 44 3a
       0.0006762745 0.00041406165 0.0008471594 0.0007489005
000050 c7 94 4d 3a 87 22 96 3a 2d c6 92 3a fd bc 47 3a
       0.0007842299 0.0011454382 0.0011197977 0.0007619409
000060 2a d8 ec 39 19 93 20 3a 9c e8 4f 3a c7 cc ef 39
       0.00045174483 0.0006125435 0.0007931085 0.00045738203
000070 fc 40 96 3a ae 8b 86 3a 6c b2 16 3a f3 f2 2f 3a
       0.0011463459 0.0010265016 0.0005748633 0.00067119225
000080 7a e6 3b 39 8e d7 95 38 7f 38 7b 39 7f 09 7e 39
       0.00017919569 7.145024e-05 0.00023958272 0.00024226865
000090 36 3e 73 39 df 7c a1 39 fe c3 21 39 2d fc 46 39
       0.00023197461 0.0003080135 0.0001542717 0.00018976694
0000a0 ea 36 15 39 8f 58 6b 39 f1 bc 50 39 83 eb 26 39
       0.00014230204 0.00022444337 0.00019906812 0.00015918729
0000b0 24 2c 80 39 97 8c 42 39 b7 d6 26 39 ca 68 6a 39
       0.0002444695 0.00018553656 0.00015910981 0.00022355016
0000c0 59 4a ce 38 11 95 a1 38 12 67 c7 38 f2 89 de 38
       9.836694e-05 7.704844e-05 9.508258e-05 0.00010611479
0000d0 59 28 ea 38 06 de 15 39 18 ff f4 38 65 d2 0e 39
       0.00011165505 0.00014292457 0.000116823416 0.00013620553
0000e0 c6 12 87 38 6c 03 96 38 21 ad aa 38 43 fd 72 38
       6.4407985e-05 7.153195e-05 8.1384795e-05 5.7933164e-05
0000f0 50 f1 18 39 d4 d9 09 39 2d 2d 0f 39 8f 9c 2f 39
       0.00014585746 0.00013146485 0.00013654372 0.00016747623
000100 cb d0 24 3a b9 1d a8 39 84 f5 06 3a b6 3d 1a 3a
       0.0006287216 0.00032065602 0.0005148279 0.00058838294
000110 c9 90 9f 39 88 71 56 3a b1 ab 27 3a 0a e1 e3 39
       0.00030434717 0.00081803696 0.00063961284 0.0004346448
000120 b1 b9 c7 39 63 71 0e 3a 80 77 08 3a 30 10 b9 39
       0.0003809459 0.0005433766 0.0005205795 0.0003529801
000130 1b 94 56 3a bd 94 1f 3a 22 b7 c0 39 92 6f 38 3a
       0.00081855216 0.00060875324 0.00036757538 0.0007035668
000140 2c f2 41 39 fc 3c 23 39 9e f0 dd 38 fc 0f 08 39
       0.0001849613 0.0001556761 0.0001058292 0.00012975925
000150 1c 1e ea 38 9c 95 20 39 86 e8 57 39 aa 40 17 39
       0.00011163598 0.00015314523 0.0002059062 0.00014424571
000160 7d 1f da 38 7c 73 fb 38 68 20 e4 38 d4 5a e0 38
       0.00010400915 0.00011990123 0.00010877923 0.000106980704
000170 5f b4 68 39 38 d8 1b 39 12 9f 45 39 1a 3e 11 39
       0.00022192438 0.000148625 0.00018846642 0.00013851412
000180 c9 19 00 39 af 28 c5 38 ed ab 40 39 14 35 4f 39
       0.00012216637 9.40127e-05 0.00018374594 0.00019760831
000190 08 cb 08 39 65 40 59 39 8e dc 0a 39 bd 4f ea 38
       0.00013045606 0.00020718721 0.00013242869 0.00011172842
0001a0 4e 04 cf 38 eb b4 e9 38 70 f7 27 39 06 2b 25 39
       9.871331e-05 0.000111440044 0.00016018539 0.00015751654
0001b0 e9 c1 7b 39 c3 85 1b 39 cc 41 1d 39 8f 4b 04 39
       0.00024009463 0.00014831782 0.00014997198 0.00012616649
0001c0 88 24 31 3a 96 e6 6b 39 ef 71 82 3a 2f ec 50 3a
       0.0006757458 0.00022497246 0.0009952168 0.00079697644
0001d0 a8 34 41 3a b7 a8 a5 3a c0 2f 1d 3a dd c4 12 3a
       0.0007370212 0.0012638782 0.000599619 0.0005598793
0001e0 76 10 02 3a 75 0c 2c 3a c1 c4 10 3a d3 b8 06 3a
       0.00049615593 0.00065631355 0.00055224827 0.0005139235
0001f0 37 8e 86 3a 98 ff 34 3a 1e a9 55 3a 08 6c 7c 3a
       0.0010265772 0.00069045415 0.00081505056 0.0009629135
000200 71 9d c1 39 fa 09 43 39 82 8b 6c 39 8a 99 92 39
       0.00036929132 0.00018600366 0.00022558685 0.00027961686
000210 b0 90 6a 39 b1 94 ae 39 81 4d 8c 39 de a7 d5 39
       0.0002236988 0.0003329865 0.00026760626 0.00040751597
000220 0f 91 40 39 c1 3a 4e 39 5d a7 52 39 ff dc 31 39
       0.00018364585 0.00019667578 0.00020089508 0.00016962363
000230 f8 54 1e 3a a6 28 ba 39 97 b3 d9 39 87 cb 5b 39
       0.0006039883 0.0003550697 0.0004152327 0.00020961287
000240 9a df 9a 39 ab 5a 3c 39 db 74 8e 39 07 dd cd 39
       0.00029539765 0.00017962854 0.00027171415 0.00039265325
000250 79 62 97 39 c9 71 c8 39 85 7a c6 39 03 c2 90 39
       0.00028874332 0.0003823175 0.00037856787 0.0002761037
000260 2c 19 54 39 84 3c 65 39 3e 38 89 39 0f 53 75 39
       0.00020227273 0.00021861686 0.0002617258 0.00023395962
000270 a9 ab e2 39 4d 93 c6 39 89 6e c1 39 f6 f8 ac 39
       0.00043233976 0.0003787525 0.00036894184 0.00032991887
000280 90 4d 6b 39 7c ca 10 39 c3 92 2d 39 dd 29 38 39
       0.0002244024 0.00013808341 0.00016553239 0.00017563203
000290 90 d8 78 39 c6 17 78 39 ea 80 6b 39 cc 81 58 39
       0.00023731799 0.0002365998 0.0002245937 0.00020647718
0002a0 22 7a 2d 39 94 2b 22 39 b9 7a 17 39 df 75 30 39
       0.00016544064 0.00015465758 0.000144462 0.00016828578
0002b0 e3 6f 99 39 d4 8c 3f 39 a9 b1 88 39 ca 0e 99 39
       0.00029265796 0.00018267642 0.00026072309 0.00029193453
0002c0 5a cd f3 39 9e 1c 81 39 35 5b b5 39 f2 4d f1 39
       0.0004650157 0.0002462612 0.00034590965 0.00046025176
0002d0 d4 14 dc 39 7a a4 32 3a c0 27 21 3a f3 0e c8 39
       0.00041977188 0.000681467 0.0006147586 0.0003815811
0002e0 f3 81 6e 39 c0 d2 a6 39 b5 b1 bb 39 e3 92 50 39
       0.00022745859 0.00031819008 0.00035799821 0.00019891145
0002f0 3e 65 25 3a 7f f1 05 3a d8 62 d7 39 1d 01 4d 3a
       0.0006309337 0.0005109533 0.0004108164 0.0007820295
000300 40 95 4f 39 e3 99 b7 38 6f a8 b0 39 ed fe 80 39
       0.00019796658 8.7547836e-05 0.0003369483 0.00024603997
000310 e1 5d 64 39 6c 74 9f 39 31 47 9e 38 7e e4 13 39
       0.00021778747 0.00030413584 7.5472875e-05 0.00014104132
000320 33 62 fa 38 71 fd 23 39 36 ce 82 39 29 dc 05 39
       0.0001193922 0.00015639306 0.0002494917 0.00012765884
000330 8d 6d 93 39 a5 05 64 39 63 cc 1d 39 61 fc 83 39
       0.00028119647 0.00021745877 0.00015048827 0.00025174304
000340 51 3c b3 38 0d bb ea 38 74 75 09 39 42 f0 c4 38
       8.54662e-05 0.000111928304 0.00013109093 9.39076e-05
000350 c5 39 b4 38 69 61 26 39 b2 67 c1 38 57 26 46 39
       8.593829e-05 0.00015867282 9.222272e-05 0.00018897034
000360 a6 26 ab 38 c0 8d a2 38 e9 f2 d5 38 a2 71 c2 38
       8.161114e-05 7.751165e-05 0.00010201877 9.2718066e-05
000370 b1 0b 33 39 5b 11 2a 39 fa d3 c6 38 f5 22 e8 38
       0.00017075126 0.00016218929 9.4808594e-05 0.00011069133
000380 69 b1 73 39 5b cb 0b 39 23 df 3e 39 80 92 49 39
       0.00023240376 0.00013331829 0.00018202937 0.00019223429
000390 8e 0e 67 39 52 ae 99 39 dd d7 a8 39 3d 7e aa 39
       0.00022035299 0.00029312313 0.00032204288 0.00032518982
0003a0 c1 f6 03 39 7b 0a 27 39 ba 79 25 39 f7 3f 0c 39
       0.00012585057 0.00015930265 0.00015780973 0.00013375269
0003b0 34 0a b9 39 36 1d 77 39 84 55 8d 39 5a 78 62 39
       0.00035293552 0.00023566638 0.0002695733 0.00021597874
0003c0 b7 f0 25 39 fb a4 6c 39 b3 11 9c 38 72 7c 24 39
       0.000158253 0.00022568174 7.4419564e-05 0.00015686618
0003d0 77 92 28 39 fb 81 d7 38 d0 ed 42 39 74 7f cf 38
       0.00016076291 0.0001027621 0.00018589874 9.894269e-05
0003e0 32 e3 19 39 90 60 02 39 fa 54 17 39 69 f7 d5 38
       0.00014675854 0.00012433738 0.00014432138 0.00010202715
0003f0 68 f3 54 39 5f 4d 82 39 22 4e 4d 39 22 0d 61 39
       0.00020308571 0.00024853178 0.0001957943 0.00021462564

exp_avg f4 [64]
000000 c1 d7 13 b8 b5 d1 ee bc 0e 8e fd 3b 00 c2 ec 3a
       -3.5248468e-05 -0.02915273 0.0077378815 0.0018063188
000010 f8 14 83 3c 05 96 18 3c 9a 9f 4b bc d9 9c c6 bc
       0.01600121 0.009313111 -0.012428189 -0.024244713
000020 0c 94 fb ba 5d 38 35 39 ac b0 07 bc 03 67 64 3c
       -0.0019193902 0.00017282502 -0.008281868 0.0139405755
000030 1a 6a d8 3b 04 9d fa ba c6 b0 77 3b d1 36 c3 bc
       0.006604445 -0.0019120281 0.0037794574 -0.02382985
000040 69 76 5a bb a7 de 17 3c c4 22 5c bc 7b e5 61 bc
       -0.0033334738 0.009269393 -0.013436023 -0.013787623
000050 a6 c8 dc 3b 61 5f c3 3b 8d 64 04 bc a3 87 e0 ba
       0.0067377863 0.005962298 -0.008080614 -0.0017130267
000060 63 fe 9f 3b 3f 73 bb 3a f7 ad 5d 3a 39 df 09 bb
       0.00488262 0.0014301314 0.0008456404 -0.0021037592
000070 a4 15 10 3a 06 ce f4 3a af d3 f4 bb a4 1f 5c bc
       0.0005496389 0.0018677122 -0.0074715237 -0.013435278
000080 d4 2a af 3b d9 e0 b0 bb bd 93 ef bb c9 b0 13 3b
       0.0053456817 -0.0053978977 -0.007311313 0.0022535792
000090 2b c5 b4 bb 6a 08 b1 3c 63 f4 2c bb f9 9c 18 bb
       -0.0055166683 0.021610457 -0.0026390783 -0.0023286922
0000a0 b3 93 86 bc fb 8b ca 3b ce c2 d5 bb 35 8a cf 3c
       -0.01642785 0.0061812378 -0.0065234667 0.025334457
0000b0 dd 1b cc b8 6c 0f 9c bb c7 12 a0 3c fc e2 0e 3a
       -9.732668e-05 -0.0047625806 0.019540204 0.00054506934
0000c0 2b f2 1c 3c 20 aa 40 3c 9e 46 e9 bc 77 41 fd b8
       0.009579222 0.011759311 -0.028476056 -0.00012076174
0000d0 cd 49 8f bc 26 be b8 3a 62 eb af bb f6 95 53 3c
       -0.017491246 0.0014094755 -0.005368636 0.012914171
0000e0 2b ba 05 3b 25 b1 e4 ba ca 87 9b bb 6f 54 b9 bb
       0.0020405154 -0.0017447813 -0.004746412 -0.005655817
0000f0 f0 78 b0 3c ba c7 d5 bb f8 a9 33 bb 69 86 49 bb
       0.021542042 -0.0065240534 -0.0027414542 -0.003075028

exp_avg_sq f4 [64]
000000 c1 4a 84 39 d4 50 0d 3b 91 de d5 39 51 6e 91 39
       0.00025232698 0.002156307 0.0004079235 0.00027738747
000010 10 d1 98 3a 1d df 01 3a 29 59 c7 39 54 ad d0 3a
       0.0011658985 0.0004954206 0.00038022667 0.0015920796
000020 3f f1 bf 3a dd 32 7c 3a a0 55 1d 3a d1 0e a6 3a
       0.001464404 0.00096206163 0.0006001834 0.001266921
000030 16 d9 f2 39 0f 7a b8 39 2c 95 5c 3a 72 4f d0 39
       0.00046319579 0.00035186156 0.00084145623 0.00039732043
000040 7a 9b f2 3a 01 c3 1e 3a ac 8e 80 39 61 7d bc 39
       0.001850947 0.00060562795 0.0002452036 0.0003595157
000050 6f 60 00 3b 31 84 6e 3a 96 97 24 3b fd 24 0a 3a
       0.001958873 0.00090986775 0.0025114766 0.0005269794
000060 5b 14 f5 3a ec 70 2d 3b 14 ef 08 3a 65 e3 33 3a
       0.0018698083 0.0026465012 0.00052236137 0.00068621925
000070 c2 20 60 39 e8 3a 83 39 08 e2 d2 3a f4 b0 5a 3a
       0.00021374508 0.00025030156 0.0016089091 0.0008342408
000080 d7 21 3b 3a 7b 77 8a 3a f4 b9 f2 39 2c 4e 04 3a
       0.00071385264 0.0010564172 0.00046296383 0.0005047049
000090 9a ec 10 3a 1b 60 4a 3b 9f b3 34 3a dd f9 ec 39
       0.00055284204 0.0030880037 0.00068932207 0.0004519959
0000a0 6f b3 3a 39 af d2 30 3b 54 41 ac 3a 27 51 8c 3a
       0.00017805187 0.0026981046 0.0013142028 0.0010705338
0000b0 6d 28 fb 38 93 11 be 39 3a 3d ab 39 be 2e b7 39
       0.000119761426 0.00036252718 0.0003266128 0.00034939306
0000c0 6f d7 25 3b a7 fe 80 39 e6 93 31 3a 81 9e f0 3a
       0.002530541 0.00024603793 0.0006774053 0.0018357785
0000d0 18 54 39 3a d4 d4 d1 3a 0b 7c 96 39 0a 41 2a 3b
       0.0007069721 0.0016008862 0.0002870265 0.0025978708
0000e0 ad 43 2d 3b 14 99 05 3b 4e a9 16 3a 27 6c e9 3a
       0.0026438043 0.002038543 0.0005747274 0.0017808721
0000f0 85 05 49 3a 4a be 06 3b 40 7b 39 3a 8a 2d db 39
       0.0007668364 0.0020560198 0.00070755556 0.00041804864

exp_avg f4 [32, 64]
000000 91 2c 86 ba 5f 7f 54 bb 04 02 5a 3a 86 84 f5 ba
       -0.001023667 -0.0032424552 0.00083163404 -0.0018731512
000010 8c 5f 8e b9 e5 19 8b bb 91 99 57 39 50 b4 eb ba
       -0.0002715554 -0.00424503 0.00020561206 -0.0017982814
000020 00 4c f6 3a 2c 4d 9c 3b 24 c5 04 3b 4b b8 31 ba
       0.001879096 0.004769942 0.0020259107 -0.0006779476
000030 70 aa ae 39 c0 53 a0 3a 4e 81 5b bb 23 ca c3 b9
       0.00033314852 0.0012231991 -0.003349382 -0.00037343902
000040 02 4d e0 3a 5d a6 5e 3a 39 12 00 38 7c de ec ba
       0.0017112794 0.0008493418 3.053455e-05 -0.0018071677
000050 7e b6 bb bb 03 4a dd 39 f9 d5 8c 39 57 4d 02 3b
       -0.005728542 0.00042207548 0.00026862303 0.0019882524
000060 60 95 43 bb bf c7 ee 3a 8b 65 67 ba a9 1e 7e bb
       -0.0029843673 0.0018217488 -0.0008827082 -0.00387756
000070 ff 0d d5 b8 94 7f b3 39 ce 57 44 bb 3c 1a af bb
       -0.000101592384 0.00034236594 -0.0029959562 -0.0053437036
000080 25 80 de 39 86 2f 93 bb f7 76 b6 3a f5 ef 2d 3a
       0.00042438615 -0.004491749 0.0013920952 0.00066351827
000090 a8 78 52 3b 01 cc 8b 3a 9e d8 a4 ba 6a 08 18 bb
       0.0032115374 0.0010665656 -0.0012576764 -0.0023198375
0000a0 89 67 4e 3a 4b a2 e8 36 b1 52 b4 ba be 36 cf 3a
       0.00078737043 6.933032e-06 -0.0013757554 0.0015809161
0000b0 b1 51 c0 ba 5f 9b 37 3a 09 d1 43 3a a9 2a 85 bb
       -0.0014672783 0.0007004048 0.00074698083 -0.0040639234
0000c0 5a 8a d2 3a 82 86 26 bb 90 13 55 bb 55 ac cd ba
       0.001606296 -0.0025409763 -0.003251288 -0.0015691618
0000d0 2e 5a 4c 3a 97 a6 b5 b9 53 a2 94 3a ac 90 ac b9
       0.000779542 -0.0003464713 0.001133988 -0.00032914185
0000e0 e8 f4 1d ba ff 4e 5a 39 60 c2 34 b9 0d 4d 49 ba
       -0.00060255686 0.00020819528 -0.00017238548 -0.0007679023
0000f0 c7 7a b0 3b b4 c8 c5 bb c8 c1 ab ba 75 3a fb ba
       0.00538573 -0.0060358886 -0.0013104016 -0.0019167202
000100 b3 dd 32 bc 96 41 b1 bb 5e f3 34 bc 45 62 d5 bb
       -0.010917115 -0.00540943 -0.011044351 -0.006511959
000110 d3 54 0f bb 6c e4 78 bb 42 4d 88 bb 2d b2 d2 bb
       -0.0021870628 -0.0037977947 -0.0041596005 -0.0064299316
000120 8a 80 8e bb dc 8f 23 bc 96 ed e6 ba bc 55 c7 ba
       -0.004348819 -0.009983029 -0.0017618414 -0.0015208046
000130 9a cd 4b 38 14 13 22 bc 79 a4 b7 bc a8 d5 a4 ba
       4.8590453e-05 -0.009892244 -0.022417294 -0.0012575882
000140 77 6e 9f bb ff a5 2b bc a9 2a 11 bc ec b0 c0 bb
       -0.0048654634 -0.010476588 -0.008860269 -0.0058804657
000150 da 20 ad bc 76 48 54 39 9a a1 a6 bc 26 d9 40 ba
       -0.021133829 0.0002024489 -0.02034073 -0.00073565764
000160 ea e7 4f bb db ab b3 bb cf 2f fa ba 9b 4a 0e bb
       -0.0031723925 -0.0054831333 -0.0019087734 -0.0021711949
000170 15 ee d8 bb 48 59 4c bc 3a 77 26 bc d9 ff 0a bc
       -0.0066201785 -0.012472458 -0.010160262 -0.00848385
000180 e6 a4 10 bc a1 ec 16 bb db 59 11 bc bb b9 2c bb
       -0.008828377 -0.0023029225 -0.008871521 -0.0026355821
000190 e7 c1 2b ba e6 ef 28 bb f9 e2 0a 3a 9d 92 eb bb
       -0.0006552026 -0.0025777756 0.0005298104 -0.0071891085
0001a0 16 46 0b bb e9 fe 1c bc 23 ac 19 bc ef 58 af bb
       -0.0021251491 -0.00958226 -0.0093794195 -0.005351178
0001b0 c7 14 99 bb 0f ec 37 bc 57 06 15 bb 4b d8 68 ba
       -0.0046716663 -0.011225714 -0.0022739375 -0.0008882328
0001c0 39 a1 71 bc 91 78 4e ba 28 0c 26 bc dd 79 83 bc
       -0.014747911 -0.0007876242 -0.010134734 -0.01604932
0001d0 f7 1c 4d 3a c5 3d 70 bc 7a 3d 3e bb 22 04 47 b8
       0.00078244455 -0.0146631645 -0.0029028342 -4.7449146e-05
0001e0 d6 ea 1b bc 0c 68 20 bc a5 4e c5 bb 63 c2 25 ba
       -0.0095164385 -0.009790432 -0.006021338 -0.00063232164
0001f0 b0 67 16 bc 3b d1 32 bc 7a 42 47 bb 63 3b 49 bc
       -0.009179994 -0.010914142 -0.0030404613 -0.012282225
000200 0b a0 8d 3a 0a af 7f b9 5e 10 89 39 e7 de 9f 3b
       0.0010805143 -0.00024383902 0.0002614287 0.004878867
000210 da 1c 06 ba c1 6a 79 3b 15 80 30 3b 0c 8a 90 3b
       -0.00051159936 0.0038058015 0.0026931812 0.0044109877
000220 34 e4 36 bb 65 2e c0 bb 78 32 10 ba 04 78 87 ba
       -0.0027907016 -0.0058649057 -0.00055006845 -0.001033545
000230 e0 d8 0a ba ca c3 77 ba 6f e8 e8 3b 54 5b 24 39
       -0.0005296599 -0.0009451477 0.0071077864 0.00015674281
000240 18 52 ef ba 44 96 4e 38 b7 b7 82 b9 c1 d5 da 3a
       -0.0018258719 4.9254173e-05 -0.0002493241 0.0016695784
000250 62 1a 01 3c df 63 5c bb 52 d2 66 3b 09 33 fe ba
       0.007879825 -0.0033628864 0.0035220576 -0.0019393872
000260 e1 e7 68 3b e2 1f 81 bb 2c 90 a4 3a 7f 35 46 3b
       0.0035538601 -0.0039405683 0.0012555174 0.0030244289
000270 7a 87 2b b9 a6 4b 18 ba 6c b5 87 3b 4b 41 ad 3b
       -0.000163583 -0.00058096123 0.0041415 0.0052873245
000280 0a e3 bf 3a bf 6b 8d 3a 50 ed e0 3a f8 a5 bb ba
       0.0014639806 0.0010789557 0.0017160568 -0.001431643
000290 24 33 92 ba 73 c9 2c bb 01 fa b3 ba cb 29 37 3a
       -0.0011154157 -0.002636519 -0.0013731123 0.00069871236
0002a0 62 4b b8 ba 28 9c 45 3b cf ab 12 bb 9a 4f 3f bb
       -0.0014060552 0.003015289 -0.0022380238 -0.0029191733
0002b0 6d bf e4 39 36 e7 d4 ba 2f bb 01 39 38 72 d6 3a
       0.00043630172 -0.0016243223 0.0001237213 0.0016360944
0002c0 96 3a 8f bb e4 3b 0f 3b 96 99 3a 3b 90 86 4d 3a
       -0.0043709977 0.0021855766 0.0028472892 0.0007840181
0002d0 c0 95 f3 b8 21 95 18 3c bc 6a 12 3b d1 a4 13 bb
       -0.00011615036 0.009312899 0.002234145 -0.0022528658
0002e0 ff 44 b0 ba 21 6d b7 3a 7f 06 14 3a 4f 93 91 3a
       -0.0013448297 0.0013994315 0.000564672 0.0011106523
0002f0 d7 00 7d bb c3 49 2e 3c 79 d7 fe 3a 9c 36 09 3c
       -0.0038605237 0.010637703 0.0019442878 0.008374836
000300 8c 2f b7 3b b6 96 69 bb 97 86 cf 3b 06 a6 1b 3b
       0.005590385 -0.003564281 0.006333183 0.002375008
000310 88 c9 36 ba 5a d1 73 bb ad 5f 6e 3a 41 65 f7 39
       -0.00069727795 -0.003720364 0.00090932363 0.0004718695
000320 41 3c 2c ba e3 3a 04 bb 69 9d 60 3b 36 ad 2c bb
       -0.0006570258 -0.00201767 0.0034273511 -0.002634836
000330 12 ca 18 b9 48 dc a4 3a fd 20 c3 3b f7 40 1f 3a
       -0.00014571127 0.0012577856 0.0059548602 0.0006075049
000340 d8 f0 f3 ba 61 11 1a bb aa 42 71 3b 75 fb eb b9
       -0.0018611206 -0.0023508894 0.0036813417 -0.00045010043
000350 1b fe 5f 38 40 d4 a5 bb a2 8d 07 3c ac 89 d6 ba
       5.3403997e-05 -0.0050607026 0.008273514 -0.0016367934
000360 1e 4c c5 39 9e 54 80 ba b7 37 a9 39 59 9a 8b 39
       0.0003763148 -0.0009790843 0.00032275703 0.00026627144
000370 a8 fb 02 ba 27 cd 97 3a ab 71 ae ba 9c 1f 85 39
       -0.0004996606 0.0011581526 -0.0013309022 0.00025391288
000380 07 2b aa 39 28 65 34 bb 00 7e 30 3b 64 f1 6e 3a
       0.00032456985 -0.0027526114 0.002693057 0.00091149495
000390 1c 5a 45 3b a1 45 31 bb 38 44 e1 ba 7b 9d 07 bb
       0.0030113524 -0.0027049559 -0.0017186468 -0.002069323
0003a0 62 a6 6d 39 8d f0 aa 3b a0 f0 8e bb cc e3 50 3a
       0.00022664064 0.005216664 -0.004362181 0.00079685147
0003b0 ba d3 1d 3b 79 1e 1a 3b 31 2d ed ba c6 bd 02 bb
       0.0024082498 0.0023516698 -0.0018095133 -0.001994954
0003c0 b8 76 4d ba a0 95 04 bb bf f2 84 3b 47 17 2d 3b
       -0.000783782 -0.0020230785 0.004057258 0.002641158
0003d0 c8 74 c5 b9 62 f3 20 3c 40 78 5c b9 52 f4 e3 ba
       -0.00037661777 0.009823652 -0.00021025632 -0.0017391539
0003e0 1b 7f 81 3b 6f ea 1a ba 11 66 47 bb d7 c0 d7 b8
       0.0039519197 -0.0005909567 -0.0030425827 -0.00010287918
0003f0 bc 26 20 3b a4 11 7a 3b 9c 56 dc 39 f2 9d bf 3b
       0.002443715 0.0038157487 0.000420262 0.005847686
