checkpoints/synth/high_energy/torsion_energy/20250611190442459345/MET_dim_12/fold2/best_epoch=241-val_loss_epoch=5.544.ckpt (torch, 47109 bytes, 20 tensors)

fc1.weight f4 [64, 12]
-0.14186707 -0.5798129 -0.48938546 0.11375338 0.072986476 -0.35771754 0.17059973 0.041197773
0.08196368 0.001563045 -0.12544215 0.14861324 0.48780793 0.11408229 -0.19108976 -0.446992
-0.057041753 0.017808372 0.16253385 -0.22032912 -0.0045834603 0.16001222 -0.20951456 0.032116577
-0.54196626 0.008198889 0.30323267 0.013603611 -0.26669472 -0.015571213 -0.19586653 -0.31434643
0.024506625 0.062400967 0.31963238 -0.122985676 -0.42659363 0.30560383 0.033685155 0.0720063
-0.039809898 0.05509446 0.6418687 -0.55781704 -0.04497361 0.058360044 0.013343507 0.030449945
0.073393084 -0.39896172 0.35082853 0.7659246 0.0027247772 -0.027464159 0.02647475 -0.29387695
-0.14635757 0.11999775 -0.00044291696 -0.022932442 0.15755151 0.27354178 0.49547487 -0.22202009
0.07974046 0.23698941 0.05513308 -0.25225145 0.30322948 -0.1505846 0.008242356 -0.2087294
0.46048608 0.05901526 -0.098881476 0.2905331 0.3200644 -0.5070362 -0.043502484 0.086464666
-0.02480962 0.126262 -0.09848193 -0.08292068 0.013660434 0.5278183 -0.4834116 -0.043162476
0.34649703 -0.17813584 0.31221256 -0.29541627 0.053221606 -0.020344546 -0.16581886 0.07978931
-0.24701816 -0.20215203 0.091233835 -0.26622686 0.3180291 -0.7029345 0.15041186 -0.06744529
0.07342757 -0.35144624 -0.25401393 -0.16406661 -0.47779712 0.21862166 0.26271665 0.29434416
0.27028415 -0.2297585 -0.33026993 -0.01446278 0.08379544 -0.049854428 -0.34572348 -0.0051180823
0.34023398 -0.4147864 -0.34242642 -0.32884258 0.14477046 -0.053918123 0.13820036 -0.005447722
-0.03194596 0.15588692 -0.043672293 -0.026575716 -0.5289373 -0.08232914 -0.52296305 0.23752218
0.39916763 -0.027030142 0.079052955 -0.07511316 0.11624162 -0.04683765 -0.0981537 0.16874504
0.103385955 0.6106911 0.3442618 -0.06542898 -0.21844257 0.00698125 -0.20584413 0.11422699
-0.10579174 0.20320499 -0.13963854 0.27852786 0.14279294 -0.07773773 -0.2812466 -0.049042758
0.36969805 0.36536202 0.081844315 0.22121069 -0.050731216 0.27851847 0.0565018 0.22773048
-0.056569763 0.49729878 -0.09021939 0.100736804 -0.22258444 0.3655847 0.143707 -0.028308196
-0.03204369 0.07651653 0.24893443 0.13140464 -0.14578684 -0.64352876 -0.40394536 -0.050157163
-0.08853119 -0.11141077 -0.15352765 0.28417337 0.08398354 -0.15199138 0.08149793 -0.18785797
0.12058893 0.51000845 0.517081 -0.10366152 0.3287446 -0.28248322 -0.023850646 -0.11208804
0.002673655 -0.05433288 -0.14348221 0.13074532 0.1977971 -0.22306956 0.11462042 -0.031182397
0.5868061 -0.14770308 0.083119966 -0.2647335 -0.099209435 0.3390482 0.33351436 -0.02622322
-0.05226409 0.3641688 -0.40601984 0.10947684 -0.44238538 -0.40805417 -0.002647047 -0.18930934
-0.2507646 -0.00523675 0.10706714 0.103199504 -0.2477415 -0.2569238 -0.27046606 0.65020406
0.46189964 -0.07288394 0.07262726 -0.19837523 0.24870935 0.06281571 -0.16565165 -0.05120537
0.63397735 0.49067646 -0.10471056 0.33399957 -0.07752359 -0.0007293316 -0.049682714 0.24543847
0.050783593 -0.17616867 0.21703358 -0.017503973 0.472666 -0.463437 0.18375792 -0.2982443
00000000: 9a45 11be 9e6e 14bf bb90 fabe 88f7 e83d
00000010: ef79 953d c126 b7be b2b1 2e3e ffbe 283d
00000020: 93dc a73d 16df cc3a e873 00be 122e 183e
00000030: f6c1 f93e faa3 e93d 09ad 43be 23dc e4be
00000040: 9da4 69bd dde2 913c 466f 263e f59d 61be
00000050: da30 96bb 3eda 233e fc8a 56be ac8c 033d
00000060: 4dbe 0abf a254 063c 5041 9b3e aee1 5e3c
00000070: 368c 88be 671e 7fbc 3c91 48be 04f2 a0be
00000080: 1ec2 c83c 2898 7f3d dba6 a33e eadf fbbd
00000090: 7b6a dabe 1b78 9c3e 72f9 093d 0a78 933d
000000a0: b40f 23bd baaa 613d 8251 243f 19cd 0ebf
000000b0: 4036 38bd f10a 6f3d ba9e 5a3c 2a72 f93c
000000c0: 1d4f 963d b644 ccbe cc9f b33e a213 443f
000000d0: 2d92 323b 84fc e0bc 93e1 d83c 0a77 96be
000000e0: c2de 15be 61c1 f53d 4f37 e8b9 d1dc bbbc
000000f0: 2f55 213e ab0d 8c3e e2ae fd3e 3c59 63be
00000100: f74e a33d 5aad 723e 39d3 613d 1a27 81be
00000110: e540 9b3e d932 1abe f20a 073c 29bd 55be
00000120: d5c4 eb3e fcb9 713d 5f82 cabd c1c0 943e
00000130: 7bdf a33e 20cd 01bf a92f 32bd 6314 b13d
00000140: 8b3d cbbc d34a 013e e5b0 c9bd 51d2 a9bd
00000150: 03d0 5f3c 1a1f 073f ba81 f7be 23cb 30bd
00000160: 0f68 b13e 3e69 36be 53da 9f3e cd40 97be
00000170: e6fe 593d 9ba9 a6bc 6bcc 29be 9468 a33d
00000180: 54f2 7cbe f100 4fbe ced8 ba3d e34e 88be
00000190: b6d4 a23e 84f3 33bf 9105 1a3e c220 8abd
000001a0: 3261 963d c3f0 b3be 1d0e 82be 1401 28be
000001b0: d3a1 f4be 5bde 5f3e cc82 863e 47b4 963e
000001c0: af62 8a3e d045 6bbe 2419 a9be 4cf5 6cbc
000001d0: f29c ab3d 2834 4cbd ab02 b1be 96b5 a7bb
000001e0: 2633 ae3e e25e d4be 8452 afbe 0e5e a8be
000001f0: b53e 143e 40d9 5cbd 6584 0d3e ce82 b2bb
00000200: c4d9 02bd d2a0 1f3e b8e1 32bd 51b5 d9bc
00000210: 6f68 07bf 2e9c a8bd e8e0 05bf 0439 733e
00000220: b35f cc3e 516e ddbc 84e6 a13d eed4 99bd
00000230: 1610 ee3d d6d8 3fbd cf04 c9bd 80cb 2c3e
00000240: 04bc d33d 4056 1c3f 1543 b03e a1ff 85bd
00000250: 69af 5fbe f8c2 e43b cec8 52be d7ef e93d
00000260: 57a9 d8bd f814 503e 68fd 0ebe 349b 8e3e
00000270: 5038 123e f634 9fbd 8eff 8fbe 0fe1 48bd
00000280: 1049 bd3e bb10 bb3e fe9d a73d 0e85 623e
00000290: 89cb 4fbd f999 8e3e 6e6e 673d 2e32 693e
000002a0: b2b5 67bd f29d fe3e f2c4 b8bd 194f ce3d
000002b0: 2ded 63be eb2d bb3e ee27 133e 97e6 e7bc
000002c0: 3f40 03bd b3b4 9c3d abe8 7e3e f08e 063e
000002d0: 2549 15be 4dbe 24bf edd1 cebe 9971 4dbd
000002e0: d74f b5bd 542b e4bd 5a36 1dbe 2c7f 913e
000002f0: 90ff ab3d a1a3 1bbe 63e8 a63d d75d 40be
00000300: 54f7 f63d ea8f 023f 6c5f 043f 7e4c d4bd
00000310: 3651 a83e a4a1 90be 6e62 c3bc 6a8e e5bd
00000320: 7d38 2f3b 278c 5ebd 00ed 12be 1ae2 053e
00000330: 538b 4a3e 596c 64be 1cbe ea3d 3a72 ffbc
00000340: ed38 163f 7a3f 17be cd3a aa3d 268b 87be
00000350: 512e cbbd ba97 ad3e 65c2 aa3e 14d2 d6bc
00000360: df12 56bd 5574 ba3e d5e1 cfbe 6535 e03d
00000370: 5680 e2be 7aec d0be 147a 2dbb 4fda 41be
00000380: 3864 80be 0b99 abbb 0446 db3d 435a d33d
00000390: f3af 7dbe 848b 83be 877a 8abe c673 263f
000003a0: 1c7e ec3e 2d44 95bd 9abd 943d e022 4bbe
000003b0: aaad 7e3e 86a5 803d 96a0 29be b9bc 51bd
000003c0: 574c 223f f239 fb3e 7d72 d6bd fe01 ab3e
000003d0: b0c4 9ebd 9d30 3fba 1a80 4bbd 3954 7b3e
000003e0: 7502 503d 8f65 34be 0d3e 5e3e 7e64 8fbc
000003f0: 4701 f23e 9d47 edbe 092b 3c3e 7ab3 98be

fc1.bias f4 [64]
0.29397967 0.26633546 0.09050178 0.0005307805 0.3476151 0.0880913 0.28757578 0.51923716
0.1870278 -0.18149444 0.58364636 0.4068547 -0.14794075 0.052231435 0.35879776 0.24052791
0.3214305 -0.110255465 -0.023514723 -0.123123705 -0.20311598 -0.13404353 0.3995681 -0.21785975
0.24607438 -0.25726378 0.20200694 0.3895493 0.28306282 0.06923541 -0.28282112 0.46029636
0.33558857 0.5315118 0.17697945 -0.27032757 0.30027848 -0.4652198 -0.042203095 0.34140486
0.025616039 0.08896891 -0.28723398 0.19471039 -0.36981022 0.39548787 -0.0051477547 -0.12960085
0.05942425 0.15887906 0.32811144 0.47091094 0.47268426 0.2244627 0.21448158 -0.12197437
0.05210688 0.3170366 0.33304366 0.38922116 0.21934085 0.33019632 0.42383733 0.14286405
00000000: 8184 963e 1f5d 883e ff58 b93d 1424 0b3a
00000010: 9bfa b13e 3669 b43d 223d 933e baec 043f
00000020: 3784 3f3e aed9 39be d969 153f 424f d03e
00000030: c87d 17be a1f0 553d 57b4 b73e f34c 763e
00000040: 8a92 a43e 9ecd e1bd f3a1 c0bc 4828 fcbd
00000050: a3fd 4fbe b542 09be 3194 cc3e a016 5fbe
00000060: ecfa 7b3e 14b8 83be e8da 4e3e 0173 c73e
00000070: 9ced 903e 4bcb 8d3d eecd 90be f7ab eb3e
00000080: 44d2 ab3e 2811 083f 1a3a 353e 6068 8abe
00000090: 1abe 993e 4a31 eebe 27dd 2cbd 9ecc ae3e
000000a0: bad8 d13c 5535 b63d 5510 93be 2962 473e
000000b0: c457 bdbe 637d ca3e 7fae a8bb 16b6 04be
000000c0: d866 733d 31b1 223e 39fe a73e 3d1b f13e
000000d0: ac03 f23e 8dd9 653e 0fa1 5b3e b3cd f9bd
000000e0: 066e 553d 9f52 a23e b384 aa3e ff47 c73e
000000f0: e39a 603e 7e0f a93e 3501 d93e f44a 123e

fc2.weight f4 [32, 64]
0.106082834 0.14528178 -0.08168374 0.3516753 0.00907836 0.032022696 0.13926616 0.056837358
0.21175328 0.06331969 -0.25512594 0.20464452 -0.11789589 0.18212874 0.071061365 0.18651542
-0.04326292 -0.13745563 -0.14096381 0.059868984 -0.09476057 -0.22261833 0.07939466 -0.08053111
0.030884037 0.1043764 0.030237637 -0.04973613 0.07280145 0.2294311 -0.024835564 0.112278
0.24151076 0.23179111 0.25056726 0.11492347 -0.25159433 0.39349684 -0.06987883 0.037719462
-0.14832108 -0.047941145 -0.17041878 -0.10848061 0.07039119 0.14373904 0.044862077 0.17276864
0.013572749 -0.18071467 0.14382997 -0.038631484 0.18110901 -0.019480592 0.06881422 0.00047780777
-0.030981088 0.08607464 0.08844523 -0.12773244 0.11513631 0.20042537 7.644636e-05 0.029108273
0.30982068 0.059312157 0.23503262 -0.018000532 0.07093036 0.2533972 0.025771739 -0.20785466
-0.036430918 0.040099338 0.16567045 -0.19671781 0.19504581 -0.23041014 0.12685688 0.33666518
0.30040833 0.24211201 0.22704272 0.23799005 0.1134368 0.16777657 -0.0971423 -0.047277622
-0.18039462 -0.41466165 0.07976803 0.13028128 -0.09703269 0.24929164 -0.35846594 0.15224853
-0.21627347 0.2342793 0.22971998 -0.045958508 0.071179874 -0.81148505 0.078455776 -0.2059523
0.008779859 -0.10685281 0.20713982 -0.049362384 -0.031728286 -0.058004238 0.12023961 -0.010918392
-0.051701155 -0.043273542 0.029853908 -0.13915418 0.22393371 0.10462468 -0.083021685 0.41142833
-0.12118081 -0.102028064 0.17309591 -0.22580722 -0.017624138 -0.29558524 -0.1998971 0.012212815
-0.008396686 -0.062110677 -0.1152447 -0.21897501 0.021366145 0.02693376 0.0024381375 0.025435274
0.17837957 -0.029279072 0.3350685 0.0316296 0.17442642 0.12943693 0.022294898 0.1626382
-0.029222135 -0.4690744 0.02376834 -0.10699977 -0.18649843 0.05855453 0.025996787 -0.111620784
0.2045091 -0.16784531 0.20510846 -0.17916322 0.07957975 0.028997893 -0.064811625 -0.16724862
-0.04219409 -0.013287508 0.10256819 -0.16535069 -0.022459697 0.2195547 0.17277734 -0.06311303
-0.14869554 -0.120083354 -0.41766313 0.023444671 0.688043 -0.17256562 -0.092513055 0.05510733
0.33296224 -0.09077952 0.05368132 -0.05366553 0.15852043 0.11924025 0.088051304 0.2527814
-0.078211054 -0.020079706 0.2784327 -0.2977235 0.023120878 -0.07340831 -0.002131749 0.050622966
0.07727159 -0.59455055 -0.2999492 0.028593848 -0.23246557 -0.08781778 0.088568784 -0.16592437
0.13440874 0.0040899524 0.41927233 -0.04457207 -0.21027173 0.29168203 0.3104966 -0.09305016
0.368679 0.13925181 0.058699697 0.10176927 -0.5252533 -0.08738984 0.13206369 0.2971595
0.37837705 0.002824014 0.2148074 -0.19076242 0.07694388 0.09310456 -0.07198287 0.10690074
-0.44977513 -0.08907326 0.01772122 0.31639972 -0.18779479 -0.1111317 0.13005906 0.33764982
-0.047433745 0.38528076 -0.009381019 0.14433421 0.8899564 -0.18167809 0.06625072 0.39121696
-0.14679548 -0.2933199 -0.35262656 -0.13751814 -0.30396587 -0.19249964 0.11665759 0.15504731
-0.2949993 0.23897964 0.19995126 -0.11298316 -0.12624073 -0.28504068 0.024261609 0.029284017
00000000: f541 d93d bfc4 143e ce49 a7bd c90e b43e
00000010: 67bd 143c 3b2a 033d ca9b 0e3e 4ace 683d
00000020: dad5 583e c1ad 813d de9f 82be 558e 513e
00000030: 6673 f1bd f57f 3a3e 9f88 913d e6fd 3e3e
00000040: 7634 31bd 2bc1 0cbe d158 10be 2e39 753d
00000050: d411 c2bd 0ff6 63be ab99 a23d 7fed a4bd
00000060: 8500 fd3c 4bc3 d53d ecb4 f73c 1db8 4bbd
00000070: ed18 953d fcef 6a3e f473 cbbc 02f2 e53d
00000080: 994e 773e a65a 6d3e 5a4a 803e ff5c eb3d
00000090: f9d0 80be 6b78 c93e a21c 8fbd b97f 1a3d
000000a0: 7be1 17be ef5d 44bd 4382 2ebe 152b debd
000000b0: 4229 903d 5430 133e 4cc1 373d 43ea 303e
000000c0: 3c60 5e3c 440d 39be 2a48 133e 0c3c 1ebd
000000d0: a474 393e c395 9fbc 78ee 8c3d 4682 fa39
000000e0: 0dcc fdbc e747 b03d c622 b53d 4bcc 02be
000000f0: 96cc eb3d 4f3c 4d3e d451 a038 7974 ee3c
00000100: d1a0 9e3e 4ef1 723d 64ac 703e da75 93bc
00000110: f043 913d 47bd 813e 411f d33c dad7 54be
00000120: 9638 15bd 343f 243d 84a5 293e 6570 49be
00000130: 17ba 473e a3f0 6bbe c5e6 013e 615f ac3e
00000140: 1fcf 993e 36ec 773e e37d 683e aab3 733e
00000150: 8e51 e83d 9fcd 2b3e 8bf2 c6bd 2ea6 41bd
00000160: 5eb9 38be 884e d4be 6c5d a33d 7568 053e
00000170: 13b9 c6bd 4f46 7f3e d988 b7be 0ae7 1b3e
00000180: cb76 5dbe eae6 6f3e b73b 6b3e fd3e 3cbd
00000190: c1c6 913d 7cbd 4fbf 6cad a03d 29e5 52be
000001a0: 66d9 0f3c a5d5 dabd 761c 543e 3630 4abd
000001b0: 85f5 01bd da95 6dbd 2f40 f63d 0ee3 32bc
000001c0: 97c4 53bd 993f 31bd 2f90 f43c 6f7e 0ebe
000001d0: e14e 653e 7745 d63d 4607 aabd bca6 d23e
000001e0: a52d f8bd 17f4 d0bd 0e40 313e 023a 67be
000001f0: 7f60 90bc f356 97be d3b1 4cbe 4218 483c
00000200: 4192 09bc c467 7ebd 6a05 ecbd fc3a 60be
00000210: 0e08 af3c 30a4 dc3c 29c9 1f3b a35d d03c
00000220: 22a9 363e aada efbc 198e ab3e 0a8e 013d
00000230: d79c 323e 1d8b 043e caa3 b63c a18a 263e
00000240: 4263 efbc 852a f0be d2b5 c23c b222 dbbd
00000250: 72f9 3ebe e0d6 6f3d 37f7 d43c 7099 e4bd
00000260: d56a 513e a4df 2bbe f407 523e 9076 37be
00000270: b5fa a23d fd8c ed3c f5bb 84bd 3943 2bbe
00000280: b6d3 2cbd d9b3 59bc 450f d23d b151 29be
00000290: 66fd b7bc f3d2 603e 8bec 303e 6741 81bd
000002a0: a543 18be 43ee f5bd f1d7 d5be 0a0f c03c
000002b0: 9623 303f 0bb5 30be 7c77 bdbd 39b8 613d
000002c0: 077a aa3e 9dea b9bd f2e0 5b3d 63d0 5bbd
000002d0: 2e53 223e 3b34 f43d 3e54 b43d 906c 813e
000002e0: 1e2d a0bd 327e a4bc bb8e 8e3e 376f 98be
000002f0: ff67 bd3c 1957 96bd d0b4 0bbb 075a 4f3d
00000300: 9140 9e3d 7734 18bf f192 99be a53d ea3c
00000310: 740b 6ebe cfd9 b3bd 8d63 b53d 14e8 29be
00000320: 72a2 093e 0205 863b ddaa d63e 3491 36bd
00000330: 7951 57be 5957 953e 69f9 9e3e 1591 bebd
00000340: 7ec3 bc3e 0798 0e3e 186f 703d 686c d03d
00000350: 0077 06bf 72f9 b2bd b43b 073e 4a25 983e
00000360: a3ba c13e 1813 393b 79f6 5b3e 3957 43be
00000370: c194 9d3d 9bad be3d c16b 93bd c6ee da3d
00000380: ed48 e6be 0b6c b6bd 182c 913c 25ff a13e
00000390: 474d 40be 0499 e3bd 342e 053e 70e0 ac3e
000003a0: e349 42bd 8543 c53e d8b2 19bc 59cc 133e
000003b0: 2fd4 633f d209 3abe 75ae 873d 974d c83e
000003c0: 8e51 16be 072e 96be 788b b4be 8ed1 0cbe
000003d0: 6aa1 9bbe a01e 45be 2dea ee3d b9c4 1e3e
000003e0: 260a 97be 14b7 743e 06c0 4c3e b763 e7bd
000003f0: 4045 01be daf0 91be 48c0 c63c 09e5 ef3c

fc2.bias f4 [32]
0.028130341 -0.047418658 -0.11789613 -0.2305054 0.0360856 -0.08439053 -0.1312686 0.112381965
-0.030380258 -0.017059123 0.079987995 0.080210075 0.16436829 0.021658072 0.079915114 -0.09968125
-0.115958236 0.012065331 0.16212434 0.088111766 -0.016212555 -0.0056650615 0.035795797 0.14475589
0.046481565 0.07699737 0.0021906132 0.108899675 0.005900525 -0.017193006 0.11534893 -0.10880648
00000000: 9a71 e63c 113a 42bd 8773 f1bd 9c09 6cbe
00000010: 7ece 133d f1d4 acbd 476b 06be 8428 e63d
00000020: 05e0 f8bc 93bf 8bbc bfd0 a33d 2e45 a43d
00000030: 2950 283e 456c b13c 89aa a33d af25 ccbd
00000040: 837b edbd abad 453c ec03 263e f173 b43d
00000050: 31d0 84bc fba1 b9bb 9d9e 123d e33a 143e
00000060: 7463 3e3d ccb0 9d3d 6490 0f3b cb06 df3d
00000070: 3159 c13b 59d8 8cbc 0f3c ec3d efd5 debd

fc3.weight f4 [3, 32]
-0.30838972 -0.78901327 0.2342144 0.024475893 -0.03514362 0.15299734 -0.83058304 -0.23030643
-0.02588815 0.707437 -0.29574794 -0.19229223 0.46360382 0.3286681 -0.10169912 -0.22951677
-0.77883726 -0.7754976 -0.11782649 0.2906512 -0.33531576 0.47832823 -0.24030666 0.30094436
-0.048626233 0.46001625 -0.4571123 0.41452098 0.24174175 -0.55025625 0.61299825 -0.19364448
0.16203128 -0.15487666 -0.28458282 -0.0948264 -0.06188365 0.7108211 -0.16116272 -0.3271225
0.09066173 0.32621115 0.0830515 0.18186784 -0.12762773 0.5125604 1.6926811 -0.34208986
-0.4197513 -0.050311964 1.4779373 0.17728625 0.1982656 -0.23613453 0.3171131 -0.2777022
2.524798 -0.11981605 0.33767316 0.12826894 -0.35079336 0.021756068 0.9629402 -0.15323262
-0.01175925 -0.19574393 -0.5278959 -0.90731424 -0.007234558 -0.6779171 0.051678993 0.472569
-0.63309675 -0.55483365 0.3575146 0.6077045 0.15849651 0.08849276 -0.4136303 0.26316708
-0.22457449 0.23754297 0.047282062 -0.24787757 -0.027849726 -0.24350297 0.2832151 0.32869214
0.12087649 -0.11118283 -0.5295396 0.05974019 0.42915443 -0.43833184 0.1526804 -0.34859574
00000000: 42e5 9dbe c6fc 49bf e6d5 6f3e ab81 c83c
00000010: c2f2 0fbd 56ab 1c3e 17a1 54bf 73d5 6bbe
00000020: 6313 d4bc 971a 353f 466c 97be 41e8 44be
00000030: 7b5d ed3e 2f47 a83e a147 d0bd 7206 6bbe
00000040: e161 47bf 0387 46bf 044f f1bd 3cd0 943e
00000050: 82ae abbe 70e7 f43e f312 76be 6115 9a3e
00000060: 4d2c 47bd 4087 eb3e a00a eabe 183c d43e
00000070: 268b 773e 98dd 0cbf 74ed 1c3f bd4a 46be
00000080: 87eb 253e fd97 1ebe d7b4 91be 5834 c2bd
00000090: b679 7dbd 5ff8 353f d707 25be 9a7c a7be
000000a0: dbac b93d 2605 a73e e816 aa3d 903b 3a3e
000000b0: d8b0 02be 2937 033f c6a9 d83f 6726 afbe
000000c0: a4e9 d6be eb13 4ebd 0d2d bd3f 878a 353e
000000d0: 2306 4b3e 40cd 71be a65c a23e fc2e 8ebe
000000e0: 4a96 2140 1e62 f5bd 7fe3 ac3e ef58 033e
000000f0: 309b b3be c839 b23c 4083 763f 03e9 1cbe
00000100: dfa9 40bc 1971 48be 3024 07bf bf45 68bf
00000110: df0f edbb fa8b 2dbf 5aad 533d 90f4 f13e
00000120: a112 22bf 9409 0ebf 270c b73e 8692 1b3f
00000130: e94c 223e b13b b53d 5ac7 d3be d6bd 863e
00000140: dbf6 65be 773e 733e d6aa 413d 9ed3 7dbe
00000150: 1c25 e4bc d858 79be 9201 913e 564a a83e
00000160: 188e f73d d3b3 e3bd e88f 07bf 21b2 743d
00000170: 21ba db3e 086d e0be 4058 1c3e 247b b2be

fc3.bias f4 [3]
0.2608849 0.092517585 0.060932912
00000000: b592 853e dc79 bd3d ca94 793d

exp_avg f4 [64, 12]
-0.0055674664 0.0051129316 -0.0003805978 0.0038069233 0.0051681343 -0.0034825492 0.0055853045 -0.0041141897
-0.00065204286 -0.006637398 0.0027393734 -0.0029252723 0.0030324827 -0.0021892516 -0.00019951118 -0.00027392004
0.00078940915 -0.0013995437 -0.0009548035 0.0037815238 -0.0014580914 0.0003451481 -0.004571992 0.0018532458
-0.0023939942 0.0014167523 0.0005889808 0.0015832251 0.0018813877 -0.00043245745 0.00083696557 -0.001699785
-0.0015711251 -0.0034398641 0.00083744276 0.000572623 -0.0044479324 -0.0004376455 0.00021980658 0.0017021544
0.002800412 0.0009694153 -0.000564533 0.0014135449 -0.00313998 -0.005459647 0.0022136886 0.00036775178
-0.0029391302 0.002657261 0.00034689187 0.0029780886 0.0009954032 0.00046174956 0.0006679273 -0.003141033
-0.0011266953 -0.0026108408 0.0024622246 0.0012204583 0.0010518377 -0.0010530623 -0.0006317824 -0.00066099764
-0.0012231112 0.00038065552 0.00038591106 0.0020325808 0.00033015653 0.003389636 -0.0005955995 -0.002219502
0.0048576165 0.0018876841 -0.0041162116 -0.0029290707 -0.002174235 0.0030333467 -0.0020490428 0.0011231997
0.0034886824 0.006188783 -0.0036803582 -0.0017936381 0.005126064 -0.0032828255 0.0009217852 -0.0020306811
-0.0033463947 -0.0013144106 -0.0038238317 0.0026096217 -0.0001591712 0.0031588331 -0.0021325648 0.002473349
-0.0062484303 0.0002090416 0.0024416398 0.0017526249 0.0034428893 0.000387334 -0.0004984475 -0.0010806347
-0.00054360885 -0.0050840154 0.0016139415 -0.0026633064 0.0030081314 -8.301883e-05 -5.259937e-06 -0.00023097354
-0.00094117405 0.0005946218 -0.00024960484 0.001442624 0.0014326716 0.0029476183 -0.0001736357 -0.0013743603
-0.0008640024 0.0035689478 0.0018315075 -0.0014036584 -0.001234181 0.0007962857 -0.0009511469 -0.0024939508
0.0005036758 0.0028572162 0.0002642916 0.00034946544 0.0061365436 -0.0044207107 -0.002693164 -0.003187538
-0.0062851836 -0.00044618562 -0.0074635306 0.002661135 0.0015299107 0.009223272 -0.0026329907 0.0029412024
0.00295087 -0.00020919266 -0.0013663784 -0.00033797225 -0.00034733608 -0.001370535 -0.00054375274 0.001538114
2.0194734e-06 0.0052857096 -0.001541233 -0.0030106767 0.001562942 -0.0023745943 0.00090169464 -0.00093004544
-0.00041748336 -0.00067427347 -0.0013275557 0.0020512384 -0.000232866 -6.482348e-05 -0.0023853353 0.0015719391
-0.0064197304 0.004939611 -0.0014600331 0.0031169492 0.00335234 0.002306866 0.002824927 -0.00501575
-0.0034993703 -0.003417022 0.002184882 0.00093493884 -0.0010920874 0.0033097286 -0.0014000838 -8.219993e-05
0.0019998273 -0.0017456212 0.0027896073 -0.0010043868 -0.0011700253 -0.0014058017 0.0019405793 -0.004307854
-0.005221128 0.0025225119 0.0033678955 0.003396652 0.002195188 0.00070293783 0.0020783585 -0.0021598085
-0.001683115 -0.0077277264 0.0050060637 0.0003928882 0.0024956667 0.001004494 0.00026468455 0.00021355793
-0.001879084 -0.0006083976 -5.3267548e-05 0.0011613532 0.0007071986 0.0015674857 -0.0021556136 0.0021638677
-0.00075735216 0.0015367796 0.0013639627 0.0014884376 0.0008267628 0.0013509506 -0.00015941226 7.328038e-06
0.00033408077 -0.00013078042 -0.0002830275 -0.0010818949 -0.0059950575 0.0027965128 -0.0013625199 0.0010932705
0.004621148 0.0032143372 0.0046576243 -0.0036443444 -0.0027431846 -0.0039695343 -0.00024384688 -0.0028839784
0.00042382034 0.00054223347 0.00015074224 -0.000251007 0.0020715368 -0.0016273285 -0.0011200221 0.002154085
-0.00011439375 -0.0012866999 -0.004242565 -0.00013211732 0.001780832 0.0015864009 -0.0002754399 -0.0029940489
00000000: 4b6f b6bb 618a a73b f98a c7b9 937d 793b
00000010: 7459 a93b 7b3b 64bb ee04 b73b 53d0 86bb
00000020: dbed 2aba 887e d9bb 0f87 333b edb5 3fbb
00000030: 9ebc 463b 8c79 0fbb e033 51b9 ed9c 8fb9
00000040: 5af0 4e3a e570 b7ba c74b 7aba 71d3 773b
00000050: 6e1d bfba fef4 b439 a6d0 95bb 9ce8 f23a
00000060: 8fe4 1cbb 52b2 b93a d565 1a3a 3884 cf3a
00000070: e598 f63a 75bb e2b9 cf67 5b3a 52cb deba
00000080: 36ee cdba 586f 61bb d587 5b3a 141c 163a
00000090: f6bf 91bb c973 e5b9 e17b 6639 d31a df3a
000000a0: 1e87 373b 5c20 7e3a 2bfd 13ba b246 b93a
000000b0: 1fc8 4dbb d7e6 b2bb 8813 113b cfce c039
000000c0: 6c9e 40bb 7125 2e3b 0adf b539 092c 433b
000000d0: 3078 823a fa16 f239 d817 2f3a cad9 4dbb
000000e0: 9fad 93ba a41a 2bbb 465d 213b c9f7 9f3a
000000f0: d1dd 893a e806 8aba 339e 25ba cd46 2dba
00000100: cd50 a0ba b892 c739 1b54 ca39 0c35 053b
00000110: dc18 ad39 a824 5e3b 0122 1cba 1175 11bb
00000120: a42c 9f3b 2b6c f73a 49e1 86bb a7f5 3fbb
00000130: 9c7d 0ebb 1dcb 463b 3c49 06bb 5438 933a
00000140: 61a2 643b 46cb ca3b 2a32 71bb 8218 ebba
00000150: 8bf8 a73b ac24 57bb f5a3 713a 2d15 05bb
00000160: 304f 5bbb 4d48 acba 4099 7abb 3006 2b3b
00000170: 32e7 26b9 6d04 4f3b 80c2 0bbb e917 223b
00000180: a2bf ccbb 2d32 5b39 eb03 203b 55b8 e53a
00000190: 19a2 613b 1713 cb39 3faa 02ba 15a4 8dba
000001a0: f980 0eba d097 a6bb e48a d33a de8a 2ebb
000001b0: 1224 453b 651a aeb8 847e b0b6 7d31 72b9
000001c0: 1fb9 76ba 65e0 1b3a 65dd 82b9 6e16 bd3a
000001d0: 7bc8 bb3a d42c 413b fa11 36b9 e123 b4ba
000001e0: 387e 62ba 02e5 693b 320f f03a f6fa b7ba
000001f0: 3ec4 a1ba d4bd 503a 6356 79ba 8d71 23bb
00000200: 1c09 043a 2240 3b3b 9e90 8a39 7538 b739
00000210: 0f15 c93b 9cdb 90bb cb7f 30bb 03e6 50bb
00000220: f1f3 cdbb 05ee e9b9 a290 f4bb 7066 2e3b
00000230: 4987 c83a 351d 173c 418e 2cbb 30c1 403b
00000240: 6263 413b ba5a 5bb9 0d18 b3ba de31 b1b9
00000250: a91a b6b9 86a3 b3ba a18a 0eba 8b9a c93a
00000260: 4a86 0736 bf33 ad3b 3303 caba c64e 45bb
00000270: a2db cc3a 159f 1bbb b45f 6c3a 4bce 73ba
00000280: abe1 dab9 bac1 30ba 6101 aeba 126e 063b
00000290: 7e2d 74b9 d7f1 87b8 4953 1cbb 8609 ce3a
000002a0: 9a5c d2bb 76dc a13b 955e bfba bb45 4c3b
000002b0: efb2 5b3b ca2e 173b 6922 393b 295b a4bb
000002c0: b155 65bb 1ef0 5fbb 3d30 0f3b af16 753a
000002d0: 5f24 8fba 08e8 583b 0483 b7ba c062 acb8
000002e0: 890f 033b 54cd e4ba d8d1 363b a1a5 83ba
000002f0: 895b 99ba e142 b8ba 095b fe3a e628 8dbb
00000300: ff15 abbb ba50 253b e9b7 5c3b 5d9a 5e3b
00000310: 25dd 0f3b 5c45 383a 1235 083b 938b 0dbb
00000320: f89b dcba de38 fdbb e809 a43b 90fc cd39
00000330: 578e 233b 3aa9 833a 5cc5 8a39 85ee 5f39
00000340: 994b f6ba df7c 1fba 986b 5fb8 8c38 983a
00000350: 4b63 393a 1874 cd3a 3245 0dbb adcf 0d3b
00000360: 0b89 46ba c46d c93a fec6 b23a ae17 c33a
00000370: 1dbb 583a 6112 b13a e727 27b9 5ee3 f536
00000380: 9027 af39 1a22 09b9 4f63 94b9 5ece 8dba
00000390: 3072 c4bb b345 373b 9596 b2ba 124c 8f3a
000003a0: 006d 973b a1a7 523b fc9e 983b f4d5 6ebb
000003b0: 00c7 33bb de12 82bb 26b1 7fb9 2101 3dbb
000003c0: 3434 de39 ac24 0e3a 9010 1e39 9799 83b9
000003d0: 9fc2 073b 154c d5ba b5cd 92ba 8d2b 0d3b
000003e0: ade6 efb8 7ca6 a8ba 3705 8bbb f988 0ab9
000003f0: ce6a e93a c8ee cf3a eb68 90b9 ce37 44bb

exp_avg_sq f4 [64, 12]
0.00051135465 0.00083636004 0.00061152055 0.00068646896 0.00055272283 0.00058494584 0.00050720724 0.0005135472
0.0005579458 0.00056380965 0.0006727539 0.0005747477 0.0001725736 0.0002640624 0.00018866734 0.0002085256
0.00013590988 0.00016300261 0.00015614211 0.00014480011 0.00015015394 0.0001585095 0.00022274781 0.00016741837
5.2696803e-05 4.394238e-05 4.8075315e-05 4.713673e-05 4.5292025e-05 3.6763548e-05 3.6938523e-05 3.9574745e-05
3.786682e-05 4.2610627e-05 4.096254e-05 4.0717427e-05 5.265831e-05 5.6124663e-05 5.5073302e-05 6.0701794e-05
6.622114e-05 4.3015356e-05 4.2949738e-05 4.1595074e-05 4.8180027e-05 5.96087e-05 6.843962e-05 4.9179664e-05
0.00012695135 0.0001840092 0.00013733083 0.00014697608 0.00010023074 0.00011455316 0.00011126531 0.000109045155
0.000119404125 0.00012507795 0.00016543508 0.00012344401 3.9953014e-05 5.440132e-05 5.0731775e-05 4.702036e-05
3.7501213e-05 4.1252795e-05 3.4170374e-05 3.9066024e-05 4.4801975e-05 4.081264e-05 4.232997e-05 4.1321313e-05
0.000348722 0.0004973382 0.00043553935 0.00046645608 0.00041016913 0.00036693513 0.00033771934 0.00034732698
0.0003619886 0.0003839491 0.00048484709 0.0003806044 0.0001635824 0.00021672697 0.0001862204 0.00021488592
0.0002046936 0.000183418 0.00015747378 0.00014967236 0.00016914243 0.00017795232 0.00024416804 0.00018346627
0.00020478536 0.00024232018 0.00023578462 0.00023454474 0.0002803482 0.00020343855 0.00019338846 0.00018172062
0.00020720424 0.00021836943 0.000285257 0.00022817771 4.4680666e-05 5.4193897e-05 4.1485844e-05 5.0619252e-05
4.263797e-05 3.8082067e-05 3.6255988e-05 3.199196e-05 3.9677423e-05 4.286197e-05 5.9225673e-05 3.8401573e-05
5.738935e-05 9.414694e-05 7.5734395e-05 8.1843296e-05 6.952847e-05 6.6234745e-05 5.322394e-05 6.239673e-05
5.326741e-05 5.657677e-05 6.253654e-05 5.9708924e-05 0.00041494716 0.0005487769 0.00044944923 0.0005520181
0.0004798105 0.00045868327 0.00038213332 0.0003898139 0.00042606826 0.00042493822 0.00055407523 0.00044329272
7.494437e-05 0.00016061244 7.745622e-05 8.754362e-05 5.5768247e-05 8.183512e-05 7.707682e-05 6.88458e-05
8.331277e-05 7.4039446e-05 0.000115991636 7.800224e-05 3.122073e-05 4.4262924e-05 3.3347005e-05 3.275123e-05
2.4183619e-05 3.3704473e-05 3.0247069e-05 3.111322e-05 2.971317e-05 2.869896e-05 3.4056895e-05 3.20499e-05
0.00016089072 0.00023618019 0.00017521487 0.00016330235 0.00013813855 0.00014434636 0.00013949885 0.0001429283
0.00015859076 0.00014902907 0.0001746708 0.00015282472 0.0001365287 0.00020182409 0.00015363446 0.00016995198
0.00016674506 0.00014075347 0.00012510925 0.00013880109 0.00014131748 0.00016033623 0.00015993106 0.00015046567
0.000588802 0.0008893561 0.000688527 0.0007292254 0.00064171077 0.00064716046 0.0005458399 0.000575573
0.00061408296 0.00063152093 0.0008094995 0.000646552 4.8974325e-05 5.8685087e-05 6.3678235e-05 7.231183e-05
8.123593e-05 5.9116315e-05 5.4017037e-05 5.762345e-05 5.5066954e-05 6.297741e-05 6.533016e-05 6.1107006e-05
1.6243157e-05 2.775683e-05 1.9108102e-05 2.0888969e-05 1.9543544e-05 2.2582002e-05 1.3228893e-05 1.4439521e-05
1.4118751e-05 1.4704966e-05 1.6257887e-05 1.4599322e-05 0.00022503536 0.00026700817 0.00022986284 0.00026056758
0.00021527564 0.00019247174 0.00019839389 0.00017066298 0.00019840746 0.0002079929 0.00028871055 0.00021158857
0.00020357208 0.00027827802 0.00016728537 0.00017275107 9.552171e-05 0.00014046382 0.00015582357 0.00016509334
0.00015470668 0.0001416584 0.0001765847 0.00014938398 0.00019059441 0.0003815811 0.00025729556 0.0003063648
00000000: 6e0c 063a 2c3f 5b3a 734e 203a 27f4 333a
00000010: 9ae4 103a 0d57 193a 1af6 043a 929f 063a
00000020: 1c43 123a a0cc 133a c05b 303a aaaa 163a
00000030: dff4 3439 db71 8a39 01d5 4539 aaa7 5a39
00000040: 0883 0e39 aeeb 2a39 14ba 2339 7cd5 1739
00000050: a472 1d39 9235 2639 6991 6939 078d 2f39
00000060: c306 5d38 c54e 3838 7aa4 4938 aeb4 4538
00000070: f1f7 3d38 8f32 1a38 70ee 1a38 0ffd 2538
00000080: 30d3 1e38 d0b8 3238 31cf 2b38 01c8 2a38
00000090: 6edd 5c38 6667 6b38 82fe 6638 0e9a 7e38
000000a0: 34e0 8a38 636b 3438 ee24 3438 5f76 2e38
000000b0: e914 4a38 5b04 7a38 3e87 8f38 4346 4e38
000000c0: 3e1e 0539 98f2 4039 7700 1039 971d 1a39
000000d0: f832 d238 423c f038 1c57 e938 2caf e438
000000e0: 9a68 fa38 5b27 0339 a478 2d39 c070 0139
000000f0: 3993 2738 f92c 6438 d4c8 5438 ba37 4538
00000100: 9f4a 1d38 da06 2d38 2952 0f38 d3da 2338
00000110: c1e9 3b38 3d2e 2b38 768b 3138 6c50 2d38
00000120: add4 b639 cd5f 023a 1a59 e439 ad8e f439
00000130: f80b d739 3361 c039 ec0f b139 7019 b639
00000140: 4ac9 bd39 c74c c939 1333 fe39 dc8b c739
00000150: 5187 2b39 3441 6339 2844 4339 0053 6139
00000160: 05a3 5639 e553 4039 8c1f 2539 5ef1 1c39
00000170: d35b 3139 b698 3a39 ae03 8039 da60 4039
00000180: a7bb 5639 5417 7e39 f43c 7739 20f0 7539
00000190: b3fb 9239 1f52 5539 52c8 4a39 428c 3e39
000001a0: f744 5939 19fa 6439 8c8e 9539 fd42 6f39
000001b0: 8067 3b38 414e 6338 1601 2e38 0250 5438
000001c0: 2cd6 3238 4fba 1f38 9211 1838 1b2f 0638
000001d0: 4f6b 2638 b1c6 3338 1569 7838 6011 2138
000001e0: 58b5 7038 c170 c538 98d3 9e38 49a3 ab38
000001f0: d0cf 9138 82e7 8a38 c53c 5f38 fdda 8238
00000200: 726b 5f38 d84c 6d38 0d26 8338 f86f 7a38
00000210: 448d d939 cbdb 0f3a 0ea4 eb39 4fb5 103a
00000220: 138f fb39 6d7b f039 1159 c839 f05f cc39
00000230: ea61 df39 3eca de39 5c3f 113a be69 e839
00000240: 742b 9d38 136a 2839 fe6f a238 a097 b738
00000250: b3e8 6938 e59e ab38 4da4 a138 4f61 9038
00000260: 34b8 ae38 a045 9b38 8940 f338 2295 a338
00000270: 01f3 0238 f4a6 3938 13de 0b38 5e5e 0938
00000280: eddd ca37 e75d 0d38 16bb fd37 917f 0238
00000290: 8c40 f937 8cbe f037 50d8 0e38 516d 0638
000002a0: c6b4 2839 23a7 7739 e2b9 3739 243c 2b39
000002b0: 49d9 1039 ae5b 1739 7046 1239 06df 1539
000002c0: 624b 2639 b044 1c39 d627 3739 933f 2039
000002d0: 2529 0f39 bea0 5339 f018 2139 2335 3239
000002e0: 49d8 2e39 3997 1339 c22f 0339 228b 1139
000002f0: 9f2e 1439 ee1f 2839 2bb3 2739 52c6 1d39
00000300: d559 1a3a ad23 693a 447e 343a 7d29 3f3a
00000310: 7b38 283a 34a6 293a b216 0f3a 0de2 163a
00000320: 69fa 203a a78c 253a 9834 543a 5f7d 293a
00000330: c869 4d38 a224 7638 fe8a 8538 1ea6 9738
00000340: 355d aa38 a9f3 7738 5a90 6238 b5b0 7138
00000350: b1f7 6638 bd12 8438 dd01 8938 9326 8038
00000360: ea41 8837 57d7 e837 564a a037 b83a af37
00000370: 71f1 a337 7b6e bd37 aaf1 5d37 4541 7237
00000380: 93df 6c37 59b5 7637 8c61 8837 9cef 7437
00000390: 78f7 6b39 3bfd 8b39 5607 7139 ca9c 8839
000003a0: 9dbb 6139 3dd2 4939 f407 5039 fff3 3239
000003b0: 990b 5039 ab18 5a39 135e 9739 e0dd 5d39
000003c0: f775 5539 d8e5 9139 5369 2f39 8324 3539
000003d0: d452 c838 7849 1339 9264 2339 e81c 2d39
000003e0: c238 2239 238a 1439 9829 3939 f5a3 1c39
000003f0: 4cda 4739 f30e c839 a0e5 8639 969f a039

exp_avg f4 [64]
-0.00040992725 0.0017381202 0.0017182811 0.0029979483 0.0011666552 -2.7738244e-05 -0.00019216159 -0.005773497
0.0055411244 -0.0017488104 -0.00015158027 -0.0063840556 -0.0006322802 -9.322271e-05 0.002395049 0.0009487687
0.0054030414 -0.0007695679 -0.0008483287 0.007981318 0.0016797567 0.0035860778 -0.0074557643 -0.0011240679
0.00013572758 0.0034550223 -0.0009673769 0.008397858 -0.00041660236 0.0019921907 -0.0023845986 -0.0013025467
-0.0005280805 -0.00029007965 0.00036936585 -0.004652797 -0.0010575856 -0.006971149 0.0036266847 -0.0026395682
-0.0022045372 -0.0018737917 0.0004986297 0.0010751011 -0.00082988513 0.0075443424 0.0010438209 -0.0048115766
1.2576176e-05 -0.00053637795 -0.0027182007 0.00067352544 0.007034365 0.00021833637 0.0006612491 0.0012190199
0.0014681104 -0.0020588136 0.0052007902 -0.0009848031 -0.0010450962 8.801595e-05 0.0049298103 -0.0060117845
00000000: 81eb d6b9 a3d1 e33a f237 e13a 3a79 443b
00000010: 74ea 983a 6daf e8b7 fc7e 49b9 9a2f bdbb
00000020: 5292 b53b 5738 e5ba 85f1 1eb9 5731 d1bb
00000030: 9bbf 25ba 9080 c3b8 41f6 1c3b cab6 783a
00000040: ff0b b13b d4bc 49ba 6062 5eba 13c4 023c
00000050: 482b dc3a 6704 6b3b 7c4f f4bb 7655 93ba
00000060: 1852 0e39 a86d 623b 9197 7dba 2b97 093c
00000070: 6c6b dab9 6a8f 023b ed46 1cbb 37ba aaba
00000080: e26e 0aba d515 98b9 72a7 c139 7d76 98bb
00000090: af9e 8aba 3c6e e4bb acad 6d3b 9bfc 2cbb
000000a0: ff79 10bb 049a f5ba 79b6 023a 68ea 8c3a
000000b0: a68c 59ba 8836 f73b d1d0 883a 6eaa 9dbb
000000c0: 44fe 5237 b79b 0cba d723 32bb 878f 303a
000000d0: 8880 e63b 39f1 6439 ad57 2d3a 85c7 9f3a
000000e0: 9c6d c03a 29ed 06bb 646b aa3b 8214 81ba
000000f0: 9cfb 88ba 3495 b838 3f8a a13b 81fe c4bb

exp_avg_sq f4 [64]
0.0019177515 0.00067085837 0.00013594309 0.00012839002 0.00036362014 0.00013132546 0.0012695639 0.00055543333
0.0006315935 0.0001242857 0.0003461404 0.0014897347 0.00023764417 9.972421e-05 0.0005054654 0.0004655489
0.0020527756 0.00017252735 8.363394e-05 0.00061687897 0.00046617832 0.00071713456 0.00084385125 0.0002986569
0.00010263704 0.00015930178 0.00016703119 0.0018262543 0.0023637693 0.00031064643 0.00051196676 0.0002598127
0.00031890956 0.00027363663 0.0001342909 7.316614e-05 7.060168e-05 0.000245974 0.0003705176 0.00027810098
4.8951253e-05 0.00031776575 0.0004595239 0.00017953204 0.00022873632 0.0008772728 0.00042509363 0.00035060334
3.640435e-05 1.7112492e-05 0.00055816356 0.00041599668 0.0014494886 0.0005894164 0.00067713263 0.0010314081
0.00016404921 0.00048799254 0.0012711441 5.6359433e-05 9.028036e-05 0.00016255476 0.0017908706 0.0008222473
00000000: 105d fb3a 8bdc 2f3a f28b 0e39 6fa0 0639
00000010: 45a4 be39 69b4 0939 7f67 a63a 809a 113a
00000020: 8691 253a b052 0239 2e7a b539 3443 c33a
00000030: 1f30 7939 0723 d138 3581 043a ea14 f439
00000040: dc87 063b 75e8 3439 a164 af38 0cb6 213a
00000050: 6569 f439 16fe 3b3a e635 5d3a 0d95 9c39
00000060: d73e d738 3f0a 2739 1825 2f39 ed5e ef3a
00000070: 78e9 1a3b 42de a239 8235 063a 7837 8839
00000080: 5133 a739 e376 8f39 70d0 0c39 c670 9938
00000090: fd0f 9438 12f6 8039 0842 c239 15ce 9139
000000a0: 0251 4d38 cc99 a639 41ec f039 c440 3c39
000000b0: f0d8 6f39 c8f8 653a 1adf de39 2fd1 b739
000000c0: e0b0 1838 cc8c 8f37 b951 123a 211a da39
000000d0: c4fc bd3a 1183 1a3a 9a81 313a 5030 873a
000000e0: a004 2c39 40d9 ff39 859c a63a 7b63 6c38
000000f0: e654 bd38 7673 2a39 a5bb ea3a 158c 573a

exp_avg f4 [32, 64]
0.0004370864 0.00063204684 -3.5765457e-05 -0.00049849116 -0.00019384625 7.43418e-07 0.0003502571 -0.00048289323
-0.0004512138 -0.0001294394 0.00091458554 -0.00064359384 0.00032337225 0.00023909184 3.8803402e-05 0.00073272013
-0.00013642586 -0.00013201353 0.00046013217 -0.00032940536 0.0001964017 2.7803608e-05 7.4556774e-05 -4.9071223e-05
0.00017335656 0.00030225478 -0.00060331647 0.00067816 9.162221e-05 5.689144e-05 -0.00035334023 -3.1850832e-05
0.00038374763 0.00072708155 5.8236087e-06 -0.00017199192 0.00066719984 -0.00015755894 0.0003387437 -0.00016660905
0.00031209821 0.0005382658 3.3199904e-05 -0.00013860251 0.000134886 0.0006089096 0.00037719595 -0.00039410943
-0.0003112657 0.00034981905 -4.4866547e-06 2.483284e-05 0.00038308365 0.0007630319 -0.0001777495 5.1134553e-05
0.00036356857 -0.0001158846 -1.5233158e-05 0.0010708895 -0.00032079103 0.0009550091 0.0006157093 -0.00027351975
1.1251277e-06 0.0005025831 0.0004893506 0.0012645562 -0.0007948181 0.00039722948 -0.00065924553 0.0005978824
0.0007817909 0.00022817493 0.00021104654 -6.6440516e-05 0.00022837234 -0.0003643263 0.00087656034 -0.0002458927
0.0003484858 0.00036465295 0.001035791 -0.00058411015 -0.00025174464 -0.0005410249 -0.00060861214 -0.0002601455
-0.0007038178 -0.00041483913 -0.0003898315 0.00096170156 0.0002481412 0.00065353443 -0.00010794723 -0.0008787993
-0.00058563263 4.5439305e-05 -0.00013118159 0.0009765606 0.0010880111 0.0001467449 0.0007586738 0.00011641512
0.0001650346 -0.000772622 -0.00040854583 -0.00031267802 -5.1196557e-06 0.0010506307 0.0010006286 0.00012641658
0.0005698912 0.0007421036 0.0003613354 0.00034186328 -0.0004256844 0.000726435 -0.0005845743 -0.0005914344
-0.00013700953 -0.00074927177 0.0018712702 0.00077031384 5.8734247e-05 0.0008087599 0.0014078459 0.00037066152
-0.00094042363 0.0009474195 0.0005112078 0.0015587067 -0.00035616604 0.0012863117 -0.0006171405 0.0019411894
0.0011858137 0.00046328144 -0.00015289024 0.0004427776 0.0006156322 -4.3364715e-05 0.0015565947 -0.00096892455
0.001631053 0.0003823467 0.0004322732 -0.00033485517 7.944044e-05 6.616036e-05 2.141616e-05 -0.000210475
-0.0008310496 -0.00025553227 0.00017081691 0.0008782453 -0.0001322153 0.00085714285 0.0007421701 -0.00052672165
0.00015384701 -0.00034040274 0.00046143928 0.0006412074 0.00068715477 0.0004126248 0.00038618912 0.0012728302
-8.9150126e-05 -0.0009790872 -0.0003073602 2.736285e-06 -0.00054061954 -0.00028565206 0.0001173095 0.0009132618
0.0013432818 0.0008332729 0.00068731536 0.0008480061 0.0007806268 0.0006085365 -0.000497829 -0.00056960626
0.00021848221 0.00039895496 0.0024036346 0.00036854876 0.000909468 -3.5347427e-06 0.0014228877 0.0011464074
-0.0020252888 -0.00027200207 -0.000111143556 0.00047691076 -0.00045534025 0.00060038094 -0.0009794311 -0.00061424467
-0.0004196759 0.00043826044 -0.0014681839 -0.0014960443 9.229811e-05 -0.0005799439 -2.3408016e-05 -0.0008962938
0.00056472357 7.060178e-05 -0.00021652911 -0.0010207488 -0.00012096983 -0.00055786094 -0.0005644021 -0.0006064949
-0.00086214533 -4.2307347e-05 -0.00040667897 5.7918758e-05 -0.0009891341 -0.00035107843 7.981302e-06 -0.0009902442
-0.00070642575 -0.00072569394 -0.00038605128 -0.00034466633 1.3061285e-05 0.00015208693 -1.99078e-05 0.00037952082
-0.00022807352 -0.00079793826 -0.00069677905 -0.00097332784 -0.0006104192 -0.0010547295 -0.00053358125 0.00013619367
-0.00018183015 0.0002859794 -0.00050810503 -0.00042908103 -5.955751e-05 -0.00056855334 -0.0013680218 -0.0011593554
-2.2495371e-05 -0.000946518 0.0003563698 -0.00022167781 -0.0002440292 -0.000608993 3.4081353e-05 0.0004898272
00000000: be28 e539 f2af 253a de02 16b8 2dad 02ba
00000010: 3543 4bb9 4c8f 4735 b6a2 b739 d52c fdb9
00000020: e490 ecb9 20ba 07b9 ccc0 6f3a dab6 28ba
00000030: 4a8a a939 bab4 7a39 d6c0 2238 0414 403a
00000040: 8a0d 0fb9 1d6d 0ab9 e53d f139 0ab4 acb9
00000050: 2ef1 4d39 cb3b e937 5d5b 9c38 d3d1 4db8
00000060: 0cc7 3539 f377 9e39 e227 1eba 8cc6 313a
00000070: 4d25 c038 b89e 6e38 8640 b9b9 9297 05b8
00000080: bc31 c939 9e99 3e3a 6b68 c336 bb58 34b9
00000090: 06e7 2e3a 6836 25b9 6999 b139 c7b3 2eb9
000000a0: 1da1 a339 681a 0d3a 2040 0b38 d455 11b9
000000b0: 2f70 0d39 3b9f 1f3a 62c2 c539 79a0 ceb9
000000c0: 6031 a3b9 eb67 b739 128c 96b6 1e50 d037
000000d0: 9ed8 c839 3406 483a 4562 3ab9 4f79 5638
000000e0: 599d be39 1207 f3b8 ea91 7fb7 175d 8c3a
000000f0: d82f a8b9 9359 7a3a 8d67 213a 3367 8fb9
00000100: 1803 9735 c8bf 033a c347 003a 77bf a53a
00000110: 575b 50ba 3d43 d039 38d1 2cba 35bb 1c3a
00000120: 19f1 4c3a 3e42 6f39 604c 5d39 fb55 8bb8
00000130: 3c77 6f39 0c03 bfb9 f8c8 653a 29eb 80b9
00000140: f9b4 b639 e42e bf39 61c3 873a f81e 19ba
00000150: 98fc 83b9 91d3 0dba 458b 1fba 2364 88b9
00000160: 6a80 38ba c47e d9b9 4c62 ccb9 b31a 7c3a
00000170: f318 8239 f451 2b3a ba61 e2b8 395f 66ba
00000180: 2485 19ba 1596 3e38 ca8d 09b9 dfff 7f3a
00000190: 989b 8e3a 89df 1939 bde1 463a e423 f438
000001a0: 230d 2d39 c989 4aba 1832 d6b9 efee a3b9
000001b0: 82c9 abb6 51b5 893a 8627 833a b18e 0439
000001c0: c064 153a bb89 423a 9e71 bd39 1d3c b339
000001d0: 652e dfb9 3a6e 3e3a 1e3e 19ba 7e0a 1bba
000001e0: 37aa 0fb9 c76a 44ba 6945 f53a e3ee 493a
000001f0: 6b59 7638 f502 543a 7887 b83a 5955 c239
00000200: c386 76ba 3f5c 783a 9302 063a 854d cc3a
00000210: ccbb bab9 7599 a83a 99c7 21ba 826f fe3a
00000220: 4e6d 9b3a 95e4 f239 2951 20b9 9a24 e839
00000230: 6162 213a 82e2 35b8 a706 cc3a 6dff 7dba
00000240: 0fc9 d53a b575 c839 baa2 e239 808f afb9
00000250: 4399 a638 93bf 8a38 daa6 b337 f4b2 5cb9
00000260: cbda 59ba f6f8 85b9 511d 3339 0b3a 663a
00000270: 46a3 0ab9 e2b1 603a 318e 423a b113 0aba
00000280: fe51 2139 1578 b2b9 55ed f139 b316 283a
00000290: 2d22 343a 9055 d839 6d79 ca39 18d5 a63a
000002a0: 1cf6 bab8 b754 80ba 3025 a1b9 05a1 3736
000002b0: 5db8 0dba 92c3 95b9 0f04 f638 f667 6f3a
000002c0: 0f11 b03a ff6f 5a3a f42c 343a ba4c 5e3a
000002d0: faa2 4c3a 3186 1f3a bd80 02ba a151 15ba
000002e0: 5f18 6539 d42a d139 4c86 1d3b c739 c139
000002f0: 5d69 6e3a 6b36 6db6 3080 ba3a 0d43 963a
00000300: b5ba 04bb 809b 8eb9 be15 e9b8 e109 fa39
00000310: bcba eeb9 e262 1d3a 4160 80ba 4305 21ba
00000320: f207 dcb9 52c6 e539 1470 c0ba eb16 c4ba
00000330: 2c90 c138 6007 18ba 555c c4b7 42f5 6aba
00000340: f509 143a 0b10 9438 170c 63b9 a5ca 85ba
00000350: 2fb1 fdb8 6a3d 12ba 62f4 13ba 2ffd 1eba
00000360: 9801 62ba 2b73 31b8 8737 d5b9 cbed 7238
00000370: d5a5 81ba f310 b8b9 6ee7 0537 15cb 81ba
00000380: 6e2f 39ba 7f3c 3eba ed66 cab9 55b4 b4b9
00000390: cb21 5b37 8679 1f39 adff a6b7 6cfa c639
000003a0: 0527 6fb9 bb2c 51ba 0da8 36ba ed26 7fba
000003b0: 8a04 20ba d93e 8aba 08e0 0bba 36cf 0e39
000003c0: a9a9 3eb9 81ef 9539 5a32 05ba 48f6 e0b9
000003d0: 64cd 79b8 f80a 15ba 324f b3ba 83f5 97ba
000003e0: 71b4 bcb7 bf1f 78ba 25d7 ba39 2f72 68b9
000003f0: 17e2 7fb9 d4a4 1fba 93f2 0e38 bf67 003a

exp_avg_sq f4 [32, 64]
1.9479454e-05 9.74195e-06 8.1163425e-06 7.913728e-06 1.914863e-05 5.1320903e-06 1.1458725e-05 2.488464e-05
1.5245479e-05 3.553247e-06 2.5148845e-05 2.0983682e-05 3.47682e-06 3.1432583e-06 1.4775407e-05 1.6659222e-05
1.3601315e-05 1.2928937e-06 6.8311624e-06 5.121509e-06 2.9024511e-06 3.0481344e-06 2.3696082e-05 1.7434895e-06
8.124996e-06 1.9262302e-06 1.4146371e-05 2.3779754e-05 1.7601646e-05 7.16683e-06 2.385028e-06 2.0511887e-05
1.706446e-05 2.7784112e-05 1.0372508e-05 3.6983947e-06 1.0900692e-05 1.8275063e-07 6.641477e-06 1.1485234e-05
7.4899244e-06 8.130499e-06 1.5070151e-06 8.936289e-06 1.3974458e-06 2.2247426e-05 1.08681925e-05 6.6036305e-06
8.82441e-06 7.826526e-06 1.5940099e-05 1.3682144e-05 2.0058387e-05 1.1182688e-05 1.0434048e-05 3.5846947e-06
6.504672e-06 8.167299e-06 1.9305107e-05 1.62159e-05 7.6379065e-06 2.1341724e-05 2.3018949e-05 7.133547e-06
5.6909787e-05 2.9896686e-05 2.437456e-05 2.3463746e-05 4.664876e-05 1.81073e-05 3.3823104e-05 7.35188e-05
5.002237e-05 1.0350426e-05 7.124101e-05 5.6174147e-05 1.0319322e-05 5.4946936e-06 3.428033e-05 4.5559922e-05
4.7431226e-05 4.5358124e-06 1.9434165e-05 1.41661485e-05 7.5242965e-06 7.3071888e-06 5.863379e-05 4.0396917e-06
1.7509376e-05 3.0996248e-06 3.6058318e-05 7.0763504e-05 5.1430627e-05 1.5476297e-05 5.715318e-06 5.5320488e-05
4.0670013e-05 8.009106e-05 2.7612135e-05 1.0171978e-05 3.4529872e-05 2.4542706e-07 2.3225999e-05 2.8318202e-05
1.9314346e-05 1.8116298e-05 3.815234e-06 2.0273872e-05 4.154403e-06 6.569946e-05 3.655478e-05 1.776949e-05
2.4500592e-05 2.5350291e-05 4.9358114e-05 3.8905506e-05 5.234906e-05 3.4678516e-05 2.9347855e-05 1.0084307e-05
1.730305e-05 2.0004229e-05 6.652973e-05 4.3906548e-05 2.4573057e-05 5.3250373e-05 7.813196e-05 2.3631228e-05
5.653431e-05 3.07709e-05 8.556498e-06 2.0713253e-05 3.6562895e-05 1.1892832e-05 3.8825707e-05 0.0001019572
4.2872707e-05 1.0500967e-05 6.820523e-05 7.073738e-05 8.125401e-06 9.07184e-06 3.4448174e-05 3.9054823e-05
4.27214e-05 2.6645562e-06 1.9962608e-05 1.8175768e-05 7.810372e-06 6.902317e-06 6.2600164e-05 5.3837593e-06
1.7850844e-05 3.4019802e-06 3.201868e-05 3.0968204e-05 3.1543957e-05 1.7804281e-05 1.0257406e-05 4.8747468e-05
3.6740203e-05 5.175743e-05 3.7084374e-05 1.111646e-05 2.244342e-05 6.878981e-07 1.5286185e-05 2.24444e-05
7.733273e-06 1.9918385e-05 5.240858e-06 3.3228684e-05 5.154486e-06 4.7099107e-05 2.8076713e-05 2.0716696e-05
3.301205e-05 6.4923775e-06 3.1344523e-05 2.9248311e-05 5.694124e-05 3.475295e-05 3.837034e-05 1.2620448e-05
1.2208324e-05 2.6160751e-05 5.186358e-05 2.4507963e-05 2.1774908e-05 3.2562144e-05 4.3608623e-05 1.6981478e-05
4.4947803e-05 2.826606e-06 1.2747685e-05 2.0261481e-05 6.9126494e-05 4.992933e-06 3.4292523e-05 4.7400605e-05
2.2982409e-05 1.3811364e-05 3.3235607e-05 5.718464e-05 3.726201e-06 6.7897263e-06 2.3397897e-05 3.055378e-05
2.489786e-05 3.143878e-06 9.058356e-06 2.5242418e-05 3.0049919e-06 5.3005265e-06 8.173456e-05 7.2595e-06
3.8802224e-05 5.486901e-06 4.807004e-05 5.6864355e-06 3.6504927e-05 9.812967e-06 6.0238845e-06 6.8580295e-05
1.9937806e-05 3.738161e-05 1.7984592e-05 1.1599205e-05 1.02183685e-05 6.0806286e-07 1.2970338e-05 2.9924387e-05
1.3433675e-05 3.3424873e-05 4.706946e-06 3.4610905e-05 6.1153414e-06 4.2379346e-05 1.8295841e-05 2.9455514e-05
1.2532505e-05 3.7212917e-06 1.1807146e-05 2.6779131e-05 2.6297439e-05 3.808973e-06 3.939906e-05 1.1116549e-05
4.6413224e-06 1.4911504e-05 2.3355267e-05 1.0709019e-05 8.350741e-06 2.6716123e-05 2.1984375e-05 1.0358458e-05
00000000: cf67 a337 5b71 2337 6d2b 0837 34c5 0437
00000010: 5fa1 a037 5234 ac36 d93e 4037 5cbf d037
00000020: d5c6 7f37 5274 6e36 bcf6 d237 1d06 b037
00000030: 5053 6936 c4f0 5236 e4e3 7737 68bf 8b37
00000040: 3431 6437 7d87 ad35 3d37 e536 6dd9 ab36
00000050: bbc7 4236 8d8e 4c36 f3c6 c637 d801 ea35
00000060: 9850 0837 6244 0136 3356 6d37 a27a c737
00000070: 3fa7 9337 9a7a f036 780e 2036 f110 ac37
00000080: a625 8f37 ed11 e937 9505 2e37 f031 7836
00000090: 1ee2 3637 1c3a 4434 dad9 de36 b4b0 4037
000000a0: f651 fb36 3a68 0837 a544 ca35 12ed 1537
000000b0: df8f bb35 fc9f ba37 8856 3637 c194 dd36
000000c0: 8d0c 1437 ac4e 0337 1ab7 8537 5c8c 6537
000000d0: 0f43 a837 479d 3b37 e50d 2f37 9690 7036
000000e0: b542 da36 4806 0937 67f1 a137 6107 8837
000000f0: 8f24 0037 0107 b337 d118 c137 b45c ef36
00000100: 6bb2 6e38 a5ca fa37 f877 cc37 03d4 c437
00000110: baa8 4338 21e5 9737 48dd 0d38 1b2e 9a38
00000120: 1ccf 5138 bea6 2d37 3a67 9538 889c 6b38
00000130: 2721 2d37 0f5f b836 39c8 0f38 9817 3f38
00000140: e4f0 4638 5532 9836 8d06 a337 25ab 6d37
00000150: 3779 fc36 4630 f536 8ded 7538 b08c 8736
00000160: 19e1 9237 2603 5036 533d 1738 de66 9438
00000170: 37b7 5738 18d3 8137 35c6 bf36 ec07 6838
00000180: 1895 2a38 8ff6 a738 9ca0 e737 50a8 2a37
00000190: 2bd4 1038 3dc3 8334 74d5 c237 e08c ed37
000001a0: 3e05 a237 74f8 9737 9c04 8036 cf11 aa37
000001b0: 0d66 8b36 21c8 8938 6552 1938 b00f 9537
000001c0: 9f86 cd37 56a7 d437 df05 4f38 782e 2338
000001d0: 6091 5b38 c673 1138 0a30 f637 c52f 2937
000001e0: 0426 9137 c1ce a737 e085 8b38 4c28 3838
000001f0: 3d22 ce37 2759 5f38 c7da a338 ad3b c637
00000200: 411f 6d38 0110 0138 e18d 0f37 5fc1 ad37
00000210: 1c5b 1938 5387 4737 c9d8 2238 dbd1 d538
00000220: 38d2 3338 4f2d 3037 6709 8f38 d758 9438
00000230: 5552 0837 4233 1837 727c 1038 ccce 2338
00000240: c12f 3338 bad0 3236 6075 a737 2a78 9837
00000250: 4b09 0337 749a e736 3548 8338 24a6 b436
00000260: 65be 9537 934d 6436 cc4b 0638 dbe3 0138
00000270: 114e 0438 675a 9537 3917 2c37 3276 4c38
00000280: 7e19 1a38 1e16 5938 0b8b 1b38 d580 3a37
00000290: e144 bc37 ffa7 3835 d53a 8037 fb46 bc37
000002a0: 28be 0137 6816 a737 a1da af36 075f 0b38
000002b0: b3f4 ac36 488c 4538 4886 eb37 c4c8 ad37
000002c0: 6b76 0a38 19d9 d936 ed77 0338 455a f537
000002d0: 31d4 6e38 b2c3 1138 d7ef 2038 69bc 5337
000002e0: 5ad2 4c37 c973 db37 1888 5938 7396 cd37
000002f0: 42a9 b637 5693 0838 67e8 3638 7273 8e37
00000300: 5686 3c38 b9b0 3d36 e4de 5537 33f7 a937
00000310: 01f8 9038 f888 a736 51d5 0f38 03d0 4638
00000320: 59ca c037 5bb7 6737 7666 0b38 8ad9 6f38
00000330: a50f 7a36 4ed3 e336 9a46 c437 df26 0038
00000340: bfdb d037 6afb 5236 58f9 1737 aebf d337
00000350: 5ea9 4936 2ddb b136 e868 ab38 a196 f336
00000360: 92bf 2238 1f1c b836 d09e 4938 1cce be36
00000370: de1c 1938 5fa2 2437 c620 ca36 c4d2 8f38
00000380: 1d40 a737 33ca 1c38 9edd 9637 359a 4237
00000390: 8f6f 2b37 c339 2335 2d9b 5937 2206 fb37
000003a0: 3261 6137 af31 0c38 5cf0 9d36 2d2b 1138
000003b0: 6232 cd36 7ac0 3138 057a 9937 3c17 f737
000003c0: b342 5237 4ebb 7936 4e17 4637 bfa3 e037
000003d0: 5299 dc37 a89d 7f36 6b40 2538 3781 3a37
000003e0: a8bc 9b36 6c2c 7a37 0eeb c337 e3aa 3337
000003f0: 291a 0c37 701c e037 166b b837 3dc9 2d37

exp_avg f4 [32]
0.0005646642 0.00071934843 0.001249681 -0.0007378469 6e-45 -0.0013711245 -0.00038147566 -0.0024566408
0.00033773735 -0.00069922936 -0.00083273574 0.0007673292 -0.0014259655 0.0015190135 -0.0028395439 -0.0024317142
-0.001490971 0.00091297575 -0.0016507978 0.0013262765 0.00065436104 -0.0005786501 0.0014162391 -0.0020036565
-0.00706893 -0.00023853098 0.0011340438 0.00014682052 -0.0011919359 8.588371e-05 0.0013866213 0.00026380448
00000000: f905 143a a892 3c3a 56cc a33a 116c 41ba
00000010: 0400 0000 4eb7 b3ba cc00 c8b9 98ff 20bb
00000020: 5712 b139 7d4c 37ba f34b 5aba 9726 493a
00000030: 76e7 baba a319 c73a a417 3abb 655d 1fbb
00000040: af6c c3ba c454 6f3a 955f d8ba 74d6 ad3a
00000050: 6d89 2b3a 8db0 17ba 19a1 b93a c74f 03bb
00000060: 7ca2 e7bb 2c1e 7ab9 32a4 943a d5f3 1939
00000070: bb3a 9cba 771c b438 4abf b53a 3d4f 8a39

exp_avg_sq f4 [32]
5.856446e-05 0.00016822365 0.00013802016 8.85923e-05 1.0664667e-16 9.858393e-05 0.000100753314 0.00019551661
0.00014459935 0.00010034516 7.899456e-05 0.00011010134 8.32879e-05 0.00013176117 0.00057473604 0.00015290607
5.2015257e-05 2.041533e-05 0.00032268997 8.361679e-05 7.726644e-05 0.00012786959 0.00014591229 0.0001365796
0.0017625722 6.997643e-05 0.00014358065 5.788619e-05 0.00022169466 0.00010618657 0.0004086567 0.00011470577
00000000: 1ca3 7538 3165 3039 81b9 1039 a1ca b938
00000010: 15e9 f524 d8be ce38 864b d338 9703 4d39
00000020: 989f 1739 6670 d238 e2a9 a538 35e6 e638
00000030: daaa ae38 5f29 0a39 e2a9 163a 6955 2039
00000040: f52a 5a38 9641 ab37 b72e a939 6c5b af38
00000050: 1b0a a238 bb14 0639 0800 1939 cf36 0f39
00000060: 1c06 e73a 4fc0 9238 238e 1639 d3ca 7238
00000070: b576 6839 7bb0 de38 f940 d639 318e f038
