checkpoints/synth/high_energy/torsion_energy/20250611190452341447/LYS_dim_8/fold3/best_epoch=244-val_loss_epoch=6.426.ckpt (torch, 44037 bytes, 20 tensors)

fc1.weight f4 [64, 8]
-0.009161347 0.0070357695 -0.8755975 0.014659628 0.00047546826 0.024734572 0.42290962 0.008309199
-0.08811339 -0.6503078 -0.55765206 0.09068876 -0.61644995 0.31866622 -0.057608597 0.11111616
0.7851042 -0.56226045 0.02626903 -0.007758374 -0.8862268 0.6111466 -0.0399142 -0.21742193
0.07090681 -0.26934898 -0.6110004 0.07150753 -0.096365385 -0.659226 -0.14657225 -0.7708594
0.5526251 -0.22955419 0.47747785 0.41927916 -0.14164914 0.35541952 -0.4947865 -0.38231447
0.109268315 1.2005546 0.01734885 -0.025271924 -0.15757468 0.32709196 -0.0022940813 0.014208989
-0.117476515 -0.63708615 -0.18179868 -0.49653417 -0.09319964 0.35073426 -0.6325774 0.053555507
-0.05955777 -0.5540781 0.33204946 -0.15639137 0.027608203 -0.4762539 0.62593377 0.11353564
0.5042389 -0.47400644 -0.082663745 0.14259763 -0.33707994 -0.3463473 -0.40158236 0.17557658
-0.0029071833 -0.0016459853 -0.03315992 0.8810939 0.0075638383 0.039117742 -0.03723779 -0.33519945
-0.33172253 0.28372926 0.18696249 -0.002065694 -0.71416396 1.0057651 0.024150938 -0.04848514
-0.35622042 -0.5277395 -0.1016849 0.012243293 1.0914445 -0.42373985 -0.52837497 -0.0127238175
-0.1378949 -0.301416 0.38507715 0.5053858 -0.4942018 0.07811473 -0.46955076 -0.13909775
-0.70867014 -0.52454716 0.24192506 -0.021140996 0.47201 0.8350088 -0.4086588 0.015036494
-0.89396703 0.631299 0.007901606 0.035766613 0.4519127 -0.3279862 -0.26252657 -0.07845578
0.021849886 -0.08608029 0.9226956 0.9628823 -0.022745248 0.026470387 -0.016048178 -0.008441696
0.38739946 0.41627297 0.4352949 0.2535988 -0.5847302 0.06327216 -0.21486057 -0.20052691
-0.086402774 0.52846205 0.082256235 0.24729113 -0.3016359 -0.12534302 0.77112424 0.08356639
-0.2657653 0.07296751 -0.112213254 -0.45387825 0.15918368 -0.48943347 0.6334515 -0.5075525
-0.34683242 0.59723854 -0.57023954 -0.036821213 -0.3837114 -0.57833517 0.308693 0.005636472
0.13147824 -0.050640296 0.21109103 0.12354735 -0.122772425 -0.67407227 -0.052861445 -0.638051
0.054249037 -0.23990297 -0.8225162 -0.73365897 0.05806337 0.05963941 0.09554739 -0.5791598
0.3588675 -0.34960788 0.50932866 0.3138804 0.27478862 -0.2632151 -0.32258436 -0.31478927
0.2396576 0.01704663 0.2759627 -0.7368951 0.28572962 -0.36761358 -0.06291444 -0.11101877
-0.85852283 -0.8790001 0.12283765 0.0053511937 0.24431226 -0.23395953 0.020894852 -0.001380023
0.29797685 -0.9412732 -0.2703693 0.04014777 0.14225665 -0.5801358 0.5055386 -0.054851677
-0.7777461 -0.012962675 0.09229982 -0.036140613 0.51383436 0.099726036 -0.04458902 -0.029278599
0.11301545 0.18672672 -0.11292935 0.016127767 0.8189999 0.18097278 0.04178114 0.0041365554
-0.0004703065 0.79705864 -0.62364906 0.1950408 -0.073364235 0.1867023 0.8137297 -0.05278987
0.3680141 -0.22572972 0.17670785 -0.13215695 0.53219295 0.6028167 -0.409412 0.4186154
0.80281967 0.50430065 0.008370662 -0.24201714 -0.09214026 -0.345767 -0.39729264 -0.003068501
0.15121311 0.49234 0.6036166 0.17739703 -0.14955465 -0.37466052 0.557274 0.06348273
00000000: 7919 16bc 508c e63b 2827 60bf f02e 703c
00000010: 4548 f939 28a0 ca3c 9c87 d83e 4e23 083c
00000020: cb74 b4bd 927a 26bf 49c2 0ebf 07bb b93d
00000030: aacf 1dbf 3828 a33e fef6 6bbd df90 e33d
00000040: 97fc 483f 4df0 0fbf 2632 d73c f539 febb
00000050: c2df 62bf 1b74 1c3f 127d 23bd dba3 5ebe
00000060: 9737 913d 1ce8 89be 866a 1cbf 8a72 923d
00000070: 375b c5bd 09c3 28bf 0917 16be 0b57 45bf
00000080: d778 0d3f 4110 6bbe fa77 f43e c2ab d63e
00000090: 790c 11be 8cf9 b53e a854 fdbe b9be c3be
000000a0: 11c8 df3d c6ab 993f 2d1f 8e3c 1107 cfbc
000000b0: 425b 21be 9978 a73e 4c58 16bb d2cc 683c
000000c0: 8797 f0bd 1418 23bf 6f29 3abe ba39 febe
000000d0: 74df bebd 7193 b33e 98f0 21bf 055d 5b3d
000000e0: d9f2 73bd 10d8 0dbf 6302 aa3e 0f25 20be
000000f0: 992a e23c 8dd7 f3be 323d 203f 6085 e83d
00000100: cd15 013f f9b0 f2be 9c4b a9bd 1d05 123e
00000110: be95 acbe 6f54 b1be 349c cdbe 59ca 333e
00000120: 7186 3ebb 1abe d7ba b2d2 07bd 5f8f 613f
00000130: 13da f73b ed39 203d a786 18bd 439f abbe
00000140: 89d7 a9be f644 913e 1873 3f3e 9860 07bb
00000150: 73d3 36bf e9bc 803f 30d8 c53c 5b98 46bd
00000160: 8662 b6be f019 07bf 2c40 d0bd 1898 483c
00000170: 74b4 8b3f 6ef4 d8be 9543 07bf 8f77 50bc
00000180: 5234 0dbe 3353 9abe d528 c53e f760 013f
00000190: 0508 fdbe 9efa 9f3d f568 f0be a46f 0ebe
000001a0: 686b 35bf b948 06bf 34bb 773e e22f adbc
000001b0: 4bab f13e 23c3 553f ba3b d1be a05b 763c
000001c0: 06db 64bf d09c 213f bd75 013c 0380 123d
000001d0: 1a61 e73e cfed a7be e269 86be 6dad a0bd
000001e0: 88fe b23c dd4a b0bd c735 6c3f 747f 763f
000001f0: 3e54 babc 6dd8 d83c 7877 83bc 0a4f 0abc
00000200: 3959 c63e bb21 d53e f9de de3e b4d7 813e
00000210: e1b0 15bf d694 813d 6904 5cbe ed56 4dbe
00000220: f0f3 b0bd 4a49 073f f575 a83d e339 7d3e
00000230: 0570 9abe ec59 00be 6668 453f db24 ab3d
00000240: 6412 88be fd6f 953d 10d0 e5bd bb62 e8be
00000250: 0c01 233e 0697 fabe e129 223f f6ee 01bf
00000260: 0594 b1be a0e4 183f 38fb 11bf d7d1 16bd
00000270: d275 c4be c60d 14bf 020d 9e3e 27b2 b83b
00000280: 3ba2 063e 336c 4fbd 3f28 583e 6506 fd3d
00000290: 1c70 fbbd 0090 2cbf 3e85 58bd 4f57 23bf
000002a0: 3d34 5e3d 20a9 75be 6c90 52bf 13d1 3bbf
000002b0: dbd3 6d3d 7448 743d 5aae c33d d143 14bf
000002c0: 7bbd b73e ceff b2be 5d63 023f efb4 a03e
000002d0: 18b1 8c3e 21c4 86be c729 a5be 0f2c a1be
000002e0: cd68 753e 60a5 8b3c fc4a 8d3e 28a5 3cbf
000002f0: 274b 923e d937 bcbe 49d9 80bd cf5d e3bd
00000300: 27c8 5bbf 2706 61bf 4e92 fb3d 1159 af3b
00000310: fe2c 7a3e 1693 6fbe ae2b ab3c e3e1 b4ba
00000320: 6c90 983e 48f7 70bf d86d 8abe fd71 243d
00000330: baab 113e c883 14bf fa6a 013f 27ac 60bd
00000340: 5e1a 47bf 6661 54bc b007 bd3d 2e08 14bd
00000350: a68a 033f 2a3d cc3d faa2 36bd acd9 efbc
00000360: a574 e73d 4a35 3f3e 8147 e7bd 611e 843c
00000370: faa9 513f ee50 393e b322 2b3d f18b 873b
00000380: 7893 f6b9 090c 4c3f 77a7 1fbf c7b8 473e
00000390: fd3f 96bd e32e 3f3e 9750 503f 313a 58bd
000003a0: 586c bc3e b125 67be e7f2 343e 2754 07be
000003b0: cc3d 083f 3252 1a3f 739e d1be c254 d63e
000003c0: 9785 4d3f d919 013f 1a25 093c 57d3 77be
000003d0: 08b4 bcbd 5f08 b1be f169 cbbe e718 49bb
000003e0: 9cd7 1a3e fd13 fc3e 9e86 1a3f 91a7 353e
000003f0: db24 19be 81d3 bfbe 82a9 0e3f 3c03 823d

fc1.bias f4 [64]
-0.47994816 0.3786023 0.21171527 0.3385452 -0.11076574 -0.32664508 0.63817805 -0.004946817
0.60917956 0.58880955 -0.21965884 -0.03624845 -0.020326553 -0.7478675 0.70254713 -0.015094744
0.08494094 0.20091897 0.37148884 -0.29454294 0.64050764 0.25748605 0.036574632 0.77084744
-0.020190874 0.78817195 0.60558736 0.53204626 0.35915703 0.067127645 0.44471937 -0.19722457
0.10582022 0.46046096 0.09797059 -0.25151768 0.36388233 0.6282153 0.5798237 0.3565425
0.25353175 -0.1780523 -0.699364 -0.016297236 0.45202774 0.2700747 0.3561491 -0.2716442
-0.2272298 0.14851896 0.8094174 0.5472391 0.0138619505 -0.21938069 0.2188356 0.6434699
0.51587725 0.7170317 -0.29371825 0.022964062 -0.31798914 -0.23510897 -0.0968783 -0.09051486
00000000: c4bb f5be 29d8 c13e e3cb 583e cc55 ad3e
00000010: 26d9 e2bd 063e a7be a35f 233f e918 a2bb
00000020: 31f3 1b3f 39bc 163f 3fee 60be 4179 14bd
00000030: df83 a6bc 3f74 3fbf 21da 333f f24f 77bc
00000040: 84f5 ad3d b4bd 4d3e c933 be3e 55ce 96be
00000050: 4ff8 233f 36d5 833e 48cf 153d 4256 453f
00000060: 5567 a5bc a3c5 493f c607 1b3f 2f34 083f
00000070: 6ee3 b73e 387a 893d 42b2 e33e 3df5 49be
00000080: 46b8 d83d 8ac1 eb3e cea4 c83d edc6 80be
00000090: c94e ba3e b8d2 203f 536f 143f bd8c b63e
000000a0: eace 813e 5853 36be 8509 33bf c881 85bc
000000b0: 2e70 e73e 3b47 8a3e 2d59 b63e f314 8bbe
000000c0: eeae 68be 5b15 183e fb35 4f3f dd17 0c3f
000000d0: 3c1d 633c 55a5 60be 7116 603e 72ba 243f
000000e0: 8810 043f 648f 373f 3d62 96be 211f bc3c
000000f0: 79cf a2be 68c0 70be 2168 c6bd db5f b9bd

fc2.weight f4 [32, 64]
0.026651872 -0.08635673 -0.02724306 0.22797686 -0.030652586 0.047098067 -0.054778848 0.15881471
-0.1816662 0.0024827602 0.16086173 -0.10395787 0.109370336 -0.045092035 -0.010784356 -1.6420275
-0.07650611 0.1954251 0.22060499 -0.19838838 -0.16309924 -0.24758366 -0.028530236 -0.272117
-0.09804493 -0.23481898 0.3025328 0.060217425 -0.043762483 -0.23858184 0.29305705 0.04221485
0.24579583 0.130513 -0.20372291 -0.01652921 0.16022006 -0.2610249 -0.35781357 -0.06133994
0.08711335 0.27254677 -0.123167045 0.081931636 0.060099762 0.18826866 -0.030721592 0.16777292
0.29348135 -0.1085743 0.1430473 -0.20544574 0.27313936 -0.06668381 -0.1523651 0.02328136
-0.070846155 0.062123645 0.08871718 1.0282776 0.2265423 -0.24823456 -0.005841468 -0.11647428
0.06902115 -0.06862591 -0.4661681 -0.10634693 0.112309486 -0.39208096 -0.18235777 0.10343985
0.011334102 0.01526988 -0.21908721 0.5145462 0.2967595 -0.1966407 0.00041164004 -0.16562979
-0.062277675 0.17549507 -0.06539985 -0.004582205 0.026017886 0.04824999 -0.033628825 -0.14228426
-0.1587405 -0.019972157 0.06428714 0.32910976 -0.06639659 0.012987009 -0.050240334 -0.22086321
0.19230688 -0.012114438 0.15691453 0.05480419 0.02970899 -0.26031592 -0.11278722 0.35583055
-0.38086894 0.007278063 -0.5074008 -0.012421783 0.05468011 -0.05188373 0.28621376 -0.049135055
-0.24933103 0.0788619 -0.48152167 -0.1661991 0.1936746 0.5813845 -0.066461064 -0.062232915
0.73385084 0.096001 -0.012219537 0.058047228 0.007593473 0.2746934 -0.5245667 -0.1278217
-0.1806065 0.4398422 0.200003 -0.45491767 0.14340645 -0.3985116 -0.4417923 -0.27160054
0.28016472 -0.17425995 -0.31500962 -0.177948 0.120378695 -0.23687766 0.032996543 -0.06069199
-0.26458073 -0.098342076 0.42943016 -0.006974531 -0.11692466 0.15096863 0.2756257 -0.23606706
0.13231577 -0.095367625 0.05421202 0.35619125 0.36092457 -0.32394755 -0.10862597 -0.4186739
-0.23229767 -0.30482507 0.0126452325 0.14214793 0.03142922 -0.07656793 -0.0027474775 0.1865378
-0.04757385 -0.029055221 -0.18717165 -0.10120879 0.09590531 0.031979427 -0.21100754 -0.32470092
-0.21880755 -0.27129945 0.16705969 0.06673257 0.27150506 0.34441787 0.07062831 0.050318513
-0.11762162 0.27610186 0.34862018 -0.35546127 -0.1596355 0.11409268 -0.6933268 -0.038595203
0.5347628 0.05863496 0.18897395 -0.03036175 -0.03199367 -0.33899537 -0.05310468 0.54830325
0.1578107 -0.08497425 -0.6188215 -0.044184636 -0.21540809 0.12931491 0.30647367 -0.061946627
-0.14596787 0.3191233 -0.21373782 0.10721966 0.17370585 -0.03424136 0.43022886 0.050905634
-0.33440992 0.17891027 -0.21936078 0.12622266 0.12311199 -0.56227916 -0.19279212 0.608254
0.16128118 0.24607946 -0.15901706 -0.36695248 -0.023810908 -0.5422476 -0.12436993 0.024529971
0.2278619 0.073490724 -1.569776 -0.1787949 0.11876587 0.14654146 -0.13412586 -0.15640754
0.19725244 -0.07076062 0.07302589 -0.42547926 -0.3006352 0.06299785 0.65243214 0.40165198
0.28573754 0.06775583 -0.54912883 -0.033608485 0.048996065 -0.082338266 -0.32111827 -1.0941483
00000000: 0755 da3c ccdb b0bd d62c dfbc c472 693e
00000010: 221b fbbc e7e9 403d c95f 60bd 53a0 223e
00000020: b406 3abe ceb5 223b f0b8 243e dde7 d4bd
00000030: 8efd df3d 6db2 38bd deb0 30bc f52d d2bf
00000040: 3caf 9cbd 841d 483e 46e6 613e 5326 4bbe
00000050: 7d03 27be 9286 7dbe 3eb8 e9bc eb52 8bbe
00000060: c8cb c8bd 6374 70be 94e5 9a3e 8ca6 763d
00000070: 4a40 33bd cc4e 74be 930b 963e 7be9 2c3d
00000080: e7b1 7b3e 33a5 053e bd9c 50be 4468 87bc
00000090: ba10 243e 0ea5 85be 5733 b7be 973f 7bbd
000000a0: 7c68 b23d 408b 8b3e 013f fcbd c6cb a73d
000000b0: 2b2b 763d 80c9 403e d9ab fbbc aacc 2b3e
000000c0: 3043 963e 345c debd fe7a 123e 5e60 52be
000000d0: ecd8 8b3e 8591 88bd 9905 1cbe 8db8 be3c
000000e0: ca17 91bd 5d75 7e3d 5ab1 b53d 9a9e 833f
000000f0: b4fa 673e 3331 7ebe c969 bfbb 118a eebd
00000100: f65a 8d3d be8b 8cbd 96ad eebe 6bcc d9bd
00000110: 8402 e63d d6be c8be ffbb 3abe 46d8 d33d
00000120: abb2 393c 852e 7a3c 6658 60be 4db9 033f
00000130: dcf0 973e 2e5c 49be 64d1 d739 db9a 29be
00000140: e016 7fbd fbb4 333e 5bf0 85bd 5226 96bb
00000150: 7623 d53c c8a1 453d 61be 09bd f7b2 11be
00000160: df8c 22be a69c a3bc faa8 833d 1381 a83e
00000170: effa 87bd 77c7 543c cfc8 4dbd f729 62be
00000180: 18ec 443e a37b 46bc 34ae 203e 5c7a 603d
00000190: 4560 f33c 2148 85be fcfc e6bd 6c2f b63e
000001a0: 4101 c3be d17c ee3b 05e5 01bf bc84 4bbc
000001b0: 40f8 5f3d 0984 54bd 9c8a 923e d741 49bd
000001c0: a250 7fbe 5982 a13d 028a f6be 1930 2abe
000001d0: a252 463e 9dd5 143f bd1c 88bd f1e7 7ebd
000001e0: a6dd 3b3f 2c9c c43d 7434 48bc eec2 6d3d
000001f0: abd2 f83b 9da4 8c3e 014a 06bf b1e3 02be
00000200: e9f0 38be ff32 e13e 96cd 4c3e f8ea e8be
00000210: 24d9 123e b609 ccbe 9a32 e2be 3a0f 8bbe
00000220: c071 8f3e 3371 32be f148 a1be 0038 36be
00000230: 1b89 f63d 0f90 72be 6227 073d 2a98 78bd
00000240: 2077 87be 9267 c9bd 45de db3e 9b8a e4bb
00000250: 3276 efbd 8597 1a3e d01e 8d3e 90bb 71be
00000260: c97d 073e 1a50 c3bd 6c0d 5e3d b35e b63e
00000270: 1bcb b83e 74dc a5be 4b77 debd 6d5c d6be
00000280: 71df 6dbe 0812 9cbe f32d 4f3c 3a8f 113e
00000290: edbb 003d a6cf 9cbd 060f 34bb c403 3f3e
000002a0: ccdc 42bd 3705 eebc eda9 3fbe 8e46 cfbd
000002b0: 016a c43d dcfc 023d 5c12 58be 333f a6be
000002c0: 160f 60be c3e7 8abe b211 2b3e 16ab 883d
000002d0: b602 8b3e 8a57 b03e 93a5 903d c91a 4e3d
000002e0: 9be3 f0bd 395d 8d3e 587e b23e 05ff b5be
000002f0: 7d77 23be 6ca9 e93d dd7d 31bf 0116 1ebd
00000300: 37e6 083f 362b 703d 6382 413e 34b9 f8bc
00000310: cb0b 03bd cd90 adbe 4b84 59bd 9a5d 0c3f
00000320: 2199 213e fb06 aebd 166b 1ebf f3fa 34bd
00000330: f093 5cbe 216b 043e 1eea 9c3e bfbb 7dbd
00000340: 9a78 15be 2164 a33e 16de 5abe fb95 db3d
00000350: f2df 313e ab40 0cbd f546 dc3e 6d82 503d
00000360: c737 abbe 4134 373e 1da0 60be 8340 013e
00000370: 2422 fc3d 87f1 0fbf 4c6b 45be 89b6 1b3f
00000380: e526 253e 41fc 7b3e 5ed5 22be 32e1 bbbe
00000390: 180f c3bc bdd0 0abf a9b5 febd 14f3 c83c
000003a0: a154 693e 4e82 963d 6cee c8bf 0316 37be
000003b0: 853b f33d f70e 163e 4a58 09be 4c29 20be
000003c0: 8bfc 493e f2ea 90bd 998e 953d 6bd8 d9be
000003d0: dbec 99be 0405 813d cb05 273f 54a5 cd3e
000003e0: 314c 923e 92c3 8a3d b593 0cbf 0da9 09bd
000003f0: 19b0 483d f7a0 a8bd 9d69 a4be 0d0d 8cbf

fc2.bias f4 [32]
-0.17146514 0.20075531 0.2453487 -0.06734658 -0.1739951 -0.16635722 -0.087056555 -0.12660806
-0.08845859 0.07895276 -0.07938147 -0.019609239 -0.10202119 0.20458283 0.10567141 0.26908594
-0.17007175 0.44392845 0.2977074 -0.06955581 0.056280483 0.14040528 0.07538363 0.08686087
0.068654075 -0.021292709 -0.13933629 0.04944416 -0.09274512 -0.0706396 -0.1325515 0.20859003
00000000: 8f94 2fbe cd92 4d3e b13c 7b3e 01ed 89bd
00000010: c62b 32be 8c59 2abe b54a b2bd 8ba5 01be
00000020: c729 b5bd fcb1 a13d c192 a2bd 8ea3 a0bc
00000030: 7cf0 d0bd 297e 513e 416a d83d a2c5 893e
00000040: 4a27 2ebe 974a e33e 1b6d 983e 4773 8ebd
00000050: 5d86 663d 67c6 0f3e bc62 9a3d 1de4 b13d
00000060: 829a 8c3d 0c6e aebc 2cae 0ebe f685 4a3d
00000070: 27f1 bdbd 7fab 90bd 95bb 07be a098 553e

fc3.weight f4 [3, 32]
-1.374496 0.9024486 0.36065146 -0.05097996 -0.52452564 -0.6970153 0.16595922 0.17072612
-0.0836439 0.5397344 0.288606 0.44283193 -0.8701875 0.69421196 1.0386859 0.40070271
-0.725058 1.2242639 0.5504278 0.6054008 0.67434686 0.6744789 0.43205455 0.33526906
0.9467814 -0.7267439 -0.2271039 -0.46831715 -0.25679925 -1.0009527 -0.10127939 0.9199931
1.0706435 0.42307723 -0.2640535 -0.23124519 -0.27617112 -0.3911682 0.025072733 2.182813
0.020136349 -0.42955226 1.4847274 2.1800988 0.033257153 -0.15497662 0.16729185 0.10848277
-0.15991509 -0.00010617183 0.23166437 0.4727868 0.15857966 -0.5281074 -0.104476966 -0.4939105
-0.029430458 -0.062237997 0.33438632 0.29215556 -0.18948177 -0.10541865 2.216491 0.01664144
-0.48575887 -0.015202306 1.0613701 0.8518739 0.32180235 -0.040368438 -0.77833146 0.07805741
0.10212274 0.6031828 0.34188443 0.25941682 -0.085164994 -0.39098868 0.0020357294 1.6359446
0.5728617 0.09531429 -0.40878013 -0.47989622 0.24536854 -0.18667842 0.70750487 0.27239832
0.32988003 0.14859004 -0.39143804 -0.116710454 -0.4457859 0.016469799 -0.30978855 -0.060164906
00000000: 7cef afbf df06 673f 4fa7 b83e 5dd0 50bd
00000010: 5047 06bf 986f 32bf 37f1 293e d4d2 2e3e
00000020: 7e4d abbd 092c 0a3f 2ac4 933e deba e23e
00000030: 9cc4 5ebf e0b7 313f a9f3 843f e828 cd3e
00000040: 679d 39bf aeb4 9c3f d6e8 0c3f 8cfb 1a3f
00000050: ffa1 2c3f a6aa 2c3f 4136 dd3e 63a8 ab3e
00000060: 4460 723f e30b 3abf ed8d 68be 44c7 efbe
00000070: 317b 83be 381f 80bf 926b cfbd ab84 6b3f
00000080: d90a 893f 949d d83e 0532 87be 8acb 6cbe
00000090: 4d66 8dbe 3347 c8be 5565 cd3c 35b3 0b40
000000a0: fcf4 a43c 46ee dbbe 8c0b be3f bd86 0b40
000000b0: a738 083d 31b2 1ebe 8e4e 2b3e 372c de3d
000000c0: c8c0 23be 91a8 deb8 6d39 6d3e 1d11 f23e
000000d0: b562 223e 0c32 07bf 05f8 d5bd d6e1 fcbe
000000e0: 2518 f1bc 45ed 7ebd af34 ab3e 6a95 953e
000000f0: 8207 42be bce5 d7bd fdda 0d40 a153 883c
00000100: 63b5 f8be 1813 79bc fada 873f 6814 5a3f
00000110: 47c3 a43e 6059 25bd bb40 47bf 90dc 9f3d
00000120: ba25 d13d 306a 1a3f 7a0b af3e 48d2 843e
00000130: fc6a aebd ab2f c8be df69 053b a266 d13f
00000140: 10a7 123f 2334 c33d a14b d1be f5b4 f5be
00000150: e441 7b3e a128 3fbe 0a1f 353f cb77 8b3e
00000160: 09e6 a83e fd27 183e 916a c8be e405 efbd
00000170: 0d3e e4be aceb 863c 9b9c 9ebe 7a6f 76bd

fc3.bias f4 [3]
0.24977328 0.1730935 0.20537652
00000000: 91c4 7f3e 6c3f 313e 394e 523e

exp_avg f4 [64, 8]
0.0043583824 0.0042250045 0.0031569428 -0.0033099623 0.003979889 0.0072406153 -0.0008836673 0.0026005588
0.0026915167 -0.0014124105 0.0007434489 0.0004899551 0.003619499 0.0021444298 -0.0006362531 -0.0013429809
-0.0003299654 0.0015897423 -0.0002742561 0.00094267516 -0.0012429391 -0.0032213884 0.001497896 0.0026174574
-0.0003214038 0.00019412063 -3.5596375e-05 -0.0002311566 0.00049799716 0.001923636 -0.0009529463 -0.00056500215
-0.00035544226 -0.0025573245 0.0020696796 -0.00028628195 0.003095938 0.00034019563 -0.00090533006 0.00011071614
0.001987509 0.0047546756 -0.0004801728 -0.0022794022 0.0019531035 0.002266725 0.0056513962 0.000317398
0.0018625032 0.0009915971 0.0025825342 -0.00074555335 0.0023599076 0.0025509573 -0.002313979 -0.0015369424
-0.0004712783 0.002800933 -0.004420843 0.0008325505 0.00043568554 0.0042117015 -0.0013993218 -0.0014748705
-0.0014194167 0.0028247393 -0.001096195 -0.0032382654 -0.001389248 -0.00066946214 0.003399767 0.0062184148
0.0012161933 -0.0009881739 0.0008981786 -0.0029368764 0.0033273492 0.004943299 0.0009338456 -0.0006344795
-0.0017307259 0.0014787293 0.0022972184 -0.0015302998 -0.0010298294 -0.0050513367 0.0013746506 0.008392254
-0.0017704032 0.0036049841 -0.0012289918 -0.0015191095 -0.000522628 -0.0012868057 0.003385805 0.001610828
-0.00057528313 0.0015703533 -0.0011416232 0.0016625681 0.0010256153 0.0003009979 -0.0004500602 -0.00032029385
-0.0018501983 -0.0020575363 -0.0015131418 -0.0018799906 2.272175e-05 -0.0013247095 0.0038983522 0.0048973337
-0.00044278987 -0.004326465 0.0016565138 -0.0004606359 -0.0017531696 0.0024690286 -0.008340714 -0.0063806903
-0.004533808 0.0068990043 0.0010199468 -0.0012062656 -0.0033222076 -0.0019662094 0.0018056289 0.0030067216
0.0007212861 -0.0012514979 0.0005402889 0.0010505435 -0.000664817 0.0008014699 -0.0018658445 -0.0007871884
-0.0004744234 0.0027913763 -0.0020354677 0.0033982461 0.0018443363 0.0031802063 -0.0010901408 -0.00087034475
-3.1819407e-06 -8.053932e-05 -0.001256011 -0.00022207349 -0.0015058299 -0.0013124087 -0.00035347365 2.8184937e-05
-0.00081010745 0.0012151162 -0.0027476093 -0.0016310522 0.0022117507 0.001358968 0.004513719 -0.0018990613
-0.004548908 0.004401093 -0.0035562569 0.00018724559 -0.0015172753 -0.0037088904 0.001271215 0.004833849
0.0040171947 -0.00221615 0.00052329095 -1.653715e-05 -0.003438673 -0.0031198878 -0.0005692546 1.5661411e-05
0.0011984807 0.00072147016 -0.001293047 -0.0006951575 -0.003097318 -0.001193167 0.0001710213 -0.0010300926
-0.00043360313 -0.00019197333 -5.7686906e-05 0.0007311737 -0.0019929395 -0.0037125559 -0.001403808 0.0006646777
0.0012216583 -0.0020306765 0.002769728 -0.00051277666 0.0013444182 -0.0006385863 -0.0032953578 -0.0025054752
0.001335461 -0.0005538055 0.0011826262 -0.00023727812 -0.0006688248 -0.00072057283 -0.00019984647 0.0014039886
-0.0019875092 0.0017710531 -0.003013998 -6.430253e-05 -0.0034967128 -0.0024955529 8.1943464e-05 -0.0039895475
0.0014017393 0.0024606024 -6.774289e-05 -0.0034022578 0.0007023787 -0.00021485618 0.004728188 0.0009307824
0.0017830722 -0.0013657879 -0.00087604113 0.00078275875 -0.00088501204 9.1806534e-05 -0.0004983325 -0.0017156741
9.946454e-05 -0.00024451362 0.00022406294 -0.0018888194 -0.0021761626 -0.0015662832 0.0009730996 8.544386e-06
0.00220525 -0.002163424 0.00012224441 0.00025729235 0.00045994742 0.0023937866 -0.002078892 -0.0006060216
-0.0025930714 -0.0028521959 0.00068404624 -0.0023179343 -0.0034193287 -0.002363976 -0.002214158 0.0038701675
00000000: c3d0 8e3b e871 8a3b b6e4 4e3b f4eb 58bb
00000010: bb69 823b af42 ed3b e9a5 67ba 236e 2a3b
00000020: 2864 303b a220 b9ba 03e4 423a 5570 003a
00000030: 1e35 6d3b 9089 0c3b 39ca 26ba f606 b0ba
00000040: 35ff acb9 e65e d03a 08ca 8fb9 dc1d 773a
00000050: 1eea a2ba ee1d 53bb 0d55 c43a a689 2b3b
00000060: 1682 a8b9 dc8c 4b39 514d 15b8 a162 72b9
00000070: 068c 023a 8322 fc3a 25cf 79ba a71c 14ba
00000080: a75a bab9 c998 27bb 76a3 073b 1d18 96b9
00000090: 38e5 4a3b 495c b239 ac53 6dba 4630 e838
000000a0: de40 023b 1ccd 9b3b b4bf fbb9 0662 15bb
000000b0: 47ff ff3a 568d 143b 592f b93b 7068 a639
000000c0: 3d1f f43a 7af8 813a bc3f 293b 3d71 43ba
000000d0: aea8 1a3b f62d 273b 20a6 17bb 3b73 c9ba
000000e0: e715 f7b9 dc8f 373b b8dc 90bb 853f 5a3a
000000f0: b96c e439 5002 8a3b 7369 b7ba 7150 c1ba
00000100: b90b baba 431f 393b 33ae 8fba 1439 54bb
00000110: 6d17 b6ba d87e 2fba a0ce 5e3b d8c3 cb3b
00000120: ad68 9f3a 9d85 81ba bf73 6b3a 9c78 40bb
00000130: a80f 5a3b 66fb a13b 51cd 743a 3353 26ba
00000140: 86d9 e2ba ecd1 c13a ee8c 163b 5794 c8ba
00000150: 57fb 86ba af85 a5bb 9f2d b43a aa7f 093c
00000160: e00c e8ba 9941 6c3b 1f16 a1ba db1c c7ba
00000170: f900 09ba 09aa a8ba 62e4 5d3b 6b22 d33a
00000180: 99ce 16ba 50d4 cd3a 85a2 95ba 87ea d93a
00000190: f06d 863a 41cf 9d39 0ff6 ebb9 1ded a7b9
000001a0: 5a82 f2ba bbd7 06bb 9d54 c6ba 046a f6ba
000001b0: 969a be37 e0a1 adba 7f7b 7f3b d079 a03b
000001c0: 4026 e8b9 05c5 8dbb 611f d93a 8181 f1b9
000001d0: 9cca e5ba 6dcf 213b 7da7 08bc 1c15 d1bb
000001e0: 5790 94bb 0b11 e23b bcaf 853a 8f1b 9eba
000001f0: 65b9 59bb 85db 00bb daaa ec3a 6b0c 453b
00000200: b114 3d3a 4d09 a4ba 2da2 0d3a 64b2 893a
00000210: 1d47 2eba bc19 523a 5a8f f4ba 525b 4eba
00000220: 08bc f8b9 86ef 363b 7b65 05bb 1cb5 5e3b
00000230: a8bd f13a 026b 503b 0ee3 8eba d927 64ba
00000240: 5389 55b6 38e7 a8b8 bca0 a4ba 66dc 68b9
00000250: 445f c5ba 2105 acba 6e52 b9b9 b16e ec37
00000260: 645d 54ba 8944 9f3a 3c11 34bb 08c9 d5ba
00000270: 05f3 103b 661f b23a d2e7 933b ece9 f8ba
00000280: 020f 95bb 0b37 903b 1710 69bb 5b57 4439
00000290: 50df c6ba db10 73bb e69e a63a 4465 9e3b
000002a0: aca2 833b d43c 11bb 762d 093a 42b9 8ab7
000002b0: 5c5b 61bb 0877 4cbb 083a 15ba a060 8337
000002c0: 5716 9d3a 0b21 3d3a 757b a9ba 3b3b 36ba
000002d0: 60fc 4abb 0a64 9cba 2e54 3339 2c04 87ba
000002e0: 3a55 e3b9 734c 49b9 d8f4 71b8 3dac 3f3a
000002f0: fa9b 02bb 5a4e 73bb fbff b7ba c43d 2e3a
00000300: 0d20 a03a 1915 05bb 5384 353b dc6b 06ba
00000310: 3037 b03a cd66 27ba eef6 57bb e632 24bb
00000320: a30a af3a 422d 11ba 5a02 9b3a dccd 78b9
00000330: 1354 2fba d3e4 3cba e18d 51b9 0a06 b83a
00000340: df40 02bb ae22 e83a 7f86 45bb 28da 86b8
00000350: 1b29 65bb 6e8c 23bb 10d9 ab38 c0ba 82bb
00000360: 91ba b73a 0f42 213b 3011 8eb8 6af8 5ebb
00000370: d61f 383a 044b 61b9 eaee 9a3b c0ff 733a
00000380: fab5 e93a 3d04 b3ba 20a6 65ba 0d32 4d3a
00000390: 2700 68ba 4288 c038 87a2 02ba 78e0 e0ba
000003a0: 9e97 d038 1032 80b9 70f2 6a39 4392 f7ba
000003b0: f39d 0ebb be4b cdba 9c17 7f3a dc59 0f37
000003c0: f585 103b 3bc8 0dbb bc2e 0039 32e5 8639
000003d0: 1925 f139 13e1 1c3b 053e 08bb 6cdd 1eba
000003e0: 85f0 29bb e8eb 3abb 9151 333a 7ce8 17bb
000003f0: d116 60bb f0ec 1abb 681b 11bb a3a2 7d3b

exp_avg_sq f4 [64, 8]
0.00032927172 0.00028436253 0.0010884848 0.00022732852 0.00026875336 0.00040489747 0.0003102738 0.0002352343
9.028972e-05 0.00013419005 9.5874755e-05 8.4970954e-05 9.242487e-05 9.6432384e-05 7.819272e-05 7.608256e-05
8.455731e-05 7.1525625e-05 5.879143e-05 5.495812e-05 5.9653492e-05 8.3326966e-05 5.076771e-05 5.3945278e-05
8.828339e-06 1.0038419e-05 9.621059e-06 2.6350071e-05 1.024426e-05 2.0749323e-05 1.1895518e-05 1.2175582e-05
5.510146e-05 5.774404e-05 6.5946835e-05 4.9372808e-05 5.180607e-05 4.7300226e-05 3.6484755e-05 4.991108e-05
0.00028471937 0.00082420127 0.00020777257 0.00020680511 0.0002517843 0.00019103082 0.0002078506 0.0002152659
0.0001414108 0.00015393189 0.00016941615 0.00014756265 0.00016187226 0.00018174575 0.00011467933 0.00012988881
0.0002601782 0.00040026044 0.0002568224 0.00023441053 0.00023970369 0.00016451454 0.00030236202 0.00025950052
0.00023581505 0.00021684956 0.00017879067 0.0001820019 0.00021855558 0.00021976241 0.00019338368 0.00016121901
0.00031204094 0.00027385095 0.00020533642 0.00028243844 0.00023408528 0.00022474199 0.0002227022 0.00034976756
0.00017886775 0.00013859039 0.00014812576 0.00015219873 0.00015703337 0.00023568215 0.0001526137 0.00014564187
9.061139e-05 9.238329e-05 9.512657e-05 9.2364746e-05 0.00016286518 0.0001346988 9.901989e-05 8.58927e-05
3.1708056e-05 3.2530268e-05 3.592738e-05 2.8199405e-05 2.2375852e-05 2.4532314e-05 2.0108024e-05 2.5887579e-05
6.349325e-05 6.479949e-05 9.16641e-05 7.8323166e-05 0.00011609179 0.000118521944 7.33089e-05 7.286326e-05
0.0002869243 0.0003471693 0.00031470254 0.00031996562 0.00042312322 0.0004105142 0.00031005233 0.00030127287
0.00020048315 0.00019886432 0.00016288247 0.00016954214 0.00018193945 0.00018783865 0.00027459481 0.00026977895
8.233246e-05 7.7053744e-05 6.676999e-05 6.508146e-05 6.665689e-05 6.5250075e-05 6.2230305e-05 6.291108e-05
0.00014795159 0.00018883913 0.00014324165 0.00013643544 0.00013559316 0.00011727612 0.00016324964 0.00013533195
5.5732697e-05 6.535545e-05 5.5761193e-05 6.328941e-05 5.583933e-05 6.125702e-05 6.0160608e-05 6.2054685e-05
9.581202e-05 0.00016706773 0.00012412135 9.387088e-05 9.9000834e-05 5.9307622e-05 9.9436926e-05 9.016429e-05
0.0003453779 0.00033339267 0.0002558971 0.00026594815 0.00026804366 0.00032527442 0.00036145182 0.0003313883
0.00015312656 0.00015461083 0.0001431312 0.00021647415 0.00012669087 0.0001257752 0.00014539657 0.00017037825
2.5456085e-05 3.180706e-05 2.528474e-05 2.012441e-05 2.5163954e-05 2.4669946e-05 2.4333802e-05 2.6446083e-05
0.00015305472 0.00016534346 0.00013782381 0.00015058593 0.00016842471 0.00022618572 0.00012649834 0.00013494934
0.00021279562 0.00035137823 0.00027309303 0.00024055211 0.00031573736 0.00025230437 0.00019004563 0.00020373627
3.701678e-05 5.2668656e-05 3.7211747e-05 3.5275396e-05 3.865416e-05 3.871929e-05 4.5122353e-05 3.5854388e-05
0.0002371885 0.00016084287 0.00014137843 0.00012095663 0.00020394563 0.00018442151 0.00014786475 0.00012520756
0.00020103579 0.00017452854 0.00014171534 0.00013954766 0.00015911298 0.00017105731 0.00013672467 0.00013153462
2.7488435e-05 3.898448e-05 4.3942273e-05 3.154157e-05 4.3745065e-05 4.0003622e-05 2.9707395e-05 3.3930304e-05
3.4499833e-05 4.2562606e-05 4.1892716e-05 3.1438816e-05 4.198336e-05 3.7073693e-05 3.687561e-05 3.0507976e-05
9.2450246e-05 8.4871666e-05 8.204443e-05 7.757282e-05 8.99346e-05 8.5154476e-05 7.1846305e-05 7.118797e-05
0.00014641852 0.00020510975 0.0001817262 0.00014437015 0.00012560506 0.00010822307 0.00014581998 0.00012513372
00000000: 1aa2 ac39 7e16 9539 7dab 8e3a 095f 6e39
00000010: 77e7 8c39 6b48 d439 3fac a239 3aa9 7639
00000020: ed59 bd38 5eb5 0c39 5e10 c938 6f32 b238
00000030: 39d4 c138 be3b ca38 66fb a338 838e 9f38
00000040: 5c54 b138 0700 9638 d196 7638 d582 6638
00000050: 7334 7a38 d3bf ae38 6aef 5438 4d43 6238
00000060: 6d1d 1437 ae6a 2837 226a 2137 590a dd37
00000070: c3de 2b37 d50e ae37 dc92 4737 ba45 4c37
00000080: be1c 6738 3132 7238 f04c 8a38 a615 4f38
00000090: 584a 5938 3b64 4638 3507 1938 9d57 5138
000000a0: 6346 9539 360f 583a 86dd 5939 d3d9 5839
000000b0: eb01 8439 724f 4839 78f2 5939 00b9 6139
000000c0: ac47 1439 c768 2139 4da5 3139 0cbb 1a39
000000d0: 41bc 2939 0193 3e39 ff7f f038 c332 0839
000000e0: 8768 8839 0cda d139 1ea6 8639 19cc 7539
000000f0: f858 7b39 8981 2c39 5886 9e39 920d 8839
00000100: 1f45 7739 1c62 6339 c179 3b39 c3d7 3e39
00000110: 112c 6539 0670 6639 09c7 4a39 e60c 2939
00000120: 6d99 a339 a793 8f39 934f 5739 3f14 9439
00000130: ca74 7539 b8a8 6b39 2b85 6939 0261 b739
00000140: 728e 3b39 9352 1139 3552 1b39 8997 1f39
00000150: 53a9 2439 7221 7739 ee06 2039 71b7 1839
00000160: 9f06 be38 e7bd c138 b07e c738 f2b3 c138
00000170: cac6 2a39 ef3d 0d39 e6a8 cf38 4b21 b438
00000180: 44fe 0438 1c71 0838 bbb0 1638 c38d ec37
00000190: c7b3 bb37 beca cd37 a7ad a837 2729 d937
000001a0: ae27 8538 f6e4 8738 ca3b c038 6e41 a438
000001b0: 4e76 f338 fc8e f838 6abd 9938 2ace 9838
000001c0: 546e 9639 4604 b639 a9fe a439 0fc1 a739
000001d0: a3d6 dd39 493a d739 858e a239 29f4 9d39
000001e0: c938 5239 3c86 5039 6ecb 2a39 1fc7 3139
000001f0: 00c7 3e39 8ef6 4439 7ef7 8f39 1e71 8d39
00000200: e7a9 ac38 ea97 a138 de06 8c38 587c 8838
00000210: 25ca 8b38 ded6 8838 a481 8238 21ef 8338
00000220: 7423 1b39 1e03 4639 2333 1639 1c10 0f39
00000230: 032e 0e39 23f2 f538 fe2d 2b39 e5e7 0d39
00000240: 87c2 6938 710f 8938 20e1 6938 3eba 8438
00000250: 0635 6a38 1d77 8038 f654 7c38 5b23 8238
00000260: b0ee c838 e72e 2f39 9226 0239 8cdc c438
00000270: ab9e cf38 13c1 7838 cb88 d038 9616 bd38
00000280: d613 b539 35cb ae39 ed29 8639 f56e 8b39
00000290: 3688 8c39 9889 aa39 3e81 bd39 2fbe ad39
000002a0: 9990 2039 071f 2239 7d15 1639 56fd 6239
000002b0: 52d8 0439 86e2 0339 9875 1839 90a7 3239
000002c0: 878a d537 9268 0538 911a d437 d7d0 a837
000002d0: 2e17 d337 4ef2 ce37 7120 cc37 88d8 dd37
000002e0: 507d 2039 0c60 2d39 cc84 1039 9ae6 1d39
000002f0: 2a9b 3039 442c 6d39 a4a4 0439 3081 0d39
00000300: e421 5f39 3039 b839 ed2d 8f39 b73c 7c39
00000310: 8d89 a539 b847 8439 fc46 4739 0aa2 5539
00000320: 7742 1b38 8ae8 5c38 cf13 1c38 abf4 1338
00000330: 9720 2238 8566 2238 c241 3d38 5b62 1638
00000340: ceb5 7839 eea7 2839 fc3e 1439 19aa fd38
00000350: 3dda 5539 4661 4139 240c 1b39 264a 0339
00000360: 22cd 5239 a601 3739 6c99 1439 8a53 1239
00000370: 91d7 2639 d95d 3339 c05d 0f39 8eec 0939
00000380: f796 e637 4483 2338 a84e 3838 814b 0438
00000390: e87a 3738 90c9 2738 2534 f937 6350 0e38
000003a0: eab3 1038 4085 3238 f6b5 2f38 2cdd 0338
000003b0: 4a17 3038 937f 1b38 e2aa 1a38 61eb ff37
000003c0: d9e1 c138 21fd b138 450f ac38 97ae a238
000003d0: 459b bc38 f694 b238 31ac 9638 c04a 9538
000003e0: ec87 1939 bb12 5739 c18d 3e39 1162 1739
000003f0: dab4 0339 d1f5 e238 41e7 1839 5436 0339

exp_avg f4 [64]
-0.0035469169 0.002787318 -0.0023303484 0.0002673282 0.0018190984 0.004460533 0.003410738 -0.0026912508
-0.0035921335 -0.0032581168 -0.0049842033 -0.0025818776 -0.0012193219 -0.0011452575 0.0017325075 0.002462492
0.003171675 0.0013820495 0.00070968043 0.005035128 0.0072215386 -0.0009368071 -0.0015336676 3.4453507e-05
0.004357045 0.001794076 0.0009056798 -0.0006265474 0.0008240371 -0.003412008 0.004716691 -0.0015461493
-0.0014254224 0.0013955212 0.0012991189 -0.00020745897 -0.00062619447 -0.004223353 0.0007091211 -0.0009691754
0.0008927724 0.001876635 0.00035463992 -0.0002601604 0.0032325054 -0.0015506417 -0.0034087633 -0.0014182329
0.00065661396 -0.0027501013 0.006873714 0.00022800032 -0.00024181943 -0.006539241 0.0029629078 0.0006952996
-0.0048693693 -0.0015774322 -0.0012321551 -0.0054997145 -0.00065820734 -0.000962508 -0.0009017372 0.00034444168
00000000: 6473 68bb 70ab 363b c2b8 18bb 2f28 8c39
00000010: d06e ee3a aa29 923b b086 5f3b b25f 30bb
00000020: 006a 6bbb 2186 55bb 8752 a3bb b834 29bb
00000030: a7d1 9fba 771c 96ba 4e15 e33a c361 213b
00000040: e0db 4f3b e325 b53a d909 3a3a b7fd a43b
00000050: a8a2 ec3b 0f94 75ba 5805 c9ba 2c82 1038
00000060: 8bc5 8e3b 3327 eb3a 246b 6d3a e23e 24ba
00000070: 3204 583a ff9b 5fbb 798e 9a3b 29a8 caba
00000080: 3dd5 baba ece9 b63a 3247 aa3a 5889 59b9
00000090: 3327 24ba 0e64 8abb 50e4 393a 4310 7eba
000000a0: f108 6a3a 6cf9 f53a f7ee b939 2366 88b9
000000b0: 71d8 533b e73e cbba 8f65 5fbb 00e4 b9ba
000000c0: 9e20 2c3a 0b3b 34bb e43c e13b 5f13 6f39
000000d0: e990 7db9 2147 d6bb 582d 423b c444 363a
000000e0: 3b8f 9fbb d7c1 ceba 4480 a1ba f336 b4bb
000000f0: 8c8b 2cba d250 7cba 8f62 6cba 2e96 b439

exp_avg_sq f4 [64]
0.0018442426 0.00038069923 0.0001806129 4.0292034e-05 0.00013063931 0.0013259687 0.0004771782 0.00072330696
0.00094466226 0.002158959 0.0004605787 0.0003357378 8.833669e-05 0.00020936555 0.0010198016 0.0005261807
0.00020427824 0.00040733544 0.0002450793 0.00028198873 0.0014032121 0.00052432844 8.1236765e-05 0.00127509
0.0007651208 0.00013729245 0.0013815446 0.0008589676 0.00010535763 0.00011603111 0.0002790379 0.000400577
0.00036437862 0.002504977 9.51548e-05 0.000103699 0.001010776 0.00016043849 0.00073682604 0.0014958304
0.000100785335 0.00011188054 9.950098e-05 0.00028004617 0.0003789263 0.00018571255 0.0012716233 0.0005551899
7.7819284e-05 0.0003841137 0.0010041584 5.5282657e-05 0.00017756036 0.0008556184 0.00020954218 0.0047587715
0.0015554427 0.00091977575 0.000121546735 0.0005738536 0.00012407114 0.00014208256 0.00012773933 0.0001481119
00000000: 83ba f13a 9698 c739 e862 3d39 3eff 2838
00000010: 39fc 0839 20cc ad3a c62d fa39 4f9c 3d3a
00000020: 36a3 773a 527d 0d3b d479 f139 f705 b039
00000030: 6641 b938 2389 5b39 ddaa 853a 64ef 093a
00000040: 8633 5639 a38f d539 fd7d 8039 e3d7 9339
00000050: fceb b73a 1673 093a a85d aa38 ec20 a73a
00000060: 6392 483a 29f6 0f39 f214 b53a 572c 613a
00000070: 72f3 dc38 ba55 f338 d54b 9239 8904 d239
00000080: 120a bf39 8a2a 243b d88d c738 fa78 d938
00000090: 047c 843a 613b 2839 8f27 413a bd0f c43a
000000a0: b75c d338 68a1 ea38 2fab d038 29d3 9239
000000b0: a1aa c639 d5bb 4239 99ac a63a 2a8a 113a
000000c0: e932 a338 de62 c939 f79d 833a 4ddf 6738
000000d0: 7f2f 3a39 944b 603a 8db8 5b39 78ef 9b3b
000000e0: ffdf cb3a 1b1d 713a e8e6 fe38 aa6e 163a
000000f0: 1819 0239 fffb 1439 c4f1 0539 7c4e 1b39

exp_avg f4 [32, 64]
0.0005630218 -0.00056876783 0.0012789075 0.001596259 5.8445116e-06 0.0019001986 0.0005166506 -0.0019644175
-0.0007050549 0.001085199 0.00026079998 0.00061000773 -0.00021184704 8.151383e-06 -0.0014962226 -0.00018390818
0.00078000757 -0.0013217086 3.703007e-05 -0.0012055286 0.00042057195 0.0038745531 0.00015550434 -0.00046795027
-0.00044472603 -0.0009102154 -0.001031733 0.001995337 0.002772137 -0.0003887239 0.0019031366 -0.0015787794
-0.000541713 0.002224002 -0.0004011983 -0.0010996977 4.109369e-05 -0.0023498267 -0.0033987295 -0.0011104608
0.0017313579 6.507506e-05 0.0013344873 0.0021416547 0.0021248402 -0.0017044493 0.00034929567 -8.034171e-05
0.00033950887 0.00032324073 -0.0033481175 -0.00043991444 0.0022753289 0.0019251148 0.00067457184 0.0018645591
-0.00076664 -0.0030812188 0.0024963822 -0.0024089224 -0.0016281588 0.0009909702 0.001760956 -0.0008227486
-0.00024728818 -0.0020288888 -0.0017684139 -0.00060140254 -0.00089091354 1.6242164e-05 -0.0030781745 -0.0016393694
-0.0027432847 -0.0011574145 -0.00046433022 -0.0009025772 -0.00054749235 -0.00036009197 -0.000265197 -0.0009995376
0.00035662588 -0.0004864305 -0.0006401162 -0.0004226241 -0.0005055611 -0.0014343308 -0.0012015328 -0.0018154216
-0.00081381004 -0.0034684094 -0.0007862108 -0.0012003033 -0.00018514052 -0.001986373 -0.00055397017 -0.00016905111
-0.001697015 -0.0011347627 -0.00086618523 -0.0003109386 -0.0023113948 -0.0017202918 -0.0019286575 -0.0013578293
-0.002740334 -0.0017826302 0.0001465627 -0.00069038157 -0.003911393 -0.002139705 -0.0002361288 -0.0001744867
-0.00077736314 -0.0010113645 -0.0019633712 -0.0016109343 -0.0012480307 -0.0007441294 -0.000980774 -0.002034492
-0.0020443832 -0.0018487847 0.0005268804 -0.0013737043 -0.00073105766 -9.290545e-05 0.0007319822 -0.0005685701
0.00044133284 0.0010149046 0.0022521378 0.0015593191 0.0010791704 -0.00057289796 -5.856523e-05 0.00050916354
0.00090743427 0.0011322965 -0.0005415394 -0.0004884915 -2.2594322e-05 -0.00024351639 -0.0007767417 0.00020162252
0.0005284316 0.00062720425 0.00032940498 0.0008355458 0.0015550798 0.00081048446 0.00052239356 0.0005294456
-0.00060469727 0.0028303522 -0.0008336709 9.5633135e-05 0.00028608702 0.00029124855 0.0001152785 8.085353e-05
0.0011442937 0.0012413159 -0.0012115374 0.00035153978 0.00097633357 0.00024847436 -0.00060217245 0.0009752664
0.0011985267 0.0009774311 -0.00057536835 0.0002017704 0.0016950862 0.00073723943 -4.2569813e-05 -0.00013174422
-0.0002067585 -0.0008637849 0.00074009714 0.0005727083 -0.00058981637 0.00017458452 -0.0010646216 0.0006079415
0.0013558614 0.0006600261 -0.0006427058 -0.00050203345 0.0010909387 0.00060905813 1.4407576e-05 -0.00046348834
0.00019200395 0.0015033312 0.002327638 3.9885166e-05 0.0007139619 -8.099074e-05 0.0007939798 0.0010203121
0.0017959583 0.0010430245 0.00029619868 -0.0002702104 0.000590473 -0.00020229409 -8.189936e-05 0.00034744092
0.00033418057 0.00074743055 0.00044361554 1.2575747e-05 0.00066829944 0.00026545377 0.00025799382 0.000839913
-0.00055187213 0.0019322352 -0.00030263662 0.00082724815 0.0008783349 0.00086227484 0.00081880536 0.00038554645
0.0012207662 0.0009518636 0.00012224136 0.0004916762 0.0011849965 0.0014472156 0.0003683772 0.0013137022
0.0020026104 0.0005597247 2.534227e-05 0.00016807335 0.0019939372 0.0014030775 0.00023311887 0.00022594564
-0.0004492766 -0.00013557135 0.0009118996 0.00023774663 0.00041161443 0.00084633246 0.0003591607 0.0004138707
0.0018875573 0.0011853629 0.00022434322 0.0008564906 0.00073296175 8.246485e-05 -0.0001426021 0.0002671809
00000000: c197 133a 5d19 15ba 04a1 a73a 9039 d13a
00000010: f91b c436 1610 f93a d66f 073a 75bd 00bb
00000020: 6fd3 38ba 3c3d 8e3a fbbb 8839 ede8 1f3a
00000030: 4223 5eb9 ecc1 0837 e61c c4ba 7ad7 40b9
00000040: 6c79 4c3a 2e3d adba bc50 1b38 d402 9eba
00000050: 3680 dc39 37ec 7d3b e10e 2339 3957 f5b9
00000060: 1e2a e9b9 869b 6eba 373b 87ba 33c4 023b
00000070: beac 353b a4cd cbb9 ab72 f93a 0cef ceba
00000080: be01 0eba 90c0 113b ed57 d2b9 bb23 90ba
00000090: 035c 2c38 8dff 19bb 38bd 5ebb e28c 91ba
000000a0: bbee e23a e878 8838 f7e9 ae3a 015b 0c3b
000000b0: e740 0b3b d467 dfba ac21 b739 217d a8b8
000000c0: 1c00 b239 a378 a939 176c 5bbb 51a4 e6b9
000000d0: af1d 153b 2254 fc3a c0d5 303a 3964 f43a
000000e0: 57f8 48ba 46ee 49bb 589a 233b 03df 1dbb
000000f0: f267 d5ba 71e3 813a e1cf e63a b9ad 57ba
00000100: 75a6 81b9 1bf7 04bb 20ca e7ba 71a7 1dba
00000110: 328c 69ba c83f 8837 33bb 49bb 1ce0 d6ba
00000120: aec8 33bb 63b4 97ba 5971 f3b9 ee9a 6cba
00000130: 9785 0fba baca bcb9 240a 8bb9 eb02 83ba
00000140: 84f9 ba39 9907 ffb9 79cd 27ba a693 ddb9
00000150: a287 04ba 2800 bcba c07c 9dba 71f3 edba
00000160: de55 55ba 414e 63bb b719 4eba 7f53 9dba
00000170: 4822 42b9 cf2d 02bb 4f38 11ba 5043 31b9
00000180: 606e deba 51bc 94ba b510 63ba 7905 a3b9
00000190: c57a 17bb 6a7b e1ba 02cb fcba 31f9 b1ba
000001a0: 2d97 33bb 25a7 e9ba a0ae 1939 b9fa 34ba
000001b0: 252b 80bb 4b3a 0cbb 5899 77b9 6bf6 36b9
000001c0: f5c7 4bba c38f 84ba e7ab 00bb fc25 d3ba
000001d0: f694 a3ba ae11 43ba 518d 80ba 1d55 05bb
000001e0: 0ffb 05bb ec52 f2ba 581e 0a3a de0d b4ba
000001f0: 73a4 3fba 3cd6 c2b8 7ee2 3f3a 180c 15ba
00000200: b162 e739 8c06 853a 9a98 133b 1162 cc3a
00000210: f372 8d3a 882e 16ba f0a3 75b8 6379 053a
00000220: e2e0 6d3a 9169 943a 18f6 0dba 1c0e 00ba
00000230: f088 bdb7 6f58 7fb9 419e 4bba a26a 5339
00000240: 7286 0a3a f76a 243a fdb3 ac39 8808 5b3a
00000250: d2d3 cb3a b176 543a 3df1 083a 7eca 0a3a
00000260: 8c84 1eba 6e7d 393b b58a 5aba a68e c838
00000270: f3fd 9539 b8b2 9839 acc1 f138 e98f a938
00000280: 20fc 953a a6b3 a23a 73cc 9eba df4e b839
00000290: a3f0 7f3a aa45 8239 1cdb 1dba 05a9 7f3a
000002a0: e217 9d3a 251d 803a 51d4 16ba 5492 5339
000002b0: a82d de3a 4d43 413a fd8c 32b8 d224 0ab9
000002c0: 50cd 58b9 a06f 62ba 1403 423a ce21 163a
000002d0: e89d 1aba ad10 3739 c68a 8bba 435e 1f3a
000002e0: 29b7 b13a 9a05 2d3a 427b 28ba e59a 03ba
000002f0: d4fd 8e3a 33a9 1f3a 11b8 7137 5a00 f3b9
00000300: ab54 4939 6d0b c53a 498b 183b 5f4a 2738
00000310: 2c29 3b3a 93d9 a9b8 1523 503a febb 853a
00000320: 5c66 eb3a 18b6 883a 1d4b 9b39 07ab 8db9
00000330: f9c9 1a3a e81e 54b9 62c1 abb8 bb28 b639
00000340: f534 af39 37ef 433a 1295 e839 6cfc 5237
00000350: d130 2f3a 9a2c 8b39 5843 8739 9b2d 5c3a
00000360: 83ab 10ba 0e43 fd3a 33ab 9eb9 afdb 583a
00000370: 0f40 663a 490a 623a 19a5 563a 2b23 ca39
00000380: 1e02 a03a 7c86 793a ea2d 0039 d5e3 003a
00000390: e251 9b3a 7fb0 bd3a c022 c139 8830 ac3a
000003a0: 3a3e 033b 7dba 123a 1c96 d437 d93c 3039
000003b0: b7ac 023b 78e7 b73a 5f71 7439 d2eb 6c39
000003c0: e28c ebb9 2828 0eb9 8c0c 6f3a a04b 7939
000003d0: f4cd d739 69dc 5d3a bc4d bc39 c9fc d839
000003e0: ea67 f73a 2e5e 9b3a ad3d 6b39 1c86 603a
000003f0: 3b24 403a fbf0 ac38 7687 15b9 6a14 8c39

exp_avg_sq f4 [32, 64]
1.3323061e-05 5.1503517e-05 3.2911426e-05 6.697947e-05 5.003775e-07 3.9285704e-05 3.0442347e-05 8.8551715e-05
7.9070254e-05 5.3443662e-05 7.764151e-06 2.9631778e-05 5.7066296e-07 5.445477e-07 0.00015756121 6.069858e-06
1.6675638e-05 0.00013128079 0.0001777821 6.455765e-05 7.596529e-05 0.00010287916 2.192428e-06 0.00020206597
4.6262092e-05 0.00034819078 9.3486145e-05 0.00010438772 0.00025968553 8.321386e-06 0.0001135638 4.4184642e-05
7.656279e-05 0.0001914213 1.2688066e-05 3.9517687e-05 3.5596055e-05 0.00025063168 0.00011951806 0.00016481338
4.928485e-05 1.0379771e-05 4.673893e-06 3.5237335e-05 8.133413e-05 0.00014807908 0.00016377357 5.6140005e-05
1.3627364e-05 2.2102478e-05 0.00020481065 1.6960237e-05 3.862957e-05 1.2758355e-05 2.2276776e-05 0.00016061595
0.00017555055 0.00025280056 4.5916695e-05 5.952018e-05 9.636168e-05 5.4331917e-06 4.770058e-05 3.2525854e-06
5.573732e-06 4.4444376e-05 2.6619373e-05 6.995018e-05 1.6975095e-05 1.8098353e-05 0.00012017732 7.050992e-05
6.395692e-05 0.00013193193 1.9397918e-05 0.00014914782 7.797652e-06 1.9531033e-05 0.0002621984 5.4113334e-05
9.401418e-06 8.186113e-05 0.00015316514 2.4032937e-05 0.00010818912 9.619075e-05 3.4665347e-05 0.00019399422
9.0375805e-05 0.00035063736 0.0002455534 0.00020751935 0.00014403912 6.757312e-05 3.760393e-05 2.5899468e-05
3.0673327e-05 0.0001199636 1.6710848e-05 2.38412e-05 8.6321925e-05 0.0001981657 0.00013459889 0.00013653794
5.3798467e-05 4.0597482e-05 3.411857e-06 3.444997e-05 0.0002745325 0.00010262568 0.00026840917 3.315249e-05
2.7690308e-05 7.016197e-05 0.00016407513 0.00021023686 3.6536392e-05 3.675258e-05 9.2226655e-05 0.00015975778
8.602189e-05 0.00019532764 5.32321e-05 8.028441e-05 4.9324954e-05 2.915084e-05 2.055291e-05 1.5703446e-05
4.122154e-06 7.797501e-05 6.703302e-05 4.0318708e-05 1.8502707e-05 6.7856736e-06 7.965948e-05 1.0769442e-05
7.2174094e-05 6.1026367e-05 5.045573e-06 1.7786882e-05 1.5226553e-05 1.4014795e-06 9.365551e-05 1.2154317e-05
5.6970034e-06 1.2319865e-05 3.5534715e-05 1.3467067e-05 3.3988967e-05 4.527173e-05 9.555466e-06 4.588153e-05
1.952104e-05 0.00011467503 5.4797787e-05 5.6766472e-05 5.5571796e-05 2.4804034e-05 2.8901466e-05 9.88117e-07
1.7565724e-05 6.476023e-05 1.2801011e-05 2.9541336e-06 3.956122e-05 5.3630858e-05 6.7423745e-05 2.4062105e-05
6.28185e-05 1.0270421e-05 3.6008935e-06 1.1789332e-05 8.89679e-05 2.376667e-05 5.0713264e-05 4.2672823e-06
1.5667132e-05 3.2189182e-05 0.000108627035 4.2625314e-05 3.512918e-05 1.6424232e-05 4.6317444e-05 5.2612646e-05
4.138023e-05 0.00010390792 3.386124e-05 1.0419283e-05 1.186468e-05 8.454987e-06 4.089457e-06 3.066957e-06
4.4757753e-06 7.208479e-05 6.120192e-05 0.00011793553 1.0130588e-05 4.2617808e-06 7.812191e-05 3.895402e-05
0.00011691234 5.401665e-05 2.8706227e-06 2.5400117e-05 8.39453e-06 5.252219e-07 5.302642e-05 1.1706684e-05
1.28053625e-05 3.5598507e-05 9.787366e-05 2.2365346e-05 0.00013637023 8.304705e-05 1.918575e-05 0.00011944341
2.83498e-05 0.0002895501 3.54201e-05 2.7672242e-05 5.7504913e-05 7.680683e-06 5.49011e-05 1.3180775e-05
8.005933e-05 8.178717e-05 5.706446e-06 4.3101863e-06 4.3106753e-05 0.00014407923 7.316118e-05 5.5930475e-05
4.112881e-05 9.543492e-06 3.5246277e-08 1.2751614e-05 7.4943826e-05 5.7135636e-05 4.410823e-05 1.495975e-05
1.8489092e-05 1.4182035e-05 0.00019298728 2.3752129e-05 6.5591043e-06 3.5332503e-06 3.7977998e-06 0.00011281081
0.00010077521 0.00014696135 3.0904584e-06 1.7000155e-05 3.7515958e-05 1.4072909e-05 1.926431e-05 7.162013e-07
00000000: 1c86 5f37 7b05 5838 600a 0a38 5477 8c38
00000010: ae51 0635 b4c6 2438 715e ff37 d7b4 b938
00000020: 85d2 a538 b228 6038 c642 0237 c291 f837
00000030: a92f 1935 082d 1235 0437 2539 afab cb36
00000040: a9e2 8b37 6ba8 0939 056b 3a39 2063 8738
00000050: 8e4f 9f38 d4c0 d738 a021 1336 ace1 5339
00000060: 8b09 4238 608d b639 fe0d c438 bbea da38
00000070: 6726 8839 159c 0b37 1a29 ee38 e652 3938
00000080: 5690 a038 44b8 4839 d4de 5437 cbbf 2538
00000090: f94c 1538 3767 8339 c5a5 fa38 c1d1 2c39
000000a0: 34b7 4e38 c724 2e37 6fd4 9c36 cdcb 1338
000000b0: ee91 aa38 ad45 1b39 a2ba 2b39 df77 6b38
000000c0: 15a1 6437 b668 b937 71c2 5639 d545 8e37
000000d0: 2f06 2238 b80c 5637 03df ba37 046b 2839
000000e0: fe13 3839 518a 8439 ad96 4038 4ea5 7938
000000f0: c815 ca38 c34e b636 1c12 4838 fe46 5a36
00000100: fe05 bb36 c969 3a38 ab4c df37 38b2 9238
00000110: bd65 8e37 ebd1 9737 b507 fc38 bade 9338
00000120: 9c20 8638 3557 0a39 b6b8 a237 9064 1c39
00000130: a9d2 0237 93d6 a337 ac77 8939 c0f7 6238
00000140: c8ba 1d37 dcac ab38 f49a 2039 579a c937
00000150: 97e3 e238 04ba c938 a265 1138 ed6a 4b39
00000160: 2488 bd38 c0d5 b739 9fbd 8039 8d99 5939
00000170: 3509 1739 0bb6 8d38 eab8 1d38 af42 d937
00000180: 3ca7 0038 f894 fb38 462e 8c37 96fe c737
00000190: bb07 b538 b3ca 4f39 1d23 0d39 a02b 0f39
000001a0: aaa5 6138 3747 2a38 42f7 6436 607e 1038
000001b0: 21ef 8f39 be38 d738 45b9 8c39 370d 0b38
000001c0: 7c48 e837 ec23 9338 950b 2c39 0773 5c39
000001d0: a73e 1938 c826 1a38 cf69 c138 a784 2739
000001e0: a766 b438 ddd0 4c39 8845 5f38 5d5e a838
000001f0: 44e2 4e38 f488 f437 0a69 ac37 e5ba 8337
00000200: 0951 8a36 8486 a338 1494 8c38 e21b 2938
00000210: 4336 9b37 7eb0 e336 dc0e a738 67ae 3437
00000220: 2c5c 9738 90f6 7f38 244d a936 0a35 9537
00000230: 8c75 7f37 781a bc35 eb68 c438 65ea 4b37
00000240: e328 bf36 6bb1 4e37 1c0b 1538 9df0 6137
00000250: 608f 0e38 26e2 3d38 6a50 2037 eb70 4038
00000260: 1dc1 a337 b07d f038 add6 6538 8918 6e38
00000270: c315 6938 4212 d037 6d71 f237 719f 8435
00000280: 1b5a 9337 e2cf 8738 ecc3 5637 a13f 4636
00000290: 89ee 2538 b2f1 6038 d965 8d38 fad8 c937
000002a0: 6dbd 8338 1f4f 2c37 e1a6 7136 ccca 4537
000002b0: 4794 ba38 895e c737 f4b4 5438 ad2f 8f36
000002c0: e96c 8337 df02 0738 b2ce e338 95c8 3238
000002d0: ab57 1338 c5c6 8937 fa44 4238 66ac 5c38
000002e0: af8f 2d38 24e9 d938 3b06 0e38 7bce 2e37
000002f0: 6a0e 4737 e5d9 0d37 2b38 8936 ecd1 4d36
00000300: 9e2e 9636 3a2c 9738 8859 8038 2854 f738
00000310: 8bf6 2937 6b00 8f36 62d5 a338 8f62 2338
00000320: d62e f538 f08f 6238 eca4 4036 5612 d537
00000330: 3bd6 0c37 f9fc 0c35 af68 5e38 d367 4437
00000340: 9dd6 5637 9b4f 1538 8541 cd38 379d bb37
00000350: 9bfe 0e39 8c29 ae38 16f1 a037 b17d fa38
00000360: bbd0 ed37 c2ce 9739 0b90 1438 b021 e837
00000370: 6e31 7138 48dc 0037 9b45 6638 ff22 5d37
00000380: 87e5 a738 2785 ab38 ff79 bf36 38a0 9036
00000390: 86cd 3438 f913 1739 1c6e 9938 e496 6a38
000003a0: b981 2c38 fc1c 2037 b161 1733 c4ef 5537
000003b0: 292b 9d38 eca4 6f38 da00 3938 a3fb 7a37
000003c0: 0619 9b37 60ef 6d37 a15c 4a39 4f3f c737
000003d0: 4716 dc36 c71c 6d36 b4dd 7e36 d894 ec38
000003e0: 4757 d338 a319 1a39 ac65 4f36 8e9b 8e37
000003f0: 745a 1d38 af1a 6c37 ca99 a137 fb40 4035

exp_avg f4 [32]
-7.308765e-05 -0.0023845527 0.00050886703 0.0014595272 6.446395e-05 0.00072188344 0.0002776218 -0.0040975525
0.0 0.0012138732 -0.0050113634 -0.003923234 -0.0012280899 0.00077142613 0.0010362787 -0.00021197271
0.0007245167 0.0008507525 -0.00023530138 -0.0016893472 0.0009354376 0.00024862835 -0.00026644976 0.0007651277
-0.00016964255 0.0013939872 -0.00047766545 -0.00080905104 0.0003374605 0.0025372133 -0.0006007589 8.2470455e-05
00000000: a246 99b8 2846 1cbb 7d65 053a 9b4d bf3a
00000010: d230 8738 c73c 3d3a c48d 9139 c344 86bb
00000020: 0000 0000 d31a 9f3a 5d36 a4bb 798e 80bb
00000030: dcf7 a0ba 8839 4a3a bed3 873a fe44 5eb9
00000040: 7eed 3d3a 0905 5f3a 3cbb 76b9 166d ddba
00000050: 2838 753a 555a 8239 48b2 8bb9 da92 483a
00000060: 13e2 31b9 73b6 b63a 2c6f fab9 7f16 54ba
00000070: 2eed b039 6047 263b 3f7c 1dba fdf3 ac38

exp_avg_sq f4 [32]
0.00018235728 0.00023217387 9.1419184e-05 0.00012154716 0.0003708565 0.0006625393 0.0002435243 0.00052649586
0.0 0.0005801848 0.0005263615 0.0004270062 0.0003969595 0.000318001 0.00026121244 0.00016516156
0.000509828 0.0010346363 0.0004629215 0.00013183625 0.00010983381 0.00022997588 0.0002949821 0.00021123883
0.00035944278 0.00042700916 0.00016662804 0.00035261328 0.00023658352 0.00052375364 0.0012289665 0.0005209875
00000000: 2937 3f39 b373 7339 4db8 bf38 22e7 fe38
00000010: 846f c239 43ae 2d3a 8e5a 7f39 8a04 0a3a
00000020: 0000 0000 8b17 183a 86fb 093a cddf df39
00000030: 011f d039 5fb9 a639 57f3 8839 382f 2d39
00000040: faa5 053a a29c 873a 46b4 f239 863d 0a39
00000050: 9456 e638 ae25 7139 d4a7 9a39 fe7f 5d39
00000060: 9873 bc39 33e0 df39 e0b8 2e39 f4de b839
00000070: 6813 7839 834c 093a 4615 a13a e192 083a
