checkpoints/full/torsion_energy/20250611190447407890/MET_dim_12/fold3/best_epoch=246-val_loss_epoch=9.365.ckpt (torch, 47045 bytes, 20 tensors)

fc1.weight f4 [64, 12]
0	0x3e37ff58	0.179685
1	0x3f119b92	0.56878006
2	0x3ea562a2	0.32301813
3	0xbee81666	-0.4532959
4	0xbc801fb2	-0.015640114
5	0xbe277342	-0.16352561
6	0x3ed27741	0.4110661
7	0x3dbc998c	0.09208974
8	0xbcd4e9a8	-0.025990322
9	0xbe17146b	-0.14753883
10	0xbe14601e	-0.14489791
11	0x3e5cad4b	0.21550481
12	0x3d10f937	0.03539392
13	0x3e6bf441	0.23042394
14	0xbefb0dc4	-0.4903394
15	0xbdfffb69	-0.124991246
16	0xbe07612b	-0.1322066
17	0x3d0c15d7	0.034200516
18	0x3dd51695	0.10404698
19	0xbdb16521	-0.08661867
20	0xba83b1df	-0.0010047517
21	0xbd955e43	-0.072933696
22	0xbecfa281	-0.40553668
23	0xbe957e25	-0.29197803
24	0xbe970206	-0.2949373
25	0xbea17e56	-0.315417
26	0x3c45ce50	0.0120731145
27	0xbe389ab7	-0.18027769
28	0xbe948c0c	-0.29013097
29	0xbee146cd	-0.4399933
30	0xbe3f85b6	-0.1870335
31	0xbc477190	-0.0121730715
32	0x3cbbe78f	0.022937564
33	0xbe80c4fa	-0.2515028
34	0x3e9eed46	0.310404
35	0xbd4aafa3	-0.049483906
36	0x3d96bba5	0.07360009
37	0x3f09fb18	0.53898764
38	0x3d2a0953	0.0415128
39	0x3d9ef9ac	0.07762465
40	0x3e5f8221	0.21826984
41	0x3e88e824	0.2673961
42	0x3e699c3b	0.22813503
43	0x3ec6841a	0.3877266
44	0x3ed63cf3	0.41843376
45	0x3e7e5ebf	0.2484083
46	0x3de789e8	0.113056004
47	0xbd4bcbc1	-0.04975486
48	0xbed4c885	-0.41559234
49	0x3ee46eed	0.4461588
50	0x3e844d84	0.2584039
51	0xbe3c1619	-0.18367805
52	0x3d722e12	0.059125967
53	0x3cf4200b	0.029800436
54	0xbd134168	-0.035951048
55	0x3ea97f0b	0.3310474
56	0xbcb09c11	-0.021558793
57	0x3e3a89c3	0.18216614
58	0x3e3b6e24	0.18303734
59	0xbcbc4193	-0.022980487
60	0x3da24444	0.07923177
61	0xbe9e2514	-0.30887663
62	0x3eaddc8b	0.33957323
63	0x3e96fe89	0.2949107
64	0x3f1ad060	0.60474205
65	0xbeaf240c	-0.3420719
66	0xbe0adbb0	-0.13560367
67	0x3e15317b	0.14569657
68	0xbd939ff5	-0.07208244
69	0xbe2de571	-0.16982056
70	0xbe9fd7ba	-0.31219274
71	0x3d990622	0.07471873
72	0xbe9d0b58	-0.30672717
73	0xbf085896	-0.5326017
74	0x3e9a20e0	0.30103207
75	0x3eb5dd5b	0.35520443
76	0xbe0dba28	-0.13840544
77	0xbe488edc	-0.19585747
78	0xbcc91cd9	-0.024549888
79	0x3ddda90c	0.10823259
80	0xbcb68b36	-0.022283178
81	0x3c338062	0.010955902
82	0xbdaf39c6	-0.08555941
83	0x3d1a3fa1	0.037658338
84	0x3e9f11b6	0.310682
85	0x3f09c792	0.53820145
86	0xbdaaebab	-0.08345731
87	0xbd4bae8d	-0.04972701
88	0xbe61bf49	-0.22045626
89	0x3eac0ac3	0.3360196
90	0xbdfcad0f	-0.12337696
91	0x3d96ffa3	0.073729776
92	0xbe3cbf86	-0.18432435
93	0xbe36c1b9	-0.17847337
94	0x3ea6dc78	0.3259008
95	0x3e478338	0.1948365
96	0x3e000611	0.12502314
97	0xbe3ccf7e	-0.18438527
98	0x3dc9c795	0.098525204
99	0x3f0a69f0	0.540679
100	0x3e627780	0.22115898
101	0xbe62ae48	-0.22136796
102	0x3e9e2c93	0.30893382
103	0x3d3b16e2	0.04567612
104	0x3c944903	0.018101221
105	0xbec7f6b9	-0.39055422
106	0x3eb6ed3f	0.3572788
107	0x3d80268b	0.062573515
108	0xbe905dbc	-0.28196514
109	0x3e9237e8	0.28558278
110	0xbbadc5e8	-0.0053031333
111	0x3f0f6312	0.56010544
112	0x3ed7cd0f	0.42148635
113	0xbef15f05	-0.47142807
114	0x3d8aed6b	0.06783565
115	0xbde15518	-0.110025585
116	0x3e54c2a5	0.20777376
117	0x3da6d371	0.08145798
118	0xbef78c9c	-0.48349464
119	0xbde7017d	-0.11279581
120	0x3eddccce	0.43320316
121	0xbd9737e9	-0.07383711
122	0xbd82292e	-0.06355511
123	0xbf0e1a0e	-0.55508506
124	0x3e08410a	0.1330606
125	0x3e4d5883	0.20053296
126	0x3e0444a4	0.1291681
127	0xbdc496ce	-0.09599076
128	0x3ce608b3	0.02808032
129	0x3ecd40d6	0.40088528
130	0x3e19ba96	0.15012583
131	0xbd81379b	-0.06309434
132	0xbe480bf9	-0.19535817
133	0xbec786e6	-0.38970107
134	0xbe750734	-0.23928529
135	0x3ead7867	0.33880922
136	0x3e6d8007	0.2319337
137	0x3e150e01	0.14556123
138	0x3d8be9ab	0.06831678
139	0xbeb21467	-0.3478119
140	0xbc41c9da	-0.01182791
141	0xbe1c8e3b	-0.15288632
142	0xbeaeeef6	-0.34166688
143	0xbd9d55fe	-0.07682417
144	0xbe76492e	-0.24051353
145	0xbcd9302f	-0.026512234
146	0xbd80fbf6	-0.06298058
147	0x3da000ff	0.0781269
148	0x3e879379	0.264797
149	0x3d8359ea	0.06413634
150	0x3ee287ce	0.44244236
151	0xbeae31ad	-0.34022275
152	0x3d863efc	0.06554982
153	0xbd44c704	-0.04804136
154	0xbdf7b862	-0.12095715
155	0x3d8bc677	0.068249635
156	0x3982c94e	0.00024945516
157	0x3de91033	0.11380043
158	0x3e07c237	0.13257681
159	0x3ec71758	0.38884997
160	0x3f09bf58	0.5380759
161	0x3e359079	0.17730893
162	0xbdeb2888	-0.1148234
163	0xbde48c53	-0.11159577
164	0x3e9ea639	0.30986193
165	0xbdc43cfe	-0.09581946
166	0xbd858602	-0.065197006
167	0xbda4899c	-0.080340594
168	0xbd83f691	-0.06443513
169	0x3ec10321	0.376977
170	0x3e1ec427	0.15504514
171	0x3e872866	0.2639801
172	0x3e808e6c	0.2510866
173	0x3e3fb4a0	0.18721247
174	0x3d2ed930	0.042687595
175	0xbd5f1dd8	-0.05447182
176	0xbc39d07c	-0.01134121
177	0x3e88ff6d	0.26757374
178	0x3ea85eaa	0.32884723
179	0x3e8d069b	0.27544102
180	0xbdcd8502	-0.10035135
181	0xbf036b21	-0.5133534
182	0x3edbb24f	0.42909476
183	0xbe914357	-0.2837169
184	0xbd7ce832	-0.061744876
185	0xbcb773c6	-0.022394072
186	0x3cd3cf26	0.025855612
187	0xbed06b9c	-0.407071
188	0xbc195e60	-0.00936088
189	0x3e419815	0.18905671
190	0x3e8f59b1	0.27998117
191	0xbd445c4a	-0.047939576
192	0x3c22efa4	0.00994483
193	0xbe476066	-0.19470367
194	0x3bc29de1	0.005939231
195	0xbd83bf44	-0.064329654
196	0xbe8773b7	-0.2645547
197	0xbe11ff3a	-0.14257517
198	0xbe92d2c1	-0.28676417
199	0x3eba79da	0.3642109
200	0xbd25d7f5	-0.040489156
201	0xbeb56b1a	-0.35433275
202	0xbe0fb5ff	-0.1403427
203	0xbd835ae8	-0.06413823
204	0x3f186ffb	0.5954587
205	0x3e6b80a2	0.22998288
206	0xbeb12211	-0.34596303
207	0xbdb1bccb	-0.086785875
208	0xbde55301	-0.11197472
209	0xbda3465e	-0.07972406
210	0xbe1c57cc	-0.15267867
211	0x3b3587b4	0.0027699294
212	0x3c022d4b	0.007945369
213	0xbe1ea032	-0.15490797
214	0xbd89fdb7	-0.067378454
215	0xbde44d7b	-0.11147591
216	0xbd4311c4	-0.047624364
217	0xbef8eeae	-0.48619598
218	0x3f174b14	0.59098935
219	0xbe3d9294	-0.18512946
220	0xbd27e204	-0.04098703
221	0x3e044821	0.1291814
222	0x3db29d81	0.08721448
223	0x3de064de	0.10956739
224	0x3c99111c	0.018684916
225	0x3e0ab538	0.13545692
226	0xbe8ece6b	-0.2789186
227	0x3dfcdda5	0.12346963
228	0xbebce54b	-0.36893687
229	0x3bffed91	0.0078103025
230	0x3e59b0d1	0.21258856
231	0x3e2390cb	0.15973203
232	0xbf12870c	-0.57237315
233	0x3d71205d	0.058868755
234	0xbe5372fd	-0.20649333
235	0xbcefec2e	-0.029287424
236	0x3cf6aaa6	0.030110668
237	0x3c3155f4	0.0108237155
238	0x3e2ddcaf	0.16978715
239	0x3da291bb	0.07937952
240	0xbd3f9051	-0.04676849
241	0x3e6ddb89	0.23228277
242	0x3c3f3241	0.011669696
243	0xbe0b3e91	-0.13598086
244	0x3e1a6c6c	0.15080422
245	0xbe09e2a1	-0.13465358
246	0x3eb0ec57	0.34555313
247	0xbe230254	-0.15918857
248	0xbd1f2f40	-0.03886342
249	0xbe9b563f	-0.30339238
250	0xbe33043a	-0.17482081
251	0xbe382b6b	-0.17985313
252	0x3e43bcb5	0.19114955
253	0x3ea05ff8	0.31323218
254	0x3de9cd2b	0.11416086
255	0xbe6d7e7f	-0.23192786

fc1.bias f4 [64]
0	0x3d09a986	0.033608936
1	0x3e39155d	0.18074556
2	0xbd2fc676	-0.042913876
3	0x3df61844	0.12016347
4	0x3e3f6dce	0.18694231
5	0xbd78bc41	-0.060726408
6	0xbe61d148	-0.2205249
7	0xbde7cdeb	-0.113185726
8	0xbe9ebfa7	-0.31005594
9	0xbeb33a1f	-0.3500528
10	0x3de2ffc9	0.110839434
11	0x3e4442d6	0.19166121
12	0x3e2be371	0.16785981
13	0x3e7c52f3	0.24641018
14	0x3e97906b	0.2960237
15	0x3d0be072	0.034149595
16	0x3d14b7ea	0.036308207
17	0xbe663350	-0.22480512
18	0x3e4419f1	0.19150521
19	0x3eaccd99	0.3375061
20	0x3eb441a9	0.35206345
21	0x3e287c5c	0.1645369
22	0xbec5f3df	-0.3866262
23	0xbe8d54a7	-0.27603647
24	0xbf193a7e	-0.59854877
25	0xbca3c099	-0.019989299
26	0x3d8e0b2f	0.06935727
27	0x3db3a4aa	0.087716416
28	0x3f0acb44	0.5421641
29	0x3e9b06cc	0.30278623
30	0x3eaa83ca	0.33303672
31	0x3e5b1e4e	0.21398279
32	0x3dcca1eb	0.09991821
33	0xbe6c7643	-0.23091988
34	0xbeaff9ac	-0.34370172
35	0x3e271d61	0.16319801
36	0xbe6bee67	-0.23040162
37	0x3e8ed79c	0.27898872
38	0x3eaf9fa4	0.34301484
39	0xbebc4855	-0.36773935
40	0xbeabaa84	-0.3352853
41	0x3e971ff7	0.29516575
42	0xbd77f544	-0.060536638
43	0xbb908a18	-0.0044109933
44	0xbee0337c	-0.4378928
45	0xbe2426ed	-0.16030474
46	0xbe919d25	-0.28440204
47	0x3daf6988	0.0856505
48	0xbe3a5b7f	-0.18198965
49	0x3e3f84ca	0.18702999
50	0xbe2bf941	-0.16794302
51	0x3f027eec	0.5097492
52	0xbe2de8fd	-0.16983409
53	0x3e9e431b	0.30910572
54	0x3e911fa5	0.28344455
55	0x3e805900	0.25067902
56	0xbe51b358	-0.2047857
57	0x3dba1bb5	0.09087316
58	0x3d932fc1	0.07186843
59	0xbe5b95be	-0.21443841
60	0xbd765d13	-0.060147356
61	0x3e314c11	0.17314173
62	0xbe06d588	-0.13167393
63	0x3e0cbfa8	0.13744986

fc2.weight f4 [32, 64]
0	0x3e14469b	0.14480059
1	0x3cb61770	0.022227973
2	0x3de4ad6d	0.11165891
3	0xbf1481a5	-0.5801032
4	0xbe1b2308	-0.15150082
5	0x3d5730dd	0.052536834
6	0x3de7bef6	0.1131572
7	0x3e124b11	0.14286448
8	0x3e4c0c1d	0.19926496
9	0x3d9579a6	0.07298593
10	0xbd662be7	-0.056194212
11	0xbd8354bf	-0.064126484
12	0xbc227fa0	-0.0099181235
13	0x3da29e22	0.07940318
14	0x3e1cfc48	0.15330613
15	0xbe1745ed	-0.14772768
16	0xbd94bd8a	-0.07262714
17	0xbe5893b5	-0.21150096
18	0xbd4c16dc	-0.049826488
19	0x3e69a1af	0.22815584
20	0x3ca57b81	0.020200493
21	0xbd47e9a1	-0.04880679
22	0x3d82aebf	0.063809864
23	0xbe3657e7	-0.1780697
24	0xbf00d7a1	-0.50329024
25	0x3dabf3b8	0.08396095
26	0x3e481126	0.19537792
27	0xbe7e7f09	-0.24853148
28	0x3d5bd3bb	0.05366872
29	0x3e7087a5	0.23489244
30	0x3e2608d8	0.16214311
31	0x3e489cb2	0.19591025
32	0xbdff0711	-0.1245252
33	0xbe8b1c99	-0.27170256
34	0x3d65921d	0.056047548
35	0xbe07bc9e	-0.13255545
36	0x3dcf691a	0.101274684
37	0x3d7924e0	0.060826182
38	0x3eaa9c0f	0.33322188
39	0x3dadf137	0.08493274
40	0xbeb1e1ac	-0.34742486
41	0x3e7a40ae	0.24438736
42	0x3eb0ed00	0.34555817
43	0xbe7470a6	-0.23871097
44	0xbf07df9e	-0.5307559
45	0xbd8645a6	-0.06556253
46	0xbd85ffb5	-0.06542913
47	0x3dac36d8	0.08408898
48	0x3e4b196d	0.19833918
49	0x3ab5fd90	0.0013884772
50	0xbe0cea48	-0.13761246
51	0xbd63f804	-0.055656448
52	0x3dd45af7	0.10368913
53	0x3d94a6c8	0.072583735
54	0xbc9983a8	-0.018739536
55	0xbbbc0c5c	-0.005738778
56	0x3c949dc2	0.018141631
57	0x3e462321	0.19349338
58	0x3e1451a2	0.14484265
59	0x3e04c189	0.12964453
60	0xbf09bdd7	-0.538053
61	0x3d71c94d	0.059029866
62	0x3e06782a	0.13131776
63	0x3dd443bd	0.103644826
64	0xbe9baa81	-0.30403522
65	0xbdf873f8	-0.12131494
66	0xbdbdf8a5	-0.09275941
67	0xbef7cc16	-0.48397893
68	0x3e7404ca	0.23829952
69	0x3ed1b085	0.40954986
70	0x3e03c0fa	0.12866583
71	0x3ea839a4	0.32856476
72	0xbed226dd	-0.41045275
73	0xbf0746e7	-0.52842563
74	0x3d1d96ff	0.03847408
75	0x3e18e26d	0.14930125
76	0xbe1c79f2	-0.15280893
77	0x3edcad03	0.43100747
78	0x3ef0a93a	0.4700411
79	0x3f028beb	0.5099475
80	0xbbd46f61	-0.006483004
81	0xbaac9c81	-0.00131692
82	0xbda72e10	-0.081630826
83	0x3de68dd7	0.112575226
84	0x3e2b57dd	0.16732736
85	0x3e12bd26	0.14329967
86	0xbf0147d5	-0.5050023
87	0xbc30f1b8	-0.010799818
88	0xbf5dbe85	-0.86618835
89	0xbd7e9ec4	-0.06216313
90	0x3cb338a7	0.0218776
91	0xbebdc87f	-0.3706703
92	0xbd2ee4b8	-0.042698592
93	0xbead677a	-0.3386801
94	0x3e234de9	0.15947689
95	0x3c5aafaa	0.013347546
96	0x3dad98ff	0.08476447
97	0xbda087db	-0.078384124
98	0x3f146a6d	0.5797489
99	0x3da27506	0.07932477
100	0xbc9d971b	-0.019237092
101	0x3e99679c	0.2996186
102	0xbddcf76b	-0.10789379
103	0x3db4713d	0.08810661
104	0xbf0c1796	-0.5472349
105	0x3dcec614	0.10096374
106	0xbd351bfa	-0.044216134
107	0xbdc83849	-0.097763605
108	0x3e39dcbd	0.18150611
109	0xbdcf9e0c	-0.10137567
110	0x3e8da2bc	0.2766322
111	0xbe0b7a3f	-0.13620852
112	0xbf562625	-0.83651954
113	0xbe1c14e1	-0.1524234
114	0xbe99c05d	-0.30029574
115	0xbea65ee4	-0.3249427
116	0x3dbf9242	0.09354068
117	0xbd2c568e	-0.042074732
118	0x3bcbc155	0.0062181153
119	0xbe4c6cb1	-0.19963337
120	0x3eb42f2f	0.35192248
121	0x3d120773	0.035651635
122	0x3ddc68c7	0.10762172
123	0x3f077022	0.52905476
124	0xbdce5464	-0.1007469
125	0x3e32ba80	0.17453957
126	0x3e91e85a	0.28497583
127	0xbe714519	-0.23561515
128	0x3eb2ed60	0.34946728
129	0x3e0c53cb	0.1370384
130	0xbd687911	-0.056756083
131	0x3e523866	0.20529327
132	0xbd4013ab	-0.046893757
133	0x3db4bec6	0.0882545
134	0x3dd6eb48	0.10494095
135	0xbeae72b5	-0.3407189
136	0xbd6fb49c	-0.058521852
137	0x3d83d522	0.06437136
138	0xbe7909e8	-0.24320185
139	0x3d2b48cf	0.041817483
140	0x3d84b90f	0.064806096
141	0x3cf250ea	0.029579598
142	0x3deb9b9a	0.11504288
143	0x3e804e4f	0.25059745
144	0x3d2c0bda	0.04200349
145	0xbd3fdb57	-0.04684004
146	0xbdf4f4a4	-0.11960724
147	0xbea111a7	-0.3145878
148	0x3e0be926	0.13663158
149	0xbd98cc33	-0.07460823
150	0x3e10927b	0.14118378
151	0xbf35d81b	-0.71032876
152	0x3c483a22	0.012220891
153	0x3dd5c986	0.10438828
154	0x3d2660ef	0.040619787
155	0x3e6d71b4	0.23187906
156	0xbcb1a544	-0.02168525
157	0x3d537dee	0.051633768
158	0x3dc38388	0.09546572
159	0xbdc2f93c	-0.09520194
160	0xbec27785	-0.3798181
161	0x3e85cb71	0.26131776
162	0x3dafd679	0.08585829
163	0x3ccbcf29	0.024879055
164	0x3da2c50f	0.07947742
165	0xbdfc7b0a	-0.12328155
166	0xbe51fe89	-0.20507254
167	0xbd2d6603	-0.042333614
168	0x3ea8272c	0.32842386
169	0xbe6e259c	-0.23256534
170	0x3e6d8087	0.2319356
171	0xbe13fa78	-0.14451015
172	0x3c5bf6f6	0.013425579
173	0x3e8bfadc	0.27339828
174	0x3db9cafa	0.09071918
175	0x3e0012ee	0.12507221
176	0x3e076d9d	0.13225408
177	0x3e071341	0.13190939
178	0x3eaeeeb5	0.34166494
179	0xbc6b4b18	-0.014361165
180	0xbdc0ffb4	-0.094237715
181	0xbc12a9b3	-0.008951592
182	0x3e76ffb0	0.24120975
183	0x3e00cccc	0.12578124
184	0x3e39068a	0.180689
185	0x3e3a86fc	0.18215555
186	0xbda1578d	-0.07878027
187	0x3e129b01	0.14316942
188	0x3db14baa	0.0865701
189	0x3d9d19f0	0.07670963
190	0x3eba3325	0.36367145
191	0xbe3d2546	-0.1847125
192	0xbd10a1db	-0.035310607
193	0x3b3338e8	0.0027347151
194	0xbc5c4229	-0.013443508
195	0x3c90426e	0.017609801
196	0x3e7a4b6b	0.24442832
197	0xbe321068	-0.17389071
198	0xbe670d3a	-0.2256364
199	0x3ccc2290	0.024918824
200	0x3dab0872	0.0835122
201	0x3ac5d568	0.0015093507
202	0xbd7db5af	-0.061940845
203	0xbd0f81d6	-0.03503593
204	0xbe624322	-0.22095922
205	0x3e374420	0.17897081
206	0x3e2e5cd7	0.17027603
207	0xbe21bf27	-0.15795575
208	0xbbe0f0ad	-0.0068646283
209	0x3dbb124e	0.09134351
210	0x3d533495	0.051563818
211	0x3c94a9ae	0.018147316
212	0xbda3efe0	-0.08004737
213	0xbe3196e5	-0.17342718
214	0x3e2b2b0b	0.16715638
215	0x3e31d5ba	0.17366686
216	0x3d47fe37	0.048826423
217	0x3def92ba	0.11697908
218	0xbe250bdb	-0.16117804
219	0x3e85b94f	0.26117942
220	0xbe02dff1	-0.1278074
221	0x3c7562ea	0.014977196
222	0x3d4766dc	0.04868208
223	0x3e37bb28	0.17942488
224	0x3cf5b9df	0.029995857
225	0x3e879ccb	0.2648681
226	0x3e9d12a4	0.30678284
227	0xbcd8b6d1	-0.026454361
228	0x3d3a58e6	0.045494936
229	0xbc5618c7	-0.013067431
230	0x3e5123a7	0.20423757
231	0xbf05f5ef	-0.5232839
232	0xbcedecaf	-0.029043524
233	0xbe25734b	-0.16157262
234	0x3da194d3	0.07889714
235	0xbd86a2d8	-0.06574029
236	0x3e503b3a	0.20335093
237	0x3e8e0be2	0.2774344
238	0x3d1b13e3	0.037860762
239	0xbd7f782e	-0.06237047
240	0xbe99936a	-0.2999528
241	0x3da67569	0.08127863
242	0x3e96f7a6	0.29485816
243	0x3e0a61f9	0.13513936
244	0xbe75e284	-0.2401219
245	0x3e0564f0	0.13026786
246	0x3ec991aa	0.39368945
247	0x3de3ac8e	0.111168966
248	0x3e7a34c7	0.24434195
249	0xbeace158	-0.33765674
250	0xbecba863	-0.39776906
251	0x3d16e6a9	0.03684107
252	0x3de639fb	0.11241528
253	0x3e9c6a30	0.30549765
254	0x3cf6b623	0.030116146
255	0x3cf31359	0.029672312

fc2.bias f4 [32]
0	0x3de2ecf2	0.1108035
1	0xbce0428a	-0.027375478
2	0xbc6ddf5e	-0.014518587
3	0x3e62cfab	0.22149532
4	0x3e3e26d8	0.18569505
5	0x3d56c803	0.05243684
6	0x3e3712dd	0.1787829
7	0x3e8d59d9	0.2760761
8	0x3e369db1	0.17833592
9	0x3c828235	0.015931228
10	0xbdb3370e	-0.08750735
11	0x3e1f0f84	0.15533262
12	0x3c7310a4	0.01483551
13	0x3e1bcb63	0.15214305
14	0x3e814c4a	0.25253516
15	0x3e0155a1	0.12630321
16	0x3e016a83	0.12638287
17	0xbe77d3bc	-0.24201864
18	0xbdb75a9b	-0.089528285
19	0x3cef34fe	0.029200073
20	0x3b772687	0.0037712173
21	0x3d7eb729	0.062186394
22	0x3dd9083f	0.10597276
23	0x3def310d	0.116792776
24	0x3d88a3a1	0.06671835
25	0xbdae4177	-0.0850858
26	0x3e302a88	0.17203724
27	0x3e0493b0	0.12946963
28	0xbb50e549	-0.0031874946
29	0xbe705ae6	-0.23472175
30	0x3e195fc5	0.1497794
31	0xbd04e5cf	-0.032445725

fc3.weight f4 [3, 32]
0	0x3e765d9b	0.24059145
1	0x3c09249f	0.008370548
2	0xbbcdd363	-0.006281303
3	0x3ed53f29	0.4164975
4	0x3de53f4d	0.11193714
5	0xbc8f10a3	-0.017463988
6	0x3eafec6d	0.34360066
7	0x3e9dc3c9	0.30813435
8	0x3d7db282	0.061937816
9	0x3e9dbeeb	0.3080972
10	0xbe044000	-0.12915039
11	0x3e81cc02	0.25350958
12	0xbc6b92e2	-0.014378281
13	0x3e992b77	0.29915974
14	0x3ecf770e	0.4052052
15	0x3da95cfc	0.082696885
16	0x3d2131cd	0.039354134
17	0xbee388e1	-0.44440368
18	0xbea8c451	-0.32962278
19	0x3d1efdf3	0.038816404
20	0xbddd370e	-0.108015165
21	0x3e257517	0.16157947
22	0x3ea1b1c7	0.31580946
23	0x3d8e03d9	0.06934328
24	0xbe605c66	-0.21910247
25	0xbe9fde09	-0.31224087
26	0x3d44b7ab	0.048026722
27	0x3eb1d67a	0.34733945
28	0xbdff0d11	-0.12453664
29	0xbea45491	-0.3209577
30	0x3e183b0b	0.14866273
31	0xbdb4a9fb	-0.08821484
32	0x3e468fa5	0.19390734
33	0x3f4d8197	0.80275863
34	0xbe6236ce	-0.22091219
35	0xbe9575e8	-0.29191518
36	0xbbc7bd6e	-0.00609558
37	0xbe82067a	-0.25395566
38	0xbe83c661	-0.2573729
39	0x3e2576f5	0.1615866
40	0xbedc6b8a	-0.43050796
41	0x3f8b30dd	1.0874287
42	0x3e9d609e	0.30737776
43	0x3ea57f04	0.32323468
44	0xbf15edd7	-0.5856604
45	0x3cc0860e	0.023501422
46	0x3e3722e6	0.17884406
47	0xbec6b345	-0.38808647
48	0xbf22ea68	-0.63638926
49	0xbd2059ee	-0.039148264
50	0xbcce9ced	-0.025221312
51	0x3f283408	0.65704393
52	0x3e6ea910	0.2330668
53	0x3fa6b537	1.3024052
54	0x3c6b6b95	0.014368911
55	0x3ef124f5	0.47098508
56	0x3ea3c0cf	0.3198304
57	0xbe967df8	-0.29392982
58	0xbf1b7d3c	-0.6073797
59	0x3ee76b0c	0.45198858
60	0x3e888e7d	0.2667121
61	0x3df1c59d	0.1180527
62	0x3e9ecf83	0.31017694
63	0x3f8e3ffa	1.1113274
64	0x3ed223fa	0.41043073
65	0x3ea368fa	0.31916028
66	0xbed4e30c	-0.41579473
67	0xbe6d03dc	-0.23146003
68	0x3e7418e7	0.23837624
69	0xbeac0f97	-0.33605644
70	0x3e4d7f14	0.20068008
71	0xbea69cba	-0.32541448
72	0x3eac0d33	0.3360382
73	0x3e0f3d26	0.1398817
74	0xbe118d1f	-0.1421399
75	0xbef6c423	-0.48196515
76	0x3d7c6901	0.061623577
77	0xbec869d8	-0.39143252
78	0xbbb9e367	-0.0056728604
79	0xbe404976	-0.18778023
80	0xbdd6e4e5	-0.10492877
81	0x3e1025e1	0.1407695
82	0xbedcb5db	-0.43107495
83	0xbf0b6304	-0.5444796
84	0xbee85775	-0.45379224
85	0x3c4f1c25	0.0126409875
86	0x3f0401ed	0.5156544
87	0x3d6fde11	0.05856139
88	0x3e60716f	0.21918271
89	0xbd4dcedb	-0.0502461
90	0x3da9e826	0.08296232
91	0xbe40bafd	-0.1882133
92	0xbe513727	-0.20431195
93	0x3ebf54d2	0.373694
94	0x3d72aad8	0.05924496
95	0xbd2ed6a1	-0.042685155

fc3.bias f4 [3]
0	0x3e3f9a1a	0.18711129
1	0xbdcba010	-0.09942639
2	0xbc7cc7e6	-0.015428519

exp_avg f4 [64, 12]
0	0xbaa81093	-0.0012822322
1	0x3aadb308	0.0013252208
2	0x3a034715	0.00050078455
3	0xba9e44e7	-0.0012074978
4	0x3a6fd898	0.00091494014
5	0x3806f88e	3.2179574e-05
6	0x3aad9a95	0.0013244922
7	0xb9577b9f	-0.0002055005
8	0xb977469a	-0.00023582057
9	0xb9eeec64	-0.00045571022
10	0xb9c5dd36	-0.00037739583
11	0xba7e7b07	-0.00097076636
12	0x3ada6b90	0.0016664136
13	0x3b051b86	0.0020310595
14	0xbb04c192	-0.0020256978
15	0xbb32b4d8	-0.0027268436
16	0x3b06c112	0.0020561856
17	0xb9e87e67	-0.00044344665
18	0x3aa3644e	0.0012465806
19	0xb9ebb094	-0.00044954254
20	0x3b0f24b9	0.0021841957
21	0x3a8f2b75	0.0010922985
22	0x3b46fbc1	0.003036246
23	0x3a6dd887	0.00090730976
24	0x3b49b4d9	0.003077796
25	0x3aa10a35	0.0012286367
26	0x3a7f6429	0.0009742403
27	0xbaa329a9	-0.0012448329
28	0xba1db6cb	-0.0006016313
29	0xba9a2767	-0.001176101
30	0x37741936	1.4549403e-05
31	0x391ff86a	0.00015255963
32	0xb91a4624	-0.00014712714
33	0x3a7f931e	0.00097494
34	0x3aa93ee9	0.0012912425
35	0x3b6c8f66	0.0036096214
36	0xbaaded07	-0.0013269492
37	0x3ab2386d	0.0013597138
38	0x3ad849f6	0.0016501534
39	0xb9173f3c	-0.00014424039
40	0x3aaad9bd	0.0013034862
41	0x3a139340	0.0005629547
42	0x3ac71f08	0.0015191743
43	0xbb03d47f	-0.0020115671
44	0xba87ade9	-0.0010351512
45	0x3aaa98ca	0.0013015505
46	0x3a322c34	0.0006796748
47	0xb8c1fbba	-9.249845e-05
48	0xbad5e2d8	-0.0016318215
49	0xbb505a3d	-0.0031792067
50	0x3aae680d	0.0013306156
51	0x3a876af4	0.0010331557
52	0xba677e19	-0.00088307407
53	0xba740b67	-0.00093095604
54	0x3a81679d	0.0009872798
55	0x3aa5dc4f	0.0012654158
56	0xbabbb102	-0.001431972
57	0xbab8082a	-0.0014040519
58	0xbb297d38	-0.002586199
59	0xbb375ae4	-0.002797776
60	0xbb02fa25	-0.0019985524
61	0xbadbd47a	-0.0016771697
62	0x393ae4a2	0.00017823515
63	0x3ae48e09	0.0017437349
64	0xbaec64c0	-0.0018035397
65	0x3b004960	0.0019574985
66	0xba2816ee	-0.0006412108
67	0x3a10ef9a	0.00055288675
68	0xba35fe01	-0.00069424516
69	0xbb41bcf3	-0.0029562085
70	0xbaf539a5	-0.0018709196
71	0xbbbe0d93	-0.005799958
72	0x3b351bc8	0.0027634967
73	0x3b0e242b	0.0021689038
74	0xba793beb	-0.00095075247
75	0xba2c067e	-0.00065622467
76	0x39ca409b	0.00038576577
77	0x3ab8063b	0.0014039943
78	0xb9b14707	-0.0003381299
79	0xba8da01a	-0.001080516
80	0x3afe29e7	0.001939115
81	0x3aea0478	0.0017854115
82	0x3b1fd59f	0.0024388803
83	0x3b636fe3	0.003470414
84	0x3a55c9ef	0.00081553956
85	0xba98ab07	-0.001164765
86	0xb99714fd	-0.00028816602
87	0x3a5fe0e2	0.0008540285
88	0xbaec704b	-0.0018038837
89	0xba537121	-0.0008065869
90	0xb90ae8a9	-0.00013247378
91	0x3ad25b3d	0.001604892
92	0x399a7033	0.00029456764
93	0xb959e4d3	-0.00020779976
94	0xbb26cbe8	-0.0025451127
95	0x3a8bb755	0.0010659496
96	0x3b3db178	0.002894489
97	0x3b19ad0f	0.0023449098
98	0x3b5055f2	0.0031789509
99	0xb9dfd1ea	-0.00042690273
100	0xb7f248ee	-2.8882609e-05
101	0xb91862d5	-0.00014532667
102	0x3a12a45a	0.00055939483
103	0xbaf6a549	-0.0018817569
104	0xbb106021	-0.0022029954
105	0x3aa2d14c	0.0012421994
106	0xb93f8c5a	-0.00018267464
107	0x397042bb	0.00022913043
108	0x3a0a21cd	0.0005269319
109	0x3a2c2289	0.00065664254
110	0x3ad52b8e	0.0016263591
111	0x37fbc65e	3.0013904e-05
112	0x39a48a7f	0.00031383705
113	0x389944b9	7.308409e-05
114	0x38a29754	7.752949e-05
115	0xba0d5f89	-0.0005392959
116	0xba90c5f7	-0.0011045326
117	0x39ce8751	0.000393922
118	0xb88052f7	-6.118969e-05
119	0xb9fcfe1f	-0.0004825452
120	0xb95811d3	-0.00020606005
121	0x3ab3a165	0.0013704716
122	0x3a8bf673	0.0010678306
123	0x39d00143	0.00039673792
124	0xbabfd5d7	-0.0014635873
125	0x3ab9c13f	0.0014171972
126	0xb8f569f5	-0.000117022464
127	0xbab72e1c	-0.0013975534
128	0xba5f1a42	-0.00085106876
129	0x38bb2708	8.924125e-05
130	0xbae18d9f	-0.0017208344
131	0x3a49dba3	0.000770027
132	0xbb04cfa3	-0.0020265363
133	0xba94560a	-0.0011317146
134	0xb8bac4b5	-8.905811e-05
135	0x3ac58c60	0.0015071742
136	0x38397995	4.422067e-05
137	0xb8dbc5c5	-0.00010479571
138	0xba43d26e	-0.0007470016
139	0x3b085cca	0.002080726
140	0x39c44e12	0.000374422
141	0xbb02bdba	-0.0019949512
142	0xba74c145	-0.0009336661
143	0xbad40ae5	-0.0016177563
144	0xbaa4a9a3	-0.0012562763
145	0xbae8f953	-0.00177745
146	0xba6153a9	-0.0008595535
147	0x3aa38a84	0.0012477194
148	0x39606858	0.00021401176
149	0x3a56ca46	0.0008193593
150	0xb8d31a02	-0.000100661084
151	0x3ab5a43c	0.001385815
152	0xba3238e3	-0.0006798638
153	0xba448684	-0.0007496851
154	0x3a0f7693	0.0005472686
155	0xbb0653f4	-0.0020496817
156	0xba181162	-0.000580093
157	0xbaecf39c	-0.0018077972
158	0xb9883967	-0.0002598271
159	0x3a3caeac	0.0007197659
160	0xbab623c3	-0.0013896156
161	0xb9e44bcf	-0.0004354403
162	0xba4308b6	-0.00074399577
163	0x3aca7b13	0.0015448056
164	0x3a92c32b	0.0011197081
165	0x3a0e6873	0.0005432434
166	0x39969bd6	0.00028726336
167	0x3a298887	0.00064671825
168	0xba75c916	-0.00093759724
169	0xbadd3913	-0.0016877971
170	0xbaf586b6	-0.0018732164
171	0x3a90c24e	0.0011044235
172	0xb6c6d7db	-5.9259887e-06
173	0xba1b7fab	-0.0005931805
174	0x3a3db28b	0.0007236383
175	0x3a345f3e	0.0006880647
176	0xb9f6396a	-0.00046963553
177	0xba01d427	-0.00049525726
178	0xba4bcd09	-0.0007774388
179	0x3a753e57	0.00093552977
180	0xbb80a127	-0.003925461
181	0x39c2bd1a	0.00037143455
182	0x3ab1df56	0.0013570588
183	0x3b0a3e2f	0.0021094193
184	0xb9aa33e7	-0.00032463597
185	0x3a7f6339	0.00097422634
186	0xba857070	-0.0010180604
187	0x3b278631	0.0025562162
188	0x39bcd6a0	0.00036018062
189	0xbb66a3e9	-0.0035192913
190	0xbb3699b8	-0.002786262
191	0xbb277b70	-0.0025555752
192	0x3b08b149	0.0020857623
193	0x3a3b5bf6	0.0007147187
194	0x37762c7f	1.4673103e-05
195	0xb92e9110	-0.00016647973
196	0x398530fe	0.0002540424
197	0x39295a28	0.00016150682
198	0x389653fc	7.168201e-05
199	0x39d5b672	0.00040762458
200	0xba854d23	-0.0010170083
201	0x3a8aab37	0.001057959
202	0x39e1313c	0.00042952027
203	0xb98f2bd4	-0.0002730774
204	0x3a807f91	0.0009803643
205	0x39e1ab34	0.000430429
206	0xb9e5c61a	-0.0004382588
207	0x3b147920	0.0022655204
208	0xbab74fc7	-0.0013985567
209	0x386b23b6	5.6061624e-05
210	0xba0397d8	-0.000501988
211	0x3aca658a	0.0015441638
212	0x3aa18c3a	0.0012325116
213	0xbb0aec98	-0.002119815
214	0xbb0de6bd	-0.0021652423
215	0x3ab18c8c	0.0013545915
216	0x39fda00f	0.00048375173
217	0xb8300a78	-4.197142e-05
218	0xba8e2be0	-0.0010846816
219	0xba47d183	-0.0007622467
220	0x3981020a	0.00024606317
221	0x382871c6	4.016028e-05
222	0x39b92616	0.00035314326
223	0xba806f34	-0.0009798766
224	0x3aa12094	0.0012293034
225	0xb92ce408	-0.00016488147
226	0x3aaaa774	0.0013019876
227	0x3a89fffc	0.001052856
228	0x39b578d1	0.00034613025
229	0xb9fa8990	-0.00047786208
230	0xba35f96c	-0.0006941769
231	0xb98d9d0a	-0.0002701062
232	0xbac1b4fb	-0.0014778668
233	0x39dbfdb2	0.00041959953
234	0xb9c155b4	-0.00036875682
235	0xba9f0973	-0.0012133553
236	0x3a21810a	0.0006160891
237	0xba852e27	-0.0010160849
238	0xba2ef85d	-0.0006674582
239	0xba256171	-0.00063087704
240	0x3a840499	0.0010072171
241	0x39c98be6	0.0003844194
242	0x3a43c22d	0.0007467594
243	0xb981284a	-0.00024634815
244	0xb963c23c	-0.00021720765
245	0xb94e9e72	-0.00019704716
246	0xb8733f33	-5.7994574e-05
247	0x3782a1e2	1.557259e-05
248	0xb8f2fe29	-0.000115868
249	0x392140f7	0.00015378358
250	0x38aad09b	8.1450875e-05
251	0xba6c04e6	-0.00090034155
252	0xb96e9b42	-0.00022755287
253	0xba69b125	-0.0008914641
254	0x39f2c727	0.00046306217
255	0x3b20e703	0.0024551756

exp_avg_sq f4 [64, 12]
0	0x379d93ec	1.878474e-05
1	0x380633fe	3.199651e-05
2	0x381f89e6	3.8036982e-05
3	0x384d4bb8	4.8946327e-05
4	0x37eb0014	2.801422e-05
5	0x37ba0e3f	2.2179562e-05
6	0x378e33bc	1.695181e-05
7	0x37a2ac8f	1.9392259e-05
8	0x37d1c3a9	2.5005853e-05
9	0x383efb29	4.553344e-05
10	0x38406ac9	4.587582e-05
11	0x380079f0	3.063114e-05
12	0x390e16ec	0.00013550714
13	0x38c2dcea	9.291789e-05
14	0x390b927c	0.00013310643
15	0x392614c1	0.00015838725
16	0x397b3344	0.00023956323
17	0x38ccb0de	9.760422e-05
18	0x38a557d2	7.884171e-05
19	0x389f6cf8	7.602008e-05
20	0x38eb9cfd	0.000112349146
21	0x399ca6a5	0.00029878799
22	0x39ad81eb	0.00033093928
23	0x393baf5b	0.00017899035
24	0x38f07f9b	0.0001146786
25	0x38bbc06d	8.952697e-05
26	0x38a0553a	7.645269e-05
27	0x389446c9	7.070375e-05
28	0x38afcc38	8.382689e-05
29	0x38745e47	5.8261936e-05
30	0x383704f3	4.363521e-05
31	0x3880db27	6.144336e-05
32	0x385088f4	4.9718612e-05
33	0x392e1697	0.00016602348
34	0x390ba67e	0.00013318096
35	0x38acff6e	8.2491766e-05
36	0x38109ace	3.447645e-05
37	0x37e1fdd6	2.6940292e-05
38	0x380ac93e	3.3089185e-05
39	0x379b5966	1.851907e-05
40	0x37c86728	2.3889894e-05
41	0x3790c6a2	1.7258633e-05
42	0x37a45d28	1.9593703e-05
43	0x37e5306c	2.7321475e-05
44	0x37a691ed	1.9856694e-05
45	0x38199e59	3.6625515e-05
46	0x38075076	3.2261443e-05
47	0x3814795a	3.5398967e-05
48	0x395e34c9	0.00021191234
49	0x394f6531	0.00019778755
50	0x39640b37	0.00021747952
51	0x39492da0	0.0001918585
52	0x3902f369	0.00012488443
53	0x38c3959b	9.326191e-05
54	0x38e33fc5	0.000108360815
55	0x38e76b6a	0.00011034946
56	0x3920cb5e	0.00015334549
57	0x397e90a5	0.00024277212
58	0x398b7b45	0.0002660399
59	0x392eab92	0.00016657848
60	0x39d3693a	0.00040323456
61	0x399f8416	0.00030425255
62	0x398ce8df	0.00026876383
63	0x38f20a06	0.00011541326
64	0x392dd0a5	0.00016576292
65	0x391af26b	0.00014776892
66	0x3914263f	0.00014128628
67	0x39194a80	0.0001461897
68	0x3944bba4	0.00018761918
69	0x39eb7652	0.00044910848
70	0x39ed1775	0.0004522164
71	0x395718aa	0.00020513186
72	0x398c1a3e	0.00026722433
73	0x392db62b	0.00016566429
74	0x38bc8dcb	8.9909496e-05
75	0x38581e08	5.1526382e-05
76	0x38d620f1	0.00010210451
77	0x38a0b948	7.663906e-05
78	0x38c46503	9.364823e-05
79	0x3872409b	5.7757465e-05
80	0x38a21b78	7.7298784e-05
81	0x395c2215	0.00020993532
82	0x3982610d	0.0002486784
83	0x38a73c57	7.97442e-05
84	0x38460791	4.7213925e-05
85	0x385496d5	5.0685212e-05
86	0x3889af06	6.56527e-05
87	0x38a08ec2	7.655985e-05
88	0x38b3658b	8.554299e-05
89	0x3841ff57	4.625259e-05
90	0x37c7f035	2.3834504e-05
91	0x381b4ca6	3.7026264e-05
92	0x38823788	6.2092266e-05
93	0x38f6f628	0.00011776044
94	0x38bf012b	9.107807e-05
95	0x3874eb36	5.839319e-05
96	0x38ab73e0	8.175499e-05
97	0x388d80b8	6.74738e-05
98	0x385e3238	5.2975694e-05
99	0x37b066c3	2.1028687e-05
100	0x37febf98	3.0368377e-05
101	0x37df9a68	2.6655573e-05
102	0x37fd523a	3.019824e-05
103	0x3849fb5b	4.8156227e-05
104	0x381867b6	3.6336212e-05
105	0x38938a0d	7.03522e-05
106	0x3829b2b8	4.0459185e-05
107	0x381c70a4	3.7298203e-05
108	0x3784f7c9	1.585101e-05
109	0x37157b44	8.909792e-06
110	0x371abed6	9.223548e-06
111	0x369e4775	4.7170856e-06
112	0x36f5b907	7.323109e-06
113	0x36c2fc91	5.811053e-06
114	0x36f5e11b	7.3277747e-06
115	0x36cade1a	6.045925e-06
116	0x36d9e1cf	6.4933915e-06
117	0x372b05ba	1.0193728e-05
118	0x37476ba0	1.1886383e-05
119	0x36ff2d0e	7.6048373e-06
120	0x37697571	1.3915226e-05
121	0x38531cc1	5.03331e-05
122	0x38894af3	6.5466294e-05
123	0x38f8236f	0.000118321615
124	0x38390913	4.4115888e-05
125	0x37e336a6	2.7085956e-05
126	0x37b06131	2.1026093e-05
127	0x3844ee85	4.695218e-05
128	0x3804be7b	3.164865e-05
129	0x38b0008e	8.392437e-05
130	0x3878dea6	5.9335165e-05
131	0x388ac0a7	6.616237e-05
132	0x396eae9d	0.00022762497
133	0x39266696	0.0001586921
134	0x393279d2	0.00017020784
135	0x38f201f9	0.00011539827
136	0x3947c754	0.00019052374
137	0x38db6985	0.00010462388
138	0x38e13856	0.000107393294
139	0x38eec020	0.000113845104
140	0x39009103	0.00012261052
141	0x39b06ba6	0.0003364954
142	0x39ad6152	0.0003306964
143	0x393bfd8e	0.00017928166
144	0x39558ee3	0.00020366492
145	0x38aa43ab	8.118836e-05
146	0x38c2329a	9.260066e-05
147	0x386f56c9	5.7062865e-05
148	0x38fa0b5f	0.00011923047
149	0x389485d8	7.08212e-05
150	0x38d18afa	9.991783e-05
151	0x38724dc1	5.776971e-05
152	0x38979659	7.2282455e-05
153	0x39544e3a	0.00020247037
154	0x397649e3	0.00023487913
155	0x38c1c765	9.240097e-05
156	0x37f6251b	2.9342764e-05
157	0x381e7939	3.7783033e-05
158	0x382c0fa0	4.1022548e-05
159	0x37f303cf	2.896963e-05
160	0x37a627b4	1.980723e-05
161	0x37a3fcf9	1.9548914e-05
162	0x378b8d95	1.663602e-05
163	0x37e49f6f	2.725396e-05
164	0x37bc330f	2.2435122e-05
165	0x382fdc92	4.1928673e-05
166	0x380cbd0f	3.3554676e-05
167	0x3811d4b0	3.4768775e-05
168	0x38106687	3.442776e-05
169	0x3813ff5d	3.5285357e-05
170	0x38157ce3	3.5640678e-05
171	0x37c524dc	2.3501394e-05
172	0x37ae40aa	2.0772528e-05
173	0x37be4e5d	2.2686256e-05
174	0x37b3cc09	2.1433474e-05
175	0x37eef372	2.8485174e-05
176	0x37eb9739	2.8084602e-05
177	0x3805512b	3.1785265e-05
178	0x37e0f96c	2.6819027e-05
179	0x37cea613	2.4634448e-05
180	0x3901ca65	0.00012377797
181	0x38cf5d74	9.887936e-05
182	0x392707d8	0.00015929283
183	0x38e4e5fd	0.00010914726
184	0x38d955b7	0.00010363332
185	0x38814178	6.163394e-05
186	0x38ac4ced	8.215928e-05
187	0x38e2eac7	0.000108202505
188	0x38eb6297	0.00011224037
189	0x39052237	0.00012696614
190	0x38ecc4e7	0.00011290033
191	0x38bfe54b	9.150299e-05
192	0x381c00fd	3.719422e-05
193	0x38068390	3.2070617e-05
194	0x38058715	3.1835476e-05
195	0x3800f9b8	3.0750147e-05
196	0x380a0ac6	3.2911797e-05
197	0x37d0b84f	2.4881358e-05
198	0x379c6474	1.8643426e-05
199	0x37b44a4b	2.1492267e-05
200	0x37df6591	2.6630967e-05
201	0x386d8fd6	5.663916e-05
202	0x3862f21a	5.4108074e-05
203	0x3810b2b0	3.449869e-05
204	0x38a0e8d3	7.6727614e-05
205	0x38558f33	5.0916522e-05
206	0x38fafbdc	0.000119678414
207	0x39070bb9	0.0001287897
208	0x3924e1b6	0.00015724343
209	0x3849b86e	4.8093898e-05
210	0x37fa5755	2.984299e-05
211	0x3880c46d	6.140103e-05
212	0x387d5f00	6.0408376e-05
213	0x3955e023	0.0002039676
214	0x391c89ad	0.00014928608
215	0x38f35f47	0.0001160489
216	0x383522aa	4.3186046e-05
217	0x37a8261b	2.0044905e-05
218	0x382d626e	4.1338084e-05
219	0x380b0466	3.314428e-05
220	0x3878883f	5.9254697e-05
221	0x37b83242	2.1957912e-05
222	0x37a78560	1.9970059e-05
223	0x37949e68	1.7716739e-05
224	0x37e77306	2.7590908e-05
225	0x3888afb9	6.517716e-05
226	0x38a2ae30	7.757207e-05
227	0x381ab1be	3.6881996e-05
228	0x38828a9d	6.224702e-05
229	0x37cfb24f	2.4759354e-05
230	0x37e95bdb	2.7818538e-05
231	0x378c1900	1.6700942e-05
232	0x386adf66	5.5998004e-05
233	0x37b00a04	2.0985499e-05
234	0x37a5c3da	1.9760733e-05
235	0x37880297	1.621367e-05
236	0x37b03ad2	2.1008225e-05
237	0x389b3546	7.400899e-05
238	0x38a80845	8.0124046e-05
239	0x380b30b7	3.318555e-05
240	0x37981577	1.8129807e-05
241	0x3715c442	8.926787e-06
242	0x372be249	1.024508e-05
243	0x37323058	1.0620883e-05
244	0x37b0282c	2.0999541e-05
245	0x36d116eb	6.2313534e-06
246	0x36e927d2	6.948577e-06
247	0x36cf4930	6.177601e-06
248	0x36d8dd8f	6.4630945e-06
249	0x38229f95	3.8772432e-05
250	0x382349b4	3.893087e-05
251	0x37844a11	1.5770116e-05
252	0x390edbd3	0.00013624066
253	0x38f16d03	0.000115120805
254	0x3902aaed	0.00012461441
255	0x38d0c2d4	9.9545025e-05

exp_avg f4 [64]
0	0x3b0f09d1	0.002182592
1	0xba842e66	-0.0010084629
2	0xb9fb52be	-0.00047936098
3	0x3a0415eb	0.00050386664
4	0xba5d138b	-0.0008433393
5	0x3ab3fb66	0.0013731539
6	0xbb6cbf44	-0.0036124745
7	0xba6733c1	-0.00088196626
8	0xba717e24	-0.0009212217
9	0x3a000934	0.0004884184
10	0xba73b342	-0.0009296426
11	0xb8b4d6c0	-8.623069e-05
12	0xbac84565	-0.001527947
13	0xba647f52	-0.0008716482
14	0xbaea3bee	-0.0017870644
15	0x3a6474cf	0.00087149156
16	0x39c9d787	0.00038498288
17	0x38a7e630	8.006056e-05
18	0xb9060bba	-0.00012783604
19	0x3a43bb0b	0.0007466531
20	0x38ff4fbb	0.000121741985
21	0xbb2dc72d	-0.0026516423
22	0x3b238a41	0.0024954232
23	0x3abbf809	0.0014340888
24	0xba01c31a	-0.0004950032
25	0x3aec8878	0.0018046042
26	0xba1dfcb3	-0.000602673
27	0x3b97852c	0.0046240296
28	0x396a0305	0.00022317104
29	0x3aed608e	0.001811044
30	0xbab0b4f8	-0.0013481667
31	0xbb01af7f	-0.0019788442
32	0x3afa4fdd	0.0019097287
33	0xbab52161	-0.0013819152
34	0x3acc1752	0.0015570915
35	0x3a45c682	0.00075445336
36	0xba17fe10	-0.0005798051
37	0xbb4cbe08	-0.0031241197
38	0xb7d3cc30	-2.5248242e-05
39	0xbac275d5	-0.0014836142
40	0xba2c1521	-0.0006564428
41	0xbb1c30d4	-0.0023832815
42	0x3941d999	0.00018486976
43	0xba770438	-0.0009422931
44	0x39844748	0.0002523011
45	0xb9221996	-0.00015459055
46	0xbb824e51	-0.003976621
47	0x3a5600fc	0.0008163599
48	0xbae43c75	-0.0017413037
49	0x3b1a154e	0.0023511234
50	0xbae7f118	-0.0017695753
51	0x3b3bc8b7	0.002865357
52	0xbb48c334	-0.0030633928
53	0x39a12ff3	0.00030744038
54	0x38a55a17	7.884594e-05
55	0x3b384209	0.0028115532
56	0x3a06b2be	0.0005138329
57	0x3aadb314	0.0013252222
58	0xb99374bc	-0.00028125
59	0x3a77a360	0.0009446647
60	0x3a5ef1a0	0.0008504633
61	0x3ab42b8e	0.001374589
62	0x3a933b55	0.0011232892
63	0xba827354	-0.0009952583

exp_avg_sq f4 [64]
0	0x38b62f10	8.687202e-05
1	0x3a1951bc	0.0005848666
2	0x398fe1bb	0.00027443268
3	0x38921737	6.9661466e-05
4	0x3a1b936f	0.000593475
5	0x3a484530	0.0007639704
6	0x39cf09ed	0.00039489512
7	0x3937a636	0.00017514158
8	0x38e4d8b3	0.000109122506
9	0x37b859c8	2.1976317e-05
10	0x3916b552	0.00014372662
11	0x3a20fa29	0.00061407924
12	0x39dd76d7	0.00042240947
13	0x389d2059	7.4923686e-05
14	0x38928958	6.987405e-05
15	0x399d71bd	0.00030030115
16	0x38e00666	0.00010682344
17	0x3996ef7f	0.00028788668
18	0x3911e733	0.00013914406
19	0x3910dc40	0.0001381496
20	0x389e74f8	7.555814e-05
21	0x39d36bb9	0.00040325316
22	0x3a3160f3	0.0006766461
23	0x383e195c	4.5323148e-05
24	0x38cf2541	9.877468e-05
25	0x3a1e5273	0.00060395076
26	0x39f91868	0.00047511165
27	0x3a9af041	0.0011820869
28	0x3a1313e9	0.0005610572
29	0x39be1399	0.00036254225
30	0x3b0f1b7d	0.0021836453
31	0x3a0d13cb	0.00053816725
32	0x39930f20	0.00028049294
33	0x3a194a7e	0.0005847587
34	0x3905ed68	0.00012772309
35	0x39c9a342	0.00038459344
36	0x393aa2bc	0.00017798966
37	0x3998cd43	0.0002914463
38	0x398a436e	0.0002637165
39	0x3941350a	0.00018425673
40	0x391d991c	0.00015029724
41	0x398d5dcc	0.000269635
42	0x398d9538	0.00027004792
43	0x38c13f5c	9.214759e-05
44	0x388e2377	6.7776935e-05
45	0x39773bc8	0.00023578026
46	0x39ae4dce	0.00033245835
47	0x3a3e1eee	0.00072525337
48	0x387b3544	5.989267e-05
49	0x3a02604b	0.0004973455
50	0x3a2c1865	0.00065649144
51	0x38a44dfe	7.8346566e-05
52	0x389186f3	6.939275e-05
53	0x3a011e1d	0.00049254467
54	0x388809ed	6.486834e-05
55	0x39297c8f	0.00016163498
56	0x3863efe8	5.4344448e-05
57	0x38f7ea72	0.00011821547
58	0x387f670e	6.0892715e-05
59	0x387cdba7	6.028605e-05
60	0x39887e95	0.00026034252
61	0x3a04c51a	0.0005064771
62	0x389f61c2	7.5999196e-05
63	0x37f7e82a	2.9552804e-05

exp_avg f4 [32, 64]
0	0xba8df07d	-0.0010829117
1	0xb98426c0	-0.00025205873
2	0x388047cb	6.116888e-05
3	0xb9d62f51	-0.00040852514
4	0xb9e6121e	-0.00043882517
5	0x380eecff	3.4076158e-05
6	0xb8f75d7c	-0.000117952906
7	0xb8578f74	-5.1393596e-05
8	0xb860f5e2	-5.3634758e-05
9	0x3966071c	0.00021937158
10	0xba0a7f5e	-0.00052832614
11	0x3a281f22	0.00064133306
12	0x399c2222	0.0002978007
13	0x3881b356	6.184603e-05
14	0xb9ac5518	-0.00032869796
15	0xb843e3d6	-4.670381e-05
16	0x3923e33f	0.00015629547
17	0xb9a42879	-0.00031310672
18	0x379b884b	1.8540906e-05
19	0x39e213bd	0.00043120785
20	0xba389265	-0.00070408575
21	0xba53692e	-0.0008064684
22	0xb7da1f25	-2.6002128e-05
23	0xb9918c5c	-0.0002776113
24	0x388776ea	6.459451e-05
25	0xba55d602	-0.0008157195
26	0x39d84349	0.00041248862
27	0xba289da0	-0.00064321794
28	0x35fff208	1.9069421e-06
29	0xb9ad9dbc	-0.00033114653
30	0xba8da2e0	-0.0010805987
31	0xba136489	-0.0005622586
32	0x3714e281	8.8742245e-06
33	0x384bcdce	4.8590642e-05
34	0x38a255d5	7.7407494e-05
35	0x398f2963	0.0002730592
36	0x398a7fb3	0.00026416554
37	0xb9cbd967	-0.00038881155
38	0xb9b14696	-0.0003381266
39	0x393bf49c	0.00017924834
40	0xb71950ae	-9.138295e-06
41	0xba89e5f8	-0.0010520807
42	0x39973661	0.0002884148
43	0x37e7d194	2.7634938e-05
44	0xb8845f7a	-6.3120344e-05
45	0xb9105649	-0.00013765054
46	0xba14c0a1	-0.0005674456
47	0x391639a3	0.00014326586
48	0xb9102b2d	-0.00013748994
49	0xba5c3559	-0.00084002834
50	0x39df382f	0.00042575735
51	0xb982448b	-0.000248466
52	0xb6d90f7d	-6.468907e-06
53	0xba26cde1	-0.0006363076
54	0xb98de06f	-0.00027060832
55	0xb989c553	-0.00026277694
56	0xb975f659	-0.00023456792
57	0x399bfab5	0.00029750695
58	0x390ca60c	0.00013413298
59	0x3801ffd9	3.0994273e-05
60	0xb90e6f37	-0.00013583606
61	0x3879113b	5.9382273e-05
62	0xb962bad0	-0.00021622633
63	0xb93b1cc1	-0.00017844421
64	0xba65b151	-0.0008762079
65	0xb93d4824	-0.00018051319
66	0xb7ba42cb	-2.220403e-05
67	0xb882deb7	-6.240367e-05
68	0xba3a2d87	-0.0007102121
69	0x3988f46d	0.00026122053
70	0x3a28dfb6	0.0006442027
71	0xb97b74c5	-0.00023980725
72	0x37aaa1d8	2.0340944e-05
73	0x3976cec3	0.00023537413
74	0xbb0678d4	-0.0020518797
75	0x3a4ba46f	0.0007768338
76	0xba04fdac	-0.00050732004
77	0x387324dc	5.7970043e-05
78	0xba7db9ed	-0.0009678889
79	0xba57630d	-0.0008216359
80	0x3b1fda20	0.0024391487
81	0x39f53151	0.00046766785
82	0x3a9f4f4c	0.001215437
83	0x3acb5001	0.0015511514
84	0xbaa287d3	-0.0012400098
85	0xba08f68b	-0.0005224726
86	0xb9d9d8a5	-0.00041550878
87	0xba0da917	-0.00054039195
88	0xb8396b59	-4.4207412e-05
89	0xba9518d6	-0.00113752
90	0x389c9864	7.4670446e-05
91	0xbad3493f	-0.0016119851
92	0x3aa252fe	0.0012384353
93	0xb89304ca	-7.010398e-05
94	0xba37f2ef	-0.0007017096
95	0x39b1531e	0.00033821998
96	0x3b09896c	0.002098645
97	0x399ec2b3	0.0003028117
98	0xb87dcccf	-6.0510643e-05
99	0x39bbca2e	0.00035818055
100	0xba16be14	-0.000575037
101	0xbafa66b9	-0.00191041
102	0x3a4dd2bc	0.0007851531
103	0x37ca8888	2.4143854e-05
104	0x393f028b	0.00018216127
105	0xbacf260b	-0.0015804184
106	0xb9109964	-0.00013790053
107	0xba84599e	-0.0010097509
108	0xb95e8522	-0.00021221166
109	0xba0cb4d3	-0.0005367521
110	0xba8a26cd	-0.0010540128
111	0x3a74580f	0.0009320983
112	0x38c8ae2f	9.5691874e-05
113	0xba9a407c	-0.0011768485
114	0x395cfe0a	0.00021075472
115	0xb9b503ab	-0.00034525743
116	0x39dd896c	0.00042254792
117	0xbb0cab11	-0.0021464268
118	0xba72d5b8	-0.0009263414
119	0x39f2266b	0.0004618646
120	0xba80272d	-0.00097773
121	0x3ae7c881	0.0017683656
122	0x398100e5	0.00024605464
123	0x39571efd	0.00020515542
124	0xb9de1183	-0.00042356187
125	0x398cdcdd	0.00026867437
126	0x3a2cc11d	0.00065900554
127	0xba07a3c2	-0.0005174243
128	0x3a8c7d54	0.0010718503
129	0x3a2fdd56	0.0006708702
130	0x39220372	0.00015450807
131	0x3a0f45fd	0.0005465446
132	0x3a78f273	0.0009496577
133	0x3a199d8a	0.0005859962
134	0x3a07438a	0.00051599054
135	0x389b8400	7.415563e-05
136	0xb8a94fac	-8.073388e-05
137	0xb81daaf9	-3.7590948e-05
138	0x39edaa31	0.00045330965
139	0xb8d5c16f	-0.00010192661
140	0x38c0dbe3	9.1962305e-05
141	0x39803391	0.00024452482
142	0x3950e999	0.00019923448
143	0x381d8ecc	3.7564707e-05
144	0x3a264b1f	0.00063435914
145	0x396b73a5	0.00022454427
146	0x3a86dba4	0.0010288847
147	0x390fd55e	0.00013717028
148	0x3a9a7596	0.0011784311
149	0x3a913c1e	0.0011080538
150	0x396c4358	0.00022531801
151	0x391742c8	0.0001442536
152	0xb8a8bf89	-8.0465405e-05
153	0x3a60370d	0.0008553125
154	0x389c36f7	7.448898e-05
155	0x3a3f9100	0.00073076785
156	0x3aa3d5a5	0.0012499584
157	0x3a370b26	0.0006982557
158	0x3af5a77e	0.0018741933
159	0x3a48edcc	0.0007664829
160	0x39eb9cb9	0.0004493946
161	0x398698b2	0.0002567224
162	0xb881ad63	-6.183495e-05
163	0x3a24818d	0.0006275408
164	0xb8be292e	-9.067576e-05
165	0x3a219051	0.00061631674
166	0x394def8d	0.00019639563
167	0xb7c12767	-2.3025741e-05
168	0xb7ab235f	-2.040126e-05
169	0x3aa9dde0	0.0012959801
170	0xb86dbde6	-5.668206e-05
171	0xb6cffbde	-6.198402e-06
172	0x37ecf4c8	2.8247377e-05
173	0x3a0f3f8d	0.0005464487
174	0x3a08539c	0.0005200447
175	0x3a7398dc	0.0009292492
176	0x38c10717	9.204278e-05
177	0x3a63e946	0.0008694123
178	0xb9478c28	-0.00019030331
179	0x39530f1b	0.00020128155
180	0x39ec0411	0.00045016457
181	0x39eee4d0	0.00045565376
182	0x39f2481e	0.00046211568
183	0x3a2ac61c	0.0006514506
184	0x3999de1e	0.00029347924
185	0x382ceebb	4.123033e-05
186	0xb80eb2fc	-3.402213e-05
187	0x38a19d6b	7.7063996e-05
188	0x3a4d1f49	0.0007824791
189	0x39ea769f	0.00044720338
190	0x3867ff84	5.531266e-05
191	0x38c83592	9.5467214e-05
192	0x3a6d8a51	0.0009061443
193	0x3a1e9018	0.00060486933
194	0x3995a274	0.00028540532
195	0x3a167900	0.00057400763
196	0x3a207935	0.0006121577
197	0x3a42945f	0.0007422622
198	0x3a096af1	0.0005242071
199	0x39a64207	0.00031711182
200	0x395a68e1	0.0002082917
201	0x39800281	0.00024415928
202	0x3a44c4d4	0.00075061363
203	0x39505ace	0.00019870253
204	0x3a247432	0.0006273418
205	0x39b92137	0.00035310697
206	0x39a7d520	0.00032011513
207	0x39dd1542	0.00042168243
208	0x39043f71	0.00012612135
209	0x3925e02b	0.00015819135
210	0x3a611bec	0.00085872295
211	0x3965d662	0.00021919006
212	0x3aa5df6c	0.0012655086
213	0x3a591e49	0.0008282406
214	0x399824be	0.00029019074
215	0x39daf840	0.0004176516
216	0xb8b2e08b	-8.529526e-05
217	0x39fbedb7	0.00048051562
218	0x398c80ae	0.00026798755
219	0x3a2a08e3	0.00064863096
220	0x3a91197d	0.0011070218
221	0x3a36d8f9	0.00069750805
222	0x3ab96f05	0.0014147466
223	0x3a1d6704	0.0006004425
224	0x38c215de	9.254714e-05
225	0x3933977c	0.00017127203
226	0x37718d55	1.4397626e-05
227	0x3962026f	0.00021553946
228	0x39634f49	0.00021677943
229	0x3a99b8ac	0.001172801
230	0x39c59077	0.00037682403
231	0x38a705c0	7.9642516e-05
232	0x3817d15c	3.6196187e-05
233	0x3ab6252f	0.001389658
234	0x39179a03	0.00014457856
235	0x39f62446	0.00046947802
236	0x382fbd23	4.18994e-05
237	0x3a036706	0.0005012605
238	0x39cc7f45	0.00039004735
239	0x3a34a741	0.0006891378
240	0x395ed750	0.0002125178
241	0x3a3510fb	0.00069071323
242	0x380b8f29	3.327351e-05
243	0x3913f925	0.00014111826
244	0x394d0681	0.00019552746
245	0x3a5954e2	0.00082905416
246	0x3a112772	0.0005537189
247	0x3a2e5c5b	0.0006651335
248	0x39ba513b	0.00035537206
249	0xb86a63db	-5.5882945e-05
250	0x39578f4d	0.00020557382
251	0x38dc7ebd	0.00010514024
252	0x3a213ee9	0.0006151037
253	0x38c11a39	9.2078415e-05
254	0x3880bbfe	6.138532e-05
255	0x39d81b66	0.00041219144
