checkpoints/full/torsion_energy/20250611190453354802/ARG_dim_8/fold2/best_epoch=239-val_loss_epoch=26.479.ckpt (torch, 43973 bytes, 20 tensors)

fc1.weight f4 [64, 8]
00000000: bc3d 3cbe c030 f53e 2cb6 e33d a2ee a83e
00000010: fa41 15bf 3e8d 083f 1fc7 203f f337 513e
00000020: e4e0 3a3f 4657 31be 86db 093f d27b 73be
00000030: ca6a 053d 4992 013f aaad b43e 9702 4a3e
00000040: 339b dabe 5fbf 1e3e 0054 2e3d 9e2c 873e
00000050: d8fe a33c 3136 b23e 49a7 8a3e b649 cb3e
00000060: 9bc8 dc3e 8161 32bf 8da7 8fbe a62a 193d
00000070: 4ecc 5b3e 30aa 423e 665a fabe 750f 923b
00000080: f0e8 e9be cb8d 483f ffd2 db3e 914e 7f3a
00000090: c0c8 393e 9d88 1c3f 567c 2f3f 6330 423d
000000a0: 24bd 813e 732e 113e 7267 b33b 4d10 853e
000000b0: d91f 88bd 8cae e33e 5550 863e 9121 23bf
000000c0: dc00 003e 5ccb 0f3f 1f3a 5a3f 2df7 7a3d
000000d0: f7b8 423d 10c7 343c 95b9 b33c 2b85 3b3d
000000e0: 0a4e 933d 1e94 083f f5fa cebe 01fb 20be
000000f0: beda c1be fe14 f1bd 5289 e7bd 70c6 38be
00000100: 525e 263f 7d8a b73e ffe2 cbbe 2e19 88be
00000110: eef9 ab3d 2595 97bd deb3 d3be 53fe f43b
00000120: 5918 6ebd c8f6 c53d 8e07 493c f2e2 5f3a
00000130: 45ab 16bd b9e5 443d a620 8d3f 5206 3fbd
00000140: 25df 40be 0e67 dabe 5c57 013f b314 a1be
00000150: 23d9 ebbd 1f01 92bc 08ea 423f 0dce e43d
00000160: 2b37 23bf e876 1bbf 7b44 f93d 4c37 023e
00000170: 36eb 8c3b 3979 1d3f 8aae fb3e d696 123d
00000180: c68a 303e 76e2 11bd d647 8cbc a13d ae3c
00000190: 4bf0 8d3f a957 8a3d a675 b8bd e44e 4a3d
000001a0: e54b 3d3d 18d6 8f3d 9bad 43bf 0349 56bd
000001b0: 316d 7fbd b125 223e b7e2 213f 5982 3bbe
000001c0: d819 5cbe f578 c93e 795d 483e 241d 3cbd
000001d0: 8ded e7be c573 563f 2e08 ab3d 26e1 97bd
000001e0: b938 0d3e ba10 ecbe 0843 2d3e 4f69 81bd
000001f0: 1fd0 603f 8441 2dbf 05cf 3c3e e044 d23d
00000200: 314c 273f 7e36 35bf c676 e33d b578 a3bc
00000210: 6017 003f 9fe8 9abe ad54 a0bd 94fb 8b3d
00000220: 500b 95bd ed3d aabe dda3 cfbd 090d 683e
00000230: a259 f9bd 7fc8 2fbc b4a7 dfbe 3a98 a4be
00000240: 7a0b 9e3e 7435 893e 5323 833e 76d8 0f3f
00000250: 1f79 3bbe 0744 9bbe 3e3c b83e a8ac 03bf
00000260: 8e61 99bd 029a 173f 43bd 3cbc 01fd 21be
00000270: 91f3 3d3f 6520 173f 55c3 a83d 1186 56be
00000280: 4764 cbbe 65c1 493f ea24 c13e 8c11 84bd
00000290: c787 debd fda8 3a3d 0e25 adbe a317 74be
000002a0: c2d5 e83c 7a34 953c 0b54 54bd eeea 313d
000002b0: 8a1a 813c a482 5b3b 4b33 413d a9c1 be3f
000002c0: fb50 003c f6a7 263e faa3 53bf 9311 c63d
000002d0: 1753 e73d fa19 19bd 454b 0c3e f6a0 91bd
000002e0: 709b 1a3e ca4a 3cbc 2449 293e 2b72 833c
000002f0: 16f0 64be 69fb adbe c49b 39be a3c2 d5be
00000300: 2a2b 1b3f fcc0 09be 7832 6e3e 0e3b 42bd
00000310: 5f0f d8be b985 c5bc c8b9 20be 8dd0 dbbe
00000320: 31c3 04bf 0751 163f cf37 d83e 1446 67bc
00000330: 2d97 dcbe 6c7e 683f 3cd7 eebe 49da b93d
00000340: 88b1 d339 8254 673e d20e 5bbf ec64 1e3d
00000350: c27a b83c 1123 09be a2e6 cabe 5a02 8d3e
00000360: 3941 df3e 8043 57be 199c a6be 7efa 423d
00000370: b513 0bbe c12c 983e 12a7 2e3e ba8f 31be
00000380: 3ea2 b1be e706 b2be 9a8a d63c 166e 82be
00000390: 0a09 44be dd9c d83e d684 ab3e 3b2c 6cbe
000003a0: fa73 91bd f073 e03b cfb0 29bd 3f06 e83a
000003b0: 06a0 60bf 737b 8c3e 8edb afbc fed6 29bb
000003c0: f10b 97bd 7e27 613e 325f 63bd 862e d13c
000003d0: fbff 043f 9fe2 cc3e c266 ccbc ccb5 10bd
000003e0: 5bef c7be f5da 633f 8cb2 49bf 7ece 233d
000003f0: 6850 f9bd 23e0 423e c835 7cbd 27f7 51be
-0.18382925 0.47888756 0.11118731 0.32994562 -0.583038 0.5334052 0.62803835 0.20431499
0.72999406 -0.17318448 0.5385059 -0.23777702 0.032572545 0.5061384 0.35288745 0.1972755
-0.42696533 0.1550269 0.042560577 0.26401228 0.02001898 0.3480697 0.27080753 0.39704674
0.431218 -0.6968003 -0.2805752 0.03739419 0.21464655 0.19010234 -0.48897094 0.004457409
-0.4568553 0.7834136 0.42934415 0.00097391853 0.18142986 0.61145955 0.68549097 0.047409426
0.25339615 0.14177875 0.005474978 0.25989 -0.066466995 0.44469106 0.26233163 -0.63723093
0.12500328 0.56169677 0.85244936 0.06127088 0.047539677 0.011033788 0.021939078 0.045781296
0.07192619 0.5335101 -0.4042584 -0.1572075 -0.378622 -0.11771582 -0.11305489 -0.18044448
0.6498767 0.35847846 -0.39821622 -0.2658171 0.0839728 -0.07401494 -0.41348165 0.007476607
-0.05812869 0.096662104 0.012269868 0.00085405924 -0.03678443 0.048070643 1.1025589 -0.046636887
-0.18835123 -0.4265675 0.50523925 -0.31461105 -0.11516025 -0.0178228 0.76138353 0.111721136
-0.63756055 -0.6072831 0.12171265 0.12716407 0.0043005003 0.61513096 0.491566 0.03578838
0.17240438 -0.03561636 -0.017124098 0.021269621 1.1088957 0.06755001 -0.09006815 0.049391642
0.046214957 0.07023257 -0.76436776 -0.052315723 -0.062359992 0.1583469 0.63236564 -0.18311442
-0.21494234 0.39350095 0.19566907 -0.04592623 -0.45298424 0.837704 0.083511695 -0.074159905
0.13791169 -0.4610651 0.16920102 -0.06318914 0.8781757 -0.67678094 0.18438347 0.10267043
0.65350634 -0.70786273 0.111066386 -0.019955019 0.5003567 -0.302556 -0.078286506 0.06835094
-0.07277548 -0.3325037 -0.10138676 0.22661223 -0.12175299 -0.010728954 -0.43682635 -0.3214739
0.3086813 0.26798594 0.25612888 0.5618967 -0.18307923 -0.30325338 0.3598346 -0.5143533
-0.0748931 0.5921937 -0.011519733 -0.1581917 0.7419978 0.59033805 0.08240382 -0.2094958
-0.39724943 0.7881072 0.37723476 -0.06448659 -0.10865741 0.045571316 -0.33817333 -0.23837142
0.02842224 0.0182135 -0.051837962 0.043436937 0.015759725 0.0033494616 0.047168057 1.490285
0.007831807 0.1627501 -0.82672083 0.09671321 0.11295145 -0.03737829 0.13700588 -0.07110779
0.15098357 -0.0114924405 0.16531807 0.01604565 -0.2235721 -0.33980873 -0.18125826 -0.4175006
0.6061274 -0.13452524 0.2326144 -0.0474196 -0.42199227 -0.024111615 -0.1569587 -0.4293255
-0.5186034 0.5871739 0.4223008 -0.014115829 -0.43084088 0.90817904 -0.46648586 0.09074838
0.00040377327 0.22590831 -0.8556949 0.038670465 0.022519473 -0.13392283 -0.39629084 0.27540857
0.43604448 -0.21021843 -0.32540968 0.04760217 -0.13581736 0.29721645 0.1705592 -0.17339984
-0.34694093 -0.3477089 0.026189137 -0.25474614 -0.19144073 0.42307177 0.33499783 -0.23063748
-0.07102199 0.0068497583 -0.041428383 0.0017702057 -0.87744176 0.27437934 -0.021466997 -0.00259155
-0.073753245 0.21987721 -0.055510707 0.02553488 0.51953095 0.40016648 -0.024951342 -0.035329625
-0.390498 0.89005977 -0.78788066 0.03999185 -0.121735394 0.19030814 -0.061574727 -0.20504437

fc1.bias f4 [64]
00000000: 85bc babe b939 073f 8ce7 1d3f bb6b e03e
00000010: c68b c9be b392 a73e 513f c9bd e0fb f73e
00000020: 1068 e63d ae66 bfbe d83c 3abf aa36 bdbe
00000030: 80fb 013f d2d4 04bf 9ad5 353e acc9 67be
00000040: 7e6a 513d 7794 ca3e cf31 88bd 2db9 183e
00000050: d414 40be a029 b9be 8be0 853d 9ae6 a63e
00000060: 7fb3 603e 7259 2cbf 3eef bfbb 2b3d 223f
00000070: b090 be3e fc87 22bf 23d0 0c3f 832e e83e
00000080: 65c2 e13e 3464 89bd 2aae d9bd f493 653d
00000090: 2afd e1bd 060f 963e db6e 9e3e 4ac9 093e
000000a0: 5d9b 963d 3012 4b3e 6491 f53e f78e afbb
000000b0: 4510 0dbf e03d 05bf 192a 1d3e c37a 1d3f
000000c0: 4261 313e 72fd 70be 104a 013f 36fb e63d
000000d0: 3958 b3be be45 8d3e 34a9 173f 0c31 913e
000000e0: bc70 e8bd 9be5 713e 76e9 a93e 1157 84be
000000f0: 013f 133d a1ef 50be 1d6b 293f 2042 c23d
-0.36471954 0.5282245 0.6168144 0.43832192 -0.3936445 0.3272911 -0.0982653 0.48434353
0.11250317 -0.37383026 -0.7274909 -0.36955768 0.50774384 -0.5188724 0.17757264 -0.22635525
0.05112695 0.39566395 -0.06650125 0.14914389 -0.18757945 -0.3616457 0.06536969 0.3259781
0.21943472 -0.6732398 -0.0058573773 0.63374585 0.37219763 -0.63488746 0.5500509 0.45347986
0.44093624 -0.06708565 -0.10628922 0.056049302 -0.11034615 0.29308337 0.3094395 0.13455692
0.07353852 0.19831157 0.47962487 -0.005357619 -0.5510295 -0.5204754 0.1534809 0.61515445
0.17322257 -0.23534182 0.50503635 0.112783834 -0.35028246 0.27592272 0.5924256 0.28357732
-0.113496274 0.23622744 0.3318593 -0.25847676 0.035948757 -0.20403911 0.66179067 0.094852686

fc2.weight f4 [32, 64]
00000000: 73d2 483e e617 b7be 1234 6d3e 50cc a03e
00000010: c71d c43d 4076 9fbe 800f 793e 38d8 0fbd
00000020: a192 8ebd f5c3 8cbe 8450 3bbe e607 2e3d
00000030: 4e81 53be da73 9bbf d31b 673e b299 503e
00000040: 628b 6fbe 9d0a 953e 77e2 4b3d aa17 353d
00000050: 6e16 213e b057 303f 1343 233e e416 41bb
00000060: f991 45be 5462 4fbe e483 133f fbfb 543e
00000070: 2704 b93e 61db 04bf 7e06 2b3e e81e b9be
00000080: c6db 853e 47e1 803e 1e04 843d 89f7 083d
00000090: 58a1 64be 2cfa 943d 5bb2 093e e5b2 a7bd
000000a0: ada9 9c3e 4828 883b 33fe 94be 9da0 a53e
000000b0: 5a37 a1bc 299c 68be b699 2d3d 3f14 53be
000000c0: dd6e ccbd 338d 0c3d be4d 4a3d f22b 953d
000000d0: 87a2 ea3e e2f0 80be 151c bd3d 1ba7 d23d
000000e0: 7005 253e 8944 153b 0d33 953e aa59 92be
000000f0: 4ba0 cf3c 9701 bb3d 7607 59bc bbe5 7d3d
00000100: ada5 183c 5c5d 12be b01d d4bd 7174 8a3b
00000110: 0d7a 8fbe 9598 793d 41a1 6b3e 35da f73d
00000120: a1f0 553e 6a35 cebc 6c9c 52be 153e 283e
00000130: 53a4 953e b52b e73e a04c bb3d 55f0 42be
00000140: 1afb 853e 9a78 fdbc 7c42 923e a1a2 07bb
00000150: d010 213e ddfc 19c0 d280 61be df01 903e
00000160: 06bc 7e3c 3fd6 41bd 8669 a4be a8b6 b93d
00000170: d68e ee3c 2e67 0f3f d2b0 d63a d6dd 6a3e
00000180: 1e4a 30be 12ee fabc 9adb a03d a38f 4cbc
00000190: 0e20 7d3e 3005 833c e02e f83e 34c3 92bc
000001a0: 7654 153e c832 6abe bea8 343e 923c ccbd
000001b0: 4ec1 5bbf 951a 27be a6bf 0a3e 6a15 c23e
000001c0: 3dc8 52be 903b f63d c6db 1f3d d0cc 39be
000001d0: c52b 66be 3908 38be d2c6 0d3e c1ad 573e
000001e0: 485f a43e 6626 a53d bf24 043e f1f3 ec3d
000001f0: 0252 443c 0c27 ac3e 8ead 083f c0bf 313e
00000200: e91d c93d 01a1 bb3d f3db 8a3e 5ac5 eb3d
00000210: e88f 39bc 59d2 3e3e 5716 16be 0f8e 953d
00000220: c850 c0bd 8524 0f3f 27bb ea3e e0c6 9ebc
00000230: 8c3f 0b3c 34d6 263d 93df 573b a0de 9f3d
00000240: 1c46 e13e f833 293d 1354 8ebd 1f8a 863d
00000250: 4b09 d63d 58db d1bd 005d a33e 0c2b e1bd
00000260: fb8e bcbe 9c41 a93e eeaf 4e3e c207 7abe
00000270: 6f8a e83d 8e1f 3ebf 484b 6e3c 823d 0c3f
00000280: 9d51 e13e 7650 6fbe f924 09be 8554 323e
00000290: 8403 063d 160f a73d 3ee9 42be a132 153f
000002a0: a9e3 43be afaa 223e 9ae1 4f3e 083b d7bd
000002b0: 40f4 a93e 51de cd3e 2be1 27bb 7b2f a8bd
000002c0: b8f9 10be ad9f ccbe 96fd 96be b32c 843e
000002d0: 3614 02be 6ee0 fbbd 0379 9d3e afe7 6dbe
000002e0: 9fbd d2bd 96ac 673e a53d e8bc 24c1 c2bd
000002f0: f413 b3bb 2647 76be b3fd f0bd 6f3d 673e
00000300: 46ef 293f 5d9d 3dbe d776 90bc 2e79 83be
00000310: 6a72 46be e75d 53be c709 adbe 73dc 4dbe
00000320: df94 873e 8ffc 85be b1bd b13e 0c5a 603f
00000330: e331 3d3e 11e0 fd3e 958b 9dbe 5c53 1a3e
00000340: f87c 4b3e c744 563d 9454 33be a88a 3fbf
00000350: ea81 c9be 5de9 acbf 2c44 b03d a6df cf3c
00000360: 3ffb b93e bdf9 3ebf 086f 2fbe 713d 1b3e
00000370: abf5 5a3e 1336 a23e 2dda b6be fa31 08be
00000380: 797b b7bd eccc 05bd 79fd 693e 92a2 bf3d
00000390: 066a 503e 98b4 943d e66a 7f3e 22f4 23be
000003a0: 7021 1d3e 399d b53b f200 0a3d c60b ca3d
000003b0: 172e e4bc caff 1f3e 21de b6be ff55 6d3e
000003c0: 284d a63e bb9b a53e 0679 2d3d 901a 16be
000003d0: b8cf 403e e3e8 9b3d 6238 ddbc f8d2 953e
000003e0: ee1a 11be 9f62 033e f549 293d 5b51 923e
000003f0: ecc3 fc3e 23ab 1dbe f8c3 3d3e 4981 8a3e
0.1961153 -0.3576042 0.23164394 0.31405878 0.09575992 -0.31144905 0.24322319 -0.03511831
-0.06961561 -0.27493253 -0.18292433 0.042488 -0.20654795 -1.214473 0.22569208 0.2037113
-0.23393014 0.2910966 0.04977652 0.04421202 0.15731212 0.688838 0.15943556 -0.0029463107
-0.19293965 -0.20252353 0.57623124 0.20799248 0.3613598 -0.51897246 0.16701695 -0.36156392
0.26144236 0.25171873 0.06446098 0.033439193 -0.22327173 0.07274279 0.13446943 -0.08188418
0.30598202 0.0041551925 -0.2910019 0.323491 -0.019679714 -0.2271582 0.04238292 -0.20613192
-0.09982083 0.034314346 0.049390547 0.072837725 0.45827124 -0.2518378 0.09233872 0.10285779
0.16115355 0.0022776446 0.2914051 -0.28584033 0.025344988 0.091311626 -0.013246408 0.061986666
0.009316844 -0.14293426 -0.10357225 0.0042253067 -0.28022805 0.06093653 0.23010732 0.121021666
0.20892574 -0.025171954 -0.20567483 0.16429932 0.29226932 0.45150533 0.091454744 -0.19036992
0.26168138 -0.030941296 0.2856635 -0.00206963 0.1572907 -2.4060585 -0.22021797 0.28126428
0.015547758 -0.04732346 -0.32111758 0.09068042 0.029120844 0.56016815 0.0016379601 0.22936186
-0.17215773 -0.030631099 0.07854386 -0.012485418 0.24719259 0.015993685 0.48473263 -0.017915346
0.14583 -0.22870934 0.17642495 -0.0997249 -0.85841835 -0.16318734 0.1354967 0.37906963
-0.20584197 0.120230794 0.03902795 -0.18144536 -0.22477634 -0.17971887 0.13845375 0.21062376
0.32103944 0.080639645 0.12904643 0.11569966 0.011982443 0.3362354 0.53389823 0.17358303
0.09820158 0.091615684 0.27120933 0.11512251 -0.011325814 0.18634929 -0.1465696 0.07302486
-0.09390408 0.559151 0.4584591 -0.01938194 0.0084990375 0.040731624 0.0032939657 0.07806134
0.43998802 0.041309327 -0.0694963 0.06569313 0.10450991 -0.102469146 0.3190689 -0.10994539
-0.36827835 0.33057868 0.201843 -0.24417022 0.11354529 -0.742669 0.014544316 0.54781353
0.44007578 -0.23370537 -0.1339301 0.17415054 0.032718197 0.08157174 -0.19034287 0.5828038
-0.19129814 0.15885423 0.20300904 -0.10509306 0.3319416 0.40208676 -0.0025616388 -0.08212181
-0.1415776 -0.39965573 -0.29490346 0.25815353 -0.12703022 -0.12298666 0.30756387 -0.23232912
-0.102900736 0.2262443 -0.028349707 -0.09509495 -0.005465025 -0.24050578 -0.11767139 0.22582029
0.6638073 -0.1851706 -0.017634792 -0.2567839 -0.19379583 -0.2064129 -0.33796522 -0.20103626
0.26480767 -0.2616925 0.34715036 0.876374 0.18476062 0.49585012 -0.30770555 0.15070862
0.1987189 0.052311685 -0.17512733 -0.7482095 -0.3935693 -1.3508717 0.08606753 0.025375199
0.36324498 -0.7459982 -0.17132199 0.15160157 0.21382777 0.3168188 -0.3571333 -0.13300315
-0.089590974 -0.03266613 0.22850598 0.0935718 0.20352945 0.07261008 0.24943122 -0.16011098
0.15344787 0.005542424 0.033692308 0.09865527 -0.027854009 0.1562492 -0.35716346 0.23177336
0.3248074 0.32345375 0.042351745 -0.1465857 0.18829238 0.07612779 -0.027004424 0.2926252
-0.14170429 0.1283059 0.041330297 0.28577694 0.49368227 -0.15397315 0.18531787 0.27051762

fc2.bias f4 [32]
00000000: 26e1 583e e05b d23d a418 b83d dc61 8b3d
00000010: 840e c3bd a58c 923d be58 2abd 4dfc dfbd
00000020: 7340 0abd da90 1a3e 4bac c4bd cea7 383d
00000030: b714 12bd 1164 a63c d743 ea3d 834c a03d
00000040: 513c 09bd 07d2 36bc 6587 043d ef78 033e
00000050: 6e69 8e3d dac5 dc3d 0c94 4ebd d75b 763d
00000060: 26e2 32bc 82c8 1cbe 5d11 64bd e6d5 593e
00000070: 5518 bfbd 521b 343e e7b0 33bc fc48 f83d
0.21179637 0.1027143 0.08989075 0.068057746 -0.09524253 0.07155732 -0.041588537 -0.109367944
-0.03375287 0.15094319 -0.09603175 0.045081906 -0.035664286 0.020311387 0.11438721 0.078270935
-0.033504788 -0.011158473 0.032355685 0.12839101 0.06953703 0.10779925 -0.050434157 0.06014618
-0.010918176 -0.15310863 -0.05568062 0.21273002 -0.09330813 0.17588547 -0.01096747 0.12123296

fc3.weight f4 [3, 32]
00000000: 5316 123f 5613 25bf e127 52be 20e2 14bf
00000010: a84b 67be 8f5d 38bf 0680 2e3f 95fe a0bf
00000020: 3ed1 0dbe 3f6a 053f 7f2a 0dbf 049b b8bc
00000030: 6c1e 273f ff32 c9be 01d1 1d3f 5e34 743f
00000040: e857 50be b952 553e ba25 2b3f dd9f 1a3f
00000050: 8d81 0c3f 6268 0d3e 7da0 16be 8aaa 143e
00000060: 6d1c b63d 8368 37bf 0b2b a63e 6901 c93e
00000070: 1daf 1fbf 0c42 563e 9f65 2abe 506f 173f
00000080: 833b ba3e 1a04 4dbe 7ac8 2b3f 8548 8d3e
00000090: 6f1f a5bf b63d 02bf aca0 8abf a0d3 2b3e
000000a0: c4d6 013f bf77 50bf 2334 e93e 11a8 43bf
000000b0: 0c67 04bf 2b01 5fbf fb9f d43e 3f60 e3be
000000c0: f6fe 573f 3f99 a03f ea2b a5be a790 92bf
000000d0: 6924 99bd 101d b53f 86e7 b83f 0bbc 69be
000000e0: 2ef1 8e3c c687 dfbe 4b91 39bf 3c49 053f
000000f0: 24da 36bf eeb1 103f 657f 483f 1028 983f
00000100: 94f0 89be 988b f23d c075 8c3e 4abc dcbd
00000110: 6a48 15be ffef 45bd 3ecd 47bf ac09 14bf
00000120: 893a 503f 32fa 93be 83c0 913e ab23 02bf
00000130: 4ebe e6bd 9a19 063f 613d 193f 0f3d 363e
00000140: 527b de3d 1322 9ebe 6842 6a3d 9dfa 10bc
00000150: 66f1 393f 1db8 e4bd 1c87 a3bd 4633 39bf
00000160: dfd4 e93d 0952 b93e 17dc f13e ff4c 73be
00000170: b9ae ab3e 3dce b1be c035 16bd c970 653d
0.57065314 -0.6448263 -0.20523025 -0.5815754 -0.22587454 -0.7201776 0.681641 -1.2577692
-0.13849351 0.52115244 -0.5514297 -0.022534855 0.65280795 -0.3929672 0.6164704 0.95392406
-0.20346034 0.20832337 0.6685444 0.6040018 0.5488518 0.1380935 -0.14709659 0.1451818
0.088921405 -0.7164385 0.32454714 0.39258888 -0.62376577 0.20923632 -0.16640328 0.59154224
0.3637353 -0.20021096 0.6710278 0.2759439 -1.2900218 -0.50875413 -1.0830283 0.16779947
0.5071833 -0.8143272 0.4554759 -0.76428324 -0.5171974 -0.8711116 0.41528305 -0.44409367
0.84373415 1.2546767 -0.32260066 -1.1450394 -0.07477648 1.4149494 1.4445655 -0.22825639
0.017448988 -0.43658274 -0.72487324 0.5206487 -0.71426606 0.565215 0.7831939 1.1887226
-0.2694136 0.11843032 0.27433586 -0.10778101 -0.14578405 -0.04832458 -0.7804755 -0.5782726
0.8133932 -0.2890182 0.28467187 -0.50835675 -0.112667665 0.52382815 0.5985928 0.1779673
0.10863365 -0.30885372 0.057192236 -0.008848813 0.7263397 -0.11167929 -0.079847544 -0.7234386
0.11417555 0.361954 0.47238228 -0.2375984 0.3353174 -0.3472766 -0.036672354 0.056015763

fc3.bias f4 [3]
00000000: d396 853d e8f2 7cbd 606b 4e3e
0.06522908 -0.06175509 0.20158148

exp_avg f4 [64, 8]
00000000: 966d b33b eeef 4d3b 1fd7 cbbb b922 eebb
00000010: 71da 1b3c 9af1 073c bfd9 17bc 291b 0b3c
00000020: 90c9 ff3b 6e0f 023c 854c d7bb c0cd c6bb
00000030: c9c8 c4ba fd1d 93bb 0ec2 67bb 6eec c23b
00000040: d768 2c3b 85e2 ad3c 026c 763b ab0e a93b
00000050: 40a4 d3bc 68a9 33bd 8758 4fbb b68e 503c
00000060: 4a9b b4bb bace 3abb 7c11 a93b 57d8 2b3a
00000070: 0a9f 8b3a 4f1c 47bc 2166 273b c02a e83a
00000080: a440 47bc 0a2e f4bb c143 423c d43c 403c
00000090: 26b8 ad3b 7066 40b9 b6ed e13a 9325 ebba
000000a0: dfe5 a9bc 81c2 71bc f4e3 ae3a 2f1c 523c
000000b0: 46c9 903b 8bd7 203c e7e1 0339 3019 8abb
000000c0: 61b6 bf3c 434e ad3c ae81 b3bc d59b d7bc
000000d0: 4ad3 d4bc 8c91 bdbc 4f97 bcbb ef5a 8b3b
000000e0: 829b 0d39 6e5b 383c dd5a b33c 81f8 473c
000000f0: 4529 acbc 3754 71bb 40b5 8abc b9d0 973c
00000100: cc2e d8bb c13e 54ba 9412 f93b 1105 3b3b
00000110: 4470 a2bb 9d7a 2a3c cf0a d4bb 2c7d 963a
00000120: a2c3 c1bd 0ad5 d9bc 651b a83c 5e34 3f3d
00000130: 2809 c3bb b548 b53c 0054 f13b 17be 19bd
00000140: bd1a fe3a f318 1e39 3eff ccbb 6ba2 d73a
00000150: 229d e13a 4d5a b33a c9ec 043b 194f b53b
00000160: fe2a 4dbc bd81 bdbb 49f4 db3c 1432 f93b
00000170: 5818 b2bb 8a60 793c 9322 013c 1012 e9bb
00000180: 30f7 343d f791 a63b 7679 4a3c 3ef1 ad3b
00000190: bd7c 6bbc dc90 91bb 5110 a53c c112 4c3c
000001a0: 9557 813b b1e4 42bd 8bcb 64bd 8f80 b2bc
000001b0: 544c 893d 10dc dbba cdf1 ef3c 812f 75bd
000001c0: 7e6d debc d67e d5bc f5aa bb3c 1d0a ee3c
000001d0: a9ed 133c a820 863c 994a 9a3a 5f5d 8cbb
000001e0: 03b2 d0bb e3d6 173c 11ef f83c be74 403d
000001f0: 14a7 eebb 7194 ba39 67ea e3bc fa66 0c3d
00000200: 3193 a4bc a2f7 c3bc 2af0 bcbc 35f6 efbc
00000210: faf7 7d3c 483b ee3b 4bf5 ca3c e6a7 50bd
00000220: 38a5 8ebb 96a1 a03c 7017 5abc b81a fdbb
00000230: a14f 1abc 4271 efbc cb82 64bc ca24 67bb
00000240: 1569 173c 9928 43bb 6259 47bc 7275 85bb
00000250: 91fa 553b 5f4c 88bc efbc 88bb 089a 43b9
00000260: bb56 15bd d056 4dbd 4b48 cabc dc55 e8bb
00000270: 5ce2 0a3d 4439 183b b242 853c 60db 40bd
00000280: 2325 11bc 1d4b 6ebc 627a 9f3c 751e aa3c
00000290: f44d 4d3c 2983 5b3c f027 b43b d343 79bb
000002a0: 4362 33bd 8d56 4cbd 1078 76bd 7ef9 2c3d
000002b0: b2c5 7a3d fed7 3bbc fed6 59bc 5b70 f53c
000002c0: f34f 34bc 87be 923c 209c 2c3c 9ea7 a93c
000002d0: 0181 9fbc 752f 24bc 0d13 e8bc b163 133d
000002e0: 44f5 82bb 5346 ce3b f1b9 8bbc dfe0 45bc
000002f0: 46d6 fcbb ccfe ec3b abcd 89bc 18e9 5a3b
00000300: c180 b03c 678d 553b 41f0 93bc c482 67bc
00000310: 9b51 3e3c b1e4 f8bb 64a0 743c 3441 ddbb
00000320: a224 9c3b 13d9 85b9 d20f 9cbb 0763 4ebb
00000330: f790 8837 7c64 4cbb b407 043b eb6a 8d3a
00000340: 61d2 23bc 87a3 0f3c adfc a43b dd3d c03c
00000350: 2c59 1abc 5854 39bb dc00 b9bc 2d59 d13c
00000360: c607 a8bc 1368 cabc bed3 65bc f8f6 5bbc
00000370: 4290 b63c 09a1 343c c7ff 783c 9752 20bd
00000380: 6cc5 39bc cf42 02bb 7413 43bc bb57 01bc
00000390: 3fd6 86bb ae27 a8bc c187 933b 6d3b 9fbc
000003a0: 78a2 bc3b 0149 30bc 0a0e 833c a8c5 c33c
000003b0: 220b b23c 36ec ad3c ac56 87bc 2f2e e03a
000003c0: 716e 07bd 401a 59bc d65b f4bc 775a b5bc
000003d0: 60bf 663c 04c3 823b b393 ecbb 64b9 12bd
000003e0: cbca c4ba 498a eabb 6544 0bbb 79c0 24bc
000003f0: 67d3 b13b 1beb a2bb a74c 083c 5ed4 b7bc
0.00547571 0.0031423527 -0.006220713 -0.007267323 0.00951253 0.008297348 -0.009268223 0.008490362
0.0078060105 0.007938249 -0.006570401 -0.006067008 -0.0015013452 -0.004489659 -0.0035363468 0.005948595
0.0026307607 0.021226177 0.0037600999 0.0051592193 -0.025835156 -0.04386273 -0.003163846 0.012729337
-0.005511676 -0.0028504566 0.005159555 0.00065553695 0.0010652256 -0.012152745 0.0025543051 0.0017712936
-0.012161408 -0.0074517773 0.011856974 0.011733253 0.005301493 -0.00018348708 0.0017236981 -0.0017940275
-0.020739494 -0.014755846 0.0013343082 0.012824102 0.004418525 0.009817014 0.00012577289 -0.0042144284
0.023402395 0.021155482 -0.021912422 -0.026319424 -0.025979657 -0.023140691 -0.005755342 0.0042527835
0.00013504739 0.011252267 0.021893913 0.012205244 -0.021015773 -0.0036823878 -0.01693213 0.018532144
-0.0065973755 -0.0008096509 0.0076010916 0.0028536955 -0.0049572308 0.01040521 -0.006471015 0.0011481396
-0.09461142 -0.026590843 0.020520875 0.0466808 -0.0059520192 0.022129396 0.00736475 -0.0375348
0.0019386631 0.00015077349 -0.006256013 0.0016451603 0.0017212967 0.0013683528 0.0020282737 0.005533111
-0.012522457 -0.0057832883 0.026849883 0.0076048467 -0.005435031 0.015220771 0.007881778 -0.007112749
0.04418105 0.0050833183 0.01235806 0.0053082993 -0.014373002 -0.0044423174 0.020149382 0.012455643
0.003947208 -0.04758138 -0.055858176 -0.021789817 0.067040116 -0.0016773958 0.029290104 -0.059859756
-0.02715182 -0.026061457 0.022908667 0.029057557 0.009028831 0.016372994 0.0011771499 -0.0042835916
-0.006368877 0.009267542 0.030387433 0.046986334 -0.007283101 0.00035587282 -0.027821733 0.034277894
-0.020089718 -0.023921791 -0.023063738 -0.029292205 0.015501017 0.0072702505 0.024775168 -0.05094137
-0.0043531917 0.0196083 -0.013311252 -0.0077241324 -0.009418399 -0.02922881 -0.013947199 -0.003526973
0.009241362 -0.0029778837 -0.012167307 -0.0040728385 0.003265057 -0.01663798 -0.0041729133 -0.0001865403
-0.036459666 -0.05013162 -0.024692675 -0.0070903134 0.03390728 0.0023227492 0.016267154 -0.047084212
-0.008858952 -0.014544276 0.019467536 0.020766476 0.0125307925 0.01339797 0.005497925 -0.003803481
-0.04379488 -0.04988723 -0.060173094 0.04223012 0.061223693 -0.011465071 -0.013295887 0.029960802
-0.0110053895 0.017913116 0.01053527 0.020709809 -0.019470694 -0.01002108 -0.028329397 0.035983745
-0.003996523 0.0062950044 -0.017056437 -0.012077539 -0.007715973 0.0072325226 -0.016821703 0.0033403095
0.02154577 0.0032585503 -0.018058898 -0.014130298 0.011616136 -0.0075956215 0.014930818 -0.0067521576
0.004765109 -0.0002552947 -0.004762628 -0.003149213 1.6279968e-05 -0.0031187823 0.0020146193 0.001078931
-0.009998889 0.008767015 0.005035004 0.023466999 -0.009420674 -0.0028279033 -0.022583418 0.025555218
-0.02051152 -0.02470783 -0.014027534 -0.013425581 0.022285584 0.011024722 0.015197701 -0.039141264
-0.011338573 -0.0019876247 -0.011906493 -0.007894452 -0.0041148956 -0.020526733 0.004502267 -0.019437516
0.0057566725 -0.010759593 0.015997905 0.02389796 0.021733824 0.021230798 -0.01652082 0.0017103608
-0.03306431 -0.013250887 -0.029828947 -0.022137864 0.014083713 0.003990533 -0.0072197556 -0.035821334
-0.001501405 -0.007157598 -0.0021250483 -0.010055655 0.0054268125 -0.0049718744 0.008319057 -0.022440132

exp_avg_sq f4 [64, 8]
00000000: acb5 1538 9f81 1f39 4c1b 0239 53f1 ba38
00000010: 2ca5 2f39 7109 9c38 28d1 b138 c14e bd38
00000020: 59ce 4d39 9275 8f39 5295 4439 e759 7239
00000030: 2f7e 4039 b022 4239 5fc0 2c39 6de8 1039
00000040: dd4b 503a 6e48 ed39 9a21 ee39 35bc 023a
00000050: 9960 f239 f107 333a d6ec dd39 4cda c939
00000060: d220 f839 3615 123a 26eb f539 232d f339
00000070: a77a 0f3a 2208 4d3a d8f8 3d3a 7f14 de39
00000080: deca 9039 60f0 5c39 63ef 5a39 cf16 0c39
00000090: d41c 9b38 aa3d ba38 29e0 e538 7704 1e39
000000a0: ced1 3939 0f74 c638 c002 de38 c7e0 0439
000000b0: 001f 9838 63fb fe38 a07c c438 d3b0 1439
000000c0: f542 953a 9f41 b43a 9343 103b bcd3 c13a
000000d0: 961a 933a 047d a43a 94ad 923a f644 593a
000000e0: f51d 7639 dfb9 0639 bf7b 9939 68bf 6539
000000f0: eade 8439 ef34 b539 7e76 6739 2791 0e39
00000100: 0b0b 8239 4c61 ac39 b020 6e39 f31f 9339
00000110: dc9b bc39 f688 a839 279c f039 e7d9 6239
00000120: f295 0e3b 342e 9f3a 284c 943a 3775 9d3a
00000130: cf4e 5d3a 6070 943a 19ad 8b3a f0d8 a93a
00000140: c15f 213a 8e1f a739 d9dc 5a3a 16e0 753a
00000150: 3f15 6939 2000 243a feab b439 4ce6 6439
00000160: 554b e239 2ff4 d139 bffa 6d39 5553 5e39
00000170: 2151 0a39 d511 1139 9970 4839 4cb8 5039
00000180: d950 943a 71c3 043a 2392 f339 cbd4 113a
00000190: 83a4 9b39 c251 343a d33a 2c3a 0046 163a
000001a0: 60b4 923a a9fd 933a 1e40 183b adb4 8d3a
000001b0: 8f78 ab3a 1370 833a f325 133a 0155 9d3a
000001c0: 90fc 103b 882d 343b 7462 bf3a 4631 bc3a
000001d0: c760 e83a abd7 573a 2c5a de3a 1f0b d63a
000001e0: aeea d739 8b7e 7539 c36f 9e39 6dbd f439
000001f0: 2efb 0b39 76a5 c739 ee2f 9839 24a7 9239
00000200: 872f 293a 90f4 813a d1c4 e039 d4de 1d3a
00000210: 1cdf ee39 b1e7 cc39 f40a 2b3a cf06 223a
00000220: 8925 153a 7fb7 143a e545 ed39 db4b e039
00000230: ba44 013a 0f28 4f3a 35d9 183a b89e 013a
00000240: cc7e e538 d843 a838 28d8 ee38 abd5 1f39
00000250: 5bec 0f39 b6e7 4439 661f d138 de70 eb38
00000260: 0ce1 033a 8e65 1c3a e434 9f39 c23e 8239
00000270: b63e a739 b7f2 5539 814f be39 9929 e939
00000280: 456c 6839 da2f b439 b7a0 8739 9d6c 3639
00000290: ba20 7839 2c0b 3239 e7a3 7439 bfa9 1739
000002a0: af02 303b 5fd1 f33a 23a4 fa3a 15fe 363b
000002b0: 6fc7 0c3b 67e9 053b ae8a 1b3b 48a3 9c3a
000002c0: 1101 993a eda8 693a 5ddb e03a 8c22 903a
000002d0: 7019 7a3a 6c5a ba3a 1bb9 a23a 2491 933a
000002e0: c7bc e639 2b99 d739 4698 c339 bdc5 b539
000002f0: 56d4 c539 da2c ee39 8037 f839 633b c039
00000300: de4f 5939 6205 4239 3ea5 5239 78fc 5739
00000310: cd92 9f39 db82 a839 170c ac39 e0ad 3439
00000320: bd08 cd38 7b41 2c39 d508 8d38 853e a038
00000330: e48b d038 5af8 4e38 f21b b238 ba23 5f38
00000340: 4d44 4a3a ac81 303a 7b58 8d3a b1e7 453a
00000350: a421 343a 5229 8e3a 3d77 a33a 1969 293a
00000360: e8f3 7539 29c3 7d39 d974 2a39 5c1c 7739
00000370: d019 9a39 1b9f 7339 5ebf 5c39 d5e9 bb39
00000380: ccfe 6239 5674 1139 2b86 4f39 56f5 1839
00000390: 039b 4d39 26f9 8439 1e3b 0539 1dda 4139
000003a0: f407 1b39 709a ee3a b882 853a ed62 bd3a
000003b0: 041c 343b 66a3 653a 75eb b93a a6fd 853a
000003c0: db60 843b 859e 133b 295c 1d3b 3c27 103b
000003d0: e4e3 983a d60e 143b 3313 083b 8243 153b
000003e0: b213 8a39 23ce 7739 e4cf 4739 3780 3639
000003f0: d2b9 4c39 cf2c 2b39 9a95 4739 8574 8339
3.5693563e-05 0.00015211709 0.00012407935 8.914121e-05 0.00016750832 7.440418e-05 8.478976e-05 9.026891e-05
0.00019627194 0.00027362682 0.00018747643 0.0002311241 0.00018357554 0.00018514204 0.00016474862 0.00013819496
0.0007945875 0.00045258127 0.00045419933 0.00049871515 0.00046229808 0.00068294915 0.0004232886 0.0003850035
0.000473267 0.00055726187 0.0004690524 0.000463822 0.0005473294 0.0007821341 0.00072468584 0.0004235841
0.00027616968 0.00021070382 0.00020879279 0.00013359937 7.3963456e-05 8.880657e-05 0.00010961324 0.00015069717
0.00017721133 9.462993e-05 0.00010586297 0.00012672237 7.253699e-05 0.00012158488 9.3692215e-05 0.00014180252
0.0011387753 0.0013752467 0.0022012934 0.0014787833 0.0011223133 0.0012549465 0.0011190646 0.0008288169
0.00023471548 0.00012848478 0.00029274632 0.00021910446 0.00025343086 0.0003456245 0.00022074018 0.00013596249
0.0002480376 0.00032878888 0.00022709626 0.0002806183 0.0003597428 0.000321455 0.0004589271 0.00021634214
0.0021756855 0.0012144507 0.00113142 0.0012013082 0.00084422244 0.0011324994 0.0010656446 0.0012958329
0.0006155931 0.00031876232 0.0008348949 0.00093793997 0.00022228526 0.0006256122 0.0003446042 0.00021829567
0.00043162206 0.00040045517 0.00022695491 0.00021202613 0.00013190928 0.0001383492 0.00019115432 0.00019905082
0.0011315598 0.00050645234 0.00046457452 0.00055630197 0.00029686475 0.0006878638 0.0006570045 0.0005732477
0.0011192672 0.0011290807 0.0023231576 0.0010811292 0.0013082194 0.0010027908 0.000561326 0.0012003483
0.0022123195 0.002749296 0.0014601485 0.0014357946 0.0017729037 0.0008233736 0.0016964129 0.0016330219
0.00041182846 0.00023412162 0.00030219377 0.0004668044 0.00013349645 0.00038079516 0.0002902741 0.0002797182
0.00064539205 0.0009914804 0.0004287125 0.00060222787 0.00045561127 0.00039082536 0.00065247645 0.0006180824
0.0005689492 0.0005673095 0.00045256238 0.00042781126 0.00049312005 0.00079023925 0.0005830706 0.00049446104
0.00010943189 8.023501e-05 0.000113889866 0.00015243019 0.00013725592 0.00018778336 9.971745e-05 0.000112266964
0.0005030788 0.00059660606 0.0003036625 0.0002484229 0.00031899445 0.00020403681 0.0003629886 0.00044472216
0.00022165578 0.00034367928 0.00025868948 0.00017397334 0.00023663315 0.00016979565 0.00023330712 0.00014463718
0.0026857068 0.0018601826 0.0019122403 0.002792244 0.0021481176 0.0020433308 0.0023733783 0.0011950517
0.0011673291 0.00089134165 0.0017155219 0.0010996624 0.00095405336 0.0014217622 0.0012414785 0.0011258465
0.0004400967 0.00041122115 0.0003730675 0.00034670337 0.0003773297 0.00045428314 0.00047343597 0.0003666534
0.00020724486 0.00018503287 0.00020088718 0.0002059805 0.00030436218 0.00032140952 0.00032815404 0.00017230911
9.7767894e-05 0.00016427592 6.725049e-05 7.64104e-05 9.9442696e-05 4.9345523e-05 8.4929066e-05 5.3200616e-05
0.0007715866 0.000673319 0.0010783816 0.00075494783 0.0006871468 0.0010846055 0.0012471449 0.0006462499
0.00023455883 0.00024200663 0.00016255993 0.0002356632 0.000293924 0.00023233557 0.00021052125 0.00035841638
0.00021647959 0.00013871616 0.0001979104 0.00014587244 0.0001960807 0.00025362632 0.00012705891 0.00018487168
0.00014784915 0.0018203985 0.0010186052 0.0014449038 0.002748252 0.0008760005 0.0014184552 0.0010222688
0.0040398664 0.0022524905 0.002401123 0.0021996042 0.0011664596 0.002259185 0.0020763397 0.0022775833
0.00026336085 0.00023632548 0.00019055564 0.00017404636 0.0001952418 0.00016324523 0.0001903385 0.0002507308

exp_avg f4 [64]
00000000: 7d69 82bc dc30 4ebc 14e8 213c ad63 873c
00000010: 30b3 323c 3cb8 ea3b 343f 37bc 0d9f 7bbc
00000020: 5577 f2bb bf93 8f3c d10f 03bb c4f0 1d3c
00000030: 7545 dc3c 677d 7e3d 1239 9c3c 882f 4dbc
00000040: 44d9 5d3c 175d c03b 5cb2 a53b fb55 283d
00000050: e389 273b 5de9 983d c360 14bb 3485 abbc
00000060: db71 fd3b ca94 c1bb 869a 83bb c005 473c
00000070: edcf c73c ef5e b8bc 9ac7 acbc f69f 3d3b
00000080: 688b e3bc bb81 afbb 9747 90bc 62a3 31bb
00000090: ab9d 9dbd a264 f03b 144d cfbc 9fca 15bd
000000a0: b728 163c 5d3b 353c b985 02bb d833 843c
000000b0: 9c77 833b a04a 05bd 7a8b 38bc ecb8 b43c
000000c0: 1ec9 f4bc 37aa ec3b 292a afbc 8132 aa3c
000000d0: 560e efbb 7f06 993c 9121 b6bb d379 693c
000000e0: 4592 e53c 6445 923c fb3f c7bc 576c fabc
000000f0: eca4 ad3b ad9c b13c 626a 6fbd 8af8 8e3a
-0.015919441 -0.012584891 0.009881992 0.016527021 0.010906979 0.0071630757 -0.011184502 -0.015357745
-0.0073994794 0.017526506 -0.001999844 0.0096399225 0.026888588 0.06213131 0.019070182 -0.012523539
0.01354057 0.005870472 0.0050566625 0.041097622 0.0025564365 0.074663855 -0.0022640682 -0.02093754
0.00773452 -0.0059076296 -0.0040162234 0.012147367 0.024391139 -0.022506205 -0.021091271 0.0028934455
-0.027776435 -0.0053560412 -0.017612262 -0.002710544 -0.076960884 0.007336215 -0.025305308 -0.036570188
0.009164981 0.011061517 -0.001991613 0.016138002 0.0040120613 -0.03254187 -0.011263723 0.022060834
-0.029881056 0.0072224396 -0.021382408 0.020776035 -0.00729541 0.018679855 -0.0055582006 0.014250237
0.028023848 0.017855354 -0.0243225 -0.030569239 0.0052992012 0.021681154 -0.058451064 0.0010907811

exp_avg_sq f4 [64]
00000000: b823 7239 0347 0c3a ec2e d53a c0ee e33a
00000010: 4342 db39 dd34 cd39 f0e6 823b 4f9c 0f3a
00000020: 8040 813a 605f 2d3b ae30 a43a 8dfc 1d3a
00000030: a95a f53a c2a2 493b a5e9 b53b 0c94 2b3a
00000040: 8ec6 003b a43a f63a 327f a839 63f4 4f3a
00000050: cffa 143a 90df c43b 3b39 7f3b 90c3 cd3a
00000060: 3700 2b3a 6578 4b39 b32f 493b 0c94 393a
00000070: 8908 023a 4331 473b 0516 103c 265d 1c3a
00000080: afcd 643b ba1d ef39 7473 ab3a 41e2 543a
00000090: 74d8 313b b28a 653a 1219 433c a043 8c3a
000000a0: 87fe 813a 583b f23a c490 883a 7a59 373a
000000b0: 2f63 213b c99a 483a b635 003a c080 b83b
000000c0: 6e1a 6d3b 44ca fd38 d1b1 0d3b 8830 933b
000000d0: df68 4d3b e08c ba39 7d85 213a 7f48 6c39
000000e0: 7cc4 153b a757 5b3c 1d84 0c3a cdf5 5b3b
000000f0: 3799 6e39 e739 853b 9551 543c c885 a639
0.00023092225 0.0005351158 0.0016264594 0.0017389879 0.00041820304 0.00039140033 0.003994815 0.0005478309
0.0009861141 0.0026454553 0.0012526715 0.00060267077 0.0018719035 0.0030767177 0.0055515342 0.0006545193
0.0019649598 0.0018785787 0.00032138225 0.000793284 0.00056831253 0.006008096 0.0038944024 0.0015698541
0.00065231643 0.00019404439 0.0030698597 0.00070792506 0.0004960378 0.0030394353 0.008794312 0.0005964808
0.0034912636 0.0004560778 0.0013080672 0.00081208727 0.0027137073 0.0008756324 0.011907833 0.0010701306
0.0009917774 0.001848082 0.001041912 0.0006994229 0.0024625768 0.00076524593 0.0004890816 0.0056305826
0.0036179083 0.00012101655 0.002162088 0.0044918694 0.0031343026 0.00035581645 0.0006161554 0.00022533721
0.002285271 0.013387597 0.00053602626 0.0033563257 0.00022754526 0.0040657404 0.012958904 0.00031761662

exp_avg f4 [32, 64]
00000000: a6dd d239 bf25 6cbb a3fa f9b9 c433 873b
00000010: 2664 133b 14c2 b1bb 8649 0e3c 9754 6d3c
00000020: 263a ae3b aa8c e6b8 1743 1f3a 37d3 86bc
00000030: 0dcd c63b 035e 1ebb 69f8 37bb dbdd 913b
00000040: eeae ab3a ea49 fe3b 9450 1e3c 2966 9739
00000050: f831 563c 0f89 d53a a98b b03a 36a5 913c
00000060: fdd8 023c 4c87 29ba 3981 1d3c fda1 9bba
00000070: d8f8 0dbc 7649 203a 8a63 973a 7aa7 413c
00000080: 4daa 66bc b007 87bb d169 5b3c c951 adba
00000090: e0f3 003c 3370 25bb 719a 833c 7599 233c
000000a0: b7b4 eb3a 8987 00bc abea 8f3b 2e26 69bb
000000b0: 326a 94b7 f92e 3c3a 4cf7 793b c649 15bc
000000c0: f7d4 42bb 48b3 88bb ecc9 943b 80e2 8d3a
000000d0: 9744 133b a35c 0ebc c207 663b d595 723a
000000e0: 6ba6 5b3b f9e3 c63c a61a 81b9 9c6c 0b3c
000000f0: d46c 39bb 3a84 773b 8571 263c d08e d33b
00000100: 05eb df39 1d44 3a3c e554 203a ee67 4a3a
00000110: e22e 0aba 94ec c53b 687c 10bc 1fed 1fbc
00000120: 3f52 133c 4c3f e7ba 4ec9 17ba d9a1 8b3c
00000130: 924a d8ba e8f2 8f3b 733d b13b 4d5b b0ba
00000140: 9c37 e23b 9f09 37bc 875f 34bc 48ff 20ba
00000150: 2590 5dbc f81d 12bb 5bed 623b f22d 8cbc
00000160: 5e0f 1fbb 8af6 d33a 368c bdbb 31dc 183c
00000170: 54dd 403b e4db 13ba 8962 6939 0742 5fbc
00000180: ba7b 513c 52e3 b53c d556 31bc cd99 d239
00000190: 37cb 82bb 25b8 2e3b c08b d4bc d469 5fbc
000001a0: d8e1 80bb 89aa 663b 328a 983a a088 cb3b
000001b0: d676 41b9 e5f0 943b 530e 0cbb 7e45 323c
000001c0: 02b6 8e3b 4abf 643a 799a b4bb 9560 a1ba
000001d0: 869d f3ba 10e2 043c e657 57bb 7dcb d73a
000001e0: b40f 113b 3ea4 dabc dd9a 22bb adca f6b9
000001f0: d001 813b b3e1 9cbb 2d0d 0abc 2a7e 4cbc
00000200: bd1b 8e3a a658 603c ea47 1d3c 1488 faba
00000210: 4597 613b aa32 93bb b9a1 2a3b 46b6 523b
00000220: 1e61 853c c0fd 31bb c48b e9b7 2493 9c3b
00000230: 1d49 39b9 7449 42bb cca8 553b f980 47bb
00000240: fd54 743b 94e9 ffbb 76d7 0b3b 5b76 e0bb
00000250: 427c c2bb 4860 1aba 7194 deba 7d86 8c38
00000260: 10ff e13b 6415 95b9 76e3 9b3b 944d 9c3a
00000270: aba9 6abc 2236 b0ba 0d70 dbba 494f 47bc
00000280: 4078 91bb 1428 0a3c 9653 443b 857f a7bc
00000290: e450 103c 5f31 0f3b 2281 52bc a577 cabb
000002a0: a492 403b 9391 67bc 4aae f6bb fb19 823c
000002b0: e3b6 9339 7848 e63b a990 4039 f782 403b
000002c0: b0df 723b fbdd 81bc 6916 8b3b 1e29 093c
000002d0: 87d5 e93b 36ee 42bb 7090 af3b 0c09 81bb
000002e0: c3f9 063c 275b 1bbb 22fe 253b 4105 6e3c
000002f0: 13cf 753b 440a 54bc 0b16 403c 698f 30bc
00000300: 6ab9 023b 1097 883c 6fb9 0e3c 2e7e 5bba
00000310: 2d41 a13b 905f a13b 444b ddba 64a4 f63a
00000320: 295f 833c c1e0 e1ba 7c90 c9b9 3d5a 613c
00000330: 6f75 c6ba 533d 3a3a ea69 473c 370e 5abb
00000340: 5619 cf3b b2d1 3ebc ff0d a5bb fada caba
00000350: 6870 b2bb 0e50 ec38 04d8 a23a e2b0 2bbc
00000360: e6f9 603b f0b5 c63b 15c5 be3a 2884 023c
00000370: c00b 4abb 7bb9 2e39 0547 e63a 0554 d9bb
00000380: c786 dc3b 64a9 9b3c 2fac ccbb 3e47 42bc
00000390: ff72 1e3b 875c d13b 4f62 d3bc a020 babb
000003a0: b186 bcba a2ab c0bb 8af7 1fbb ca42 4b3c
000003b0: eee5 8b39 07dd d33b 5660 013a 9280 733c
000003c0: 7445 f93b 7489 fbbb 371c 603b bfb2 383b
000003d0: 1be2 363b 972d 923b f529 983a af6b 8bba
000003e0: 2d74 f13b adca 93bc e902 783b 216c a83b
000003f0: f09a d23b c808 24bc 4081 4b3b 5013 38bc
0.00040219462 -0.003603324 -0.0004767972 0.004126044 0.0022490113 -0.0054247472 0.008684522 0.0144855
0.0053169904 -0.00010993455 0.0006075366 -0.016458137 0.0060669244 -0.0024164922 -0.0028071648 0.004451496
0.0013098398 0.007760276 0.009662766 0.0002887708 0.013073437 0.0016291457 0.0013469356 0.017778974
0.007986304 -0.0006466999 0.009613329 -0.0011873838 -0.008665286 0.0006114462 0.0011550051 0.011819715
-0.014078689 -0.0041207895 0.013391928 -0.0013223226 0.007870644 -0.0025243878 0.016064854 0.0099853175
0.0017982934 -0.007844814 0.0043919883 -0.0035575735 -1.7692426e-05 0.00071786303 0.0038141785 -0.009111827
-0.0029728988 -0.0041717626 0.0045406725 0.0010824949 0.0022471303 -0.0086890785 0.003509984 0.0009253894
0.003351594 0.024278628 -0.00024624652 0.008509781 -0.0028293626 0.0037768022 0.010158901 0.0064562336
0.00042708978 0.0113687785 0.0006116166 0.0007721175 -0.00052712683 0.006040165 -0.008818723 -0.009761124
0.008991777 -0.0017642765 -0.00057901896 0.017044948 -0.0016501716 0.0043929704 0.0054089366 -0.0013454944
0.006903602 -0.011171727 -0.011009104 -0.00061415555 -0.013523136 -0.0022295695 0.0034626338 -0.017111752
-0.0024270634 0.0016171497 -0.0057845367 0.0093298415 0.0029428797 -0.0005640371 0.00022257319 -0.013626582
0.012785846 0.022203121 -0.010823925 0.00040168912 -0.0039915103 0.0026660052 -0.025945544 -0.013636071
-0.0039331727 0.0035196862 0.0011637865 0.0062113553 -0.00018450184 0.0045453184 -0.0021370843 0.010880826
0.004355193 0.0008726014 -0.0055115786 -0.0012312109 -0.0018586374 0.008110538 -0.0032858788 0.0016463842
0.0022134604 -0.026689645 -0.0024811544 -0.00047071782 0.0039369836 -0.0047876476 -0.008425993 -0.012481252
0.0010842007 0.01369301 0.009599665 -0.0019114041 0.003442244 -0.0044921236 0.0026036336 0.00321521
0.01628166 -0.0027159303 -2.7840848e-05 0.0047782827 -0.00017670212 -0.0029645832 0.0032601831 -0.0030441864
0.0037282102 -0.007809827 0.0021338142 -0.0068500466 -0.005935223 -0.0005888981 -0.0016981495 6.7007706e-05
0.006896861 -0.00028435432 0.00475734 0.0011924976 -0.014322679 -0.0013443867 -0.0016741768 -0.012164899
-0.0044393837 0.008432407 0.0029957048 -0.020446548 0.008808348 0.0021849496 -0.0128481705 -0.0061788135
0.002938428 -0.014133829 -0.007528101 0.01588153 0.00028174286 0.007027682 0.00018364437 0.0029374936
0.0037059598 -0.015852919 0.004244615 0.0083716195 0.00713605 -0.0029744036 0.0053577945 -0.003937846
0.008238259 -0.0023705454 0.0025328477 0.01452762 0.003750746 -0.012941901 0.011724005 -0.010776379
0.0019946941 0.016673595 0.008711203 -0.0008372989 0.0049210996 0.004924722 -0.0016883393 0.0018817303
0.016036587 -0.001723312 -0.00038445357 0.013754425 -0.0015141199 0.0007104475 0.012171248 -0.0033272633
0.006320159 -0.011646675 -0.005037069 -0.0015476637 -0.005445529 0.00011268268 0.0012423997 -0.010479184
0.0034328639 0.006064169 0.0014554585 0.007966079 -0.0030829757 0.0001666303 0.0017568773 -0.0066323304
0.006729934 0.01900167 -0.006246112 -0.011857806 0.002417743 0.006389204 -0.025803713 -0.0056801587
-0.0014383403 -0.005879835 -0.002440902 0.0124060605 0.00026683457 0.0064655575 0.00049353146 0.0148621965
0.0076071564 -0.007676298 0.0034196505 0.0028182713 0.0027905765 0.004461001 0.0011609184 -0.0010636951
0.0073685856 -0.01804098 0.0037843531 0.005139843 0.0064271614 -0.010011859 0.003105238 -0.011235073

exp_avg_sq f4 [32, 64]
00000000: 4bdf 2d38 518f c238 43aa c639 59fb 033a
00000010: b72f ae38 519f 5739 c86f 3139 6b1c 393a
00000020: 7448 3239 f982 8f37 d415 1237 58d2 f938
00000030: e745 d039 c3ca 8437 a0e4 7039 8ef6 1539
00000040: 86a3 1b39 3989 403a fd51 4b39 1daa d738
00000050: f9cc b439 21bc ac37 ff3b 1439 f5f0 1f3a
00000060: 28e0 9339 de97 ee38 1902 4f39 fdc5 9d39
00000070: d2da bd39 e817 1037 2515 8d39 5aaa 4f3a
00000080: bd91 8239 7096 1739 15a9 ee39 978a e839
00000090: d649 2239 64f3 3339 c4f8 943a e36a 2f3a
000000a0: 47ae 9739 5e17 9c39 cb7b d039 3b2c ff38
000000b0: afe9 fb36 d9b8 9736 4188 f538 3059 d839
000000c0: 076d c138 01ae a638 0023 ba39 fcf5 0339
000000d0: e733 9938 0bb9 4d39 1a38 fb39 79c6 9c39
000000e0: 22be 6138 e626 453a 53d7 9b39 2949 1e39
000000f0: 6135 1f39 a858 7b39 57f4 b339 df1c a939
00000100: d15e 3038 7ad5 1839 9995 bb39 db48 093a
00000110: 81de a638 3cef 8b39 d3da 3d39 9caf 5c3a
00000120: ade1 6139 990c f337 9c4f e536 79d4 e538
00000130: bafa f139 ca22 f337 3570 6f39 c779 5639
00000140: 1a80 7039 e5b8 463a 301c a539 610b e538
00000150: ac9e b239 8d2f 4037 2cc8 5139 88b0 403a
00000160: 1304 bf39 703a d438 4ca2 5539 1dff d139
00000170: fab8 b639 b1b3 1337 94da 8e39 ab19 803a
00000180: ec02 7439 b846 a439 fd30 093a 0bcf 0a3a
00000190: 26a9 8539 ce00 1d39 529b a33a bf22 353a
000001a0: 7891 8b39 4652 9e39 3444 183a 5a3a ea38
000001b0: 0a21 9136 39dc 5f37 f8eb da38 b22f c339
000001c0: 8f3e aa38 bc00 9a38 bd47 c639 531f 1739
000001d0: 71d1 9838 9d99 7539 3320 fc39 de9d a039
000001e0: 9651 9938 e9e7 523a d5b3 8a39 f3e9 6f39
000001f0: b485 0a39 49d3 8939 15fe 9539 15fa c139
00000200: 988c a838 53d5 7939 aea9 243a 38ec 023a
00000210: 5c1e 0539 bdcf af39 dd79 7339 53b9 813a
00000220: 3f5c ac39 735a 0638 b87b a837 a0f6 f138
00000230: ef0b 3e3a f420 0138 4b02 c339 bf8d 8539
00000240: 16e8 8a39 8c77 3f3a b534 9a39 1466 6039
00000250: 244f 013a 3af3 4938 9679 7c39 4131 203a
00000260: 42ea 8f39 26ed 4c39 490e 9c39 629a d839
00000270: f93a de39 5c44 5337 2a8a 013a 9685 b83a
00000280: cefe 9f39 f0a4 9d39 3656 073a 6969 303a
00000290: 3c10 9639 a5f7 7139 0384 a63a 7eaf 993a
000002a0: 2d17 9339 abb0 e039 a177 433a 1f3b 3939
000002b0: 2d9b 9037 2430 ae37 a353 fa38 06b1 133a
000002c0: fee0 9838 1546 9238 7cb4 d639 da3e 4439
000002d0: c572 d438 feab 4d39 5ec7 283a 89ac a239
000002e0: 31f2 0739 f8e8 433a d9cc 8839 c48b 8639
000002f0: b837 1c39 1b2d 8439 f7ae 053a 4f6e e339
00000300: 2e4b c836 0072 fe38 636e 4439 50c0 033a
00000310: ee69 8436 2e44 f938 0b73 7738 0b35 d839
00000320: cbc1 3739 e774 8e37 af68 1d37 5d9a bc38
00000330: d318 bb39 7792 c937 bacd 0438 3e82 3d39
00000340: 504c 5939 d745 253a be42 5c39 7542 8b37
00000350: a11c 2f38 820b 3c37 8c97 2d39 29b8 0d3a
00000360: 1649 9639 0a89 c136 26bd 1439 e432 b139
00000370: 332c 9239 a3ee db35 cfb1 0d39 4332 ad39
00000380: dc60 4c39 6873 a039 45b4 c039 38e3 053a
00000390: 00c8 7a39 8e9b f738 3739 9c3a 70d4 8a39
000003a0: 21f7 7b39 54e1 9939 88cd ba39 1114 c438
000003b0: 8ca0 af36 7fe7 5637 85b1 aa38 2bd4 5339
000003c0: 53a9 8438 d99f a338 de4a 2839 7d8a c838
000003d0: 66f0 5d38 2a83 5339 88ac c339 a196 9839
000003e0: 149c 9b37 b916 0b3a 1aa4 4839 c9d2 5939
000003f0: 5d5e 8b38 92b6 5739 99f2 5639 24da 8139
4.1454372e-05 9.2773356e-05 0.00037892358 0.0005034707 8.305854e-05 0.00020563348 0.00016921677 0.00070614245
0.00017002394 1.7107917e-05 8.70736e-06 0.00011912425 0.00039724933 1.5830045e-05 0.00022973353 0.00014301596
0.00014842869 0.00073446665 0.00019390132 0.00010283685 0.00034484992 2.0591602e-05 0.0001413673 0.0006101274
0.00028205034 0.00011377012 0.0001974184 0.00030092886 0.00036211923 8.588635e-06 0.0002690937 0.00079218077
0.00024904116 0.00014456525 0.00045520873 0.00044353746 0.0001547703 0.0001716144 0.0011365642 0.00066916476
0.0002893081 0.0002977205 0.00039765085 0.00012167586 7.5075873e-06 4.52167e-06 0.0001170789 0.0004126518
9.223265e-05 7.9479076e-05 0.00035502762 0.0001258477 7.305276e-05 0.00019619257 0.0004791625 0.00029902512
5.3821255e-05 0.000752075 0.00029724333 0.00015095308 0.00015183307 0.00023970252 0.00034323588 0.00032255703
4.2049975e-05 0.00014575376 0.00035778878 0.00052369916 7.9569414e-05 0.0002669039 0.00018105963 0.0008418502
0.00021541743 2.8973724e-05 6.8339996e-06 0.00010959147 0.00046153908 2.8984057e-05 0.00022834617 0.00020453996
0.00022935905 0.0007580652 0.00031492254 0.000109216904 0.00034069025 1.1455163e-05 0.00020006363 0.0007350524
0.00036433394 0.000101198326 0.00020373723 0.0004005366 0.00034851563 8.80372e-06 0.00027247204 0.0009773275
0.00023270742 0.00031333207 0.0005233435 0.0005295134 0.00025493762 0.00014972987 0.0012482202 0.00069097796
0.0002662053 0.00030197407 0.0005808503 0.00011168858 4.325183e-06 1.334311e-05 0.00010439003 0.00037228834
8.117884e-05 7.343429e-05 0.00037818952 0.00014412151 7.286936e-05 0.00023422246 0.00048089176 0.00030635198
7.310805e-05 0.00080454216 0.00026455396 0.00022879969 0.00013210514 0.00026288096 0.000286088 0.00036998154
8.037052e-05 0.0002382596 0.0006281388 0.0004994306 0.00012695178 0.00033533378 0.00023219683 0.000989715
0.00032875125 3.2032327e-05 2.0084772e-05 0.00011537713 0.0007249703 3.0786687e-05 0.00037195007 0.00025473346
0.0002649433 0.00073038856 0.0002941244 0.00021400332 0.00049327523 4.8148657e-05 0.00024077887 0.0006110855
0.0002744962 0.00019543301 0.00029765282 0.00041313755 0.00042387078 1.2592496e-05 0.00049415475 0.0014077898
0.00030516688 0.00030068262 0.0005162688 0.00067295745 0.00028622325 0.00023075806 0.0012704137 0.0011725274
0.00028055292 0.00042856237 0.0007456486 0.00017664999 1.7238397e-05 2.0764834e-05 0.000119365075 0.00056339835
7.289833e-05 6.974876e-05 0.00040951732 0.0001871543 0.00010130325 0.00019614396 0.00064383994 0.00031027597
0.00012964827 0.0007473375 0.00026092565 0.00025662605 0.00014898076 0.00025210608 0.0005099619 0.00043379
5.9692165e-06 0.00012132898 0.00018733139 0.000502591 3.9462384e-06 0.00011885945 5.899653e-05 0.0004123825
0.00017524433 1.6982156e-05 9.382303e-06 8.993291e-05 0.00035685915 2.402927e-05 3.166285e-05 0.00018072964
0.00020723161 0.00063046574 0.00021005698 1.6601038e-05 4.1749914e-05 1.1208353e-05 0.00016555021 0.0005406165
0.00028664683 5.7678017e-06 0.00014184843 0.00033797987 0.0002788022 1.6386224e-06 0.00013513047 0.0003303458
0.00019491039 0.00030603562 0.00036755405 0.00051074056 0.00023916364 0.00011806852 0.0011918907 0.0002647969
0.00024029288 0.00029350317 0.00035629817 9.349746e-05 5.2340965e-06 1.2809293e-05 8.139297e-05 0.00020201567
6.3257896e-05 7.8022196e-05 0.00016049619 9.5625386e-05 5.2914394e-05 0.0002017139 0.00037321844 0.00029103926
1.855012e-05 0.0005305815 0.00019134619 0.00020773256 6.645613e-05 0.0002057201 0.00020499005 0.00024767325

exp_avg f4 [32]
00000000: 501b 6a3c dd93 43bc afae 963a b863 74bb
00000010: fcde 913c 2275 e2bc f6d7 6c3a f4ca 76bc
00000020: 571e 7a3b 0194 983b 9bca 3a3c a318 303c
00000030: 8da1 a1bb 3c07 193c d4c9 bc3b b5b7 2f3c
00000040: 600b aa3b ec8d b93c 83c7 de3b a287 013c
00000050: 3d66 b63b 980c 0c3c 1f0e 8a3c 6a29 613b
00000060: 0400 0000 90bc 6fbc 3670 adba 19bf 0c3c
00000070: ba71 5b3c f595 a43a d85f a2bc b916 bebc
0.014288738 -0.011937109 0.0011496152 -0.0037290882 0.017806523 -0.027643744 0.0009034866 -0.015063036
0.0038165057 0.0046563153 0.011400844 0.010748061 -0.0049325884 0.009340104 0.0057613645 0.0107249515
0.0051893443 0.022650681 0.006798686 0.007905873 0.005566387 0.008547924 0.016852437 0.003435696
6e-45 -0.014632359 -0.0013232294 0.008590483 0.013393814 0.0012556898 -0.019821092 -0.023204194

exp_avg_sq f4 [32]
00000000: 89fa a23a efbb b23a 9d40 dc3a d0f5 733a
00000010: 8c7b b33a d4da 043b 6c2d b03a b599 eb39
00000020: 8596 583a 9e4a 6c3b 4050 863a 8592 ba3a
00000030: 5b2a c53a 7be2 9e3a 16ab ad3a 5c45 a03a
00000040: e3f5 ef3a a51f 1b3b 5a79 9b3a 2104 5c3b
00000050: 17b0 383a 6a2e 3a3b a4f1 933a b5d4 493a
00000060: fad8 e026 de4f 893a 3021 da3a 88db 8f3a
00000070: b367 973a e07a a63a 5311 963a 7b2d 203b
0.0012434284 0.0013636331 0.0016803924 0.0009306343 0.0013693436 0.0020272033 0.0013441271 0.00044937214
0.0008262175 0.0036055217 0.0010247305 0.001423434 0.001504253 0.001212194 0.001324984 0.0012227702
0.0018307533 0.0023669985 0.0011861727 0.0033571797 0.00070452824 0.0028409013 0.0011287224 0.00076992373
1.5601934e-15 0.0010476073 0.0016641971 0.001097546 0.001155129 0.0012701415 0.0011449255 0.002444117
