checkpoints/synth/high_energy/torsion_energy/20250611190444044002/ARG_dim_16/fold3/best_epoch=247-val_loss_epoch=13.114.ckpt (torch, 50181 bytes, 20 tensors)

fc1.weight f4 [64, 16]
00000000: f61a 1f3d 8b15 84be 647e 173f 237e cfbe
00000010: 4b79 863d 3c4b 813e 33b4 92bd acc2 423f
00000020: a34e 54bd 43f9 f6bd d26d 093e a112 eebc
00000030: fa6a 053a c831 44bc 175e bc3d e8b9 483e
00000040: c490 6cbb f1a4 69bf 9f3b f53d 0df3 5bbe
00000050: 879e d0be 648b 3c3e 7509 8abe c677 fd3d
00000060: 74e8 5a3e 1eaa 7e3d f6a5 3c3d 57dd 2d3d
00000070: a9ec 7fbe a81b 82bd ba65 9a3c d850 2e3d
00000080: 29af 253f 706c b63e f6c8 a3be e2c5 463e
00000090: ef51 67be 7bd8 213f 1daf 06bf 9a6b 883e
000000a0: 3365 3b3d bde3 58bc b5a7 afbc 0435 0dbb
000000b0: 8a9d fbbd 0314 adbd 372f d9bd 64de f8bc
000000c0: 2666 123b ec31 02bf 288a 00be 8a65 e2be
000000d0: 7f41 9f3d b4f9 913e 4399 3ebf ebbe 2abe
000000e0: 2568 993c bc9e 513d 0eb1 c0bc 05ae d13d
000000f0: 7a67 babd 863b eb3d 9033 d53c 9b99 c1bd
00000100: a137 a33d b5e1 28be 6007 b63e f072 d8be
00000110: d1f2 aa3d 3085 583e a90b 3f3e 86e7 24be
00000120: 7fc2 1abb 72a3 a13d 9d3f 7f3d cb04 b1bd
00000130: fa41 26bc cb93 803d cdc1 b53d ba78 933e
00000140: 2c29 a43e cc28 41bf 3ab6 44bf 776d 44bd
00000150: 1c39 b63e 22c7 d83d e62d 3fbe 2584 2cbe
00000160: 1198 503b 5952 a73d 33c9 acbd 3871 023d
00000170: 26ad 3abd 7fe3 66ba 94a2 863d 7108 20bd
00000180: 5a87 c63e e7bc 173f 04f9 193f 18a8 09be
00000190: bf39 0fbd 8f58 8bbe 5e58 b83e aa37 e03e
000001a0: 8cbe b33b 0be0 b0bd d61e 003e f5b1 9fbd
000001b0: 4de7 1abc c32a ce3d 4a29 d0bd 6bb8 f73a
000001c0: 7cd3 8ebe 18b5 ecbe 0819 10be 4bd1 123f
000001d0: 03e9 153f ee92 433e a168 27bf cd30 e43d
000001e0: 559c 053e bf55 ec3d 6147 053d f254 96bd
000001f0: b984 853d e8bb 803c 5ba9 f9bd dbae 01bd
00000200: 059f 88be 9e69 a7bd 3b3e 063f ed87 ad3e
00000210: 0102 bb3d 92c6 49be a570 883e 2067 f73d
00000220: 1a26 11bd 03e1 a13d 6415 0f3e 798e 103e
00000230: 07df 173d 48bc cd3d 0f69 17be 3afb d0bd
00000240: 7b5b 23be 0993 a73d c4c1 b03e cd5f 91be
00000250: 2b61 083d 1940 463e 8994 303f 67a4 86bd
00000260: 060e 04bd 03ff 783e bfd4 45bb 8f6f c9bc
00000270: 72e5 33bd d37b c0bd 570d 95bc 9662 b1bd
00000280: 8351 ae3d 7f55 88bc ce65 16bf 5ede e53e
00000290: 78d0 7d3e 1d0c af3e 22fc 7c3e a27a cfbe
000002a0: 2e29 41bc d994 ae3d 3301 dcbd 4d05 6c3d
000002b0: 72dd 0d3d 0e1a 093e 1540 123b 3833 663d
000002c0: 758f 94be 42f1 b73d 8149 0cbe c64f 84be
000002d0: fecd 683e 3149 2c3f 5d73 8f3e 74dc d0be
000002e0: f1b8 4bbc 17e8 033e b60b cd3d acf5 7d3d
000002f0: 66a7 2a3d eea9 1cbc ab04 b9bc 92b7 02be
00000300: e5b7 f33e f671 28bf 4016 5f3e e9ae 0c3e
00000310: 28f3 123e 06d8 ad3d 0ba8 153e 4531 01bf
00000320: 86a2 6a3d 90be 0d3d 9253 d4bd ea1b 693c
00000330: c9ec fcb7 64ac 6cbc b733 04bd 49f4 0e3d
00000340: 9596 47bf fa9c 5ebf 4ac9 eabe 3f34 5cbc
00000350: cb8b ecbe 911c f4bd 2d91 d93d ff19 9cbd
00000360: f080 47bd 09e8 3e3e a7da 68bd 3bf6 b43c
00000370: bf45 4a3d 72ee 12bd 5d97 63bd 13c4 4dbc
00000380: f71b 8fbe 643d 51be 2c0c 3c3e 6d7a 963d
00000390: fc73 1abe b355 1fbf aa36 40bf 72d1 25bc
000003a0: 7bc1 e93d d6b3 0fbd 283e 0abd a062 383c
000003b0: 915a 5e3e fc93 17be 55d1 15bd b390 16bd
000003c0: b9fb 493d cc5a a1be 7d17 a43e 586f 1f3f
000003d0: 800c 0c3d 5d6a 19bf 7f52 a5be 0661 ae3c
000003e0: 1045 103d 6743 b0bc 70a6 f03d 6d29 18bd
000003f0: 1c32 6b3d ee05 0cbe ea08 813d baa9 5f3e
0.03884407 -0.25797686 0.5917723 -0.40525922 0.065661035 0.25252712 -0.071632765 0.76078296
-0.051832806 -0.12059262 0.134208 -0.029061617 0.0005089488 -0.011974759 0.09197634 0.19602168
-0.003609703 -0.91267306 0.119742624 -0.21479435 -0.40745947 0.18412548 -0.2696034 0.123763606
0.21377736 0.062173955 0.04605671 0.042447414 -0.24992622 -0.06352931 0.018847335 0.042557567
0.647204 0.35629606 -0.3198926 0.19411424 -0.22589849 0.6322095 -0.5261095 0.26644593
0.045750808 -0.013237891 -0.021442274 -0.0021546492 -0.122859076 -0.084510826 -0.10604709 -0.030379482
0.0022338717 -0.50857425 -0.12552702 -0.44218093 0.07776164 0.2851082 -0.7445261 -0.16674392
0.018726418 0.05117677 -0.023521926 0.1023827 -0.09101768 0.114859626 0.026025563 -0.09453126
0.07969595 -0.1649235 0.35552502 -0.4227519 0.08347095 0.21144557 0.18656792 -0.16103944
-0.0023614464 0.07892503 0.062316526 -0.08643492 -0.010147566 0.06278189 0.08874855 0.28803045
0.32062662 -0.75452876 -0.76840556 -0.047955956 0.35590446 0.105848566 -0.18669853 -0.16847284
0.003182892 0.081700034 -0.08436813 0.031846255 -0.045575283 -0.0008807703 0.06573978 -0.03907055
0.3877514 0.5927262 0.6014559 -0.13443029 -0.03496718 -0.27216002 0.3600492 0.43792468
0.0054853614 -0.08636483 0.12511763 -0.077976145 -0.0094545605 0.1006675 -0.10164125 0.0018899565
-0.27895725 -0.46231914 -0.14072049 0.57350606 0.5855867 0.19099018 -0.65394026 0.111421205
0.13047917 0.11539792 0.032538775 -0.07340421 0.065194555 0.0157146 -0.12190505 -0.031660896
-0.26683822 -0.08174442 0.52438706 0.33892766 0.091312416 -0.19704655 0.2664844 0.120802164
-0.035436727 0.07904246 0.13973004 0.14116849 0.03707793 0.100456774 -0.1478617 -0.10204168
-0.15952866 0.081823416 0.3452283 -0.28393403 0.03329579 0.19360389 0.68976647 -0.06574326
-0.032239936 0.24316029 -0.003018662 -0.024589328 -0.043919988 -0.093986176 -0.018194837 -0.08661382
0.08511641 -0.01664233 -0.5874909 0.44896215 0.24786556 0.3418893 0.24705556 -0.4052325
-0.011789603 0.08524484 -0.10742416 0.057622243 0.034635015 0.13388845 0.0022316028 0.05620119
-0.290157 0.08981563 -0.13699915 -0.25842112 0.2273483 0.6729918 0.28017703 -0.40793192
-0.01243423 0.12881504 0.10011999 0.06200187 0.04166355 -0.009561999 -0.022585234 -0.12765339
0.47601238 -0.6579889 0.21785831 0.13738598 0.14350569 0.08488469 0.14614885 -0.50465804
0.0572839 0.034605563 -0.10367502 0.014227847 -3.0151003e-05 -0.014445398 -0.03227588 0.034900937
-0.77964145 -0.8695828 -0.45856696 -0.013440191 -0.46200404 -0.11919511 0.10623393 -0.07622146
-0.04870695 0.18643202 -0.056849148 0.022090068 0.04938292 -0.03587193 -0.055564273 -0.012558955
-0.27951023 -0.20433575 0.18364018 0.073475696 -0.15083307 -0.6224014 -0.7508341 -0.010120736
0.114138566 -0.035083614 -0.033750683 0.011253983 0.21714236 -0.14802545 -0.036576588 -0.03675909
0.049312327 -0.31514585 0.3204917 0.6227927 0.03419161 -0.5992792 -0.32289502 0.021286499
0.035222113 -0.021516515 0.117504954 -0.03714888 0.057420835 -0.13674137 0.06300528 0.2184209

fc1.bias f4 [64]
00000000: ad23 923e ff61 11bf 99ec cb3e 1729 db3e
00000010: c7c1 0c3f edbd 1ebd f65c 9d3e c0dc 9cbd
00000020: 13d0 f93e d8da c43d 00ca e93e 8241 2dbe
00000030: df72 0dbf 1e25 723d aafe 2f3e eaba 0abe
00000040: 0d4e 05bd 0d77 d23e 4254 dfbe 4864 14be
00000050: 4024 833e e5bc d03e cf48 b2be 6cb9 c63b
00000060: 948f 9dbe f72d fa3d a27e 903e 6e6e bd3e
00000070: f12b 143e e6d9 873e 0104 31bd 3048 fabd
00000080: 9468 ffbc 8f46 b73e 8db2 be3e e27e f03a
00000090: e7d2 dc3e 438e 963e b45b 383d b092 2a3e
000000a0: 710d 053f 184c cebe d890 fe3d 5c7d 0d3e
000000b0: cfa3 51be 75ff 0b3f 574b fb3d 2f68 373e
000000c0: 96b1 b13e ad1c 8a3e eb9a 053f f03a d63e
000000d0: 3f24 b63e bf56 933e 1677 9e3e 577e 1ebe
000000e0: 627e a03d 74b2 873e 53b7 e83d cf5c d93e
000000f0: 030e f03e a29d e33e cdd3 c43e f4bc aabe
0.28542843 -0.56790155 0.39828947 0.42804787 0.5498318 -0.038755346 0.30734986 -0.07659292
0.4879156 0.09612054 0.45661926 -0.1691952 -0.55253404 0.05911743 0.1718699 -0.13547865
-0.03254514 0.41106454 -0.4361897 -0.1449138 0.25613594 0.40769115 -0.34821174 0.0060645845
-0.30773604 0.12215798 0.28221613 0.36998314 0.14469887 0.2653343 -0.04321671 -0.122208
-0.031177796 0.3579602 0.37245598 0.0018348361 0.43129656 0.29405412 0.04500933 0.1665752
0.51973635 -0.4029243 0.124299705 0.13817352 -0.20472644 0.5468667 0.12270229 0.17910837
0.347058 0.26975003 0.5218951 0.4184184 0.3557453 0.2877712 0.3095023 -0.15477882
0.078366056 0.26503336 0.11363091 0.4245362 0.4688569 0.44456202 0.3844284 -0.33347285

fc2.weight f4 [32, 64]
00000000: d6ba c3bd 887c 9abe 96f7 993e 972e 2c3e
00000010: 1b34 98bd 47b3 a9bd 48ff 013f b1d2 66be
00000020: ef78 903b 6f96 963e 5669 83be 732a 96be
00000030: 9c51 0abf e422 743e 5005 85bd b2ed 753e
00000040: 9197 cc3d 0dba dc3e 2236 d33d f127 8fbe
00000050: 16f5 333e ced6 d0be 95d6 ddbe 646d 0abe
00000060: a2f9 a13e dcf7 853d c2ee b83e ebff 17be
00000070: 3a9e b33c f92b 9fbd 37ac b13e e46b 88be
00000080: cb05 3f3d 4c41 0d3c b737 23be a025 923c
00000090: e316 69bd 2db9 1bbd 19fc b03c 22f5 a2bd
000000a0: ced7 033f f640 cb3e be3c 143d 1db5 2ebd
000000b0: bbd5 44be b2a9 27be 7af1 ed3e f079 0ebe
000000c0: 492e c2bc 0faf 6bbc 9cc7 9cbc 41db 4b3e
000000d0: b0cd 0cbe ee65 0fbe 801f dbbe 94d3 58bb
000000e0: 71c6 6abd 0b1a d83e 2cee 94be 06a3 14bd
000000f0: 9514 65be c24b 5abe 2275 163e ed21 993e
00000100: 445e 1dbe 698f cc3a d45c a63e 1ccb d9be
00000110: 475c 983e 19f8 f1bd c76c c9bc fdab 2fbe
00000120: 96c1 043f 7980 c9bd 36a0 8f3e 0d94 8c3e
00000130: f641 dbbe afb6 4f3d 966b ad3d 64c8 3d3d
00000140: 8b47 393e 6c89 803c 2d43 423e 77db 43bd
00000150: 4101 d53d f090 8fbe b773 0dbf 9c1b 2c3e
00000160: ddde bb3e 9fc1 e03e 0ad0 99be f3a8 9abe
00000170: f231 ecbe 4d74 a9bd 1bb2 d1be 7584 aebe
00000180: d008 d23e 5dbb 183e fa58 85bd fd42 90bd
00000190: 90bf ed3c 1d08 d5bd ca33 19be ead4 333d
000001a0: fa22 3dbe 754c 41bd c9f2 c2be 4501 0e3e
000001b0: 074a edbd 3613 b33e fc10 ad3d becf 863d
000001c0: ac4c 9cbd 6494 b2be 5383 3f3d aac6 46be
000001d0: 1b32 90be a0d5 913e 09ea 77be 1fb8 8c3b
000001e0: 62ce 75be a6a7 063e ba94 24be 875a 883e
000001f0: 1c84 8abe 9254 313d d926 3c3e f018 57bc
00000200: 9b71 9ebe 7bd4 82bc 8ced 53be 10bf 933c
00000210: b961 8cbe a1fb 433d 1b94 343c dabf fd3c
00000220: 6004 3c3e de89 2fbe 19cf 73bd 92dd d73d
00000230: 6b95 163e b860 90bd 7ebd aabe d999 2bbe
00000240: 7d7e eebe 275a d73b 6440 7f3d cf3b aa3e
00000250: fe9c 553e 1bea aebd caa5 253e e1f1 353e
00000260: b5aa 7bbe daa2 2c3e 37df 98be 6942 03bf
00000270: 8153 dabc 83f6 38be 49a5 193b 1ef4 2e3c
00000280: a481 d2bd 1b56 09be ba60 63be ea01 643e
00000290: 7784 043e 90f1 983e 9fd0 1abe 4ecd 723e
000002a0: 88a9 3fbe bb3a 90bb 88f4 8a3d 432f efbd
000002b0: 3d9c 94bd 2c7f 933d a766 8b3e e29e 783e
000002c0: 1134 cabe 5246 073b 7ab8 753d 019e 833c
000002d0: abe6 27be 0d80 633d 67d7 d43e 59bf b33c
000002e0: 02aa 383c 1e32 b1be de41 04bd 039b 023e
000002f0: d784 043e 12c3 64be c3c1 50be 6251 b13d
00000300: e365 efbd 4b19 1f3e 15d6 e63e d162 19bd
00000310: 8452 2abe ff9d 943c 7f3e cebd 9641 103c
00000320: 52f0 45be 6c4e 93bd 912f f9bd cd62 1c3e
00000330: 2521 84be c902 383e dc0e 363e 85d2 27be
00000340: 076b 433e b95f 883e 30ac fabd c534 8ebe
00000350: 466a 133e 92dd 2fbe a530 17be 40e8 46bd
00000360: 4671 6b3d 00e5 9abd 35a2 4bbe 9409 26bd
00000370: f688 3fbd de78 72bc d4c0 16be 0d64 afbd
00000380: c7b5 953d e423 b03b a024 34be ca1e 4b3e
00000390: fd06 4d3d 5f98 77be c064 80bd ca3a ab3d
000003a0: e96f 813a 1028 15be 958f 153e 7547 cf3e
000003b0: 5164 97be 7e01 a43e 15c1 093d 5b44 113e
000003c0: b32b 883e 6d64 afbb 1911 75be dd50 24be
000003d0: 1fe5 d5ba 1b12 203e af6f 0ebe 3b23 84be
000003e0: 59fb c33d 5ba3 9bbe 1231 0cbd 0cdc c63e
000003f0: 309c 6bbe 1dde 2cbe 8035 0b3e 93bc 793e
-0.095571205 -0.30173135 0.30071706 0.16814648 -0.07431813 -0.082861476 0.50780153 -0.2254131
0.0044089477 0.29411647 -0.25666302 -0.2932926 -0.54030776 0.23841435 -0.06495154 0.24016455
0.099898465 0.43110695 0.103130594 -0.2796016 0.17573962 -0.40788883 -0.43327776 -0.13518292
0.31635767 0.06541416 0.36119658 -0.14843719 0.021926034 -0.07772059 0.34701702 -0.26644814
0.046636384 0.008621525 -0.15939222 0.017840207 -0.056906592 -0.038018394 0.021604585 -0.079569116
0.51501167 0.39698 0.03619074 -0.04265319 -0.19222157 -0.16373327 0.46473294 -0.13913703
-0.023703711 -0.014384999 -0.01913815 0.19907857 -0.13750339 -0.14003727 -0.4279747 -0.0033085095
-0.057318155 0.4220737 -0.2908796 -0.036288284 -0.22371133 -0.21317962 0.1469312 0.29908696
-0.1536799 0.0015606704 0.32492697 -0.42537773 0.29757902 -0.11814899 -0.024588002 -0.17155452
0.5185789 -0.09838957 0.2805192 0.27456704 -0.42823762 0.05071133 0.08467786 0.046333686
0.18093698 0.015690528 0.18970938 -0.04781672 0.1040063 -0.28040266 -0.5525469 0.16807407
0.3669347 0.4389772 -0.30041534 -0.30207023 -0.46131855 -0.08274136 -0.40956196 -0.34085432
0.41022348 0.14915223 -0.065111116 -0.07044027 0.029022008 -0.10401938 -0.14961162 0.043904223
-0.18470374 -0.047192056 -0.38075855 0.13867672 -0.11586385 0.34975594 0.08450505 0.065825924
-0.076318115 -0.34878838 0.0467561 -0.19411722 -0.28163227 0.28483295 -0.24210371 0.00429441
-0.2400451 0.1314989 -0.1607236 0.26631567 -0.27053916 0.043293543 0.18374194 -0.013128504
-0.3094605 -0.01597046 -0.20696086 0.018035442 -0.27418306 0.047847394 0.011021639 0.030975271
0.18361044 -0.17142436 -0.059523676 0.10540308 0.14705436 -0.07049698 -0.33347696 -0.16757907
-0.46580878 0.0065720263 0.062317267 0.33248755 0.20860669 -0.08540746 0.16176525 0.1776805
-0.24576838 0.16858998 -0.298578 -0.5127321 -0.026651146 -0.18062787 0.0023444465 0.010678319
-0.10278633 -0.13411753 -0.22204867 0.22266355 0.12941156 0.29871798 -0.15118645 0.2371113
-0.18717015 -0.0044015325 0.06784922 -0.11678936 -0.072563626 0.072019905 0.27226755 0.24279359
-0.3949285 0.002064128 0.059990384 0.016066553 -0.16396587 0.05554204 0.4157059 0.021941828
0.011271002 -0.3460855 -0.03228938 0.12754445 0.129413 -0.22340038 -0.20386414 0.08658101
-0.11689355 0.15536992 0.45085207 -0.037447754 -0.1663304 0.018141745 -0.10070514 0.008804699
-0.19329956 -0.07192692 -0.12167276 0.15272065 -0.25806537 0.17969812 0.17779106 -0.163889
0.19083796 0.2663553 -0.122398734 -0.27774635 0.14396009 -0.17174366 -0.1476465 -0.048561335
0.057481073 -0.075632095 -0.19886096 -0.04053648 -0.046761476 -0.014799325 -0.14721996 -0.08564005
0.07310062 0.0053753722 -0.17592096 0.19835964 0.050055493 -0.24179219 -0.062692165 0.083608225
0.0009875271 -0.14566064 0.14605553 0.40484205 -0.29568723 0.32032388 0.033631403 0.14186232
0.2659584 -0.005352548 -0.23932303 -0.16046472 -0.0016318894 0.15631907 -0.13909791 -0.2580813
0.09569425 -0.30398068 -0.034226485 0.38839757 -0.230088 -0.16881604 0.13594627 0.24388342

fc2.bias f4 [32]
00000000: 5484 163e 2270 8e3d b377 9cbd f73e c43d
00000010: 1677 6abd 7999 c93c d768 1439 d893 113b
00000020: dd30 6e3e 1d66 793e 9e51 e13d 4ece 8e3e
00000030: a9ee c1bd bf0e 0abe b786 14bd 3f40 00bc
00000040: 38f8 8d3e b579 39be d1ad 07be 8b11 953c
00000050: 6db9 023e 6dfa c33d a965 19bb cf99 f73d
00000060: 78f7 a73d 5271 3a3b e256 263e ff6c e53d
00000070: 223e a63d 1b4b 6cbe 53da d43a 0a7a 41be
0.14698917 0.069549814 -0.07640018 0.09582322 -0.057242475 0.024609314 0.00014153436 0.0022213366
0.23260827 0.2435536 0.11001895 0.27891773 -0.09469349 -0.13482188 -0.036261287 -0.007827817
0.27728438 -0.18112834 -0.132499 0.018196842 0.12766047 0.09569249 -0.0023406541 0.120898835
0.08201498 0.0028448892 0.1624408 0.1120243 0.0811732 -0.23075525 0.0016239382 -0.1889421

fc3.weight f4 [3, 32]
00000000: ca24 573f 196b 923f e34e b0bf 05c0 053f
00000010: 1251 07bf 78d4 eb3e 8f81 1a3f 037e 14bf
00000020: 440c ee3f 7eb3 f63e c468 1fbf 2466 d7be
00000030: 82b2 4e3f 233f 34bf 4523 abbd 19a9 b13e
00000040: 751e d53e 1104 753d 5afd 67be e548 19bf
00000050: 4302 cdbe e744 fdbe d3a4 b53e 4c1e c93f
00000060: 9982 183d c882 213c 3f96 2e3e 0761 303f
00000070: 267a 2d3f 65cc a8be aa64 913f e022 8dbf
00000080: 1ca3 aa3d 2506 363f 1dd4 803e be88 fa3c
00000090: 5595 aebd 1dfa 723d 36d6 d43d bfe2 2b3d
000000a0: 7d4d 71bd bd59 05be 1d12 8cbd a1e3 a0be
000000b0: 46bf 0040 f482 583e a9ae d63f 6ad4 7cbc
000000c0: fe80 d6bd 4717 5c3f 765d c63f f917 bd3c
000000d0: 2824 a6bc af86 013e 70ca f53f e3f2 0140
000000e0: ccb9 7c3d 4ee6 a63d a20c 5dbb 19f2 ebbd
000000f0: 5966 5d3d 64c1 ba3f 22f1 db3f 6b04 ca3f
00000100: a33b 0fbf 7a13 23be 5f99 04bc 0945 33bf
00000110: 3b93 16bf 33c8 cc3e 5f18 97be 8775 53be
00000120: 964a b83d c7e1 e6bd f70a 03bc d0f2 b13e
00000130: 915d 1cc0 57c4 10bf b6f8 aabe 5bd3 453f
00000140: 9914 e8bd 678c aa3e 697b dfbe 095d bdbe
00000150: b606 ee3e 7519 65be 4703 913e d198 30c0
00000160: 31cf 803c c438 893f b377 ee3e d49e cebd
00000170: 7181 a53e 6b69 db3e e2ef 8ebe 5fd8 dc3e
0.8404051 1.1438934 -1.3774074 0.52246124 -0.5285808 0.46060538 0.6035394 -0.5800478
1.8597493 0.48183817 -0.62269235 -0.42070115 0.8074113 -0.7040884 -0.083563365 0.34699324
0.416248 0.05981833 -0.2265524 -0.59876853 -0.40040788 -0.4946663 0.35477313 1.5712371
0.037233923 0.009857841 0.17049502 0.6889805 0.6776451 -0.3296844 1.1358845 -1.1026268
0.08331892 0.71103126 0.2516183 0.030582782 -0.085245766 0.059320558 0.1039242 0.04196429
-0.05891179 -0.13022514 -0.06839392 -0.31423667 2.0116744 0.21143705 1.6772052 -0.015431503
-0.10473822 0.8597302 1.5497272 0.02308272 -0.020280913 0.12649034 1.9202404 2.0304496
0.061700627 0.08149396 -0.0033729454 -0.11520786 0.054052684 1.4590268 1.7182963 1.5782598
-0.55950373 -0.15925398 -0.008093207 -0.70027214 -0.58818406 0.3999649 -0.2951078 -0.20650302
0.08998601 -0.11273532 -0.00799822 0.34755564 -2.4432108 -0.5654959 -0.33392876 0.7727563
-0.11332054 0.33310243 -0.43648842 -0.36985043 0.46489495 -0.22372992 0.28322813 -2.7593272
0.015723797 1.0720448 0.46575698 -0.10088888 0.32325318 0.42853865 -0.2791739 0.43133828

fc3.bias f4 [3]
00000000: 5602 293d 818b 3dbe e352 03be
0.041261993 -0.18510248 -0.12824588

exp_avg f4 [64, 16]
00000000: 20d2 5cbb e435 763a 1d10 f03a b9e4 4539
00000010: 2282 e33a 281e a739 553b 1cbb b1d2 d13a
00000020: 96fb 0ebb e14a 04ba 624d 01bb d409 c4ba
00000030: 9fa8 ba38 55c5 803a aab8 eaba c762 a63a
00000040: 7c3c c03a 6b1e 4bbb 9b22 ab3a 0cc2 42ba
00000050: bc65 ba39 e1d1 eb3a 3729 5d3a ec98 b939
00000060: e938 1139 d432 1eb8 5695 c5ba 74a2 27bb
00000070: 6882 b23a a32c f2b9 9c21 343b 50de ddba
00000080: f7bb dc3a a082 323b e876 ceba d59b 573b
00000090: a262 8bba d543 0f39 dac5 0d3b 5a7e 413a
000000a0: ff6e 223b 6b17 203a 13d9 893b 22c6 453b
000000b0: 3cc8 2e3b 8be6 c3bb b4f5 2c3b 21c2 033b
000000c0: 9044 42bb cd62 1ebb a0d3 3fba c738 f03a
000000d0: bb82 203b 4981 00bb c482 423b 9e36 173b
000000e0: daa5 553a ddf0 70bb 7aec 4639 5476 68ba
000000f0: c507 1e3a f13e eb3a 0ade 40bb 2b20 023b
00000100: 32a7 0e3b e7f3 4a3a 0ef4 cb3a 6998 15bb
00000110: 20e1 e4ba fbb6 8d39 a95a 80bb 15fb 9c38
00000120: cec8 3ab7 e43c 4c3b 191a a8ba 07bf 80bb
00000130: 0a22 13ba 1b9b ad3a 44b3 a03a e4f5 39ba
00000140: 0c36 8dbb 6fe3 e5bb eebf 8c3a 500c 953a
00000150: 18d7 16ba 7b0e 5a3a 3104 a3b8 98e8 d938
00000160: 4a11 2abb 9835 84bb 8760 b73a f36d d4ba
00000170: 11d3 22ba 2e4e 84ba b39e 74ba 912e ef3a
00000180: 5069 52bb 645f 94bb 0f69 f8ba f052 dd3a
00000190: 7419 c8b7 b630 253b 5f12 0ebb 234c e5b9
000001a0: b77b 843b 7054 bdbb ab06 ab3b bb95 8b3b
000001b0: 4eba b53a a7dc e0ba aea4 b2ba 0bcc 7a3b
000001c0: e3ff 8cba 84be 28ba 5cc5 b4b7 a674 f539
000001d0: 15b8 77ba e05d fc3a a437 aeba 9702 c8ba
000001e0: a6c3 14b7 54f4 2d3b fc72 2dba 9bb5 9a39
000001f0: 39ad 04ba 6036 08ba f613 2fbb 2ee5 0bbb
00000200: aee6 5a3a aaa7 de3a af1e 02ba 1d89 1537
00000210: c19f 77ba e3cd a0ba e0ca 8b3a 7c95 a739
00000220: 8ab8 423a 4fe1 cf3a 0883 e3ba ad30 46bb
00000230: f526 36b9 ade5 5e3b 906f 7e3a f81a 3bbb
00000240: 0624 313a bfb1 ccb9 80c2 0d3b e018 013b
00000250: 8b02 1ab7 d138 bbb9 68de 153a 96d1 d33a
00000260: a912 85bb b816 eb3a d6da 8db9 ae8e e7ba
00000270: 2d06 8b39 82dd d4b9 8441 43bb e5ba 23b8
00000280: 8152 e63b 39c5 a43b 5bef 1e3b 3e2b bdba
00000290: 2c5e e2b9 16b1 b9ba 527b 4dbb 87c5 eaba
000002a0: f392 c0bb 86ab 133c ac13 c9bb a070 2abb
000002b0: ccf2 d0ba 5b8b 1fba 0f1f 8cbb 0903 99bb
000002c0: f654 1cb9 ae47 ca3a 9526 08ba e9d1 8bb9
000002d0: afae 7d3a 8bef 073a 25ff 75bb 9937 4eba
000002e0: 1189 2a3a 01c9 8739 8191 2abb 4318 2cba
000002f0: 48a0 60ba c879 d73a 1674 7fb9 3dac 98ba
00000300: efaf 303b a4d1 00bb 124d e5ba 9fe1 a9ba
00000310: 65de 9abb 143a 4839 3bc1 0ab9 f700 5838
00000320: ab3c 143b 5035 0a3a dcc5 8937 e657 c637
00000330: 0070 033a 21d5 4a3a a8ec 273a dbb2 38bb
00000340: 9364 eb3a 698a 513b 8f92 1039 172c 8cb9
00000350: e8d7 4e3b ea77 42ba 12f8 423a 1b91 0a3a
00000360: 427a 8739 5af2 00bb 8eab 2fbb 4ba2 8e3b
00000370: f30e c3ba 52d7 4cbb 3225 ccb8 43d8 87ba
00000380: 0c30 be3a 85bd 0e3b 1814 f3ba 9a1f 70bb
00000390: 85ea a0ba 0fe8 0ebb d2a5 753a b949 d6ba
000003a0: 9116 e93a 6607 a339 1103 f9b8 37f9 433a
000003b0: 7503 9339 b2ad 80b9 9209 7239 77fd 90b9
000003c0: 687a d7b9 b1d6 abbb a1cd ecba c37f 693b
000003d0: a9b1 c73a feed d6b9 7491 5b3a aa7a d73a
000003e0: 3355 a439 2aee 07bb 7b44 913b c4b1 3b3b
000003f0: f98a 8b3a 1347 173b 146f dbba 1e85 85ba
-0.003369458 0.00093921856 0.0018315349 0.0001887259 0.0017357508 0.0003187519 -0.0023839076 0.0016008226
-0.0021817437 -0.0005046558 -0.0019729962 -0.0014956542 8.900579e-05 0.0009824435 -0.0017907817 0.0012694233
0.0014666463 -0.0030993472 0.0013056578 -0.0007429428 0.00035552483 0.0017991626 0.00084366224 0.00035399885
0.00013849478 -3.7717473e-05 -0.0015074413 -0.0025579007 0.0013619186 -0.00046191094 0.0027485853 -0.0016927216
0.0016840686 0.0027238503 -0.001575199 0.003289928 -0.0010634253 0.00013662812 0.0021632821 0.00073811936
0.0024785397 0.0006107005 0.0042067855 0.003017791 0.0026669642 -0.0059784106 0.0026391568 0.0020104724
-0.0029642917 -0.0024167777 -0.00073176064 0.0018327468 0.0024491984 -0.001960831 0.0029679993 0.0023073326
0.0008150019 -0.003676466 0.00018970846 -0.000886773 0.00060283794 0.0017947835 -0.002942922 0.00198556
0.0021767137 0.0007742033 0.0015560405 -0.002282644 -0.0017462112 0.00027029947 -0.0039170575 7.485427e-05
-1.1133217e-05 0.0031164223 -0.001282516 -0.0039290222 -0.0005612677 0.0013245078 0.0012260457 -0.00070938305
-0.0043094214 -0.0070156376 0.0010738352 0.0011371467 -0.00057540974 0.0008318198 -7.7732264e-05 0.0001039069
-0.0025950246 -0.004034709 0.0013990559 -0.0016207084 -0.0006211261 -0.00100941 -0.00093315094 0.0018248131
-0.0032106228 -0.004527973 -0.0018952208 0.0016885679 -2.385371e-05 0.0025206036 -0.002167843 -0.0004373501
0.0040430683 -0.005777888 0.0052193007 0.0042597926 0.0013864727 -0.0017155603 -0.0013629401 0.0038268592
-0.0010757413 -0.00064370804 -2.1549575e-05 0.0004681695 -0.00094497326 0.0019254051 -0.0013291729 -0.0015259561
-8.86704e-06 0.0026543336 -0.000661656 0.00029508476 -0.00050612126 -0.0005196091 -0.0026714779 -0.0021346319
0.0008350414 0.0016987224 -0.00049636787 8.913016e-06 -0.00094461074 -0.001226839 0.001066532 0.00031964097
0.0007428011 0.0015859994 -0.0017357776 -0.0030241415 -0.00017371385 0.003401141 0.0009705955 -0.002855001
0.0006757382 -0.00039042343 0.0021630824 0.0019698665 -9.179707e-06 -0.0003570975 0.000571704 0.0016160484
-0.0040610624 0.0017935848 -0.0002705666 -0.0017666423 0.00026516747 -0.00040600827 -0.002979369 -3.9036287e-05
0.007028878 0.0050283936 0.0024251554 -0.0014432443 -0.00043176243 -0.0014167156 -0.0031354022 -0.0017911651
-0.0058768927 0.009013062 -0.0061363783 -0.002600707 -0.00159415 -0.0006086134 -0.0042761634 -0.0046695513
-0.0001490897 0.0015432739 -0.00051937375 -0.0002666854 0.0009677214 0.0005185536 -0.0037536111 -0.0007866561
0.000650541 0.00025898966 -0.0026026668 -0.00065648946 -0.00085688056 0.0016439492 -0.0002436194 -0.0011648011
0.0026960333 -0.0019656206 -0.0017494282 -0.0012960917 -0.0047262185 0.00019095122 -0.0001323269 5.149931e-05
0.0022619169 0.00052722264 1.6423808e-05 2.364437e-05 0.0005013943 0.0007737447 0.0006405809 -0.0028182778
0.0017959051 0.0031973368 0.00013787507 -0.0002673573 0.0031561796 -0.0007418381 0.0007437478 0.00052859046
0.00025840296 -0.0019675703 -0.0026805135 0.004352843 -0.0014881775 -0.003125627 -9.734406e-05 -0.0010364134
0.0014510169 0.0021780443 -0.0018545417 -0.003663993 -0.0012276924 -0.0021805798 0.00093707175 -0.0016348875
0.0017783215 0.00031095295 -0.000118738164 0.00074757956 0.000280406 -0.00024543476 0.00023082484 -0.00027654666
-0.00041099195 -0.005244099 -0.0018066653 0.003562913 0.0015235442 -0.0004099458 0.0008375861 0.0016439755
0.00031343996 -0.0020741322 0.0044332123 0.0028639892 0.0010646275 0.0023083135 -0.0016741478 -0.0010186767

exp_avg_sq f4 [64, 16]
00000000: a201 7d38 2e04 8938 0806 9938 d9fb 5938
00000010: 2772 5f38 6db3 6738 0abf 5238 9ba4 a738
00000020: c58d 6738 d127 5d38 de2b 5738 1e74 5238
00000030: 9101 5d38 d4e9 5d38 a08d 5638 1524 6038
00000040: f167 8738 4275 da38 8a9d aa38 600b 9838
00000050: 344e ca38 0e01 aa38 0380 a938 c0e5 9638
00000060: 3d06 9338 0ed3 a438 3cd6 a038 5241 8b38
00000070: 3871 9f38 aa8f 9e38 4683 8e38 54b1 9938
00000080: d6c7 3739 1027 5e39 70e8 6639 1eaf 3739
00000090: ab12 8139 143f 4e39 8140 1e39 9e75 1c39
000000a0: 31e8 2d39 a4e0 3639 bb18 2f39 556f 2b39
000000b0: 77d5 2839 0590 2939 2f15 2839 1967 2b39
000000c0: 2152 8439 ddb3 8439 f646 ab39 d7df 7839
000000d0: 8720 7539 84f9 a739 84fa 3d39 f08d 6139
000000e0: 9e4b 5b39 2aef 6939 33a5 6939 e34a 5739
000000f0: 9961 5239 36fc 5939 147f 5939 3201 6439
00000100: a673 f038 0968 f238 da96 0a39 e978 c438
00000110: 49cc bc38 33b1 dd38 92a9 cb38 88ac 0a39
00000120: 9015 c238 f5b4 cf38 8a50 d838 9b59 c138
00000130: 6372 be38 4e21 c638 5126 bd38 54ba e338
00000140: 679e bd39 c8a3 c439 4c1f d639 7225 a239
00000150: 845f a939 1365 b439 99a9 9139 ad1f 9c39
00000160: 9d16 9939 6ce9 9f39 b455 9739 0e6d 9539
00000170: c331 9839 e733 9639 51ee 9539 c067 a439
00000180: 1249 6d39 77f7 8a39 3039 8539 62d2 7239
00000190: 6c33 5039 a6e2 4639 5670 6439 bbde 6a39
000001a0: aedf 4a39 3ff5 5a39 836e 5539 27ed 4939
000001b0: b6e8 4839 0e57 5139 1712 5339 11c8 7439
000001c0: 20a2 7d38 6db4 9c38 39ae b838 a051 9d38
000001d0: b6d1 f938 fdf1 b538 c39e 8538 aa1b 8438
000001e0: 436b 9838 4f8c 9338 710f 9338 5a99 8638
000001f0: cacf 8438 1768 8638 3f30 8438 24a0 8e38
00000200: de6c bb38 c48d c938 a003 f538 87fd b338
00000210: 55c3 be38 3107 cc38 1b2d a838 c7bf dd38
00000220: 8bcf a038 0b2e ac38 d041 b338 4b4f 9e38
00000230: 8eb8 a238 63da a138 520b a838 3556 b938
00000240: 75bf ad38 61f9 c538 fa6b d038 332d a538
00000250: 4599 9638 cf05 9738 8da5 ac38 c7ca 9c38
00000260: fcca 8f38 1eae a238 c74b 8838 0f37 8a38
00000270: c748 8538 0602 8b38 fc2c 8c38 a458 9b38
00000280: eefa b939 af06 bf39 9ba4 d239 942d bd39
00000290: 1d7b a039 670c ac39 3411 b439 1400 a339
000002a0: 580e 9839 ec74 9f39 67f4 9739 1fc4 9339
000002b0: 37d0 9939 05b5 9839 3ffc 9a39 d1c4 af39
000002c0: 2fae 8038 e9ee 4338 baa3 8238 ebf2 8038
000002d0: 8167 7138 7b07 d138 50b3 7438 d230 6338
000002e0: 9a3c 6138 908b 6938 39b0 5838 9af4 5038
000002f0: 754a 5138 6a21 4638 30bd 5f38 66d9 5838
00000300: 2b90 9638 5794 f338 15e2 a838 9bea 9038
00000310: f17a a338 cd04 4638 7467 7638 3e30 9238
00000320: ab2e 7b38 1dbe 9538 b428 8638 e545 8238
00000330: 2df7 8138 e8e3 8b38 3845 8138 b25a 8738
00000340: b650 4739 8906 6a39 b170 5839 d4b5 2f39
00000350: 907d 7039 cf03 3c39 dff9 2639 3228 2a39
00000360: e925 3539 9eb3 3539 8512 3139 a2b7 2339
00000370: 4eff 3139 9874 3039 d0c1 2b39 c84b 2a39
00000380: eb48 2638 7e1f 4638 a376 2e38 d0b8 4538
00000390: db9d 5e38 9c1f 6138 6868 7a38 f580 2238
000003a0: 7546 2b38 9882 4038 c73d 2338 a114 2a38
000003b0: e5a3 2a38 3613 1d38 a123 2138 55d2 2938
000003c0: ec47 b938 b8d2 fa38 82c3 1039 3ed7 e138
000003d0: 60ab e138 e695 bd38 697f 9738 d28e dd38
000003e0: 4597 bd38 7300 bc38 c2c3 c938 78aa be38
000003f0: 2221 bb38 2ba9 c838 198e b338 549e da38
6.032142e-05 6.5334476e-05 7.296732e-05 5.1971383e-05 5.3273656e-05 5.5241795e-05 5.024582e-05 7.993841e-05
5.5206725e-05 5.2727588e-05 5.130085e-05 5.0176044e-05 5.2691965e-05 5.2908275e-05 5.1153474e-05 5.3439366e-05
6.456662e-05 0.00010416891 8.1355756e-05 7.2500436e-05 9.646677e-05 8.106428e-05 8.082392e-05 7.195352e-05
7.010668e-05 7.8594414e-05 7.669299e-05 6.640203e-05 7.6027995e-05 7.5607866e-05 6.795539e-05 7.3286385e-05
0.00017526685 0.00021186122 0.00022021099 0.00017517476 0.00024618706 0.0001966919 0.00015092084 0.00014921135
0.00016585064 0.00017440558 0.00016698513 0.00016349305 0.0001610125 0.00016170747 0.0001602962 0.00016346238
0.00025238193 0.0002531101 0.00032668532 0.0002373451 0.00023377138 0.00032038626 0.00018117769 0.00021510548
0.00020913637 0.00022309707 0.00022282153 0.00020531895 0.00020063519 0.00020788689 0.00020742073 0.0002174422
0.00011465633 0.00011558837 0.00013216902 9.3685296e-05 9.00259e-05 0.00010571107 9.711379e-05 0.00013224978
9.254657e-05 9.904235e-05 0.00010314684 9.2196475e-05 9.081212e-05 9.447579e-05 9.019359e-05 0.0001085891
0.00036166908 0.0003750606 0.0004084058 0.00030926947 0.00032305357 0.00034407582 0.00027782915 0.0002977824
0.00029199282 0.00030500756 0.00028864818 0.00028500747 0.00029028775 0.000286489 0.00028597054 0.00031357817
0.00022629302 0.00026505787 0.00025410345 0.00023157292 0.00019855582 0.00018967185 0.00021785623 0.00022398953
0.00019347548 0.00020881461 0.00020354432 0.000192572 0.00019160178 0.00019964224 0.00020129267 0.00023344184
6.047089e-05 7.4722666e-05 8.806255e-05 7.501547e-05 0.00011912307 8.6758264e-05 6.371506e-05 6.299403e-05
7.267904e-05 7.035641e-05 7.0123824e-05 6.418182e-05 6.332954e-05 6.409006e-05 6.303237e-05 6.800916e-05
8.937133e-05 9.610833e-05 0.000116831856 8.582608e-05 9.0962894e-05 9.7288175e-05 8.019266e-05 0.000105738225
7.6680524e-05 8.210175e-05 8.547644e-05 7.5487966e-05 7.759138e-05 7.717756e-05 8.012973e-05 8.837545e-05
8.2849445e-05 9.4401425e-05 9.938325e-05 7.876232e-05 7.181106e-05 7.201323e-05 8.232435e-05 7.47643e-05
6.85658e-05 7.757194e-05 6.4991e-05 6.590608e-05 6.35549e-05 6.6284134e-05 6.684099e-05 7.4074866e-05
0.00035472907 0.0003643534 0.00040176962 0.00036082848 0.00030609305 0.00032815637 0.00034345093 0.0003108984
0.00029002386 0.00030413957 0.00028983058 0.00028184147 0.00029337566 0.0002912657 0.00029561107 0.0003352524
6.13596e-05 4.6714125e-05 6.2293795e-05 6.1487626e-05 5.7555273e-05 9.96729e-05 5.834113e-05 5.4166485e-05
5.370062e-05 5.5681507e-05 5.1662533e-05 4.9818867e-05 4.9898827e-05 4.7237998e-05 5.3343538e-05 5.170088e-05
7.179411e-05 0.000116147734 8.052975e-05 6.910154e-05 7.795345e-05 4.721135e-05 5.874732e-05 6.970808e-05
5.9886526e-05 7.140285e-05 6.3971995e-05 6.211902e-05 6.1972394e-05 6.670487e-05 6.164092e-05 6.454195e-05
0.00019008186 0.00022318414 0.00020641346 0.00016757037 0.00022934959 0.00017930496 0.00015924078 0.00016227437
0.00017275628 0.00017328418 0.00016886934 0.000156133 0.00016975144 0.00016828103 0.00016380032 0.00016240694
3.9645394e-05 4.7236208e-05 4.159532e-05 4.714058e-05 5.307594e-05 5.367362e-05 5.970188e-05 3.874391e-05
4.0835195e-05 4.5897992e-05 3.8919763e-05 4.055037e-05 4.0683797e-05 3.744961e-05 3.8418573e-05 4.0488627e-05
8.834884e-05 0.000119601784 0.00013805742 0.00010768928 0.00010760757 9.040143e-05 7.223973e-05 0.000105647036
9.0403984e-05 8.964622e-05 9.6208896e-05 9.091658e-05 8.923026e-05 9.568253e-05 8.561853e-05 0.00010424541

exp_avg f4 [64]
00000000: 4c01 8f39 ce2b 883b a675 0dba 1e7f 02ba
00000010: d118 81ba 01ac 473a 2d9c 27bb fc36 303a
00000020: 1834 2239 2ba2 9b37 9537 33bb f439 16ba
00000030: 3d53 373b 0dfc 0439 754e 2bbb 100d a13b
00000040: 3908 bcbb df6f 35bb 27f9 75b9 1e66 913b
00000050: 503c 0ebb 8a83 423b 258b 703a 1610 bbb9
00000060: ef56 1aba 7448 18b9 8fb5 31ba 8782 313b
00000070: 44ac 0ab6 5947 173b 4657 74b8 b926 f93a
00000080: 05c5 96bb ebe1 d1b9 1daa f7ba d5d3 543b
00000090: f44a 603a 1b6a ce3a df0d 0c39 1aa5 513a
000000a0: d953 3dbb 0f53 a23a 225d a2ba 88fd 3ebb
000000b0: 5d3b b03a a045 86b9 0f83 32ba d226 9fba
000000c0: 8668 98ba bf9e 7cbb 2dfe c4bb 54be 8fbb
000000d0: 8d90 813b 8aa5 9b39 c498 8f3b ebc1 013c
000000e0: 73eb 06bb b0d9 8e3a ef56 0ebb 17ed a43b
000000f0: d74f 93bb 87de 7ebb 6227 feba 90ec 3b3b
0.00027276052 0.0041556126 -0.0005396254 -0.00049780484 -0.0009849315 0.0007616878 -0.0025575266 0.00067220605
0.0001546893 1.8552955e-05 -0.0027346362 -0.00057306816 0.0027973198 0.00012682397 -0.0026139293 0.0049148872
-0.005738285 -0.0027685089 -0.00023457837 0.004437222 -0.002170343 0.0029680454 0.00091760076 -0.00035679404
-0.0005887588 -0.0001452284 -0.00067790685 0.0027085857 -2.0663874e-06 0.0023083298 -5.8255413e-05 0.0019008733
-0.0046011233 -0.00040031908 -0.0018895302 0.0032474895 0.0008556091 0.0015748175 0.00013356608 0.00079973193
-0.0028889088 0.0012384373 -0.0012387375 -0.0029142816 0.0013445426 -0.00025610346 -0.00068096904 -0.0012142307
-0.001162783 -0.0038546768 -0.0060117454 -0.0043867026 0.0039539994 0.0002968724 0.0043822248 0.007919769
-0.0020587116 0.0010898616 -0.0021719297 0.005033146 -0.0044956016 -0.003888996 -0.0019390399 0.0028674938

exp_avg_sq f4 [64]
00000000: 67dd 3d39 c51d 4f39 3139 073a ec6b 3e3a
00000010: 7328 ac39 f726 583a 0b2f 283a c381 5339
00000020: 31ad bc39 5586 8d39 cc5a 883a 7130 3839
00000030: dfb4 3639 cece f239 8850 fd38 bdf4 8439
00000040: 9967 053a 13c7 0b3a e522 8939 dc07 8939
00000050: 766f 4a39 b831 b539 6911 af39 d8cd d139
00000060: 6093 f438 37e1 d239 4700 183a 9d71 c039
00000070: 76a3 9f39 e525 bf39 e72f 343a af24 3539
00000080: a553 1c39 4db9 603a 02e0 a739 03ca 9639
00000090: 2e94 d739 69e5 053a e4b8 9a38 7c5c 0739
000000a0: 3b86 ed3a 8afb 2e3a 4a5e 8b39 219c a839
000000b0: a6f4 9439 0876 6f3a 7d00 083a eebd dd39
000000c0: 61d1 3b3a aba3 7939 b7bb 0a3b ceaa c239
000000d0: b2ed 673a a684 c439 960a d739 12a6 103a
000000e0: 4a05 2339 e570 373a 1eaa 9d39 4a38 ef39
000000f0: aa79 4b3a 82b3 313a cd7b 9c39 c5f8 1639
0.00018106923 0.00019752148 0.00051583635 0.00072640064 0.00032836534 0.00082455523 0.00064157014 0.00020170868
0.00035987192 0.000269937 0.0010403036 0.00017565653 0.00017424252 0.00046311918 0.0001207898 0.00025359346
0.00050889846 0.00053320936 0.00026156675 0.00026136532 0.00019305744 0.00034560054 0.00033391573 0.00040016952
0.000116622774 0.0004022212 0.0005798381 0.00036705742 0.0003044863 0.00036458593 0.0006873593 0.00017275171
0.0001490848 0.0008572534 0.0003201962 0.0002876074 0.00041118398 0.0005107732 7.377731e-05 0.00012909056
0.0018121669 0.00066750555 0.00026582397 0.00032159782 0.00028411037 0.00091347145 0.0005188061 0.00042293913
0.0007164684 0.00023807462 0.0021169016 0.00037129823 0.000884737 0.00037482864 0.00041015883 0.00055179105
0.00015546862 0.00069977186 0.0003007212 0.0004562757 0.0007761965 0.0006778763 0.00029846877 0.00014397789

exp_avg f4 [32, 64]
00000000: 1db1 b9ba 453f d537 39e4 f53a 40fc d639
00000010: a755 8cba 4083 8bba 9e84 dd3a 3063 75b9
00000020: d3dc 11ba 9d22 483a 9428 f93a 45e9 4f3a
00000030: 9383 70ba 8564 c2b9 6ba7 953a 25d7 d0ba
00000040: f110 aeba 5a99 723a bf42 0bba 51d9 d63a
00000050: 5da2 e73a 6f43 b53a 2970 403a a6dd c5ba
00000060: ebd9 6a39 4f83 963b 19e8 c63a bf95 be3b
00000070: e4d2 8cba 9000 713b 6ecb 4e3a 5c36 06b9
00000080: 8e42 1cb8 c013 153a 6de0 9a3b 4b74 9dba
00000090: 070f 0dba 14a3 353b cd1f 233b d358 17ba
000000a0: e54b 6c3b 149c 1839 f6bb 84ba 479f f4b7
000000b0: f298 723a 0a4e 423b 3d20 e2ba d3bb 4eb8
000000c0: d6c2 75ba 8b30 683b c6a9 4c3b 709a ce3b
000000d0: 706f 193b 7452 4d3b 324a 4eba c378 c0ba
000000e0: bcb4 3c3b 75e7 3f3a f94b d239 66c1 803b
000000f0: f16a ba39 c040 5bba 0631 833a bf33 b43a
00000100: 6a52 23ba 8440 84b8 617e 853b eff4 073a
00000110: 2ce9 82ba b4bb 9239 1d08 c73a a70e aaba
00000120: 377c 6fbb 3a7b 36ba 434f 46b8 1be2 0cba
00000130: 16f4 79ba 6492 9ebb 69b3 3eba 250a e0ba
00000140: 1d7b ceba fc59 b5ba 8a42 2aba a457 a53a
00000150: ace0 11b9 904e 02bb d06a 03ba 6d1c 78ba
00000160: af3a 4aba 70d3 19b8 e6e5 793a 673f 383b
00000170: 5b6d d3ba 8cf9 5d3b 9ad1 16ba 0dcc b2ba
00000180: 94d0 f3ba 72d5 d938 2d6d e53a 363e 6d36
00000190: 3d42 b439 571e 8f39 5981 113a 5444 c5ba
000001a0: 4211 a6b9 a57a 6b3a 09ab e4ba eb62 72ba
000001b0: 54c1 a6b9 850e fdb9 9d20 3fbb 8e1d 71b9
000001c0: 5c01 2fbb 5fbe 1f3b e558 1c39 c264 dc3a
000001d0: e2de 59bb 815b 6836 3c96 f139 aa67 72ba
000001e0: 24de 403a 8923 82ba 7b1f 73bb 40ef 453b
000001f0: 9793 1138 2692 8c38 7301 ec3a ad4e 183b
00000200: 43ad 3dba 329d 2eb9 0992 9aba 84cc 04bb
00000210: 270b 88ba 834e 80ba 1ff9 b339 086d 80ba
00000220: 463e 1a39 228b 18b9 8415 feb9 2f59 c7b9
00000230: ec85 23ba 335f d338 e5bc df38 af66 d8b9
00000240: 7912 ee39 8902 9cb8 0fc8 f1b8 7f89 78ba
00000250: 2560 5d3a 07c4 9739 d4d1 e338 48ca 9dba
00000260: 622a 44b7 981a bc38 08f9 1737 bc96 5d39
00000270: a722 a9b7 2c8f 2d39 0af1 33b9 099c b2b9
00000280: 56bf 00b9 2d3f c8ba c0f2 dd39 6a4d 6aba
00000290: e916 b3b9 4832 8b3a 1cff 2539 f052 22ba
000002a0: deae b0b9 5962 74b7 7395 c537 99db 1bba
000002b0: 3e30 243a cefc 92b9 b40f 6a39 b72d 90ba
000002c0: 946a 4535 3361 bfb9 8e6a 9238 5ff4 0d39
000002d0: faec 24b7 2764 ee39 5dc0 bdba 6139 68b9
000002e0: fa25 0aba 810c a6ba 5715 33b8 609d 41ba
000002f0: d49c 13ba b7a4 75ba 5186 75b9 216b d538
00000300: 09eb a9ba ad95 3eba 22cb 213b d8ad 9aba
00000310: f3ea 0bbb 7bf3 d7ba 45ce 003a 42e3 b4ba
00000320: f59c 3bbb f653 60b9 31cc b5ba ad28 213a
00000330: 7833 c8ba 3f60 2abb 5ca5 c0b9 448a d3ba
00000340: 4f78 daba 5e2b 91ba e5e3 15ba 857c 283a
00000350: 9995 b439 f48b 51ba 3628 9a39 f4cd 4ebb
00000360: fde2 d1ba 4bbd 503a 5250 19ba b1f4 cf3a
00000370: 9e87 93ba 6a1d cd3a 7867 96ba 17d6 99ba
00000380: b64a 92ba 1cf0 33b9 2834 153b ac7d cdba
00000390: 89e0 9cba 5759 7a3a 0b95 b03a 0a3e 14bb
000003a0: a448 4fba f9bb 8eb9 b2b1 32bb 0325 b8ba
000003b0: d5c2 0c3a f448 55ba 5f2f 3bbb 9529 b5ba
000003c0: 46f3 53bb 556e d63a 12f4 f53a 0040 213b
000003d0: 7a31 07bb e33b b439 489e 0abb a0ec 53ba
000003e0: 7fcd 0e39 b0b5 85ba d63f efba 707a 093b
000003f0: 2c56 a539 cb53 bcba 29cf 1039 8734 c63a
-0.0014167164 2.542104e-05 0.0018760032 0.00041005202 -0.0010706679 -0.0010643974 0.0016900485 -0.00023401971
-0.00055642164 0.00076345523 0.0019009286 0.0007931183 -0.00091748795 -0.00037077456 0.0011417692 -0.0015933259
-0.0013280195 0.00092544185 -0.0005312375 0.001639167 0.0017672289 0.0013829301 0.0007340932 -0.0015095964
0.0002239716 0.00459329 0.0015175372 0.005816191 -0.0010744003 0.0036774017 0.000788859 -0.00012799486
-3.7255282e-05 0.0005686842 0.0047264607 -0.0012012807 -0.00053809624 0.002771561 0.002489078 -0.0005773429
0.003605598 0.00014553993 -0.0010126818 -2.9161236e-05 0.0009254358 0.0029648566 -0.0017252039 -4.9289152e-05
-0.0009375041 0.0035429324 0.0031229123 0.0063050315 0.002341237 0.0031329663 -0.00078693323 -0.0014684427
0.002879425 0.00073205616 0.00040110925 0.003929305 0.00035556362 -0.00083638355 0.0010009117 0.0013748332
-0.0006230237 -6.3062675e-05 0.0040739034 0.0005186339 -0.0009987704 0.0002798714 0.0015184913 -0.0012974337
-0.0036542544 -0.0006961111 -4.7280697e-05 -0.00053742685 -0.0009534968 -0.0048392285 -0.0007274659 -0.0017092867
-0.0015753243 -0.0013836022 -0.00064949004 0.001261462 -0.00013911974 -0.0019883253 -0.000501317 -0.0009464685
-0.0007714433 -3.667496e-05 0.0009532854 0.0028113963 -0.0016130613 0.0033870665 -0.0005753279 -0.0013641134
-0.001860159 0.000103871236 0.001750385 3.5351964e-06 0.00034381627 0.0002729769 0.00055505853 -0.0015050271
-0.00031674845 0.0008982814 -0.0017445992 -0.00092463073 -0.00031806028 -0.00048266738 -0.0029163726 -0.00022994561
-0.002670369 0.0024374945 0.00014910435 0.0016814696 -0.003324442 3.4623956e-06 0.00046079035 -0.00092470145
0.000735732 -0.0009928803 -0.0037097621 0.0030202419 3.4708148e-05 6.7029425e-05 0.0018005803 0.0023240254
-0.0007235596 -0.00016652493 -0.001179279 -0.0020263502 -0.00103793 -0.0009789023 0.0003432715 -0.0009798119
0.00014709783 -0.0001454768 -0.00048462686 -0.00038022685 -0.00062379125 0.00010078996 0.00010668653 -0.00041275236
0.0004540866 -7.439132e-05 -0.00011529039 -0.0009480938 0.00084448076 0.00028947016 0.00010863287 -0.0012038434
-1.1692378e-05 8.969492e-05 9.0582835e-06 0.00021132355 -2.0162506e-05 0.00016551901 -0.00017160564 -0.0003406706
-0.0001227831 -0.0015277617 0.00042333268 -0.0008937927 -0.0003415861 0.0010619843 0.00015830662 -0.0006192168
-0.00033699622 -1.4566432e-05 2.3553823e-05 -0.00059455034 0.0006263292 -0.00028035644 0.00022321829 -0.0010999952
7.354331e-07 -0.00036502778 6.98167e-05 0.00013537843 -9.830337e-06 0.00045469517 -0.0014476884 -0.0002214662
-0.0005269941 -0.0012668521 -4.26968e-05 -0.00073858164 -0.0005630974 -0.0009370553 -0.00023415058 0.00010176586
-0.0012963723 -0.0007270228 0.0024687727 -0.0011801077 -0.0021349757 -0.0016475761 0.0004913549 -0.0013800638
-0.002862749 -0.00021393583 -0.0013870058 0.0006147724 -0.0015274128 -0.0025997309 -0.00036744296 -0.0016139229
-0.0016667935 -0.0011075546 -0.0005717858 0.0006427246 0.00034443734 -0.0007993572 0.00029403128 -0.0031555863
-0.0016013082 0.0007962777 -0.00058484555 0.001586577 -0.0011255627 0.0015649025 -0.0011474928 -0.0011736777
-0.0011161182 -0.00017160218 0.0022766683 -0.0015677712 -0.0011968772 0.0009550056 0.0013472153 -0.0022619986
-0.00079072476 -0.000272244 -0.002726656 -0.0014049116 0.00053696084 -0.0008136176 -0.002856217 -0.0013821597
-0.0032341047 0.0016359786 0.0018764755 0.0024604797 -0.0020628856 0.00034376894 -0.0021151472 -0.0008084271
0.00013618729 -0.0010201242 -0.0018253278 0.002097752 0.00031535455 -0.0014368234 0.00013810083 0.0015121856

exp_avg_sq f4 [32, 64]
00000000: 3c36 7939 de4d 4d38 e06e db39 c28c 113a
00000010: 1c52 bc39 0c42 4739 43ff bd39 ff7d 0c39
00000020: 9663 d539 6382 e938 c269 ae39 aff2 2538
00000030: 43cf 6f37 9df9 053a 7ce6 053a a477 2539
00000040: ea02 8439 e753 143a 0af2 9937 9282 0039
00000050: 58f2 203a fe16 cc39 3824 8337 d30a 1539
00000060: 556d b538 de36 c439 6e54 113a 8205 ef39
00000070: 480d 9739 2975 c239 94ee 3139 45f6 8d38
00000080: ad4b fe38 714c 9039 189d 093a c658 5d39
00000090: 26c8 8f39 4c2f 273a c716 3939 659d 3139
000000a0: 2669 643a 9ee4 2638 01b6 6b39 af53 0d39
000000b0: 79a9 c638 8295 0e3a fac8 b639 7cb4 8939
000000c0: f15e 9f39 8eec e439 01f7 f239 4a5d 323a
000000d0: 0be8 7b3a c04c 9e39 333e 8739 adb7 f338
000000e0: 9834 c339 db02 143a 3dbf d139 8451 153a
000000f0: 77ec b139 c931 9a39 4daf 133a ce2c 8338
00000100: e7a1 8339 837e 4838 a839 b139 2b55 4039
00000110: 7bd2 5b39 8ff2 bd38 df8d 8739 16e9 1e38
00000120: a76f 4039 43e4 d238 1357 3139 bca7 0938
00000130: 8a9d 4c37 0f88 4d39 75b9 9938 9a04 0f38
00000140: 60be 3039 2b09 6c39 98f2 bc37 0b88 8637
00000150: cc10 4838 0324 7a39 2131 8e36 01df ca38
00000160: cefb 9038 7da0 de38 e011 1138 7a0c dd38
00000170: e5d1 2738 967f 0139 699e 6538 ae21 8738
00000180: bff5 9f38 6cb0 5239 5c4e 3a39 9608 0539
00000190: bc0d a438 a9e1 c338 6b55 4e38 edc6 8638
000001a0: 39e5 f938 ecbe f737 126c d038 c7b7 1539
000001b0: 7963 e337 c442 8d39 333b 1539 c0b6 9539
000001c0: cd74 9639 a5dc a838 1497 0139 1f35 7139
000001d0: 730d 4e39 e3bf 3e39 c931 7a39 983a 5b38
000001e0: 1dfe 0539 7cb1 3e39 7013 0f39 9c80 8539
000001f0: e0e3 8c38 0d92 4d39 baf3 2239 4a9c 0138
00000200: bb04 7937 3f45 c634 6a2f b437 6cf4 fb37
00000210: 3511 a637 079c b136 e47d 7937 496e f837
00000220: 79ca f337 623e 0b37 cc1a 7537 d27c 1237
00000230: d669 2836 52a3 a534 888a e436 69b5 a436
00000240: d9f6 f535 f849 3336 c99f dd35 5939 8a37
00000250: a2ff ed37 7494 fd36 6d8e 1937 d4f6 1a37
00000260: 5a67 ee33 2995 8b34 f971 6c36 bb03 e735
00000270: a462 3138 1eb8 2e36 1b54 a435 638d 9a36
00000280: 0e73 6136 50fc 1138 debd dd36 e1dd 8437
00000290: 8c63 0f38 f92e c337 1ef1 3c37 01b6 a336
000002a0: f2ae 3437 ecce 4b34 9543 0e38 578b df36
000002b0: 41fb cd36 a8d4 0537 9ee5 7537 705c 7237
000002c0: 6191 f136 d79d a736 5e6d af37 bf91 b035
000002d0: 6a86 1336 095e 8936 10e2 5737 6f44 0838
000002e0: 1c78 3037 f90c 4237 cacd c236 dcaa 2937
000002f0: 7dee b838 d07a 0a37 b3b7 5a36 8e83 6536
00000300: bb0f a438 c720 ce37 c61d 7239 a20f 3539
00000310: 272f ff38 8fce ae38 2ce3 9438 26d4 1838
00000320: a04f 9438 7520 2838 8b93 1839 2f82 ea37
00000330: 5c21 1937 7177 3439 6f5e 8b38 91ca d337
00000340: dd36 f138 82eb 3d39 1f15 3337 7965 e237
00000350: 1c09 4d38 8452 2c39 6e3c e136 ee7f 8238
00000360: 33be 0938 da36 8038 3fe6 b138 7bf1 dd38
00000370: 343c db37 9e0a b738 4700 3c38 f767 f337
00000380: 3080 3238 d1ef 2939 0abf 9538 45c9 ca38
00000390: 9c81 6e38 1bea 8938 2870 4e38 9583 6f38
000003a0: 3a87 1239 03d8 9c37 b2a5 8538 09a5 c238
000003b0: a472 4937 0b9c 0739 057b e338 0b03 d638
000003c0: d2e6 dc38 dba1 9938 6507 c538 104c 4539
000003d0: 2b61 3c39 4387 5838 6431 0239 1c5a 1f38
000003e0: a91f e438 7e71 0d39 e875 c738 80f6 7839
000003f0: 199b 3b38 455e ee38 1c8a 1539 8054 c337
0.00023766694 4.894833e-05 0.00041853543 0.00055522856 0.0003591933 0.00019002723 0.00036239074 0.00013398378
0.00040700723 0.00011134592 0.00033266662 3.9565082e-05 1.4293767e-05 0.00051107426 0.0005107892 0.00015780196
0.00025179173 0.00056582544 1.835173e-05 0.00012255672 0.00061396277 0.00038927043 1.5633283e-05 0.0001421378
8.651117e-05 0.00037424912 0.0005543892 0.00045589736 0.0002881086 0.00037089855 0.00016968913 6.769275e-05
0.000121257595 0.00027522774 0.0005249544 0.00021109273 0.00027424208 0.0006377592 0.0001765146 0.0001693867
0.0008713178 3.97904e-05 0.00022479148 0.00013477982 9.4729425e-05 0.00054391485 0.00034863484 0.00026265148
0.0003039758 0.00043663796 0.0004634187 0.0006804062 0.0009609467 0.00030193292 0.0002579555 0.00011621355
0.00037232484 0.00056461775 0.0004000607 0.00056960457 0.0003393625 0.00029410262 0.0005633727 6.254912e-05
0.00025106894 4.780154e-05 0.00033803028 0.00018342274 0.00020963878 9.057402e-05 0.0002585491 3.7887214e-05
0.0001835214 0.000100560974 0.00016912473 3.281956e-05 1.21960275e-05 0.00019601009 7.3301526e-05 3.4098142e-05
0.00016855588 0.00022510129 2.2524313e-05 1.6037395e-05 4.769936e-05 0.00023855273 4.237649e-06 9.673648e-05
6.913357e-05 0.00010615678 3.458734e-05 0.00010540425 4.0011382e-05 0.00012349928 5.4745386e-05 6.443575e-05
7.6274846e-05 0.00020092883 0.00017767533 0.00012687067 7.8226876e-05 9.340357e-05 4.919378e-05 6.426671e-05
0.00011915941 2.95336e-05 9.9383426e-05 0.0001427821 2.710683e-05 0.0002694336 0.00014231801 0.00028555654
0.00028697253 8.0519625e-05 0.0001235868 0.0002300334 0.00019650701 0.00018191295 0.00023860404 5.226824e-05
0.00012778533 0.0001818593 0.00013644784 0.00025463558 6.718165e-05 0.00019604732 0.00015540319 3.0901552e-05
1.4842658e-05 3.6930757e-07 2.1479751e-05 3.003535e-05 1.9796755e-05 5.293175e-06 1.4870868e-05 2.961526e-05
2.9062141e-05 8.29957e-06 1.4609377e-05 8.73134e-06 2.5095555e-06 3.0852476e-07 6.8110567e-06 4.9087e-06
1.8325765e-06 2.6716134e-06 1.6512287e-06 1.6477587e-05 2.837164e-05 7.55727e-06 9.152672e-06 9.236584e-06
1.1101538e-07 2.5999296e-07 3.5233081e-06 1.7211927e-06 4.2291955e-05 2.603519e-06 1.224343e-06 4.6060172e-06
3.3594583e-06 3.480568e-05 6.6084167e-06 1.5838947e-05 3.4186567e-05 2.3267685e-05 1.1261813e-05 4.8789666e-06
1.0769569e-05 1.8981126e-07 3.391838e-05 6.662139e-06 6.138726e-06 7.976931e-06 1.46566e-05 1.4445846e-05
7.199284e-06 4.995363e-06 2.0912554e-05 1.315544e-06 2.1982946e-06 4.0938653e-06 1.2867633e-05 3.248866e-05
1.0518383e-05 1.15663215e-05 5.8056075e-06 1.0112966e-05 8.8182256e-05 8.2540355e-06 3.2591458e-06 3.4200234e-06
7.8230594e-05 2.4572377e-05 0.0002309001 0.00017267329 0.0001216813 8.335441e-05 7.099504e-05 3.6437203e-05
7.072021e-05 4.008455e-05 0.00014550814 2.7955595e-05 9.127278e-06 0.00017210633 6.645626e-05 2.5247487e-05
0.000115019946 0.00018112178 1.0674149e-05 2.6988551e-05 4.8884292e-05 0.00016433938 6.7125575e-06 6.222712e-05
3.2840482e-05 6.1137325e-05 8.4829044e-05 0.000105830804 2.6134869e-05 8.7280976e-05 4.482295e-05 2.901627e-05
4.255789e-05 0.00016206435 7.1404575e-05 9.6696e-05 5.686433e-05 6.5762746e-05 4.921868e-05 5.7104586e-05
0.00013974021 1.8697237e-05 6.372797e-05 9.281381e-05 1.2007225e-05 0.00012932734 0.00010847118 0.00010204882
0.00010533411 7.3257565e-05 9.395069e-05 0.0001881572 0.00017965275 5.1624385e-05 0.00012416166 3.7992475e-05
0.000108777844 0.00013489087 9.511021e-05 0.00023742951 4.472872e-05 0.000113662834 0.00014261197 2.328516e-05

exp_avg f4 [32]
00000000: 34d3 143b 5d02 a0b9 1ef0 32ba 5635 94ba
00000010: 9a03 8ebb 813f 5f3b 8419 fb3a 61a1 9fbb
00000020: 5898 5e3b 7a99 9d3a 7c9b d8ba 1961 46bb
00000030: 0d1a ef39 b0ba 86b9 5171 d73a a781 7f3b
00000040: 7166 813a ea13 4b3b d654 383a b91a 5cbb
00000050: 84ca f939 8250 22bb b438 ecba 2243 ffba
00000060: 0400 0000 aa10 0a3b 795f 213b 3e0d e43a
00000070: 9527 873b de1e 003b d0d3 0ebb 5e29 09bb
0.0022708895 -0.0003051934 -0.00068259414 -0.0011307399 -0.0043339254 0.003406495 0.0019157385 -0.004871533
0.0033965316 0.0012023889 -0.001652583 -0.0030270277 0.00045605042 -0.00025697565 0.0016436969 0.003898719
0.0009872449 0.0030987212 0.00070316845 -0.0033585264 0.00047643867 -0.0024767225 -0.001802227 -0.0019474963
6e-45 0.0021067061 0.0024623557 0.0017398966 0.0041245916 0.0019549648 -0.002179373 -0.0020929198

exp_avg_sq f4 [32]
00000000: 6edb 963a 24c7 d339 9fe9 1e38 b97b 8f39
00000010: 2e5e bb39 5855 7c39 ab21 373a 0cda 273a
00000020: 3066 4f3a cf12 f539 1eb6 cf39 cdf2 033a
00000030: 7506 fa39 243a 8c39 f9bf b839 b865 3d39
00000040: e994 9839 b432 7639 7a89 6239 5393 093a
00000050: bf6a d639 586b 003a 013b 2c39 26ab 133a
00000060: 1033 9d25 54e5 5938 3bb8 1239 47f5 3d3a
00000070: 9152 ab39 908b 8639 4773 253a 7f44 1d3a
0.0011509487 0.00040393427 3.7887712e-05 0.00027367266 0.0003573759 0.00024064386 0.0006985913 0.0006403036
0.00079116505 0.00046744055 0.00039617805 0.00050334336 0.00047688527 0.000267462 0.00035238246 0.00018062338
0.00029102646 0.00023479277 0.00021604254 0.0005248088 0.00040896793 0.0004898808 0.00016425179 0.0005633108
2.726976e-16 5.195041e-05 0.00013992276 0.0007246327 0.00032677178 0.00025662454 0.0006311428 0.00059992814
