checkpoints/full/torsion_energy/20250611190453354802/ARG_dim_8/fold1/best_epoch=244-val_loss_epoch=26.413.ckpt (torch, 43973 bytes, 20 tensors)

fc1.weight f4 [64, 8]
00000000: bfb7 163e 2505 47be 0cbe f93e 050c 093e
00000010: 4f99 1fbc 9aae 1b3f f7ff 76be 9c2e 96bd
00000020: 403f 3fbd e05f d13d bada c33d dd0a 5f3f
00000030: 2382 1ebe 7906 d33d 9194 583d 501b 16bf
00000040: 5831 afbe 3336 8abe f95f d23d 3281 213e
00000050: f220 99be 0f30 1bbf 2e69 d5be 8ba7 663d
00000060: 0520 85be a5f6 babe bc66 4b3f 9a2e 163d
00000070: 4c8b 69be e8c9 26bf c493 d33d fa42 e93e
00000080: a258 ffbd d9ff 803e d3bd 42bf 8adb ecbe
00000090: 7199 f9be eccb ed3d c43a 1fbe 0b27 11bd
000000a0: ec11 6d3d 8872 093f c8c9 623e 6c1b e2bd
000000b0: ed7e 01bf 26b3 213f 5119 adbe 5e6f 70bc
000000c0: 9571 553e f122 debc f573 0ebe b552 953a
000000d0: 9a20 533f 4872 c23d 2e61 15bd 4f4f 28bd
000000e0: 0fd1 033f 3413 4dbf 7e25 a23b b002 623c
000000f0: 9500 293f 2b89 e33e 4d6a 83bd 18eb 8e3d
00000100: bae9 933b 63ba ca3d da19 43be 379e 013e
00000110: ec8f bdbd f7ad d73d 6dcd 9e3f a98c 6dbe
00000120: f510 3f3f ccce 5ebf 4143 c0bc d270 dd3c
00000130: 34c0 2dbe 1812 b9be 29d4 d7bd 8cf3 6b3d
00000140: 33a0 19bf bdb4 3bbf dfcc 063f bed8 96bd
00000150: 0a2c 15bc 7b60 823e 5df2 a73c 5151 febb
00000160: c0c2 9f3e cc4f 19bf bbe1 30bf a2d2 023f
00000170: 688c a7bb 5c4d 643e 4a63 07be 83e9 8cbd
00000180: 7eb4 d4bc 7a03 e5be 0cec ed3d 0f33 bd3e
00000190: 7709 b83e 3611 84be c1ef ccbe 39b9 22bb
000001a0: 91a7 c23e f03c 9a3c e611 c6bd 8d3b 403e
000001b0: eeb5 49be a63f e83e c0c8 11bf 47a6 afbe
000001c0: bfcb 993f 18d7 353f e03c 86be db1e b5bd
000001d0: 9cab 9d3d eb1c 0e3f 917a 98ba e0e8 3f3d
000001e0: cd44 463d ebd8 d23d 1092 f83e d3a5 f9be
000001f0: 4a04 8bbe b601 a0be be03 90bd c223 04bf
00000200: 133e bfbd c810 733e 1157 033f 2472 65be
00000210: c57e 6e3d 1e56 073f 29ab a03e 1caa 0f3f
00000220: 03c8 cebc 6048 06bf 7959 243e 6f9b c5bc
00000230: 81de 98be 3999 9a3f 0a08 d73c a6c5 82bd
00000240: 1801 4f3f d290 bf3d 61dc 003d 542f b2bb
00000250: 6bfa ddbe fc2a 3f3f be49 9ebd 676a ea3c
00000260: b9cc b7bd 7ce0 59be 5a67 3bbe 2ef5 dd3d
00000270: 3136 213f 3179 e03d 5d51 ecbe 9ed4 413f
00000280: 9544 e63c 4574 123f d44f 31bf 3b2b 833e
00000290: 0fe8 303d ec62 783c 3cf0 193f 8b9c 8d3e
000002a0: 5c18 24bf b6a5 2c3f 9670 9dbc 774e 00bb
000002b0: 4c72 05bd 0ce7 6cbe 3312 32bd 5aff 6f3c
000002c0: 8689 b43b b373 6c3d 9a73 c5be dd3b d9be
000002d0: eb34 dc3c 27a2 023d a0a7 3e3e 9f83 38bf
000002e0: 1af7 a3be fc93 c03d 4765 033f 7f2b 683e
000002f0: b3b9 a63e f21a bf3e bea0 163e 5056 4a3b
00000300: 213f 18bc 8fbb 263f d8ad 533f 4fcd b6bc
00000310: 796a e9bc dfd0 98bd 99d5 083d ec2f aabd
00000320: d1ad 073f fa6f 2e3e 1b5c 273e 0575 c0be
00000330: 1393 9ebe c1dd ccbe 28ee 04bf 3310 1a3e
00000340: 681c 28bf 6dcf fcbe 2bb6 c23c 4891 ea3c
00000350: 1591 bdbe 8fc5 d9be 2eae b8bd f87d 7ebc
00000360: d232 0ebf 567a fcbe 0aa6 bb3e bc0c bcbc
00000370: bf52 36bf 393a 8e3e cd9b 883e 44c6 f53c
00000380: 61f7 bcbe dfd4 15bf e3a1 a3bb 75ce 993e
00000390: 1376 8fbe 2229 63bd a1b8 84be f82d e23e
000003a0: 805f f0bc f1df 413d f262 25bf 317e 913e
000003b0: 37bc 99bc 917f 1abe 25b0 c53e d6e5 10be
000003c0: 4ac4 9c3d f2a3 47be e939 2cbe a670 a9bc
000003d0: ea7c 6a3d 2677 05bf bc21 b43e 1370 29bb
000003e0: 6546 903d 2702 a8bd 59da f5be 70fa 523e
000003f0: c0bc 5fbe 0963 043f 5288 f53e c438 8abe
0.14718531 -0.19435556 0.48777807 0.13383491 -0.009741141 0.60813296 -0.2412108 -0.07333109
-0.04669118 0.10223365 0.09563203 0.8712595 -0.1547933 0.10303969 0.05287606 -0.58635426
-0.34217334 -0.26994476 0.102722116 0.1577194 -0.29907948 -0.60620207 -0.41681808 0.056312125
-0.2600099 -0.365163 0.79453635 0.036665536 -0.22807044 -0.65151834 0.103309184 0.45558912
-0.12468077 0.25195196 -0.760709 -0.46261245 -0.4874988 0.11611161 -0.15549761 -0.035437625
0.05787842 0.53690386 0.22147286 -0.110403866 -0.505843 0.63163984 -0.33808377 -0.0146749895
0.2084411 -0.02711627 -0.13911422 0.0011392446 0.8247162 0.09494454 -0.03646963 -0.04109126
0.51490873 -0.80107427 0.004948317 0.013794586 0.66016513 0.44440588 -0.0641676 0.06978434
0.0045139464 0.09898832 -0.1905283 0.1265801 -0.092559665 0.10531228 1.2406441 -0.23198189
0.7463525 -0.87034297 -0.02346957 0.027031336 -0.16967851 -0.36146617 -0.10538513 0.05760531
-0.6001007 -0.7332266 0.5265636 -0.07365559 -0.009104738 0.25464234 0.02050131 -0.0077611585
0.3120327 -0.59887385 -0.6909444 0.5110265 -0.0051131733 0.22295135 -0.1322147 -0.06880476
-0.025964972 -0.44729215 0.11617288 0.36953017 0.3594472 -0.2579438 -0.40026668 -0.002482964
0.38018468 0.018827885 -0.096713826 0.18772717 -0.19698307 0.4536106 -0.56946945 -0.34306547
1.2015303 0.7103133 -0.2621832 -0.08843776 0.076987475 0.55512875 -0.0011633207 0.046852946
0.048405457 0.1029528 0.48548937 -0.48759326 -0.2715171 -0.31251305 -0.07031964 -0.5161706
-0.093380116 0.2373687 0.5130473 -0.22406822 0.058226366 0.5286578 0.31380585 0.5611894
-0.025241857 -0.52454185 0.16049756 -0.024121968 -0.29857257 1.207801 0.02624895 -0.06385355
0.80861044 0.09353794 0.03146017 -0.005437771 -0.43355116 0.74674964 -0.07728909 0.02861519
-0.089745946 -0.2127704 -0.18301144 0.1083778 0.62973315 0.109606154 -0.46155825 0.75715053
0.028108874 0.57208663 -0.69262433 0.2561892 0.04319006 0.015160304 0.60132194 0.27658495
-0.6409967 0.67440355 -0.019218724 -0.0019578019 -0.032579705 -0.23135012 -0.043474387 0.014648283
0.005509558 0.057727527 -0.3856476 -0.42428485 0.026880702 0.03189292 0.18618631 -0.7207584
-0.3202446 0.09403226 0.5132641 0.22672842 0.32563552 0.37325245 0.14709756 0.00308742
-0.009292395 0.6512994 0.8268714 -0.022314696 -0.028493153 -0.07461714 0.033406828 -0.083099216
0.529996 0.17034903 0.16343729 -0.3758928 -0.30971584 -0.40012935 -0.519259 0.15045242
-0.65668344 -0.49377003 0.023768505 0.028633729 -0.3702475 -0.42533538 -0.09017597 -0.015532963
-0.55546296 -0.49312085 0.36650115 -0.022955291 -0.7122001 0.27778795 0.26681367 0.030001767
-0.36907485 -0.5852794 -0.0049936636 0.30040327 -0.2801977 -0.05545915 -0.2592211 0.44175696
-0.029342413 0.047332708 -0.64604104 0.2841659 -0.018766506 -0.15087725 0.3861095 -0.14150175
0.07654627 -0.19496134 -0.16818966 -0.020683598 0.057248034 -0.5213493 0.35181987 -0.0025854155
0.07044677 -0.082035355 -0.4801815 0.20603347 -0.21849346 0.51713616 0.47955567 -0.26996434

fc1.bias f4 [64]
00000000: a45c 033f feac e0be 2e3a 9f3d ba04 f13d
00000010: a7df 1bbf 913f ab3e a1b5 bb3e a53a a53e
00000020: e5d6 ce3e 0308 adbd 825d 593e 41d0 7e3e
00000030: 5473 43be 6662 23be b811 7e3d ad30 823e
00000040: 6ad4 22bd 0eba 19bf e528 963d c697 8cbd
00000050: 9687 54bb ac06 c13e 656f 563e 9b7d d5be
00000060: 9f4f 50bc a24e 453e 3cc9 2b3d 2a31 bebc
00000070: 8253 ff3d 217d 623e fd9b b93e 5edd 7d3e
00000080: 089d 593e 9959 343e 2094 153d b8da 873e
00000090: b8d3 013e c337 893e 604b 103f d2da 193e
000000a0: 020c abbe 68d8 f4bd 8809 03bf f46e bcbe
000000b0: b99b 5bbd 6695 acbe 6c88 8bbd c105 ab3d
000000c0: 910f 44bc dad1 f1bd d7a3 283e 70cc 43be
000000d0: b7e2 cd3c 46c8 5b3e 29b3 403c 72e3 b43e
000000e0: 65ea 403e af07 c7be c77c a9be 9a40 063d
000000f0: 7953 53be bb76 9ebe 4cb2 dd3d b77d f33e
0.51313233 -0.43881983 0.07774769 0.1176848 -0.6088814 0.33446935 0.3666201 0.32271305
0.40398327 -0.08448794 0.21227077 0.2488413 -0.19086963 -0.15955505 0.062028617 0.25427762
-0.039753355 -0.6004952 0.07332019 -0.06864886 -0.0032429448 0.37700403 0.20940931 -0.41697392
-0.012714296 0.19268277 0.04193996 -0.023216803 0.124671 0.22118045 0.36251822 0.24791476
0.21251309 0.17612304 0.036518216 0.26534057 0.1267842 0.26800355 0.56365013 0.1502488
-0.334076 -0.11955339 -0.5118642 -0.368034 -0.053615306 -0.33707732 -0.0681313 0.08350707
-0.011966602 -0.11807604 0.1646875 -0.19120955 0.02513252 0.21463117 0.011761465 0.35329777
0.18839414 -0.3887305 -0.3310301 0.032776453 -0.20637311 -0.3094996 0.10825023 0.4755685

fc2.weight f4 [32, 64]
00000000: 7085 c03e 454a 85be cc84 693c e27b 123d
00000010: b7c6 fdbe 8351 db3d 2a47 85bd e68b e03e
00000020: bc19 643e c1d1 9d3e d266 303d 8c41 043d
00000030: 1a0b ba3d 9cbb 70bb 4536 a2be 4742 443d
00000040: 45e6 d03d 1959 23bf ad6a bdbd 5ca1 773e
00000050: ab51 0c3f a951 a13e fb14 96bd 70b1 9b3e
00000060: 7703 ef3d bcc0 07be fc40 bd3d 463e 5c3e
00000070: 96e3 883c 7686 06be 8823 7dbd 44f8 efbb
00000080: 80f0 1b3e 5d68 a3bc 0fb5 bdbd a9cd ce3e
00000090: 6aa4 fcbc 7fff c03c f159 a1be 4bc6 f6bc
000000a0: 031f aa3d 1b93 6a3e fe05 c93c 889f 02bf
000000b0: 6c6c babd eda7 94be 8991 94be a294 8fbd
000000c0: 5289 b9bd 77d3 113e fd4d 10be aed5 8bbe
000000d0: 396e e03e f691 ad3e 9e9e b53e da81 d43d
000000e0: 6ba1 1f3e 73dc 2d3d 8ad1 243d 0560 9a3e
000000f0: f078 06be cb32 5fbe 08f5 a1be 7e57 d5bd
00000100: e1db 933e f841 01be 371b 15bf 0d72 67be
00000110: 70eb a7be e010 b33c bccc 203d 184a e73e
00000120: 861f 3d3e 8b98 713d 2896 7e3e 9cf7 62be
00000130: e87a 2e3d 784a 813e 3aee 0e3f e000 c4be
00000140: 7fb0 713c 9754 9e3c 673b d93c f35d 893d
00000150: 4a47 3f3f c7cf 2ebd f41d 453d e6fa 4abd
00000160: 2ed1 853c da76 0dbe ac6f 9dbd 2654 583e
00000170: 37f7 febd 821b 01be eb33 1cbf 9797 933d
00000180: c542 453e 011c 30bc 507b 2e3d bdf7 93bd
00000190: 4f0d 4bbe 4411 5d3e e9b2 6fbe 727a b23d
000001a0: 4721 8e3d 6323 9ebe 385f 6cbe d3e8 39bf
000001b0: 100d 1b3e f8bf 873e 4438 eb3e c147 c0be
000001c0: 6285 9f3d 047c 923e 2de7 413e 503a 9f3d
000001d0: 2a0a eb3e 3076 2d3e d020 bd3e 7548 4e3e
000001e0: 1285 a5bc 64c1 b43d 0e17 6cbf 0f04 f93c
000001f0: 6ac2 e3be 94c2 bdbe b0af 5a3d e1da 133e
00000200: 5e5b 313e 8a70 dc3d 827a 01be 34bc 90bd
00000210: 954f 313f 241a eb3d 1531 813e 5a52 a53e
00000220: 91dd 0abd bb0d c3bd 9f6f 0cbd 6994 d13d
00000230: 4eb1 383e af36 2abe 5c45 613e f47d 4a3e
00000240: 1249 f33e 22b1 c3be 8d54 193d d8aa c5bc
00000250: a7c9 eebe 5c96 413e a152 a4be 5db6 b53d
00000260: b930 aabd dfe3 9e3e 0dd4 bcbd d4dd 91be
00000270: 5176 803d f591 46be 1ed0 00be e999 913e
00000280: fdf4 123e 3192 b3bd a7b7 e13d 876b 3f3d
00000290: b8ac 663e 9b96 35be c612 3cbf 0317 6b3d
000002a0: 7043 e93d 693f 043d 0a7e 9abe 689b 4dbf
000002b0: 7d36 62be c850 09bf 7e98 0dbf ea6c 6f3e
000002c0: 7088 5cbd d4c3 e13e 6e24 cc3d e569 a6be
000002d0: d090 73bb 063e e3bd c1c2 37bd a2a1 c83e
000002e0: 2bcd 5ebd 31a4 91be ced4 2fbf 1437 e43d
000002f0: be45 733e 104c 2d3f 361a 94bd ae6d 36bc
00000300: 97eb 22be e297 893e 1334 f9bd 7b63 a5bd
00000310: a170 00bf e035 33be e536 c13e 72f1 afbb
00000320: 747d 803e 2a7c 723d 7dcf e8bd 9055 123c
00000330: b879 9c3d 2354 2c3e 7a9c 35be c154 b03e
00000340: affe ad3e e8ef 6cbe 641f bb3e c347 38be
00000350: 459e 4fbe 14c8 0cbe 592b 17bf 8a67 60bf
00000360: ac64 06bf c12d 87be d95b bc3d 0797 663e
00000370: 3fa2 c73b 1f19 0bbd 491e 2ebe 7eea b23e
00000380: 683e 023e e5b0 e03e fcdf 6c3e a3c1 74be
00000390: 8b8c 153e ef95 263c df6c 823d 4f0e 50bd
000003a0: 9f63 353f 8cb9 d9bc 9a4d c5be f49f e6be
000003b0: fc2c 15bf b0a1 063f 43b4 573e d6ca 873e
000003c0: 917f 9a3d 6574 54be 4ebc 6c3d f10c f63c
000003d0: 2c87 64be 8f77 833e 5bfe 5e3d 3f74 8d3d
000003e0: e5d7 01be 80cd 653e 0c90 833e c4a2 9f3e
000003f0: c8da ec3e 6631 af3e 3f6c b1be d47c 77bd
0.37601805 -0.26033226 0.014252853 0.035762675 -0.4956567 0.107089065 -0.06507714 0.43856734
0.22275442 0.30824092 0.043066807 0.032289073 0.09084149 -0.0036732918 -0.3168203 0.04791477
0.102001704 -0.6380783 -0.092488624 0.24182647 0.54812115 0.31507614 -0.073282205 0.30408812
0.11670583 -0.13257116 0.092409104 0.2150813 0.016710084 -0.1313723 -0.061801463 -0.0073232967
0.15228462 -0.019947225 -0.0926305 0.4039128 -0.030840117 0.02355933 -0.31513932 -0.03012385
0.08306696 0.22907679 0.02453899 -0.51024675 -0.09102711 -0.29034367 -0.29017285 -0.07010771
-0.09059395 0.14240824 -0.1409225 -0.27311462 0.43834093 0.33900422 0.35472578 0.1037633
0.1558892 0.042446565 0.040238895 0.30151382 -0.13132071 -0.2179672 -0.31632257 -0.104170784
0.28878692 -0.12622821 -0.5824465 -0.226021 -0.32796812 0.021858633 0.03925775 0.45173717
0.18469056 0.058983367 0.24861968 -0.22164768 0.04259768 0.25252128 0.55832255 -0.38281918
0.014751553 0.019327445 0.026517583 0.067073725 0.74718153 -0.04267862 0.04812427 -0.04955568
0.016335096 -0.1381487 -0.07687315 0.2112585 -0.12449496 -0.1260815 -0.6101672 0.07206648
0.19263752 -0.010748864 0.04259807 -0.07224987 -0.19829296 0.21588618 -0.23408093 0.08714761
0.06939941 -0.30886373 -0.23083198 -0.72620887 0.15141702 0.26513648 0.45941365 -0.37554744
0.07789113 0.2861024 0.18935843 0.07774794 0.45906192 0.16939616 0.36939096 0.20144828
-0.020205054 0.08825949 -0.9222268 0.030397443 -0.44484264 -0.37062514 0.053390205 0.14438964
0.1732001 0.107636526 -0.1264439 -0.07067147 0.6926206 0.11479595 0.2523276 0.32289392
-0.03390271 -0.09524103 -0.034286138 0.10233385 0.18036386 -0.16622423 0.21999115 0.1977461
0.47516686 -0.3822108 0.03743415 -0.024129316 -0.46638224 0.18905014 -0.3209429 0.08872674
-0.08310074 0.31033227 -0.09220133 -0.28489554 0.06272567 -0.19391616 -0.1257939 0.28437737
0.14351268 -0.08768118 0.11021357 0.046733405 0.22526824 -0.17733233 -0.73466146 0.057394993
0.11389816 0.032287035 -0.30174285 -0.80315256 -0.22091098 -0.5363889 -0.5531081 0.23381391
-0.053841054 0.44094718 0.09967886 -0.32502666 -0.0037165172 -0.110958144 -0.044863466 0.39185816
-0.054394882 -0.2844558 -0.6868409 0.11143318 0.23757073 0.6769419 -0.07231562 -0.011134548
-0.15910183 0.2687369 -0.121681355 -0.08075615 -0.5017186 -0.1750102 0.37737194 -0.0053693587
0.25095713 0.059200443 -0.113677 0.0089315325 0.076404035 0.1682897 -0.17735472 0.34439662
0.3398337 -0.23138392 0.36547387 -0.17996125 -0.20275219 -0.13748199 -0.5905052 -0.8765799
-0.52497363 -0.26402095 0.09197206 0.2251855 0.0060923393 -0.033959504 -0.1700374 0.34944528
0.12719119 0.4388496 0.23132318 -0.23901992 0.14604394 0.010167583 0.06368422 -0.050794896
0.70855135 -0.026577733 -0.38535768 -0.4504391 -0.58271766 0.52590466 0.21064858 0.2652194
0.075438626 -0.20747526 0.05779677 0.030035468 -0.22317189 0.25677153 0.05444179 0.06906938
-0.12680013 0.22441673 0.25695837 0.31178868 0.46260667 0.34217376 -0.34652898 -0.06042178

fc2.bias f4 [32]
00000000: ccf3 913d 8140 6bbd 37a6 323d b321 0d3d
00000010: 3fda f23d f01b e03d 7dca 183e 8787 08be
00000020: 3219 d2bc c387 6cbd 5181 483d 8255 84bd
00000030: e09e f63d 77bc eabb f1e5 dd3a 752d 12bd
00000040: cb1f 2bbc 0601 fb3d 14e1 7d3d edd8 08bd
00000050: ae84 473e a2d3 fa3c 5a0e f93d fef7 313e
00000060: 2ab5 babd fa7d d63d 7070 c03d 2394 833d
00000070: bacc 683c a52b df3d aacd f3bd f217 a53d
0.07126579 -0.057434563 0.043615546 0.034455966 0.118580334 0.10942829 0.14920993 -0.1333295
-0.02564678 -0.05774666 0.04895145 -0.06461622 0.12042022 -0.00716358 0.001692949 -0.035687882
-0.010444592 0.122560546 0.06198223 -0.03341 0.19484207 0.030618493 0.121609405 0.17379758
-0.091165856 0.10473247 0.09396446 0.06424739 0.014208967 0.108969964 -0.11904462 0.08061208

fc3.weight f4 [3, 32]
00000000: 5798 6dbe 8c39 d3be 53f5 4abf 8810 573f
00000010: bed9 343f 1e84 233f ba40 8dbe f903 5bbe
00000020: e957 613f e3c8 703e 6362 32bf 4414 483d
00000030: 7f39 1ebf 7482 45be 653b 5d3e 56bb 233f
00000040: 93d3 10bf 905f a4be b3db 263f 3fea 0fbf
00000050: 9352 be3e 6cbc efbe 3fdd 843e 6f3c 78be
00000060: 8aa1 b93e 8f83 bfbe 8497 8b3f 37f4 47be
00000070: 2656 87be c807 573f bfd8 26bd c41d 673f
00000080: 81b2 2ebf deec 49bf b012 163d 1c5d 243f
00000090: df19 afbe 176e e5be a537 8a3f b58d 9fbf
000000a0: ef02 ea3e 88d5 793f dbbf 623f ca53 833f
000000b0: d398 0fbf 7a1d f1be e148 653f 62cb bdbf
000000c0: 50b0 8abe 28a9 e03c 0c47 9abe 1ee4 5f3f
000000d0: 0489 5c3f c83c 3fbf 8471 0f3f f000 6c3f
000000e0: 8397 8fbf 3b25 063f 10ad 05bf e3a4 823f
000000f0: f823 b13f 1346 a6bd a838 a7bf 7fb5 1f3e
00000100: 1322 023f 76d2 8f3e 0150 e1be 08d6 553e
00000110: 6ce4 b0be ca36 c8be 3858 273e dbde c03e
00000120: 2cca 84be 8af2 143d 281a 433e 529e e9bf
00000130: 961a a5bc 159c 363f 86f1 47be b88e bf3a
00000140: 6579 1cbf 79dd ffbe 4c9d 593e 0565 ddbd
00000150: 3ed3 8f39 c92c c9bd 35ca bcbd 1e05 393e
00000160: 88fb 4b3f 4aa7 aa3e 2020 993d 85b1 853e
00000170: 739d 0c3f 92d9 823d d8f5 4bbe 2a03 1ebd
-0.23202644 -0.41254842 -0.79280585 0.840096 0.7064475 0.6387347 -0.27588445 -0.21388234
0.88024765 0.23514132 -0.69681376 0.04884745 -0.6180648 -0.19288045 0.21604688 0.63957727
-0.56572837 -0.32104158 0.65178984 -0.56216806 0.37172374 -0.46823442 0.25950047 -0.24241804
0.36256057 -0.3740506 1.0905614 -0.19526754 -0.26432914 0.8399625 -0.04073405 0.90279794
-0.68241125 -0.78877056 0.036638916 0.64204574 -0.34199426 -0.44810554 1.0798231 -1.246512
0.45705363 0.9759145 0.88574 1.0259945 -0.56092566 -0.470928 0.8956433 -1.4827693
-0.2708764 0.02742441 -0.3013233 0.87457454 0.8614657 -0.7470212 0.56032586 0.9218893
-1.1218113 0.5240056 -0.522172 1.020657 1.3839102 -0.08118834 -1.3064165 0.15596579
0.50833243 0.28090256 -0.4400635 0.20882428 -0.34549272 -0.391043 0.16342247 0.37670025
-0.25935495 0.036364116 0.19052947 -1.825144 -0.020154279 0.7133191 -0.19525728 0.0014614677
-0.61122733 -0.49973658 0.2125141 -0.108102836 0.00027432473 -0.09822995 -0.092182554 0.18068358
0.7968068 0.33330756 0.074768305 0.26112 0.5492775 0.063891545 -0.19918 -0.038577236

fc3.bias f4 [3]
00000000: 8160 c03d 8239 ad3c 6c67 87bd
0.09393407 0.021145586 -0.06611523

exp_avg f4 [64, 8]
00000000: db63 7c3b 5a4f 7abc 337f aebb c7d7 82bc
00000010: d3f5 aa3c ce0a bfbb 59c7 9c3c 49fa b4bb
00000020: 068c c1b9 5c53 613c 8de8 ab3a c1ff 973b
00000030: 802f 1abc cbb5 a43b ecfd 87bc 241e 983a
00000040: ac15 f63a cd64 513c 5c69 173a 7802 543c
00000050: adc7 bb3c ee9d e03c c1ea 9c3b fd5a 1a39
00000060: a961 8f3b 8679 053b 2c9a b93b b5c8 c13a
00000070: 329c 85bc e4b4 91ba f611 8cbb 2492 b738
00000080: 31b8 0c3b 26a6 6f3b 8c3e b53b f045 a9bb
00000090: 61c1 eabb 5f21 f6bb d422 2bbc 9239 5d3b
000000a0: d655 28bb cd81 0ebc d944 e33b a746 8bba
000000b0: 83da a2bb 929a f0bb 0e7c ab3b 0031 83ba
000000c0: 49cf 1c3c 99d4 053b 1914 b3bb 9e75 ad3b
000000d0: 5b4e 1fbb 7a3e 043c e6af 89ba 7fd6 e23a
000000e0: 2d08 ea3a 9c34 303b f79d 81bb 85e4 1fbc
000000f0: 36fe 38bb e89a 403b 8dd8 b83b 0801 a7bb
00000100: e532 0d3c 9f92 ccbb 58fc 793b e4f0 af3b
00000110: 4629 33bc eaf8 1dbc 2eeb 1c3c 04df 42bc
00000120: 5c1c 1e3c 3a01 493b 0243 fe3b 1944 c4bc
00000130: 7682 0cbd b628 2fbd 2662 e0ba 2766 d8ba
00000140: ab7a c6b9 1a1f 023b 4c04 a8bc 82b1 e4bc
00000150: b0b6 fb3c 8711 af3c 3f4b 2bbc 095c 883b
00000160: b2d1 183a 4b04 143c a702 b1ba e88f 243c
00000170: 3df9 673b 17d1 20bb 27ce c5bb 9d70 123b
00000180: e72f 683c 88cf 053c 070f 403c 147d f2bb
00000190: ce16 6fbb f78c b53a d528 883c 413d c0bb
000001a0: 6abf fdba d97f 783a 5382 663b 0069 8c3c
000001b0: 60d7 00bc 1918 76bb 3aa5 3dbc 3a47 e33b
000001c0: 28f7 0aba 5817 d0ba 99a9 1cba 394f d3ba
000001d0: 6ac3 163b e131 c6b8 4cc0 5e3b 7ea3 a039
000001e0: 0152 323c 3501 a03c 0906 943b 4ecd d53a
000001f0: 4700 edbc bce1 0bbb 2df1 93bc b143 9a3b
00000200: 08b6 3dbb ea4c 65bb 784e 80ba 82d6 943c
00000210: 3512 2ebc 8d1f 373c 9e04 ddbb 9a15 b63b
00000220: f5e5 b1bb c3db 893b 7511 7abb 889a 823c
00000230: e672 823c a51c 603b fae4 b73a ea32 843c
00000240: dfc2 01bc 4b4c 053c 4e40 863b 5df6 bc3c
00000250: b677 62bc bd04 e53b 3966 46bc 8902 ed3b
00000260: b389 3cbb 9812 083c ba9d f7bb 1c19 49bc
00000270: a1b7 523c 61e4 863b 0ebd 063c 663f 5dbb
00000280: 224f 78bb 7a25 643a 22e9 f2b8 a93b 4bbb
00000290: 4dee 543b ecdb 25bb 5e07 0ebb 3eae 273b
000002a0: aa5c 58ba 0952 a5bc f021 9639 0a40 c83b
000002b0: 8cc3 f33c f801 a43c 2b68 c83c 73ff b83b
000002c0: 31ec d53b ae27 c9bb 5105 753c 8630 8cba
000002d0: 1d0d 11ba 1946 673c 8f0e 073c 4d5b ba3b
000002e0: 0754 833b 834f a83b 3cb4 b13a 955d 42bb
000002f0: 7226 a9bb 5031 83ba 7c69 7a3b 6e16 1639
00000300: 582a 83bc ddd6 2dbc 51e2 363b e972 003d
00000310: 2e89 b83c a73a 1dbc a411 fb3c 7974 ffbb
00000320: 4509 c1bb 2aea 9e3b e131 1c3c 7a3a 263c
00000330: 2477 4dbc 23d8 76bc 50ca 8839 f00e ddbb
00000340: 7ef0 0dbb a4c3 273c ed73 ceba aa7a 413c
00000350: ab08 8f3c db71 be3c 9bf8 283b a473 81ba
00000360: de63 56ba f1a4 7a3b 8788 37bc 153e afbb
00000370: 2b1f d23c aca2 da3c fb62 a53a 2cff 893b
00000380: a16f a13a b2f0 e83b b086 babb 1690 3abc
00000390: 72dd 3cbb b502 0cbb 3320 3abc 3cfc 313c
000003a0: a32f 6ab8 0e89 593b ece1 a5ba 3399 b13b
000003b0: 4c02 303c f434 673c 9d8b 27bc b646 853c
000003c0: 9400 d0ba eb3e 02bb 173c 223c fe48 9fbb
000003d0: 5852 c3bc a93e d8bc 5052 9fbb 1797 8abb
000003e0: 06b8 71bb bed9 893b 60c4 1bbc f50e ab3b
000003f0: a39c 803b 7c20 b43a c3fa 8fbb 03e8 b63a
0.0038511667 -0.015277708 -0.005325222 -0.015972031 0.020869171 -0.0058301454 0.019138025 -0.0055230004
-0.00036916154 0.013752785 0.001311557 0.0046386425 -0.009410739 0.005026554 -0.016600572 0.0011605662
0.0018774769 0.01278038 0.00057758926 0.012940042 0.022922361 0.027419057 0.004788727 0.0001472048
0.0043756557 0.0020366623 0.0056641307 0.0014784547 -0.016309831 -0.0011116532 -0.004274602 8.753341e-05
0.0021472091 0.0036567538 0.005531138 -0.005165808 -0.007164166 -0.0075113024 -0.010445315 0.0033756238
-0.0025685928 -0.008697939 0.0069356975 -0.0010625914 -0.0049698963 -0.007342645 0.0052332943 -0.001000911
0.009570905 0.0020420908 -0.0054650423 0.005293562 -0.0024308178 0.008071536 -0.0010504692 0.0017306356
0.001785522 0.0026886826 -0.0039555985 -0.009759073 -0.0028227693 0.0029389206 0.0056410492 -0.0050965585
0.008618091 -0.0062430645 0.0038144793 0.0053692926 -0.010935133 -0.009641865 0.009577556 -0.011893991
0.009650316 0.0030670897 0.007759453 -0.023958253 -0.034304105 -0.042763434 -0.0017119094 -0.0016509936
-0.00037856898 0.0019854964 -0.020509861 -0.027916674 0.03072676 0.021370662 -0.010454952 0.004161362
0.0005829587 0.009034227 -0.0013504819 0.010044076 0.003539636 -0.002453869 -0.006036538 0.0022344955
0.014171577 0.008167155 0.011722333 -0.0074001644 -0.0036482099 0.0013851215 0.016621033 -0.005866677
-0.0019359414 0.00094795 0.0035172894 0.017139912 -0.007863849 -0.0037550984 -0.011575038 0.006935981
-0.00053011114 -0.0015876098 -0.00059762 -0.0016121633 0.002300466 -9.4506664e-05 0.003398913 0.0003063939
0.010883809 0.019531826 0.004517321 0.0016311796 -0.028930796 -0.0021344265 -0.018059338 0.0047077765
-0.002894761 -0.0034988471 -0.000978901 0.018168692 -0.010624458 0.011176956 -0.006744935 0.0055567743
-0.0054290243 0.004207106 -0.0038157378 0.015942827 0.015923928 0.003419676 0.0014030032 0.016137559
-0.007919996 0.008135865 0.004097021 0.023066694 -0.013822487 0.0069890902 -0.012109333 0.007232968
-0.0028768599 0.008305214 -0.0075566443 -0.012274053 0.012861163 0.0041165804 0.008223785 -0.0033759712
-0.0037888964 0.0008703094 -0.000115828836 -0.0031010902 0.003249067 -0.0025308086 -0.0021671872 0.0025586034
-0.0008253554 -0.020180719 0.00028635515 0.0061111497 0.02975633 0.02002047 0.024463734 0.0056456863
0.0065284004 -0.0061387634 0.014954881 -0.0010695613 -0.0005533265 0.014115834 0.008243217 0.0056871534
0.0040078196 0.0051364317 0.0013557742 -0.002965783 -0.0051620537 -0.0010009203 0.0038209846 0.0001431347
-0.016011402 -0.010610309 0.0027905891 0.031359587 0.02252635 -0.009596503 0.03064806 -0.007795867
-0.0058909976 0.004849692 0.009533376 0.010145778 -0.012540612 -0.015066179 0.00026090676 -0.0067461655
-0.0021658237 0.010239515 -0.0015751101 0.011809031 0.017460188 0.02324765 0.0025782946 -0.0009876383
-0.00081783335 0.0038245285 -0.011201984 -0.005347977 0.025649628 0.026688896 0.0012618 0.004211327
0.0012316593 0.0071087712 -0.0056923255 -0.011386892 -0.0028818515 -0.0021363918 -0.011360216 0.01086336
-5.5834313e-05 0.0033193263 -0.0012655831 0.005419874 0.010742735 0.014111746 -0.0102261575 0.01626907
-0.0015869313 -0.0019873928 0.009902022 -0.0048609963 -0.023842975 -0.026397066 -0.0048621073 -0.004229437
-0.0036883368 0.004206865 -0.009507269 0.005220289 0.0039249226 0.0013742591 -0.004393907 0.0013954643

exp_avg_sq f4 [64, 8]
00000000: 466c b63a 2d37 fa3a 64ea 103b ebaa d63a
00000010: f786 e13a 8c73 fc3a beb6 c33a abc5 d73a
00000020: 926a d839 cd8b 093a 1243 073a 25a5 613a
00000030: 257f fa39 c7fc 1a3a 1ee9 cc39 9fc9 093a
00000040: a93a d33a bca6 b33a ddda 963a 213f d63a
00000050: ac85 943a 88ec 153b 7c86 eb3a 2d2e 933a
00000060: 667a fd38 6cba 6a39 331a 5939 b71a 2639
00000070: 629f 4939 9d7c 1139 b565 2839 64c8 c638
00000080: bb1b 8c38 ea7b 0439 fd78 6a39 0f98 3139
00000090: cb14 7439 4834 2939 ed2a 0c39 fa62 0939
000000a0: e26f 2739 c7b0 9439 423f e138 2bc5 7b39
000000b0: d212 aa39 a670 2a39 2d89 7139 003d 3c39
000000c0: c13f 123b 5d40 8b3a 03a9 933a 62ac a43a
000000d0: ccd9 433a 840c e13a e0e8 be3a 2ec4 913a
000000e0: c41e ee39 a2c5 273a 2898 8539 4241 8139
000000f0: 81ca 3d39 04f5 4b39 270b 8439 09a8 a539
00000100: 94d4 ba39 d2a4 b039 0e8e 2c3a 0011 dc39
00000110: 99c9 a039 78a6 e039 62cb 3139 4b6e 023a
00000120: b06c 853a 9542 933a e5af 973a 504f a43a
00000130: 0808 b83a 42e5 153b 0e9a 8f3a 5abf 513a
00000140: b88c 673a 29ee 793a 0ccd 543a 6e5e 373a
00000150: 9f30 253a d3eb 9839 4e02 203a 09f0 da39
00000160: ea3d 1839 013e 1939 a749 1739 e161 4939
00000170: 63e2 e738 8a75 1939 2013 4139 24e9 cc38
00000180: 2b50 a339 0e6f c339 00e0 8939 9229 9839
00000190: 0404 8939 bb6c a439 043d b439 d6df 5639
000001a0: 15a3 1539 ee69 8d39 ad31 d238 5b20 5639
000001b0: c1f8 a439 6580 4d39 9aa4 d839 a08a 6d39
000001c0: 6088 2b39 0d3f 0a39 c625 3539 3fce 1339
000001d0: 661b 0339 ffe3 3739 2573 c238 8dde b138
000001e0: ce79 3e3a a20f cf3a 00bc 863a 95ea ad3a
000001f0: 0e5e 9e3a d63a 833a 7582 9c3a 2318 863a
00000200: 0b72 0d3a 92df 443a 8dd3 6d3a aedb 803a
00000210: 1d00 163a 9a7a d839 b9f5 d439 a5b9 6339
00000220: 4554 c43a 2340 733b 9d23 863a 18db c83a
00000230: eae7 283b 516b 2e3a 7483 233b 0107 af3a
00000240: b4d8 f839 42ed 6a3a 2608 c939 84f2 253a
00000250: 77d2 473a 3b5d d039 0bd8 2c3a 0f21 e439
00000260: 5ec1 e438 c61f e838 ff3a 8238 a2fd de38
00000270: e8f3 9138 d65e 5138 28b1 f738 273d b337
00000280: 7ce4 b839 c74c 8639 9e6e 023a a55e b039
00000290: 039c 8c39 3c08 d139 f6c4 5c39 e163 7d39
000002a0: 8089 123b 61c2 183b 5b9a 483b a4ee 503b
000002b0: d5e6 453b 9dd4 8f3b f721 283b 78e7 1a3b
000002c0: b53a bf3a fac9 f83a c3fa f73a adf7 013b
000002d0: 40c2 dc3a ee38 eb3a a061 e23a 5eed 0f3b
000002e0: 84a4 603a 456a 1b3a 322e 343a 960c e239
000002f0: 8b25 3939 4bb0 6339 9d4d aa39 fb82 b739
00000300: d094 ee3a b1e5 103b 90cc 363b b30f 213b
00000310: a87c e23a 20ba 063b f29d 0a3b 1d83 bf3a
00000320: 02ce 1639 6e8e 6739 69f7 1a39 fc5c 4a39
00000330: ab55 8039 6dad 6939 6879 9039 e95e 1239
00000340: a212 d23a 9bed 163b bcd0 8e3a 5a5a a53a
00000350: c354 8f3a 84ce 383a 49f7 bb3a 3381 703a
00000360: 17e6 1439 6349 2f39 d47a 3239 6eaa 8a39
00000370: 6e2f ac39 f25e b939 5c70 3039 e36f 1e39
00000380: 08a3 9138 a6d7 e338 4072 d838 2965 0f39
00000390: faa9 fc38 793b de38 cfa9 0939 780e a438
000003a0: f610 bf39 17af 9139 0427 0f3a 2268 e339
000003b0: 747f f439 6b40 0f3a 23e2 af39 2454 d139
000003c0: a741 f639 524d 253a 4fc7 183a 8252 e939
000003d0: 8fcb 043a e155 263a df57 c639 0d14 123a
000003e0: 6b2e 8b39 c073 ca39 2a11 9139 0a1a 9f39
000003f0: c037 d239 6c89 6f39 7b1a 8139 f441 b739
0.0013917766 0.001908993 0.0022112364 0.0016377842 0.001720636 0.001926051 0.0014931781 0.0016462108
0.00041278132 0.0005246967 0.00051598356 0.00086076773 0.00047778446 0.00059123005 0.00039083598 0.0005256179
0.0016115505 0.0013706307 0.0011509318 0.0016345718 0.0011331341 0.002287658 0.0017969157 0.0011228971
0.000120867786 0.00022385427 0.00020704493 0.00015840946 0.00019228228 0.000138747 0.00016059617 9.4787014e-05
6.6808854e-05 0.00012634663 0.0002236105 0.00016936682 0.000232774 0.00016136572 0.00013367432 0.0001310221
0.0001596804 0.0002836047 0.00010740619 0.00024010676 0.0003243895 0.00016254428 0.00023034653 0.00017951801
0.0022315832 0.001062404 0.0011265579 0.0012563581 0.0007471114 0.0017169868 0.0014565252 0.0011121088
0.0004541782 0.0006399994 0.00025481102 0.00024653418 0.00018099883 0.00019450864 0.0002518531 0.00031596448
0.00035635068 0.00033692137 0.0006582447 0.00041974336 0.0003066778 0.00042848638 0.00016955801 0.00049755414
0.0010179486 0.0011235053 0.0011572806 0.0012535844 0.001404048 0.0022872244 0.0010955946 0.0008001231
0.00088329194 0.0009534085 0.00081177126 0.0006994967 0.00063014956 0.00029167402 0.0006103859 0.0004175904
0.00014518914 0.00014614315 0.0001442792 0.00019205316 0.00011057106 0.00014635004 0.00018413039 9.770904e-05
0.00031149513 0.0003727604 0.0002629757 0.00029022672 0.00026133668 0.00031361528 0.00034377736 0.00020492016
0.000142705 0.0002697254 0.00010022833 0.00020420684 0.00031465854 0.00019598154 0.00041321368 0.00022653723
0.00016358634 0.00013184194 0.00017275577 0.00014095845 0.0001250334 0.00017537175 9.272088e-05 8.481471e-05
0.0007266075 0.0015797506 0.0010279417 0.0013268763 0.0012082474 0.0010012041 0.0011940735 0.0010230582
0.0005395717 0.0007510121 0.0009072356 0.0009831095 0.0005722063 0.00041290076 0.0004061887 0.00021717565
0.0014978728 0.0037117086 0.0010234002 0.0015324084 0.0025772997 0.00066535646 0.0024950178 0.0013353528
0.00047463703 0.0008961746 0.0003834378 0.0006330388 0.0007622609 0.00039742314 0.0006593472 0.0004351218
0.00010907905 0.0001106854 6.209872e-05 0.00010633028 6.95957e-05 4.9917806e-05 0.00011810876 2.136694e-05
0.0003526545 0.00025615675 0.00049755897 0.00033639852 0.0002681912 0.00039869722 0.00021054209 0.00024165168
0.0022359788 0.0023309218 0.003060958 0.0031880522 0.00301974 0.004389359 0.002565501 0.0023636501
0.001458964 0.0018981092 0.0018919337 0.0019831464 0.0016842559 0.0017946044 0.0017271526 0.002196155
0.00085694366 0.0005928616 0.0006873339 0.00043115456 0.0001765696 0.00021714081 0.00032482753 0.00035002068
0.0018202309 0.0022109563 0.0027892925 0.0024576008 0.0017279582 0.0020557716 0.0021151272 0.0014611218
0.00014381859 0.00022082936 0.00014778752 0.0001929886 0.0002447789 0.00022285218 0.00027556275 0.00013959002
0.0016027282 0.0023029807 0.0010895948 0.0012615428 0.0010935295 0.0007049816 0.0014340664 0.00091745256
0.00014200095 0.00016716639 0.0001702116 0.0002644839 0.00032841734 0.0003535669 0.00016826525 0.00015109735
6.944506e-05 0.00010864371 0.00010320963 0.00013675228 0.00012047957 0.000105968626 0.00013128597 7.8228244e-05
0.00036442996 0.00027787007 0.0005460831 0.000433744 0.00046634267 0.0005464616 0.00033547086 0.00039926276
0.0004696969 0.0006305772 0.0005828039 0.00044502696 0.0005065733 0.00063451944 0.00037830972 0.0005572446
0.0002654673 0.00038614683 0.00027669343 0.00030346244 0.00040095858 0.0002284401 0.00024624527 0.0003495362

exp_avg f4 [64]
00000000: da8c 62bc a0ec 3a3c 608b abbc 1756 9e3b
00000010: 8711 d13b 024b 663b 7c9e 8cbc 3496 01bc
00000020: c49f ba3b a062 193d 81ee b7bc eda3 a53b
00000030: 088b 49bc 3c51 2b3c bd85 32bb 56c0 223c
00000040: 9557 20bc a663 47bb 8aa9 8f38 d789 fdbb
00000050: 2293 733b 96c3 28bd 7d0d 8abc 1a5b 76ba
00000060: be73 3c3b 7a81 9e3c 51c9 96bc 77f4 dabc
00000070: 1dc6 9b3b 06de 1abc 95fe bb3c ad19 083c
00000080: 2f85 383b 8530 e73c c0a8 063c 169a afba
00000090: b476 953c 62e2 33bb 3749 02bd da8f 463b
000000a0: 7cfd a03b 5e9d 8c3c b79f 41bb b3f1 cdbc
000000b0: d092 fcbb 6dfa 3f3c 3ab4 5c3c 1973 d43c
000000c0: 3d3f 243d e1e0 15bd c1ff 923c e772 963c
000000d0: f437 9a3b e4bc 8dbc 3cf8 373c 42de bdbc
000000e0: 7edc 23bc 0513 39bd 3246 a4bb 72bd b33b
000000f0: 66d7 50bc 4f21 43bc 4faa 463c a5a2 f73b
-0.013827527 0.011408955 -0.020940483 0.00483204 0.0063802633 0.0035139923 -0.017165415 -0.007909346
0.005695315 0.03744757 -0.022452595 0.005054942 -0.012301214 0.0104563795 -0.0027240359 0.009933552
-0.009786506 -0.0030424385 6.8503505e-05 -0.007737379 0.0037166555 -0.04120215 -0.016852135 -0.00093977305
0.002875551 0.019348849 -0.018406542 -0.026727898 0.0047538416 -0.009452349 0.022948543 0.008306903
0.0028155555 0.028221378 0.008218944 -0.0013397362 0.018245079 -0.0027448167 -0.031808104 0.0030298145
0.00491303 0.017164882 -0.002954466 -0.025139665 -0.007707931 0.011717421 0.013470704 0.02593379
0.04009937 -0.036591414 0.017944219 0.018365337 0.004706377 -0.017301984 0.011228617 -0.02317727
-0.0100013 -0.045184154 -0.0050132507 0.00548523 -0.0127466675 -0.011909797 0.012125566 0.0075572305

exp_avg_sq f4 [64]
00000000: f24e c73b 12a0 ec3a 4429 ab3b ea16 c239
00000010: a4d0 b539 6da8 133a 9052 9b3b f301 6d3a
00000020: 6658 aa3a 3907 623b 4411 ef3a 718c b839
00000030: 4bce 663a b535 253a dfc9 b039 bd37 793b
00000040: ce33 d43a 79eb 9a3b e1c8 cd3a 9fba 4939
00000050: f1ff 6d3a 077b 303c 5a90 ce3b 59ab a03a
00000060: 0369 d93b 70a0 2d3a 4bc5 653b 14cb 113a
00000070: 80b6 6f39 5702 9a3a b886 e33a 0dde 703a
00000080: e4fa 503a 3b7d 893b c02d da39 11a4 913b
00000090: 4a3c 863a 1b81 df3a 3c1b ff3b 6c79 0d3b
000000a0: 7110 6839 a6ce 063a abb8 c83a 94e3 3d3c
000000b0: 7851 373a 87ac 8e3b 7e00 063c b404 073b
000000c0: 21ee c13b 25f0 463c 8b1b 863b cc4c 1d3b
000000d0: 215c 653b c125 3e3b cc0c 0f3c 0a65 803b
000000e0: dd15 ff39 1503 443b 7135 133b e88f 933a
000000f0: 9402 323a de25 7b3b 6b40 563a 9d18 823a
0.006082409 0.0018053076 0.005223425 0.00037019636 0.0003467846 0.00056327024 0.004740067 0.0009041123
0.0012996315 0.0034489168 0.0018239398 0.00035199852 0.0008804544 0.00063022535 0.00033719742 0.0038027607
0.0016189755 0.0047277776 0.0015700125 0.00019238376 0.0009078971 0.0107715195 0.006303829 0.0012258097
0.006634833 0.00066233333 0.0035060223 0.0005561572 0.00022860803 0.0011749965 0.0017358875 0.00091883616
0.0007971956 0.004195837 0.00041614287 0.004444607 0.0010241356 0.0017052026 0.007785229 0.0021587266
0.00022131369 0.00051424874 0.0015313824 0.011589903 0.0006993036 0.004354063 0.008178828 0.0020602169
0.0059182798 0.012142216 0.004092639 0.0024002073 0.003499754 0.0029014202 0.008731078 0.003918295
0.0004865368 0.0029909064 0.0022462273 0.0011258097 0.00067905453 0.003832213 0.0008173051 0.0009925548

exp_avg f4 [32, 64]
00000000: da2c e4bb 66fa 8eba 733b 3cbc 7baf 80bb
00000010: f423 c238 f5f3 88bc 88a6 c2ba 8a88 7bba
00000020: 4b22 d03a 7c35 3d3b 93e0 99ba 96ff e8bb
00000030: 3164 aabb 6e04 59bb d561 47bb b0c8 7ebb
00000040: 30b2 1ebb 3cce e239 1fb7 8abb 0ec4 aebb
00000050: d0ec 95bb 112a 7cbc 5133 343a a258 0fba
00000060: 7cfa d1bb 2497 6bbc ddbd c6bb b519 1d3b
00000070: 3ce8 25bc 6e96 09bb 6b3f 203a a806 f3ba
00000080: a39b a1bb 6eb0 b1bb a263 51bc 9016 91bb
00000090: 94df 04bc 8be8 5bba 0510 8a3a 56f4 43bc
000000a0: 7a7d 13bb 8b83 adbb e58b da38 e87b 07bb
000000b0: 5bd7 0d3b 0a9e dd3a fb9d 05bc 9f55 23ba
000000c0: ad76 38bc 2b27 cbb9 6efa 16bc 62f7 54ba
000000d0: 8e29 52ba c27e b23b 0569 fcbb a4e0 c6bb
000000e0: 236f 03bc ad1e a5bb 62b8 37b9 b866 98bc
000000f0: f186 e03a 3aed fb3a 769d 85bb 98da 99bb
00000100: d4ac 22bc 70aa 8abb 8f61 62bb 9444 2cbb
00000110: 9ce6 caba 51af 6bbc 1b13 b1bb acc8 68bb
00000120: 694c 80bb bb6f fa39 3b48 e2ba ac27 a0bb
00000130: 593e 5fbb 78de c5bb 070c 35bc 0951 f5bb
00000140: f8e6 47bb 3e53 f139 afa2 eabb 26a4 9ebb
00000150: feed 15bb 7272 35bc f40d 32bb cfc2 6eba
00000160: 14da 2bbc 2c21 0bbc ee50 76ba a14c d5ba
00000170: 7231 9fbb 5e9c a2ba ded3 aeb9 40ee eeba
00000180: 26e2 05bc b003 9fbb 2186 13bc 4f85 e4bb
00000190: fbfe 29bc da96 83ba 99ba d8bb d2a5 1cbc
000001a0: 2e33 90ba a0db 90ba dd6b c039 204a e3ba
000001b0: bca5 1f3b 9105 13bb b772 2bbc 9cc5 20bb
000001c0: 349a 32bc 9781 99bb 6e7b 83bb b4f3 aeba
000001d0: df42 66bb 167f ebb9 1518 0bbc 103a 46bb
000001e0: 80b9 c0bb e821 abbb 837a e8ba 7b46 edbb
000001f0: f35f 30b9 9b0e 37ba 264b 0abc c28a 12bc
00000200: 8631 cfbb 4e0d bdba 542b cf3b 8e6d ff3b
00000210: 039f a4ba de6d bebb 64e7 4fbb 07b3 d2bb
00000220: d8d0 833b 5e62 8a3b 3b59 35bb ae44 adbb
00000230: 03f8 41ba b626 99bb 3c43 b6ba db1c 1d3c
00000240: b6ef 25ba f952 c1b9 ba99 24bb 41ef 9fbb
00000250: 3ee7 7cbb 3c15 a0bb 1c87 503b 7768 5b37
00000260: ef09 82ba 8042 1b3c c8d5 923b 6e84 b13a
00000270: c44e d0ba 2e64 00bb 7754 b83b 4ee4 1237
00000280: ae20 a1ba 64e1 d6ba 861c 83bb 8958 1d3c
00000290: 87f3 513a 160b 0ebb 9541 103b a0ea cebb
000002a0: 7a31 e0ba f338 7fb9 e6e8 b2b7 ba8a 7f3a
000002b0: dff2 a837 4a50 083a fa5c c5bb a679 f93b
000002c0: ae24 d5ba 3820 2e3b 421b 51bb 22dc 1ebb
000002d0: 7673 5ebb 36e3 24bb ede1 edbb 03b8 af3b
000002e0: 1c88 a13a 9a73 93ba b6c5 40ba 1bf7 243b
000002f0: 1bfd a23b c670 e43a 0a55 003a 67d8 7c3a
00000300: e825 953b 5e89 e7bb 1832 b4bb 5098 9dbc
00000310: a733 1d37 3335 263c 54d7 53ba 5bd7 b53b
00000320: c1af 8abc 7fb2 a8bb bf4b 5dbb 8754 473c
00000330: 6899 9d3b 2652 7e3b be85 3ebb f45f a3bc
00000340: 47fc b43a 2a1b 643a 648b 5a3b 04dc c13b
00000350: 79c5 b63b 9917 09bb 857e acbb 31e6 583a
00000360: c6cd 18bc 3d9a 8e3a 552d 00bc 804b 45bc
00000370: 8986 e53b 613b e239 5280 68bc 7c56 9d3a
00000380: 4c22 62bb 6509 6c3b b2f2 e53b 341c 33bc
00000390: e87b 4aba af2f 513b f074 babc f35b a53b
000003a0: ae5a 4d3b 6ea4 693b 19de b6b8 5126 833a
000003b0: 9a0c 6bba 4f60 fabb dab0 133b 522d 6ebc
000003c0: 3e49 ab3b 0ade edbb f45b 18bb b870 eebb
000003d0: eef6 cf3a 82e1 44bc c8d2 a63b b261 0ebb
000003e0: 2d66 0d3b 7eda 2b3b c4df e3b9 fc50 333c
000003f0: e736 e5bb 1073 09bc 659b 0bbb 07b5 cebb
-0.0069633545 -0.0010908365 -0.011488783 -0.003927169 9.257338e-05 -0.01671789 -0.0014850656 -0.0009595236
0.0015879361 0.002887099 -0.0011739902 -0.0071105463 -0.005199932 -0.0033114213 -0.0030423303 -0.0038876943
-0.0024215095 0.00043259736 -0.0042332555 -0.00533343 -0.0045753494 -0.015390889 0.0006874102 -0.00054682244
-0.006408034 -0.014379296 -0.006065114 0.0023971621 -0.01012617 -0.0020994204 0.00061129656 -0.0018541412
-0.0049318834 -0.0054226434 -0.012780102 -0.0044277385 -0.008109946 -0.00083888386 0.0010533339 -0.01196011
-0.002250521 -0.005295222 0.000104211074 -0.002067322 0.0021643254 0.0016908061 -0.008155341 -0.0006230715
-0.011258763 -0.0003874836 -0.0092149805 -0.0008124021 -0.00080170564 0.0054472396 -0.007702949 -0.0060692597
-0.0080221025 -0.005039057 -0.00017520928 -0.018603668 0.001713006 0.0019220479 -0.0040776087 -0.004695248
-0.009928901 -0.0042317435 -0.0034543013 -0.0026285993 -0.0015480104 -0.01438506 -0.005403889 -0.003552
-0.003915359 0.00047766962 -0.0017263958 -0.0048875418 -0.0034064262 -0.006038483 -0.011050231 -0.007486467
-0.0030502658 0.00046029122 -0.0071605067 -0.0048413454 -0.002287745 -0.011074649 -0.0027168961 -0.0009108008
-0.010489006 -0.0084917955 -0.0009396215 -0.0016273448 -0.0048581893 -0.001240622 -0.0003334572 -0.0018228963
-0.008171594 -0.0048527345 -0.009004147 -0.0069738994 -0.0103757335 -0.0010039464 -0.006614041 -0.009561019
-0.0011001581 -0.0011051781 0.00036701458 -0.0017340817 0.002436026 -0.0022433738 -0.010464362 -0.0024531847
-0.010901023 -0.0046846378 -0.0040125167 -0.0013347776 -0.0035135073 -0.0004491738 -0.008489628 -0.003024701
-0.0058814883 -0.005222548 -0.0017736707 -0.007241068 -0.00016820412 -0.00069830724 -0.008440768 -0.008944215
-0.0063230423 -0.0014423521 0.006322304 0.0077950424 -0.0012559596 -0.005811437 -0.0031723613 -0.006430033
0.004022699 0.004223152 -0.0027671594 -0.0052877283 -0.00073993223 -0.004673804 -0.0013905535 0.009589399
-0.000632997 -0.00036873648 -0.0025116042 -0.004880816 -0.003858998 -0.004885344 0.0031818813 1.307774e-05
-0.0009921173 0.009476304 0.004481051 0.0013543495 -0.0015892615 -0.0019590962 0.0056253034 8.7554345e-06
-0.0012293065 -0.0016394076 -0.004001203 0.009603628 0.00080090057 -0.0021674088 0.0022011746 -0.0063145906
-0.0017104589 -0.0002433991 -2.1327705e-05 0.000974815 2.0140256e-05 0.0005199952 -0.0060230466 0.0076133786
-0.0016261542 0.0026569497 -0.0031907116 -0.0024240096 -0.0033943332 -0.0025159842 -0.0072595985 0.005362512
0.0012323889 -0.0011249662 -0.000735368 0.00251717 0.00497402 0.0017428629 0.00048954843 0.00096452836
0.004551638 -0.007065936 -0.0054991357 -0.019237667 9.3699555e-06 0.01014452 -0.00080810976 0.005549354
-0.01692951 -0.0051482315 -0.0033767072 0.012166149 0.004809547 0.0038806289 -0.0029071416 -0.019943215
0.0013808095 0.00087015575 0.0033347243 0.0059161205 0.00557774 -0.0020918606 -0.0052641057 0.0008274047
-0.009326404 0.0010879707 -0.007823308 -0.012041926 0.007004563 0.0004315032 -0.01419075 0.0012003924
-0.0034505306 0.0036016342 0.007017457 -0.010932017 -0.0007724152 0.003191929 -0.022760838 0.0050463616
0.0031334567 0.0035650986 -8.719805e-05 0.0010005926 -0.00089664164 -0.0076408754 0.0022535832 -0.014537172
0.005227237 -0.007259135 -0.0023248168 -0.0072766207 0.0015866437 -0.012016656 0.005091045 -0.0021725711
0.0021575794 0.002622276 -0.00043463532 0.010944601 -0.0069950703 -0.008389249 -0.002130234 -0.0063082012

exp_avg_sq f4 [32, 64]
00000000: 39ea 253a 524a 1539 7339 823a 41d6 6f3a
00000010: d955 a438 e156 7a3a b47d a339 916a b539
00000020: d8bb 423a 0032 9a39 dd31 533a 1a8c 0e3a
00000030: 0d52 3839 d656 0939 cacb 7339 427f b33a
00000040: f749 ef38 f4a7 1638 d7c9 0f39 1f0a 3439
00000050: be8e 0539 0698 bf3a 9e8b 2e3a 097b e637
00000060: c929 253a 2c61 5f3a 7a4a 703a 19c2 e439
00000070: d57d 0c3a 3f6e d539 d0a1 343a 3ff6 8f39
00000080: 6c95 233a 87dc 1039 aec3 e539 5eba 583a
00000090: 760d 293a 066c b739 8a93 6e3a b8a7 673a
000000a0: c945 9138 d191 8239 bb92 1138 683b 8d37
000000b0: fd68 f039 bcae 8c38 7570 a139 c262 3c3a
000000c0: 074f dd39 742b 9239 31b2 913a f591 c439
000000d0: 7e47 2838 a125 b439 728e 183a 43f3 c539
000000e0: a6e6 a83a ab62 ab38 e5d4 1837 9e28 323a
000000f0: 22ed 0639 d69e c838 1b54 1b39 4b81 3c3a
00000100: 8310 213a 36ac b438 74b2 fe38 3480 e038
00000110: 8ccd 6638 1240 8f3a 6d75 3d39 91b3 a339
00000120: 4191 a839 3b2e 5138 1c2c 173a db6d 9d39
00000130: 9c6b 7338 52bd 1139 83a2 8739 3227 ed39
00000140: 309c 2339 be1a 2e38 7e93 4839 e2a0 0139
00000150: f673 8638 641a 553a e788 a639 6b1f 0738
00000160: 70f1 ed39 4787 8839 7b38 5639 020e 7b39
00000170: befb 6c39 06e9 0d39 e19f 7a38 14a1 7c39
00000180: d2c5 283a 9f2d d238 31ad 6a39 458a 3539
00000190: 5876 8439 8c45 ff39 7a0e db39 1f5c 6a3a
000001a0: 0371 a938 6b76 7637 1d35 4a38 768f fb36
000001b0: f726 8139 5be5 2e38 50ec b339 819a 8038
000001c0: 4d46 9e39 a985 2338 6946 ff39 f6cb d638
000001d0: 27a6 5b38 0211 7839 2795 3e3a 88f3 8739
000001e0: 3093 1e3a 9ddf 5138 d7bb 8a37 2976 a939
000001f0: 04b1 c737 312e a336 f1c5 0739 9253 093a
00000200: 127d 5e39 5cf2 7d38 4b26 263a ed1e 8439
00000210: b356 5c38 225e df39 9671 6939 802f 3339
00000220: 0e21 2f39 acdb 5839 e0fb 2339 8521 8c39
00000230: 7a30 1339 f19b de38 8513 5339 7a38 0f3a
00000240: 9d51 8837 50aa 9236 23c9 b038 4fa7 cb38
00000250: eca9 9a38 b2f4 2e3a eed2 af39 1fb4 9035
00000260: a468 2239 fe9f 283a bcf3 cf39 6022 2538
00000270: f8bd 6839 6c33 6939 4cfd be39 6cf0 9138
00000280: f1f1 4e39 8168 6638 01b9 d739 55e1 fd39
00000290: 0530 193a 44ee 3d38 d5bc ff38 4ad8 7b39
000002a0: b9f8 8437 dc29 3539 dbf3 ea35 f4b8 1f37
000002b0: f1ee 8039 3023 f936 c1a6 2239 bff0 c539
000002c0: 3269 ba39 0669 9239 e8e0 003a b552 0639
000002d0: 2d5c d137 9397 0938 c3ac 2a39 4149 1439
000002e0: 458e 863a 3e7e d938 9329 a936 d3dc e439
000002f0: 4725 9738 a6e1 8338 4305 b238 121a 9b39
00000300: 0698 e639 6b4d 5b39 a76e 4c3a 8d34 663a
00000310: 5986 ee36 a07b 0c3a 5c2b 2339 3def 6539
00000320: 94e5 633a c87a 0c39 9d89 313a 52a4 053a
00000330: e866 4539 8690 9738 166c 8b38 48e8 403a
00000340: a2bf ed38 2292 9f37 26a5 9138 79ce 0039
00000350: 544f eb38 3edf 673a 18de aa39 b549 c537
00000360: cd44 e039 e0c8 5b39 790f 483a 3dd6 ea39
00000370: aef1 013a 8dcd c439 73ad 0c3a 140c 8139
00000380: fc9e d239 436e 9b38 9008 ab39 7ed1 043a
00000390: e33c d339 91f7 8739 4c6e 773a 6e10 1d3a
000003a0: 3a57 b138 ce55 2039 7467 bd37 8539 2137
000003b0: e9e9 da38 1d2f b038 3cdb 2239 3f4a 153a
000003c0: 1a3a 8c39 cfa4 0d39 066b 453a 5f08 c339
000003d0: aa26 7637 6c3e e239 986c c039 00cf 7239
000003e0: d840 013a 3d9a a738 0c6f fb35 c818 d139
000003f0: 154b c938 bd40 da38 ece8 f838 2fa7 ce39
0.00063291524 0.00014237434 0.0009935334 0.0009149053 7.83612e-05 0.0009549689 0.0003118344 0.00034602408
0.00074285036 0.00029410422 0.00080564414 0.0005437747 0.00017578174 0.00013097687 0.00023250203 0.0013694542
0.00011410185 3.5919205e-05 0.00013712734 0.00017169908 0.00012737044 0.001461745 0.0006658378 2.747543e-05
0.0006300477 0.00085212546 0.00091663713 0.00043632163 0.00053593266 0.00040708666 0.0006890567 0.00027458553
0.0006240222 0.00013815063 0.00043824076 0.0008267517 0.0006448844 0.00034984964 0.00091009645 0.0008836943
6.927137e-05 0.00024904174 3.4707347e-05 1.6836173e-05 0.0004585459 6.708267e-05 0.000307921 0.0007186347
0.00042211285 0.00027879665 0.0011115727 0.0003749278 4.0120904e-05 0.0003436031 0.0005819566 0.00037756012
0.0012886121 8.172294e-05 9.109474e-06 0.00067962136 0.00012867575 9.566329e-05 0.00014813284 0.0007190897
0.0006144123 8.6151456e-05 0.00012144903 0.00010705032 5.5027704e-05 0.0010929129 0.00018068189 0.0003122357
0.0003215168 4.987254e-05 0.00057667657 0.00030027222 5.8035934e-05 0.00013898805 0.00025870287 0.00045233365
0.00015603076 4.150974e-05 0.00019128431 0.00012362332 6.411217e-05 0.00081292377 0.00031763987 3.221577e-05
0.00045384048 0.0002604073 0.00020429671 0.00023942444 0.00022600495 0.00013533616 5.9753544e-05 0.00024092599
0.0006438169 0.00010022078 0.00022380498 0.00017313015 0.00025265175 0.00048689207 0.0004178172 0.0008940119
8.079598e-05 1.4690314e-05 4.821002e-05 7.497084e-06 0.00024633828 4.1698437e-05 0.00034317607 6.132294e-05
0.00030188487 3.898671e-05 0.0004868985 0.00010242306 5.236841e-05 0.00023657459 0.000727015 0.00025930651
0.00060491543 5.003774e-05 1.6538352e-05 0.00032322228 2.3805078e-05 4.863156e-06 0.00012948342 0.0005238588
0.00021218162 6.0545615e-05 0.00063381036 0.00025200043 5.2532832e-05 0.0004260401 0.00022262926 0.00017088465
0.00016701614 0.000206812 0.00015638722 0.00026727855 0.00014037071 0.00010614831 0.000201298 0.0005463433
1.6250468e-05 4.370966e-06 8.4297986e-05 9.710958e-05 7.374943e-05 0.00066740357 0.00033535756 1.0781258e-06
0.00015488506 0.0006432532 0.00039663713 3.937108e-05 0.00022196013 0.00022239768 0.00036428345 6.958921e-05
0.00019735821 5.49336e-05 0.00041145834 0.00048423806 0.0005843642 4.5283014e-05 0.0001219452 0.000240178
1.5851447e-05 0.00017277099 1.750533e-06 9.520201e-06 0.00024592088 7.4248746e-06 0.00015511645 0.00037754138
0.0003555506 0.0002792554 0.0004916326 0.00012810047 2.4957664e-05 3.280451e-05 0.00016276822 0.00014141669
0.0010265788 0.00010370881 5.0414324e-06 0.00043652076 7.2071845e-05 6.288597e-05 8.4886815e-05 0.00029583328
0.00043982285 0.00020914308 0.0007798471 0.00087816344 7.108593e-06 0.0005358998 0.00015561044 0.00021928265
0.00086935726 0.0001339718 0.000677252 0.0005098033 0.0001882572 7.227161e-05 6.648169e-05 0.00073588314
0.00011336735 1.9022325e-05 6.9449e-05 0.00012283948 0.00011220449 0.00088452164 0.000325904 2.3518553e-05
0.0004277587 0.000209603 0.00076317 0.00044791578 0.00049569726 0.0003753718 0.0005366422 0.00024613796
0.00040172774 7.411514e-05 0.0003262204 0.0005066617 0.0004029042 0.00025933658 0.0009438738 0.0005991523
8.456265e-05 0.00015290754 2.257873e-05 9.60974e-06 0.00010438619 8.4011095e-05 0.00015531195 0.00056949625
0.0002674617 0.00013508204 0.00075309013 0.00037199535 1.4671745e-05 0.00043152587 0.00036702002 0.00023156032
0.0004930622 7.99191e-05 1.8733276e-06 0.0003988205 9.598412e-05 0.000104071085 0.000118689466 0.00039415943

exp_avg f4 [32]
00000000: c32f 44bc 882c 54bc e1c2 3c39 2f4e d7bb
00000010: 8d3b 64bc 3ebc 03bd 3697 d73c 9545 923b
00000020: f682 ea3b 4a1e bc3b 2000 c63a d9da 96bb
00000030: b723 c1bb 0962 ccbb fa1c e83c afb2 a6bc
00000040: b8b9 ca3b dddd 3c3b 0bea 95bc 8aa2 b838
00000050: efab 853c e52c 9fbb f05b 083c 7596 f23c
00000060: e646 aabc c5b3 623b 02de b7bb 4b36 d63c
00000070: 63f4 3d3c 58dc 8dbb f6f9 67bb c24c 573c
-0.011974278 -0.01295007 0.00018001675 -0.0065705995 -0.013930214 -0.032161944 0.02631722 0.004463861
0.007156725 0.0057409154 0.0015106238 -0.0046037254 -0.00589415 -0.0062372726 0.02833413 -0.020348875
0.00618669 0.0028818764 -0.018300077 8.804079e-05 0.016317336 -0.0048576468 0.008322701 0.02961276
-0.02078576 0.0034592014 -0.005611182 0.026148936 0.011593911 -0.0043292455 -0.003539679 0.013140859

exp_avg_sq f4 [32]
00000000: 929d 143b 535f 8c3a 68f4 8b3a 6247 b43a
00000010: 8166 d93a 1d3a ff3a e0a4 6c3b fbc3 283a
00000020: a31d ae3a a959 993a 5e86 163b 30ee ae39
00000030: 3df7 ee3a f467 a73a db36 ff3a 9d78 193c
00000040: 5837 ff39 eee3 ea39 c848 dc3a bcb8 053b
00000050: fcce fc3a 5d4e c23a 10f4 653a 27e6 1f3b
00000060: 2229 f239 ae4e a63a ae6c ba3a 8c43 123b
00000070: d122 f63a 3b97 a63a 63c6 9e3a b843 fd3a
0.0022676927 0.0010709561 0.0010677697 0.0013754184 0.0016586335 0.0019472275 0.0036109015 0.0006437895
0.0013283979 0.0011699694 0.0022968273 0.0003336533 0.0018231642 0.0012772069 0.0019471304 0.009367135
0.00048678624 0.0004480178 0.0016806358 0.00204043 0.001928776 0.001482438 0.0008772025 0.0024398656
0.00046188483 0.0012688243 0.0014223063 0.0022318093 0.0018778687 0.0012709865 0.0012113567 0.001932255
