checkpoints/synth/high_energy/torsion_energy/20250611190452341470/MET_dim_6/fold4/best_epoch=245-val_loss_epoch=5.585.ckpt (torch, 42501 bytes, 20 tensors)

fc1.weight f4 [64, 6]
0.9635555 -0.095073506 -0.010341452 -0.46085685 0.03716362 0.021335883 0.001859646 -0.08442084
1.1034186 0.02715346 0.0061268196 -0.014769366 -0.89594495 -0.1491172 0.015460488 0.45192367
0.06688322 0.016576506 -0.2783547 -0.3692934 0.13997643 0.5169868 -0.4580007 0.026336597
-0.7539233 0.6714184 -0.024227796 -0.096152425 -0.28955287 -0.000278634 -0.354576 0.43592554
0.042791557 -0.3501156 -0.30312154 0.6124456 0.5855535 0.11878791 -0.060233183 0.40623707
-0.75451744 0.073247485 0.41275913 0.4213459 0.009756388 0.77091855 0.75901455 -0.016955601
0.692199 -0.66168 -0.11513164 0.44816265 0.691122 0.037945937 -0.5678047 -0.071143776
0.27237725 0.009206147 -0.67471594 -0.453328 0.7026633 0.23632054 0.09336385 0.8655159
-0.4574157 0.040694904 0.20514202 0.41082567 -0.18148708 -0.08945471 0.38288435 0.799882
0.37615237 -0.6614114 0.06453677 -0.010541061 0.28059778 -0.57602084 -0.36318824 -0.36959404
-0.11477188 0.56087655 0.26046515 -0.8327589 -0.47770503 0.78282565 -0.13946603 -0.5790531
0.15242375 -0.020323027 0.14868158 0.65895146 -0.06047768 0.47848105 -0.22920273 0.0249035
-0.0053817984 -0.24597698 0.55412304 -0.04991808 0.7240916 -0.39801368 -0.6168029 -0.553099
-0.06945361 -0.08678454 0.093066394 -0.049153153 0.1548035 -0.57289064 -0.00046884365 -0.030079974
-0.45319998 0.03174719 0.27570376 0.20755015 -0.5088035 -0.11251363 -0.6487093 -0.37913755
0.039108943 0.0011341488 -0.79940736 -0.017180828 0.033741374 -0.4082861 0.1838676 -1.1590589
-0.13853103 -0.05958221 -0.0076628462 0.2566141 -0.37567905 -0.8024231 -0.13807103 -0.12728602
0.58863324 0.05436793 -0.74530697 0.044739828 -0.018826695 0.5115698 0.25922585 -0.08927111
0.41507635 0.3274154 -0.18514282 -0.8063775 0.3709743 0.18106827 -0.8192544 0.48736322
0.018246783 0.1253417 0.77455074 0.113136604 0.03911556 0.025065992 0.80523205 0.006749184
0.018711068 -0.4988292 0.27029166 -0.21471891 0.14602543 0.58154625 -0.6816401 -0.060467646
0.4066856 0.75334096 -0.08225132 -0.2890649 -0.08885418 0.53312194 -0.62155956 -0.28565067
-0.15020473 0.18389216 -0.008663246 0.22539946 0.8122094 0.8157895 0.033915196 0.22120483
0.5560309 0.002262251 -0.7650107 0.26224583 -0.014498648 0.45430535 -0.005985778 -0.029480727
-0.41065758 0.025298912 0.06497597 0.59268546 -0.24443634 0.7443603 -0.40460154 -0.57036585
0.007495819 -0.60601836 -0.4064827 -0.07207922 -0.25126237 0.18613268 -0.15509762 -0.55569303
0.38743532 -0.857991 0.41356477 0.31811145 0.18476863 -0.35834673 0.060191642 -0.4413486
-0.02955109 -0.086101696 -0.010769874 -0.7994549 0.14017068 0.0053750114 0.40207702 -0.43828762
0.5587749 0.6885872 0.45687377 -0.23830646 -0.39132798 -0.38104907 0.3459508 0.29614842
0.20850009 -0.10337053 -0.18173015 -0.46910644 0.5630217 0.11097953 -0.18903853 0.66460377
-0.2331976 0.18751241 -0.57795507 0.090794 0.26775372 -0.20991114 -0.14312938 0.63782936
-0.056331355 0.68048126 0.41402256 -0.050489757 0.014334472 0.009013377 0.042980693 -0.16352765
00000000: 93ab 763f e6b5 c2bd 326f 29bc 6ef5 ebbe
00000010: e138 183d 97c8 ae3c 5ebf f33a d5e4 acbd
00000020: d23c 8d3f ef70 de3c 7dc3 c83b 36fb 71bc
00000030: a65c 65bf 2eb2 18be fd4d 7d3c 8a62 e73e
00000040: 12fa 883d 74cb 873c 8284 8ebe 0614 bdbe
00000050: fb55 0f3e 3f59 043f 117f eabe d9bf d73c
00000060: 1e01 41bf 14e2 2b3f 5f79 c6bc 90eb c4bd
00000070: 4640 94be 9f15 92b9 fc8a b5be a231 df3e
00000080: 3346 2f3d 5a42 b3be bf32 9bbe 3cc9 1c3f
00000090: d6e6 153f 1347 f33d 12b7 76bd 4efe cf3e
000000a0: 0e28 41bf c702 963d 2a55 d33e a6ba d73e
000000b0: 42d9 1f3c eb5a 453f c74e 423f 79e6 8abc
000000c0: f433 313f dc63 29bf 23ca ebbd 9375 e53e
000000d0: 5fed 303f 336d 1b3d a65b 11bf d4b3 91bd
000000e0: 0875 8b3e 61d5 163c 2fba 2cbf 9c1a e8be
000000f0: bee1 333f 03fe 713e 8c35 bf3d 7392 5d3f
00000100: 6432 eabe b3af 263d c010 523e be57 d23e
00000110: c0d7 39be 0834 b7bd 6b09 c43e 11c5 4c3f
00000120: 0b97 c03e 4252 29bf db2b 843d 6ab4 2cbc
00000130: 83aa 8f3e 1a76 13bf cff3 b9be 6e3b bdbe
00000140: 850d ebbd 9b95 0f3f b05b 853e b02f 55bf
00000150: c195 f4be 4367 483f 2fd0 0ebe d33c 14bf
00000160: f914 1c3e 7a7c a6bc fc3f 183e 0bb1 283f
00000170: 72b7 77bd 78fb f43e 1fb4 6abe 6d02 cc3c
00000180: cc59 b0bb 64e1 7bbe 02db 0d3f e776 4cbd
00000190: 115e 393f 73c8 cbbe cbe6 1dbf e597 0dbf
000001a0: b23d 8ebd 18bc b1bd 9899 be3d d154 49bd
000001b0: cf84 1e3e f6a8 12bf 21cf f5b9 476a f6bc
000001c0: d409 e8be 5709 023d 0b29 8d3e 0788 543e
000001d0: f240 02bf 8c6d e6bd d011 26bf 511e c2be
000001e0: b330 203d b8a7 943a f6a5 4cbf cfbe 8cbc
000001f0: 6534 0a3d e00a d1be ca47 3c3e 0b5c 94bf
00000200: 14db 0dbe 7a0c 74bd 9d18 fbbb ec62 833e
00000210: 0159 c0be 9a6b 4dbf 7e62 0dbe 4457 02be
00000220: abb0 163f e8b0 5e3d 70cc 3ebf 1c41 373d
00000230: 713a 9abc 3df6 023f 40b9 843e c6d3 b6bd
00000240: e384 d43e fea2 a73e 1496 3dbe c16e 4ebf
00000250: 58f0 bd3e f669 393e a8ba 51bf ac87 f93e
00000260: 477a 953c 9359 003e f548 463f 2ab4 e73d
00000270: a337 203d 3257 cd3c b023 4e3f 4228 dd3b
00000280: f447 993c 8a66 ffbe ab63 8a3e 46df 5bbe
00000290: b187 153e 37e0 143f f77f 2ebf ecac 77bd
000002a0: 1839 d03e f4da 403f 6173 a8bd 5100 94be
000002b0: 2ef9 b5bd ae7a 083f 871e 1fbf ce40 92be
000002c0: 45cf 19be 3a4e 3c3e 4af0 0dbc 1ecf 663e
000002d0: f5ec 4f3f 95d7 503f a9ea 0a3d 8583 623e
000002e0: 0b58 0e3f 4642 143b bed7 43bf 1645 863e
000002f0: bd8b 6dbc b69a e83e 5824 c4bb 9181 f1bc
00000300: b641 d2be aa3f cf3c 1f12 853d 3cba 173f
00000310: 854d 7abe 668e 3e3f ef27 cfbe 7f03 12bf
00000320: 7d9f f53b 0524 1bbf 801e d0be 459e 93bd
00000330: 76a5 80be 9199 3e3e e9d1 1ebe e641 0ebf
00000340: ec5d c63e 4ca5 5bbf c3be d33e 81df a23e
00000350: fd33 3d3e 3979 b7be 838b 763d 72f8 e1be
00000360: 2115 f2bc 1656 b0bd 2074 30bc 14a9 4cbf
00000370: e788 0f3e dd20 b03b 0add cd3e 3c67 e0be
00000380: df0b 0f3f 4047 303f 5ceb e93e 9c06 74be
00000390: 245c c8be dd18 c3be 7720 b13e c4a0 973e
000003a0: 0c81 553e eeb3 d3bd 7817 3abe b82e f0be
000003b0: 3122 103f 3c49 e33d 5193 41be 7923 2a3f
000003c0: 5acb 6ebe 4103 403e ddf4 13bf 34f2 b93d
000003d0: 0417 893e f2f2 56be 8290 12be c948 233f
000003e0: b5bb 66bd 0534 2e3f c4fa d33e 59ce 4ebd
000003f0: 22db 6a3c d8ac 133c 860c 303d cb73 27be

fc1.bias f4 [64]
-0.43755403 -0.03667004 -0.46694323 -0.12197207 0.2560359 0.5134302 0.054119408 0.04261276
-0.24574852 -0.1286224 -0.71734136 -0.425311 -0.23644792 0.74901074 0.022845473 0.31564063
0.24950682 -0.07106225 -0.25944167 0.39580095 0.35029146 -0.10812203 0.39980412 -0.47541282
0.35503697 -0.12821743 0.31475574 0.2131628 -0.033602178 0.44984543 0.088359915 -0.48631284
0.19158754 0.4205912 0.18201783 0.44392806 -0.38434276 0.38054472 0.29207656 -0.5691301
-0.45003322 0.14208338 0.35703415 0.35560057 0.30693552 -0.25975972 -0.10104034 0.23080315
-0.22403811 0.43273997 0.27398744 0.58790094 0.19514869 -0.52214766 0.29309344 0.6496475
-0.30024213 0.397691 -0.39367998 0.38835788 0.4069906 0.14243148 0.008380473 0.12458806
00000000: 1507 e0be 5333 16bd 2f13 efbe 7ecc f9bd
00000010: 2317 833e 2970 033f 50ac 5d3d b88a 2e3d
00000020: 80a5 7bbe 97b5 03be afa3 37bf 5dc2 d9be
00000030: 671f 72be 2bbf 3f3f 6e26 bb3c a69b a13e
00000040: b77e 7f3e 1689 91bd 8ad5 84be 6ca6 ca3e
00000050: 6759 b33e 156f ddbd 20b3 cc3e 4f69 f3be
00000060: 68c7 b53e 6e4b 03be aa27 a13e 5947 5a3e
00000070: 70a2 09bd 2452 e63e 0bf6 b43d fffd f8be
00000080: 862f 443e bb57 d73e e262 3a3e 8a4a e33e
00000090: 93c8 c4be c2d6 c23e 0f8b 953e 83b2 11bf
000000a0: c16a e6be 4e7e 113e 2ecd b63e 4711 b63e
000000b0: a726 9d3e 3aff 84be 3dee cebd a957 6c3e
000000c0: 3f6a 65be 1890 dd3e 1548 8c3e ad80 163f
000000d0: 0fd5 473e 78ab 05bf 5810 963e 4c4f 263f
000000e0: 56b9 99be 289e cb3e 6c90 c9be d8d6 c63e
000000f0: 1261 d03e 8fd9 113e 404e 093c 0628 ff3d

fc2.weight f4 [32, 64]
-0.009125737 0.40317878 -0.18699531 0.03887742 0.08794594 0.10436304 -0.079149075 1.0206454
0.35149267 0.09270405 -0.20786579 0.20931578 0.22010118 -0.010146622 0.35598657 0.4102633
-0.037534844 -0.13271023 0.59574646 -0.077210106 -0.09056136 0.2928057 0.35091618 -0.33242553
0.056389857 -0.12896866 0.010315464 0.0054007135 0.13000993 -0.1341263 -0.05312827 -0.034054384
-0.07289515 0.12572163 0.022205476 0.09680045 -0.5662616 -0.23442234 -0.08214042 -0.13313237
-0.11750092 0.13046496 0.07328829 0.12968324 0.02870077 0.00018598037 0.037332416 0.20153728
-0.12572472 0.0037019663 -0.1696687 -0.16751051 -0.28609407 -0.21075524 -0.16892223 0.0999267
-0.0736156 -0.10237323 -0.12271633 0.07273654 -0.17252539 -0.012857866 -0.062233243 -0.010759736
-0.49500492 -0.11324588 0.49140215 -0.041226335 -0.019925471 -0.052486185 0.033104654 -0.2494409
-0.23022653 0.16899481 0.45208955 -0.3517561 0.075446725 0.0044480436 0.11505498 0.14865026
-0.15569301 0.07064481 -0.45205072 0.12094269 0.1797391 0.075954184 0.11759009 0.24153157
-0.20110936 -0.12015732 0.120619185 -0.08017805 0.13506956 -0.08594375 -0.02846899 0.59098667
0.023186907 0.39027038 0.324202 0.04345275 0.493208 0.23184755 -0.10596051 0.44207206
-0.053091984 0.21192172 -0.10129713 -0.020678861 -0.10946513 0.38258207 -0.3655235 -0.1273659
-0.098264314 -0.015246694 -0.029837746 0.3272685 -0.15534131 0.42170087 0.30403224 -0.1937048
0.4263936 0.18766248 -0.17134795 -0.09425256 0.328065 0.03294156 0.025222378 0.07256929
0.010661765 -0.06531039 -0.09646879 -0.08236477 0.04530802 0.07384565 -0.07300987 0.06863055
-0.07099917 -0.060163893 -0.051609013 -0.10195775 -0.016795881 -0.09043372 0.0813695 -0.038359158
-0.117264114 -0.045388136 0.0236932 -0.05611281 -0.056320786 0.032996994 -0.111776285 0.031380724
-0.104494 -0.08824528 0.04498502 -0.065223575 -0.074296 0.043109365 -0.038092088 -0.0011958862
-0.103521846 -0.05171566 0.06959704 0.05763688 -0.061358348 0.07583185 0.06939702 0.035017
0.048863314 -0.014005632 -0.02003928 -0.022506095 0.018974982 -0.033996347 0.05999965 0.027262291
-0.078886755 -0.09173144 -0.099148855 0.03976735 0.011483642 -0.029701378 -0.08654864 -0.048225664
0.05524153 -0.08157778 0.06600827 -0.014381599 -0.042000316 -0.07458425 0.0060325176 -0.05891846
-0.08932479 0.3487661 -0.17746168 -0.25482726 0.08739729 -1.0683755 -0.29887185 0.1989591
0.26707268 -0.25739366 -0.42620832 -0.23646644 0.062367592 0.023096448 0.16706564 0.005708729
-0.1927452 -0.56966597 -0.19779895 -0.020191157 0.37852937 0.33558264 -0.5224705 -0.114293694
-0.42589596 0.30029842 0.20390268 0.1216925 0.31907642 -0.12316612 -0.6201731 0.2797001
0.13734391 -1.692341 0.17595834 -0.7936063 -0.24233302 0.19030957 0.12036129 1.073817
0.09123404 0.19416457 0.24646515 -0.12279356 -0.41077942 -0.82908225 0.22503495 -0.082914315
0.4324122 0.06548978 0.18719482 -0.8860386 -0.34399673 -0.64892995 0.1481934 -0.011117837
-0.59485203 0.12506744 -1.2529994 0.102380864 0.26816767 0.39001167 1.9297777 -0.3390641
00000000: 1d84 15bc 736d ce3e b37b 3fbe ee3d 1f3d
00000010: 001d b43d 4abc d53d e918 a2bd 82a4 823f
00000020: d9f6 b33e 9fdb bd3d c5da 54be e056 563e
00000030: 3462 613e 043e 26bc df43 b63e 080e d23e
00000040: 23be 19bd 31e5 07be d782 183f 5520 9ebd
00000050: 3c78 b9bd a1ea 953e 49ab b33e ae33 aabe
00000060: 0df9 663d 5c10 04be 3102 293c 78f8 b03b
00000070: 5321 053e 6858 09be 079d 59bd 9c7c 0bbd
00000080: 0d4a 95bd 2cbd 003e 42e8 b53c 503f c63d
00000090: 85f6 10bf 690c 70be 3d39 a8bd da53 08be
000000a0: 53a4 f0bd 9b98 053e 2c18 963d afcb 043e
000000b0: e11d eb3c ba03 4339 e0e9 183d ca5f 4e3e
000000c0: fbbd 00be b09c 723b a2bd 2dbe e087 2bbe
000000d0: ec7a 92be 39d0 57be f3f9 2cbe 5fa6 cc3d
000000e0: c7c3 96bd 0ea9 d1bd b352 fbbd e5f6 943d
000000f0: 7faa 30be cca9 52bc 49e8 7ebd 9b49 30bc
00000100: 4971 fdbe 75ed e7bd 1099 fb3e f2dc 28bd
00000110: be3a a3bc c1fb 56bd bf98 073d 6f6d 7fbe
00000120: 81c0 6bbe fa0c 2d3e 4878 e73e 6019 b4be
00000130: d083 9a3d e5c0 913b f2a1 eb3d c637 183e
00000140: fd6d 1fbe 3aae 903d 3173 e7be cdb0 f73d
00000150: 870d 383e de8d 9b3d 13d3 f03d 0d54 773e
00000160: 9def 4dbe 0a15 f6bd 3107 f73d 6434 a4bd
00000170: ad4f 0a3e 4703 b0bd cd37 e9bc e74a 173f
00000180: 78f2 bd3c 85d1 c73e cefd a53e 83fb 313d
00000190: c285 fc3e 7269 6d3e d301 d9bd 4557 e23e
000001a0: fb76 59bd 0202 593e df74 cfbd b766 a9bc
000001b0: 412f e0bd cce1 c33e e525 bbbe 356c 02be
000001c0: cd3e c9bd 45cd 79bc 4a6e f4bc bd8f a73e
000001d0: cb11 1fbe 2de9 d73e 1daa 9b3e 8d5a 46be
000001e0: 4350 da3e 982a 403e d675 2fbe 7c07 c1bd
000001f0: 23f8 a73e bbed 063d 299f ce3c 359f 943d
00000200: afae 2e3c 74c1 85bd 6e91 c5bd dcae a8bd
00000210: e794 393d 633c 973d 3386 95bd 2c8e 8c3d
00000220: 0368 91bd 6a6e 76bd f963 53bd 3acf d0bd
00000230: 8497 89bc 5035 b9bd 0da5 a63d 7e1e 1dbd
00000240: 2b28 f0bd e9e8 39bd 3e18 c23c 8cd6 65bd
00000250: a0b0 66bd db27 073d f7ea e4bd 1389 003d
00000260: f300 d6bd f1b9 b4bd 3642 383d f093 85bd
00000270: 8028 98bd 7293 303d 7306 1cbd 48bf 9cba
00000280: 4303 d4bd cdd3 53bd e588 8e3d a614 6c3d
00000290: e452 7bbd bb4d 9b3d 0620 8e3d fc6d 0f3d
000002a0: e624 483d e177 65bc 6b29 a4bc b45e b8bc
000002b0: 6c71 9b3c c13f 0bbd 31c2 753d 2b55 df3c
000002c0: 618f a1bd b1dd bbbd 8e0e cbbd 17e3 223d
000002d0: e325 3c3c 4e50 f3bc 6a40 b1bd 4688 45bd
000002e0: f144 623d 4012 a7bd 582f 873d cca0 6bbc
000002f0: 8608 2cbd a1bf 98bd 6dac c53b 7c54 71bd
00000300: eaef b6bd 7891 b23e 84b8 35be b878 82be
00000310: 5afd b23d 87c0 88bf bb05 99be efbb 4b3e
00000320: c0bd 883e 1ac9 83be fa37 dabe 4224 72be
00000330: 2975 7f3d c334 bd3c 4113 2b3e 4a10 bb3b
00000340: ff5e 45be a1d5 11bf cf8b 4abe ed67 a5bc
00000350: 9ace c13e 7dd1 ab3e a0c0 05bf d012 eabd
00000360: 090f dabe b7c0 993e ddcb 503e eb39 f93d
00000370: fc5d a33e 853e fcbd aac3 1ebf da34 8f3e
00000380: e2a3 0c3e a19e d8bf 6c2e 343e c829 4bbf
00000390: 2626 78be 83e0 423e fb7f f63d d672 893f
000003a0: ead8 ba3d 14d3 463e 5c61 7c3e 317b fbbd
000003b0: ae51 d2be bc3e 54bf 906f 663e fbce a9bd
000003c0: 2265 dd3e 811f 863d 00b0 3f3e 6dd3 62bf
000003d0: 5720 b0be 4620 26bf 03c0 173e 9727 36bc
000003e0: 3948 18bf ae11 003e 4962 a0bf 0fad d13d
000003f0: 464d 893e 9caf c73e f502 f73f cf99 adbe

fc2.bias f4 [32]
0.10642917 -0.07506449 0.04737888 -0.14722085 0.045029826 0.18058434 -0.043671623 0.20302573
0.08030132 0.110175006 0.02222798 0.1513738 0.17420754 -0.075677164 0.055705316 0.24520393
0.14860931 0.028131938 0.03289414 -0.0032962607 0.12450246 0.011566667 0.21478203 -0.015268824
-0.1008754 -0.0499735 -0.037391074 -0.05576054 -0.039839055 -0.09090537 -0.09982309 -0.06772515
00000000: 89f7 d93d 69bb 99bd 5b10 423d 10c1 16be
00000010: 3271 383d 1aeb 383e 04e1 32bd fae5 4f3e
00000020: 0575 a43d 6fa3 e13d 7417 b63c bc01 1b3e
00000030: 7663 323e a1fc 9abd 422b 643d bd16 7b3e
00000040: 0a2d 183e f374 e63c 01bc 063d 1406 58bb
00000050: 25fb fe3d 1e82 3d3c d2ef 5b3e 172a 7abc
00000060: c397 cebd 03b1 4cbd 6227 19bd 2a65 64bd
00000070: 472e 23bd 982c babd 0c70 ccbd 7cb3 8abd

fc3.weight f4 [3, 32]
0.43968368 -0.50919867 -0.15317869 -0.22108872 -0.40653527 0.66156185 -0.8288756 1.1402606
0.89276195 0.3179199 -0.67114174 -0.87732214 0.34623718 -0.57854784 -0.6480918 0.5836796
0.56847405 0.76882285 0.24335021 -0.5928832 0.42288354 0.48231396 0.51307803 0.7056624
-0.82221365 0.899633 -0.98328555 -0.5288729 0.56894356 -0.1086728 -0.07434119 -0.04538819
-0.41901758 -0.12797661 -0.003802449 1.9181597 0.4978851 -0.13665406 -0.026721587 0.73525226
0.55230844 -0.2460676 -0.11781743 0.07057313 0.6313781 -0.1140015 -0.33739814 0.14292623
-0.15174831 0.64359576 1.856169 2.3718193 0.44787088 0.34621125 0.105362095 0.12468144
0.6295958 0.3039326 -0.03198643 2.219425 0.05192695 0.4102506 -0.05630482 0.059658896
-0.30511573 0.3111516 -0.0810507 -0.16058065 -0.71647274 -0.10662399 0.033619426 -0.042730894
-0.107741244 0.18517631 -0.30783767 -0.062677175 -0.23685595 0.054376755 0.08961226 -0.2386974
0.26430386 -0.404537 0.27343085 -0.26893675 0.44293708 -0.67981315 -0.2123787 0.44015157
0.76970285 0.7009954 0.4645399 0.06467129 0.52226543 -0.9732704 -0.050878905 -0.15778716
00000000: 381e e13e d85a 02bf e0da 1cbe 1565 62be
00000010: 6425 d0be 1e5c 293f 3131 54bf 0ff4 913f
00000020: 0c8c 643f 66c6 a23e f2cf 2bbf 2f98 60bf
00000030: 0046 b13e b61b 14bf 58e9 25bf 076c 153f
00000040: 8487 113f 93d1 443f cc30 793e 32c7 17bf
00000050: 3184 d83e dbf1 f63e 1559 033f 4ba6 343f
00000060: 987c 52bf 594e 663f 9ab8 7bbf 3764 07bf
00000070: 49a6 113f d88f debd 3240 98bd f7e8 39bd
00000080: 7989 d6be 4d0c 03be 8232 79bb 4286 f53f
00000090: ccea fe3e 0bef 0bbe 3be7 dabc 7e39 3c3f
000000a0: 1664 0d3f 25f9 7bbe 444a f1bd a588 903d
000000b0: ffa1 213f 9e79 e9bd 73bf acbe 415b 123e
000000c0: e963 1bbe b1c2 243f f296 ed3f e3cb 1740
000000d0: 554f e53e 9a42 b13e 15c8 d73d fc58 ff3d
000000e0: 312d 213f 0e9d 9b3e 3404 03bd 0f0b 0e40
000000f0: 5bb1 543d 5e0c d23e e29f 66bd e35c 743d
00000100: 2138 9cbe 434f 9f3e e9fd a5bd 416f 24be
00000110: c26a 37bf ae5d dabd 86b4 093d 9706 2fbd
00000120: 71a7 dcbd dc9e 3d3e e69c 9dbe e45c 80bd
00000130: 5e8a 72be 29ba 5e3d a286 b73d 176d 74be
00000140: d652 873e 791f cfbe 21ff 8b3e 14b2 89be
00000150: a6c8 e23e 3c08 2ebf cd79 59be 8c5b e13e
00000160: 3f0b 453f 6f74 333f 2cd8 ed3e 6272 843d
00000170: 30b3 053f 4028 79bf 6666 50bd f592 21be

fc3.bias f4 [3]
0.23786362 0.03541645 -0.12078537
00000000: 8592 733e d710 113d 525e f7bd

exp_avg f4 [64, 6]
0.00053941493 0.0030676255 0.00019149423 0.0005604954 -0.00050138595 0.0011683797 0.00014681641 0.0024453762
0.003184582 -0.0008190403 -0.0008098353 -0.0003707453 -0.00020408306 -0.004300695 -0.0003132075 0.0032538117
0.0011945787 0.0006907628 -0.00053667556 0.0027436889 0.0011442782 0.0026675153 0.001687081 0.0015852567
0.009101994 0.01057511 -0.0020661966 0.0045233327 0.003885892 -0.0039258692 -0.0009548305 0.0022363893
0.0006338122 0.0026904887 0.001523787 3.8180413e-05 0.0052883173 0.0020347855 -0.00403684 0.0016445874
0.0016644264 -0.003576382 0.0011630519 0.0010158384 0.0009846058 -0.0006692811 -0.0010287921 -0.001461074
0.0028011522 -0.0019034359 -0.0016774086 0.0055682515 0.001503956 -4.292919e-05 -0.00046607121 -0.0015972375
0.0019020675 -0.00015455 0.0009475185 -0.00086104096 -0.002078606 -0.0015504526 1.644097e-05 -0.0013563684
0.0011153436 -0.0007812307 -0.004810279 -0.002459587 0.004827003 -0.00065556786 7.118243e-05 -0.002210473
-0.003425284 0.0024437953 -0.002694854 4.802036e-05 -0.00126231 0.0025571377 0.009404331 -0.0021253154
0.0044296035 0.004264916 0.003010922 -0.0024359056 0.000642076 -0.00012827375 -0.0028586488 0.00014446008
-0.0014013072 0.00046805356 0.0006553429 -0.00072091643 0.0018435323 -2.0224577e-05 -0.002400555 -0.001522609
-0.004707658 0.0025341387 -0.00209174 -0.0035129786 -0.004844243 0.0041777627 1.571647e-05 -0.006290866
0.0045997216 -0.00016945161 0.0010444843 0.0031997499 0.0005682911 -0.00070158177 0.001705849 -0.0019355987
0.00035434664 0.00075126335 0.0053217504 0.006342404 -0.002247524 0.001446902 0.0012378816 -0.002217168
0.0013739095 -0.00073510426 -0.0020168223 0.001382725 -1.2465166e-05 -0.00020677908 0.0006409347 0.0014493478
-0.0011878393 -0.0015236188 -0.0016943248 -0.00012824975 0.0017213789 -0.0015218034 0.0047111753 0.002057695
0.0020587863 -0.0006001345 0.0006714707 0.0035377329 -0.0056388127 -0.0038670958 -0.003013632 -0.0003843511
-0.005351946 -0.00072839006 0.0023356224 -0.00042186512 -0.0016587602 0.0024510955 0.0021054745 0.0007620906
0.0019144579 0.0034552647 0.00086053356 0.0020760235 0.0020484824 -0.0030345356 -0.0022381113 -0.0003888843
0.00014609216 -0.0010795048 0.0043883123 0.00019992549 0.00028151207 0.0033784474 0.0009961682 -0.0010161645
-0.0028966987 -0.0024523037 0.002024245 -0.00078456156 -0.0017084938 0.0021686836 -0.0015728978 -5.348027e-05
0.0009726705 -0.0025660757 -0.0012353432 0.0010909209 0.0036132492 0.0052068597 -0.000899853 0.0021017082
0.003439269 -0.0032224776 0.0014512307 -8.184397e-05 -0.0023260189 -0.0028589992 0.00027168618 -0.00016728224
-0.001523454 -0.0030429747 0.0008680521 -0.007341983 -0.0027759005 -0.0019179023 0.0010891822 -0.0020460098
0.0035681212 0.0008045317 -0.0007714281 -0.00043265606 0.0071958974 0.0013720194 0.0011343092 -0.002205258
0.0014258199 -0.0031839784 0.005690238 0.005482897 -0.0008726287 0.00048730266 0.003282732 -0.0038226638
-0.0015963473 -0.0045867036 -0.005684894 0.0036681294 0.0015418547 -0.0005555769 8.268046e-06 0.0028647229
0.0004809543 -0.0017886257 -0.0023215534 0.0014192252 0.0011954858 -0.001720277 0.00048658167 -0.00021657646
0.00034076616 -0.00055276987 0.0069325953 0.005919644 -0.007614631 -0.004481891 -0.0047724834 -0.0030874528
0.0023834961 0.0054430915 -0.0010511403 0.0032910143 -0.0015440326 -0.0007296199 -0.0041217445 -0.0009346216
0.0013744514 -0.0036699302 -0.0030210495 0.00014408096 0.0028709217 0.0030507294 0.0034278007 -0.0022295688
00000000: 8667 0d3a 370a 493b d7cb 4839 36ee 123a
00000010: 716f 03ba 5124 993a bbf2 1939 9b42 203b
00000020: 6cb4 503b ddb4 56ba 214b 54ba 9860 c2b9
00000030: 21ff 55b9 d8ec 8cbb 0036 a4b9 e73d 553b
00000040: 6993 9c3a 4f14 353a b0af 0cba 76cf 333b
00000050: 9bfb 953a 7bd1 2e3b 0b21 dd3a 63c8 cf3a
00000060: 8820 153c 3a43 2d3c 0769 07bb 7738 943b
00000070: 73aa 7e3b 94a4 80bb 974d 7aba 6390 123b
00000080: 6b26 263a e952 303b cfb9 c73a e823 2038
00000090: 9f49 ad3b 095a 053b 7847 84bb 328f d73a
000000a0: e228 da3a bc61 6abb 8c71 983a e125 853a
000000b0: e30d 813a b272 2fba 89d8 86ba 8281 bfba
000000c0: 8993 373b b67c f9ba 7edc dbba e175 b63b
000000d0: 6420 c53a de0e 34b8 055b f4b9 665a d1ba
000000e0: cb4e f93a b30e 22b9 e462 783a 7bb7 61ba
000000f0: 3939 08bb 8e38 cbba b7ea 8937 2cc8 b1ba
00000100: b930 923a 81cb 4cba 8b9f 9dbb 0631 21bb
00000110: d62b 9e3b 6ada 2bba c747 9538 95dd 10bb
00000120: bb7a 60bb 1528 203b 269c 30bb 7869 4938
00000130: 1874 a5ba a795 273b a014 1a3c e048 0bbb
00000140: 3526 913b b5c0 8b3b e452 453b b7a3 1fbb
00000150: fe50 283a 3981 06b9 2b58 3bbb 357a 1739
00000160: 11ac b7ba 1665 f539 51cb 2b3a e2fb 3cba
00000170: aea2 f13a f3a7 a9b7 a152 1dbb 4892 c7ba
00000180: b342 9abb cb13 263b 9315 09bb 003a 66bb
00000190: 75bc 9ebb 9de5 883b ddd6 8337 9c23 cebb
000001a0: 43b9 963b d2ae 31b9 14e7 883a e5b2 513b
000001b0: 5ff9 143a 5bea 37ba cb96 df3a eab3 fdba
000001c0: 9ac7 b939 6ef0 443a 1462 ae3b f1d3 cf3b
000001d0: 324b 13bb faa5 bd3a 6a40 a23a e84d 11bb
000001e0: c114 b43a 03b4 40ba aa2c 04bb 8d3c b53a
000001f0: 7b21 51b7 d6d2 58b9 6604 283a 0bf8 bd3a
00000200: 46b1 9bba 2ab4 c7ba 1b14 deba c87a 06b9
00000210: e49f e13a 4077 c7ba 3460 9a3b 65da 063b
00000220: b4ec 063b 5852 1dba a305 303a 4fd9 673b
00000230: cac5 b8bb 1a6f 7dbb 5b80 45bb bb82 c9b9
00000240: 615f afbb 6ef1 3eba 3e11 193b c72d ddb9
00000250: c26a d9ba 8fa2 203b 00fc 093b 09c7 473a
00000260: 8cee fa3a b971 623b 6e95 613a e50d 083b
00000270: d53f 063b 0fdf 46bb 47ad 12bb 2be3 cbb9
00000280: 5130 1939 2c7e 8dba d5cb 8f3b 17a3 5139
00000290: e997 9339 f168 5d3b dc91 823a d330 85ba
000002a0: 8ad6 3dbb d4b6 20bb 32a9 043b 09ab 4dba
000002b0: 8aef dfba 7920 0e3b b129 ceba 0150 60b8
000002c0: d0fa 7e3a 9b2b 28bb 3deb a1ba 3bfd 8e3a
000002d0: 43cc 6c3b 4e9e aa3b 1de4 6bba d0bc 093b
000002e0: 5c65 613b 3430 53bb 3937 be3a a6a3 abb8
000002f0: 1f70 18bb 0c5e 3bbb 1a71 8e39 7c68 2fb9
00000300: a2ae c7ba a56c 47bb fe8d 633a 0495 f0bb
00000310: e2eb 35bb 1f62 fbba e4c2 8e3a 5916 06bb
00000320: 24d7 693b 35e7 523a aa39 4aba 1dd6 e2b9
00000330: 90cb eb3b 55d5 b33a 1aad 943a 1786 10bb
00000340: 94e2 ba3a 4baa 50bb 2d75 ba3b e0a9 b33b
00000350: 1fc1 64ba a87c ff39 1b23 573b a885 7abb
00000360: 873c d1ba 0f4c 96bb 5948 babb 0065 703b
00000370: 0f18 ca3a 22a4 11ba fdb6 0a37 13be 3b3b
00000380: 9828 fc39 5270 eaba 3425 18bb 4c05 ba3a
00000390: d9b1 9c3a eb7a e1ba e31b ff39 cd18 63b9
000003a0: dca8 b239 c2e7 10ba d32a e33b 93f9 c13b
000003b0: 2884 f9bb d4dc 92bb 7e62 9cbb dd56 4abb
000003c0: 6e34 1c3b f65b b23b 6ac6 89ba 0fae 573b
000003d0: 2361 caba f643 3fba b30f 87bb 6501 75ba
000003e0: f026 b43a 3683 70bb cdfc 45bb 7014 1739
000003f0: 1326 3c3b bfee 473b f4a4 603b f51d 12bb

exp_avg_sq f4 [64, 6]
9.893696e-05 7.056738e-05 4.7257596e-05 6.182628e-05 6.213604e-05 5.4966942e-05 3.5405163e-05 6.652773e-05
0.00012524612 4.0144747e-05 4.9205333e-05 4.4337517e-05 0.0004911324 0.00022951243 0.00017958379 0.00021799671
0.00024224202 0.00020097579 0.00014845535 0.00037090838 0.00016851001 0.0003396332 0.00012579298 0.00017127296
0.00043561292 0.00059231115 0.00038702838 0.00040506685 0.00033126347 0.00037436697 0.00017464529 0.00027443748
0.00019809787 0.0002015834 0.00012896063 0.00015369407 0.00019707943 0.00025192893 0.00014294627 0.00015400539
0.00010353276 0.00013561019 5.5798857e-05 0.000100326324 4.6914345e-05 8.877779e-05 5.694603e-05 5.4946213e-05
0.0002762979 0.00044909667 0.0002657206 0.00030368735 0.00016458379 0.00023614192 4.0635372e-05 6.743229e-05
5.8192345e-05 4.6032947e-05 3.2453307e-05 2.7292126e-05 4.881395e-05 8.5217565e-05 4.7169207e-05 6.370418e-05
1.9726906e-05 4.344254e-05 0.00019172778 0.0003032228 0.00018751992 0.00020591139 0.00014193197 0.000274807
0.00022767457 0.00040376035 0.00023239957 0.00027923143 0.00017469712 0.00022953736 0.000684586 0.00093786255
0.00074156513 0.0007979672 0.00053576095 0.00059029815 2.69923e-05 2.68625e-05 1.8789577e-05 1.8746887e-05
3.114142e-05 1.855968e-05 4.52653e-05 6.459516e-05 4.1246913e-05 7.229197e-05 0.00015746792 5.040082e-05
0.00078498333 0.0010690868 0.00081440835 0.0009567411 0.00078274624 0.00072537654 0.00024020027 0.00035090986
0.0002838302 0.00036064102 0.00028618926 0.00021960466 9.633221e-05 0.00029822436 8.6499014e-05 9.880177e-05
0.00014526358 0.00010442869 0.00014332292 0.00021089627 0.00014710255 0.0001691342 8.860801e-05 0.00012807355
8.539725e-05 0.00012900706 0.0001562396 9.310225e-05 9.136628e-05 0.00012871479 8.680386e-05 0.00020798198
0.00010116793 0.00012615236 8.00154e-05 8.438508e-05 0.00029502463 0.00049944135 0.00028045665 0.00034821223
0.000248195 0.00024212162 0.0004478182 0.00035269326 0.0003095926 0.00033256484 0.00027163353 0.00024968188
0.00014839631 0.0002064236 0.00013588295 0.00019371908 0.000112426664 0.0001461037 8.803006e-05 0.0001763411
0.00014339149 0.00021019683 0.00012829882 0.00012497812 0.00011954542 0.00015726192 0.0001783534 0.00012007784
0.00013674039 0.00015920716 0.0001941132 0.00026952778 0.00014619385 0.00013649379 4.7429243e-05 0.00013118313
3.7671263e-05 6.358068e-05 4.058039e-05 3.7653175e-05 2.2992537e-05 3.30743e-05 0.00017641696 0.0002450326
0.00015824397 0.00021447832 0.0001521403 0.00018587762 0.0003569371 0.0004358463 0.000311802 0.000336984
0.00030189363 0.0002857657 0.00034646285 0.00025396008 0.00017299068 0.00027186377 0.00014513078 0.00016611596
0.00044561774 0.00061806815 0.00035644477 0.00043042318 0.00025039524 0.0005594808 0.00057133764 0.0010906354
0.00059077464 0.0008166204 0.00057544507 0.00051918667 0.0003346863 0.00039953482 0.00038167575 0.000467416
0.0003596589 0.0003025702 0.0003551036 0.00046534088 0.00036666638 0.00043570725 0.00033307693 0.00031679342
0.0001568697 0.0003712721 0.00028841602 0.00093232235 0.00026908264 0.00026678396 0.00012300024 0.0001520741
0.00012976762 0.000120542776 9.005956e-05 9.7264354e-05 1.8741028e-05 2.6782607e-05 1.6710348e-05 2.1914722e-05
1.8020777e-05 2.2131313e-05 0.000793758 0.0015363533 0.0010086269 0.00074574485 0.00037301486 0.00080920465
0.00015884379 0.00020122342 0.00026844654 0.00017692648 0.00015793213 0.00010364839 0.00012911594 0.00022928308
0.00013543936 0.00020189918 0.00011871674 0.00012171867 0.00016813316 0.00040460343 0.00017256397 0.00019534738
00000000: 607c cf38 93fd 9338 7536 4638 bba8 8138
00000010: 084f 8238 4e8c 6638 0180 1438 ce84 8b38
00000020: 8054 0339 1861 2838 d361 4e38 0cf7 3938
00000030: 56bf 003a 46a9 7039 a84e 3c39 0c96 6439
00000040: 5902 7e39 07bd 5239 aeaa 1b39 7b76 c239
00000050: 10b2 3039 cc10 b239 4ce7 0339 bc97 3339
00000060: fa62 e439 5445 1b3a 12ea ca39 275f d439
00000070: 6ead ad39 af46 c439 fd20 3739 60e2 8f39
00000080: 7eb8 4f39 2260 5339 9b39 0739 f028 2139
00000090: 1ba7 4e39 5415 8439 d9e3 1539 827c 2139
000000a0: ba1f d938 9532 0e39 9109 6a38 4966 d238
000000b0: e5c5 4438 372e ba38 56d9 6e38 0c76 6638
000000c0: 14dc 9039 bc74 eb39 6a50 8b39 3a38 9f39
000000d0: 2094 2c39 dd9c 7739 e66f 2a38 6f6a 8d38
000000e0: 8e13 7438 8013 4138 791e 0838 65f1 e437
000000f0: 94bd 4c38 d5b6 b238 8dd7 4538 ec98 8538
00000100: 357b a537 1236 3638 890a 4939 e0f9 9e39
00000110: ffa0 4439 ebe9 5739 93d3 1439 f913 9039
00000120: edbb 6e39 ccaf d339 49b0 7339 cf65 9239
00000130: e72e 3739 f7af 7039 ca75 333a e4da 753a
00000140: 9865 423a ac2e 513a 4f72 0c3a 3dbe 1a3a
00000150: 866d e237 c856 e137 4f9e 9d37 a242 9d37
00000160: d89d 0238 9cb0 9b37 3fdb 3d38 4377 8738
00000170: 8900 2d38 759b 9738 f91d 2539 7865 5338
00000180: 57c7 4d3a 9a20 8c3a 057e 553a cfcd 7a3a
00000190: 3631 4d3a 3227 3e3a 45de 7b39 53fa b739
000001a0: 0bcf 9439 6b14 bd39 ac0b 9639 ad45 6639
000001b0: f605 ca38 ff5a 9c39 ce66 b538 cc33 cf38
000001c0: e551 1839 ba00 db38 f448 1639 0924 5d39
000001d0: 8a3f 1a39 9e59 3139 10d3 b938 7b4b 0639
000001e0: 4d17 b338 1246 0739 40d4 2339 e43f c338
000001f0: e69b bf38 9df7 0639 780a b638 bd15 5a39
00000200: 1e2a d438 c447 0439 f1cd a738 e5f7 b038
00000210: 89ad 9a39 f1ec 023a 410a 9339 4190 b639
00000220: 2b20 8239 07e2 7d39 24c9 ea39 b0e9 b839
00000230: d150 a239 195c ae39 096a 8e39 bce7 8239
00000240: d59a 1b39 6a73 5839 cd7b 0e39 1221 4b39
00000250: 9bc6 eb38 6a33 1939 c79c b838 34e8 3839
00000260: 5c5b 1639 4868 5c39 f487 0639 8f0c 0339
00000270: 75b4 fa38 ade6 2439 6004 3b39 4dd2 fb38
00000280: f861 0f39 d9f0 2639 de8a 4b39 684f 8d39
00000290: 9d4b 1939 c61f 0f39 c3ee 4638 348e 0939
000002a0: 3601 1e38 9e56 8538 dd34 2a38 caed 1d38
000002b0: 19e0 c037 42b9 0a38 91fc 3839 b877 8039
000002c0: 4bee 2539 96e5 6039 da87 1f39 25e8 4239
000002d0: 4923 bb39 4d82 e439 5b79 a339 3aad b039
000002e0: 7a47 9e39 d3d2 9539 75a5 b539 f225 8539
000002f0: d564 3539 f088 8e39 3f2e 1839 6a2f 2e39
00000300: cda1 e939 da05 223a 35e1 ba39 6caa e139
00000310: 7b47 8339 1faa 123a d2c5 153a a7f3 8e3a
00000320: 37de 1a3a 7812 563a 77d9 163a 071a 083a
00000330: d678 af39 a878 d139 a71b c839 830f f539
00000340: 9a90 bc39 49a2 9e39 332d ba39 fff8 f339
00000350: 213d c039 a36f e439 d4a0 ae39 4b17 a639
00000360: 647d 2439 4ca7 c239 8b36 9739 1867 743a
00000370: a913 8d39 23df 8b39 a0f9 0039 1576 1f39
00000380: 3b12 0839 e9cb fc38 5cde bc38 67fa cb38
00000390: 0d36 9d37 36ab e037 332d 8c37 82d5 b737
000003a0: 532b 9737 a2a6 b937 3314 503a 765f c93a
000003b0: e733 843a 177e 433a 3591 c339 ce20 543a
000003c0: 4e8f 2639 80ff 5239 49be 8c39 5785 3939
000003d0: 959a 2539 ce5d d938 4c63 0739 b56b 7039
000003e0: ba04 0e39 e6b4 5339 91f7 f838 3743 ff38
000003f0: e74c 3039 f420 d439 4af2 3439 2ad6 4c39

exp_avg f4 [64]
3.2341697e-05 0.004078777 0.0019548626 -0.00015084328 0.012204589 0.005887258 0.0052164113 0.00040119482
0.006654738 0.0028298527 -0.002698854 -0.0039805803 -0.0055103498 0.016914284 -0.0005574933 -0.0006334284
-0.0134287365 0.0049152025 0.001467427 0.007273278 0.0011604679 -0.0017768164 0.0023002285 -0.0027928485
-0.004621122 0.0016685183 0.000597305 0.0068635335 -0.00093703624 -0.0036166646 0.00616059 -0.0039589293
-0.005328758 -0.00031897565 0.01218887 0.007946719 -0.003156502 -0.008040893 0.0007660683 -0.009505952
0.001992537 -0.0066549643 0.006532919 0.0069930316 -0.004379182 0.004313227 0.005340124 -0.010527995
0.0061831004 -0.012471644 0.006451884 0.004140283 -0.002032772 -0.0064108074 0.0001596627 -0.0099969655
0.003878242 -0.0020555714 0.008499683 -0.020888772 0.0007484135 0.0038451327 0.00019217141 0.00090535707
00000000: a2a6 0738 43a7 853b 271d 003b af2b 1eb9
00000010: c2f5 473c e6e9 c03b 6eee aa3b 7557 d239
00000020: fd0f da3b 0d75 393b 42df 30bb 876f 82bb
00000030: 2a90 b4bb d38f 8a3c be24 12ba a90c 26ba
00000040: 3404 5cbc b50f a13b ae56 c03a ae54 ee3b
00000050: d71a 983a 11e4 e8ba 6ebf 163b 3908 37bb
00000060: c86c 97bb 2fb2 da3a 7694 1c3a 7ee7 e03b
00000070: 70a3 75ba 9005 6dbb c6de c93b e8b9 81bb
00000080: dd9c aebb 303c a7b9 d4b3 473c f532 023c
00000090: 51dd 4ebb f3bd 03bc f9d1 483a dabe 1bbc
000000a0: 3995 023b e311 dabb 1912 d63b cd25 e53b
000000b0: 3e7f 8fbb f855 8d3b 35fc ae3b 9d7d 2cbc
000000c0: 9b9b ca3b de55 4cbc 536a d33b 36ab 873b
000000d0: 4138 05bb c011 d2bb 216b 2739 50ca 23bc
000000e0: 1b2a 7e3b c4b6 06bb 4142 0b3c ee1e abbc
000000f0: 2e31 443a 9ffe 7b3b 9f81 4939 7c55 6d3a

exp_avg_sq f4 [64]
0.00018642566 0.00026788248 0.00089357694 0.00068571296 0.0012521863 0.00054705946 0.00044267956 0.00024183333
0.00070743077 0.00010445116 0.00012259513 0.0005795925 0.00067459914 0.0021929438 6.893233e-05 0.00033682972
0.0023827667 0.00075572124 0.0006010998 0.00046928067 0.0005403789 0.00028250922 0.0010275088 0.0008771819
0.0004705233 0.00038353784 0.00062993815 0.00042808973 0.00010006563 0.00064439245 0.0008609076 0.00078067026
0.001340295 0.001897272 0.00097606576 0.00106349 0.0013353861 0.00035202914 7.075166e-05 0.002048912
0.00039779075 0.00047488566 0.0011167633 0.00065597944 0.00053119473 0.0003343505 0.0003374534 0.0011557721
0.0007365822 0.0017584141 0.0004051934 0.0013472337 9.09462e-05 0.0002583169 0.00076710386 0.0010866321
0.00037059136 0.00083573745 0.000713474 0.003942028 0.0014443496 0.0002737358 0.0010259547 0.00021921689
00000000: 427b 4339 9472 8c39 ef3e 6a3a 6bc1 333a
00000010: 6620 a43a 8a68 0f3a 7217 e839 a494 7d39
00000020: e072 393a ca0c db38 e18c 0039 cbef 173a
00000030: 95d7 303a 7eb7 0f3b c38f 9038 8598 b039
00000040: 3128 1c3b 981b 463a 2093 1d3a c909 f639
00000050: 37a8 0d3a bf1d 9439 79ad 863a aef2 653a
00000060: 91b0 f639 9415 c939 6f22 253a 3b71 e039
00000070: 53da d138 72ec 283a 88ae 613a e5a5 4c3a
00000080: d6ac af3a e2ad f83a aade 7f3a ce64 8b3a
00000090: 1f08 af3a 8d90 b839 8260 9438 0a47 063b
000000a0: 928e d039 13fa f839 5c60 923a 09f6 2b3a
000000b0: e03f 0b3a c44b af39 3bec b039 477d 973a
000000c0: 3217 413a 967a e63a 2370 d439 a995 b03a
000000d0: 5fba be38 b56e 8739 7817 493a 536d 8e3a
000000e0: ee4b c239 6415 5b3a 6e08 3b3a 212c 813b
000000f0: 5550 bd3a 3284 8f39 5479 863a 96dd 6539

exp_avg f4 [32, 64]
0.0008367853 0.0025505307 0.00034135688 0.0008864484 -0.000105008345 0.0007255304 0.0017774033 0.0024252022
0.001256735 0.00062914164 0.0008164952 0.00026641242 0.00092400383 0.00343644 -0.00025822906 0.0020666104
0.0029993912 0.00047602828 0.00016946632 0.0012902262 0.00031316298 0.0010548562 0.0013582411 0.00023124502
0.001715638 3.2094656e-05 0.0035281852 0.002075157 0.0016072774 0.00028668225 0.003128805 -0.0001241903
0.00051502895 0.00088098 0.00069664326 0.0028041508 0.00023518097 0.0039412617 0.0022956294 0.0004261546
-0.00023871394 0.0016746297 0.0009501887 0.0013659577 0.00075770414 0.00082559296 0.0013893249 0.0022167652
0.0005347527 0.0015032871 0.0028750086 0.0007062333 0.0019160892 0.001073868 0.0008875009 0.003416644
0.00077634444 0.0018128619 0.00013446085 0.0006618383 0.002848587 0.0009814469 0.00082520174 0.0018452262
-6.8287945e-06 -0.00074808416 -0.00013111997 2.6600073e-06 2.753347e-05 -0.00092085433 0.0005797243 0.001328576
0.00065585336 -0.00015618632 0.00041640492 0.00026963433 0.0003684824 0.0012306985 0.00016969179 0.0011856203
-0.00038422432 -0.0005521625 4.6224646e-05 0.0015743957 0.0016218089 0.00015520366 -0.00060144474 -2.8108183e-05
-0.00016186523 -0.00018500103 -0.00033022268 0.00060991064 0.00010668982 -0.00038970308 0.0013715029 4.5129746e-05
0.00018616047 -0.0010028213 0.000557655 0.0008936714 -5.6154062e-05 0.00068818365 -0.00040875774 -0.00018323059
0.00013370236 0.0011018859 -0.00019841472 0.0006947508 -8.9821864e-05 0.0003699012 0.00066518754 0.0010258792
-0.00052269234 0.0011146364 -0.0003593822 -0.00089896837 -0.0012735388 0.00045335141 -0.0004216305 0.0023963882
-0.00026089192 0.0010093015 0.00021966446 0.0011925657 0.0013964575 -0.0010655919 -0.00093942817 0.0011698755
6e-45 6e-45 6e-45 -6e-45 6e-45 6e-45 6e-45 -6e-45
-6e-45 6e-45 6e-45 6e-45 6e-45 6e-45 6e-45 6e-45
6e-45 6e-45 6e-45 6e-45 6e-45 6e-45 -6e-45 6e-45
6e-45 -6e-45 6e-45 6e-45 6e-45 6e-45 6e-45 6e-45
6e-45 6e-45 6e-45 6e-45 6e-45 6e-45 6e-45 6e-45
6e-45 -6e-45 6e-45 6e-45 6e-45 -6e-45 -6e-45 6e-45
6e-45 6e-45 -6e-45 6e-45 6e-45 6e-45 6e-45 6e-45
6e-45 6e-45 6e-45 6e-45 6e-45 6e-45 6e-45 6e-45
5.169135e-06 -0.0011527935 -0.0007539641 -0.00012633353 -0.00272384 -0.0011673921 0.00021803234 -0.0047771325
-0.0012524119 -0.0005140798 1.5655443e-05 -0.00030039242 -9.331436e-05 -0.0051974235 -0.001532228 -0.0033511117
-0.0025506872 -0.00010441371 0.00025525864 -0.00067645265 -0.001655106 -0.00036981056 -0.00074117887 -0.0012641414
-0.00040695706 -0.0031890096 -0.0028538022 -0.000503849 -0.00030004958 -0.0017289781 -0.0036429095 -0.0011948652
-0.0023746057 0.00030822898 -0.002270264 -0.002223465 -6e-45 -0.0035281507 -0.0021352286 -0.00026950275
-0.0003809747 -0.004866224 0.00010690755 -0.0012221412 -0.0002792713 -0.00037144637 -0.0018509319 -0.00065209094
-0.00066346396 -0.0042735925 -0.0038731408 8.926529e-06 -0.00016450771 -0.00012413607 -0.001103496 -0.004103459
1.7344877e-05 -0.002978444 -0.0003005606 -0.0030194726 -0.0037152194 0.00015943058 0.00015519728 -0.0017593575
00000000: b65b 5b3a ce26 273b 25f8 b239 8c60 683a
00000010: ed37 dcb8 8531 3e3a c2f7 e83a 24f0 1e3b
00000020: 07b9 a43a fbec 243a 110a 563a 45ad 8b39
00000030: d938 723a e535 613b eb62 87b9 f86f 073b
00000040: 6f91 443b 6f93 f939 c5b2 3139 cf1c a93a
00000050: 0630 a439 1a43 8a3a 0207 b23a 5d7a 7239
00000060: 42df e03a 609d 0638 2039 673b 5bff 073b
00000070: 48ab d23a d74d 9639 a30c 4d3b 1439 02b9
00000080: 0203 073a 91f1 663a f09e 363a d8c5 373b
00000090: e99a 7639 b325 813b 4572 163b 816d df39
000000a0: 494f 7ab9 407f db3a 1616 793a ef09 b33a
000000b0: aaa0 463a 9b6c 583a 021a b63a 2647 113b
000000c0: a52e 0c3a f209 c53a a46a 3c3b 8422 393a
000000d0: 4925 fb3a 08c1 8c3a 2da7 683a c6e9 5f3b
000000e0: 9883 4b3a 8d9d ed3a 0ffe 0c39 377f 2d3a
000000f0: 5caf 3a3b e5a3 803a 5a52 583a 84db f13a
00000100: e622 e5b6 141b 44ba 407d 09b9 9482 3236
00000110: adf7 e637 7d65 71ba a4f8 173a 9d23 ae3a
00000120: 93ed 2b3a f2c5 23b9 ec50 da39 b55d 8d39
00000130: df30 c139 644f a13a 4bef 3139 d166 9b3a
00000140: b771 c9b9 00bf 10ba 56e1 4138 f45b ce3a
00000150: e092 d43a 2abe 2239 46aa 1dba ddc9 ebb7
00000160: 5eba 29b9 d6fc 41b9 bd21 adb9 69e2 1f3a
00000170: a9be df38 1051 ccb9 00c4 b33a b249 3d38
00000180: 1234 4339 1971 83ba 982f 123a 4645 6a3a
00000190: f786 6bb8 3967 343a 894e d6b9 9621 40b9
000001a0: 7432 0c39 286d 903a 8c0d 50b9 f01f 363a
000001b0: bf5e bcb8 4cef c139 fb5f 2e3a cb76 863a
000001c0: 4a05 09ba fe18 923a 766b bcb9 bfa8 6bba
000001d0: dfec a6ba ccaf ed39 4a0e ddb9 b90c 1d3b
000001e0: 52c8 88b9 8a4a 843a bb55 6639 dd4f 9c3a
000001f0: 5709 b73a 55ab 8bba f543 76ba 8256 993a
00000200: 0400 0000 0400 0000 0400 0000 0400 0080
00000210: 0400 0000 0400 0000 0400 0000 0400 0080
00000220: 0400 0080 0400 0000 0400 0000 0400 0000
00000230: 0400 0000 0400 0000 0400 0000 0400 0000
00000240: 0400 0000 0400 0000 0400 0000 0400 0000
00000250: 0400 0000 0400 0000 0400 0080 0400 0000
00000260: 0400 0000 0400 0080 0400 0000 0400 0000
00000270: 0400 0000 0400 0000 0400 0000 0400 0000
00000280: 0400 0000 0400 0000 0400 0000 0400 0000
00000290: 0400 0000 0400 0000 0400 0000 0400 0000
000002a0: 0400 0000 0400 0080 0400 0000 0400 0000
000002b0: 0400 0000 0400 0080 0400 0080 0400 0000
000002c0: 0400 0000 0400 0000 0400 0080 0400 0000
000002d0: 0400 0000 0400 0000 0400 0000 0400 0000
000002e0: 0400 0000 0400 0000 0400 0000 0400 0000
000002f0: 0400 0000 0400 0000 0400 0000 0400 0000
00000300: 8872 ad36 5519 97ba ada5 45ba 6678 04b9
00000310: 7482 32bb 2e03 99ba 9c9f 6439 7e89 9cbb
00000320: f827 a4ba 50c3 06ba cf53 8337 fd7d 9db9
00000330: c4b1 c3b8 264f aabb 0ad5 c8ba 539e 5bbb
00000340: 6e29 27bb aff8 dab8 3cd4 8539 f853 31ba
00000350: 24f0 d8ba 22e3 c1b9 ac4b 42ba 8cb1 a5ba
00000360: da5c d5b9 b4fe 50bb db06 3bbb bc14 04ba
00000370: f94f 9db9 e19e e2ba e1bd 6ebb 069d 9cba
00000380: 469f 1bbb cb99 a139 b6c8 14bb 8db7 11bb
00000390: 0400 0080 8c38 67bb 31ef 0bbb 0c4c 8db9
000003a0: 8fbd c7b9 d874 9fbb 8e33 e038 4130 a0ba
000003b0: 296b 92b9 b0be c2b9 f89a f2ba 15f1 2aba
000003c0: 50ec 2dba 7e09 8cbb 85d4 7dbb 26c3 1537
000003d0: b47f 2cb9 862a 02b9 2ea3 90ba 4f76 86bb
000003e0: d77f 9137 0032 43bb 9094 9db9 58e2 45bb
000003f0: 0a7b 73bb d22c 2739 74bc 2239 3e9a e6ba

exp_avg_sq f4 [32, 64]
1.0801568e-05 5.1310166e-05 6.687279e-06 1.9576615e-05 0.00010418315 0.00014127925 7.350656e-05 5.153821e-05
2.8122884e-05 3.058571e-05 1.0204085e-05 6.8289214e-06 2.4519972e-05 0.0003062159 6.0005514e-05 0.000109241104
7.016024e-05 2.1290194e-05 9.97563e-06 0.00015270314 0.000106866944 6.173072e-05 0.00011173323 5.3061835e-06
9.8740726e-05 4.3231175e-05 0.00011246884 9.956481e-05 4.372312e-05 9.211121e-05 7.723318e-05 5.507324e-06
6.4877844e-05 0.00013672297 9.1863905e-05 0.00012168947 5.374569e-06 0.00012776956 5.835284e-05 4.7257554e-06
2.6535192e-06 6.89536e-05 8.552326e-05 0.00010202882 7.8265126e-05 3.0504783e-05 3.713539e-05 0.000110834626
1.8157674e-05 9.575505e-05 9.323598e-05 0.00016299926 7.2699775e-05 1.3549577e-05 5.8716832e-05 0.00024214882
2.6798009e-05 0.00016583511 7.747856e-06 9.397483e-05 0.00011450948 5.3036947e-05 4.121017e-05 8.111901e-05
2.9905739e-06 2.3632594e-05 5.2887804e-06 1.44099795e-05 6.645504e-05 9.03224e-05 3.605125e-05 1.6379525e-05
5.001082e-06 1.9825198e-05 5.015867e-06 2.6798168e-06 5.229182e-06 0.0001373845 3.50477e-05 5.1696443e-05
2.8478631e-05 1.4556109e-05 4.866437e-06 7.0753485e-05 4.4370947e-05 2.5033214e-05 5.6260316e-05 3.439174e-06
4.005285e-05 2.8702902e-05 4.8049722e-05 5.0778017e-05 2.0774407e-05 6.334859e-05 2.4576413e-05 3.467291e-06
5.1519066e-05 7.3198615e-05 4.5094876e-05 4.691443e-05 2.1048013e-06 4.328672e-05 3.3800017e-05 3.937962e-06
1.5416739e-06 3.2445012e-05 4.7173617e-05 6.12144e-05 4.8395406e-05 1.9473182e-05 1.5403044e-05 2.7643426e-05
1.2470515e-05 5.4533266e-05 4.301231e-05 9.090257e-05 4.014559e-05 4.96182e-06 3.9627674e-05 8.798537e-05
1.3302736e-05 8.608612e-05 4.445427e-06 4.398888e-05 5.105732e-05 3.097118e-05 2.0328333e-05 3.8235372e-05
2.24166e-19 6.664687e-17 1.7345379e-17 5.738429e-20 2.8802342e-16 9.415976e-16 9.006857e-16 1.06755136e-17
4.009722e-18 1.2748248e-16 3.244302e-17 1.8562216e-20 6.794727e-18 1.2005526e-16 3.152849e-18 6.535771e-19
1.9925749e-17 1.386549e-17 7.863755e-18 3.928554e-16 4.9370827e-17 1.1703858e-15 2.7481878e-16 1.0185318e-17
2.7962233e-16 2.5258982e-18 2.4181765e-17 5.319315e-16 9.783456e-17 2.9455603e-16 4.9540714e-17 2.4063436e-19
3.1288367e-16 1.3889667e-15 8.0658564e-16 8.483019e-16 9.058831e-19 7.640342e-18 6.5925355e-17 1.5669302e-17
2.7760884e-19 2.5621178e-20 2.0710871e-16 2.5240017e-16 9.262443e-18 1.3163548e-18 2.8081574e-18 2.33395e-16
8.530459e-18 9.778094e-18 9.270815e-18 2.5540294e-15 1.8452249e-15 3.2134547e-17 3.5486056e-16 3.596134e-17
1.0616309e-15 6.1797592e-18 3.2036058e-18 6.575626e-19 2.2090838e-16 1.3521204e-15 6.087674e-16 1.5057329e-17
2.7989734e-06 8.4121515e-05 2.5876572e-05 2.0514692e-05 8.75595e-05 2.5171592e-05 1.13958395e-05 0.00024698206
0.00019785024 3.2988073e-06 1.0839599e-06 1.3503801e-06 6.973522e-05 0.000796101 3.5653582e-05 7.9243386e-05
0.00022321369 2.1803515e-05 4.1966223e-06 1.8870065e-05 0.00012652848 0.000103141836 0.0002323244 4.458718e-05
4.6480354e-06 0.0001815383 0.00015373401 6.8642905e-05 1.4645713e-06 0.00013175853 7.9306206e-05 2.4512368e-05
7.826028e-05 5.641138e-06 9.72472e-05 4.444741e-05 1.4852377e-16 0.00052297383 0.00019387467 1.115408e-05
1.4059543e-05 0.0002357172 1.8145568e-06 7.74076e-05 1.1290805e-05 2.7217511e-06 0.00025818238 0.0001668399
1.3844823e-05 0.00025737577 0.00017655088 1.1177505e-05 3.4663183e-06 8.9195504e-07 4.001525e-05 0.00035190172
2.7900937e-08 7.377299e-05 9.985929e-07 0.00018698357 0.00035267594 2.8809811e-06 1.0750134e-06 2.9347355e-05
00000000: 6238 3537 df35 5738 4a63 e036 7638 a437
00000010: e77c da38 5c24 1439 8927 9a38 bb2a 5838
00000020: 6fe9 eb37 2849 0038 3632 2b37 fd23 e536
00000030: 3db0 cd37 9a8b a039 6eae 7b38 5f18 e538
00000040: fe22 9338 5898 b237 015d 2737 f01e 2039
00000050: c11d e038 6e75 8138 5252 ea38 c50b b236
00000060: 0613 cf38 1f53 3538 40dd eb38 73cd d038
00000070: 5863 3738 d42b c138 3ff8 a138 8ecb b836
00000080: 070f 8838 4b5d 0f39 0fa7 c038 8933 ff38
00000090: 3257 b436 e1f9 0539 e3bf 7438 ee91 9e36
000000a0: 1d13 3236 2f9b 9038 f35a b338 4ef8 d538
000000b0: 4522 a438 86e4 ff37 d2c1 1b38 e36f e838
000000c0: 4f51 9837 1ad0 c838 b087 c338 c8ea 2a39
000000d0: 6576 9838 fd52 6337 b846 7638 54e9 7d39
000000e0: 49cc e037 06e4 2d39 cafc 0137 5a14 c538
000000f0: cf24 f038 fd73 5e38 15d9 2c38 701e aa38
00000100: abb1 4836 9c3e c637 4776 b136 64c2 7137
00000110: c75d 8b38 786b bd38 bc35 1738 c366 8937
00000120: f8ce a736 4a4e a637 f84d a836 e7d6 3336
00000130: 5576 af36 df0e 1039 2e00 1338 a2d4 5838
00000140: 65e5 ee37 0336 7437 604a a336 7d61 9438
00000150: f11a 3a38 6bfe d137 0ef9 6b38 8fcc 6636
00000160: 6cfe 2738 03c7 f037 ff88 4938 7bfa 5438
00000170: b344 ae37 04da 8438 7229 ce37 9baf 6836
00000180: 2d16 5838 3582 9938 4124 3d38 fcc5 4438
00000190: 3640 0d36 c38e 3538 7ec4 0d38 d622 8436
000001a0: 83eb ce35 9115 0838 49dc 4538 3b60 8038
000001b0: 2cfc 4a38 575a a337 c935 8137 cee3 e737
000001c0: 7438 5137 a6ba 6438 1e68 3438 f2a2 be38
000001d0: 0062 2838 b67d a636 e435 2638 c984 b838
000001e0: d12e 5f37 2289 b438 ed29 9536 b380 3838
000001f0: 6126 5638 0de7 0138 c386 aa37 eb5e 2038
00000200: 0253 8420 5ead 9924 9efb 9f23 ad7e 871f
00000210: c108 a625 d2b2 8726 70cd 8126 b0ed 4423
00000220: c1ee 9322 30fa 1225 f59d 1524 af50 af1e
00000230: 62ae fa22 0f6a 0a25 a2a3 6822 e4e6 4021
00000240: 58c8 b723 edc5 7f23 880f 1123 3977 e225
00000250: c9ae 6324 9dab a826 186c 9e25 cee2 3b23
00000260: f930 a125 de60 3a22 9409 df23 9e51 1926
00000270: 5597 e124 cccc a925 5a77 6424 a30b 8e20
00000280: 7b5d b425 d42b c826 847b 6826 a281 7426
00000290: 4caf 8521 7ff0 0c23 7603 9824 1886 9023
000002a0: 10df a320 35fc f11e b4c7 6e25 b17f 9125
000002b0: a6dc 2a23 7a42 c221 9834 4f22 068b 8625
000002c0: f45b 1d23 be5f 3423 3004 2b23 8709 3827
000002d0: 64f6 0427 c731 1424 2d90 cc25 a8d7 2524
000002e0: 44ff 9826 2dfe e322 6762 6c22 0614 4221
000002f0: a5b0 7e25 70dc c226 1b77 2f26 1de1 8a23
00000300: ffd5 3b36 656a b038 8411 d937 f716 ac37
00000310: 26a0 b738 9527 d337 c230 3f37 5f7d 8139
00000320: 0576 4f39 1461 5d36 947c 9135 b53e b535
00000330: d03e 9238 6fb1 503a be8a 1538 782f a638
00000340: 780e 6a39 b1e6 b637 b6d0 8c36 284b 9e37
00000350: bbac 0439 da4d d838 1b9c 7339 1f03 3b38
00000360: 52f6 9b36 515b 3e39 a933 2139 61f4 8f38
00000370: 4992 c435 a928 0a39 3251 a638 e99f cd37
00000380: ab1f a438 0249 bd36 31f1 cb38 0b6d 3a38
00000390: 7b3c 2b25 2e18 093a d64a 4b39 6922 3b37
000003a0: 47e1 6b37 db2a 7739 b28b f335 e455 a238
000003b0: a36d 3d37 54a7 3636 a75c 8739 bff1 2e39
000003c0: 1047 6837 64f0 8639 8420 3939 0587 3b37
000003d0: e59e 6836 af6e 6f35 0cd6 2738 737f b839
000003e0: cfaa ef32 93b6 9a38 6407 8635 0511 4439
000003f0: 5de7 b839 e156 4136 2e49 9035 f72e f637

exp_avg f4 [32]
0.0032949003 0.00055591797 6e-45 -0.0035946898 0.002609237 0.0022855 -0.00010601013 -0.004448741
-0.004518477 0.0011740681 -0.00012636631 -0.00024515588 -0.002170513 -6.120006e-05 0.0021230795 -0.00086051633
0.0013756593 -0.0030855697 -0.00866674 -0.013154291 -0.0005721314 -4.273806e-05 3.4018918e-05 -0.0015786645
-0.0037985465 -0.0010870958 -0.00033547927 -0.008112721 3.3174816e-05 -0.001007737 0.0 6e-45
00000000: 41ef 573b 06bb 113a 0400 0000 e394 6bbb
00000010: bcff 2a3b 54c8 153b c151 deb8 bfc6 91bb
00000020: bb0f 94bb 30e3 993a 3381 04b9 4488 80b9
00000030: 2a3f 0ebb 8858 80b8 5d23 0b3b 4694 61ba
00000040: 774f b43a 4537 4abb f1fe 0dbc 1885 57bc
00000050: 17fb 15ba a441 33b8 89af 0e38 31eb ceba
00000060: 09f1 78bb e27c 8eba 44e3 afb9 38eb 04bc
00000070: 3025 0b38 0b16 84ba 0000 0000 0400 0000

exp_avg_sq f4 [32]
0.00033186557 0.00015607402 2.6320795e-15 0.00027699443 0.00010752659 0.00017788161 0.00019752664 0.00024335325
0.00018872443 0.00013241389 0.00023529369 0.00016258037 0.00015413553 0.00017041073 0.00017930212 0.00013026298
0.00023153721 0.00021961889 0.0007109032 0.0016250451 0.00018745844 0.00023254877 0.00015358005 0.00020639725
0.00027088827 0.0001426068 0.000101438985 0.0009291481 8.7798384e-05 0.00012250555 0.0 1.6664457e-19
00000000: 3efe ad39 cda7 2339 4ca9 3d27 9039 9139
00000010: e67f e138 bb85 3a39 271f 4f39 a42c 7f39
00000020: 54e4 4539 95d8 0a39 2bb9 7639 567a 2a39
00000030: 719f 2139 48b0 3239 0c03 3c39 3497 0839
00000040: ccc8 7239 7f49 6639 e85b 3a3a 77ff d43a
00000050: 7e90 4439 56d8 7339 550a 2139 576c 5839
00000060: 0206 8e39 b988 1539 a4bb d438 1392 733a
00000070: 6620 b838 d574 0039 0000 0000 3bbd 4420
